mlpcnnsemi/model/oneinput_batch1_Epoch=94_lr=0.0001.pth (torch, 25249 bytes, 29 tensors)

weight f4 [4, 1, 1]
000000 1b 16 d5 bd 85 43 07 bf 2c 4b 5d 3f 65 3e 1f 3d
       -0.10404607 -0.528374 0.8644283 0.038877863

bias f4 [4]
000000 52 f3 36 bf 66 4f 47 bf 4b 79 26 3f a0 66 58 bf
       -0.7146503 -0.7785553 0.6502883 -0.84531593

weight f4 [4]
000000 11 47 83 3f 79 95 81 3f 8c 30 82 3f dd 65 79 3f
       1.0256063 1.012374 1.0171065 0.97421056

bias f4 [4]
000000 b7 84 e6 3d 94 6d 55 3d e5 9e 1e 3c 1f ab 0d be
       0.11255782 0.052106455 0.009681438 -0.13834809

running_mean f4 [4]
000000 81 75 3f bf db ac 72 bf af 53 6d 3f 48 39 55 bf
       -0.7478867 -0.94795007 0.92705816 -0.8329053

running_var f4 [4]
000000 9c 66 cb 3b c5 c8 23 3e 07 22 db 3e f2 69 62 3a
       0.0062073004 0.15994556 0.42799398 0.0008637003

weight f4 [16, 4, 1]
000000 51 1b 03 be 25 ca 02 3f 3b 83 0f be dc c4 9e bd
       -0.12803389 0.510897 -0.14014904 -0.07752392
000010 f2 a1 4c 3d 7e 55 d2 3c 1f 37 a3 bd 48 f8 91 bd
       0.04995913 0.025675531 -0.07969498 -0.07127434
000020 60 82 53 be f6 a4 bc 3d 2e e9 73 be 0e 95 c3 3e
       -0.20655203 0.09211151 -0.2381942 0.38199657
000030 f7 78 0c 3f 37 5e b0 3e 4e 54 82 be 40 b2 13 3e
       0.5487208 0.3444688 -0.25454944 0.14423466
000040 83 32 02 3c c4 45 c5 be 22 21 4e 3e 68 3e 25 bd
       0.007946613 -0.3852979 0.20129827 -0.04034272
000050 41 9c b1 3e 2e 1b ad 3e 68 53 0d 3e 1d 2b b3 bd
       0.34689525 0.338098 0.13801348 -0.087484576
000060 ee 0e 36 3d e1 17 b1 3c 7d 48 e2 be db 71 6f be
       0.04444783 0.021617832 -0.4419593 -0.23383276
000070 30 33 ad be f7 d2 f1 be 79 20 af 3e 6b 61 c7 3e
       -0.33828115 -0.47231266 0.34204462 0.38941512
000080 22 8a 0c be b4 f5 67 be b8 48 89 3e c3 f8 6f be
       -0.13724568 -0.22652322 0.26813293 -0.23434739
000090 9d 72 d7 3e 7b 6a db 3e d4 eb 8d 3e 6c 34 a9 bc
       0.4207963 0.42854676 0.27718985 -0.02065488
0000a0 4d 24 89 3c 4a e1 c3 3e f6 22 98 3e 8b 64 03 bd
       0.016740942 0.3825782 0.29714173 -0.032078307
0000b0 05 dc fc 3d df 1f 07 3f 4d 29 7a 3e 00 5d b4 3e
       0.12346653 0.52783006 0.24429817 0.35227203
0000c0 dc a6 82 3e 54 ec c0 be 6f d4 87 3e ff ed 8b bd
       0.2551793 -0.37680304 0.2652926 -0.068325035
0000d0 e8 ce 5a 3e 99 2f cc 3e 25 4c 20 be 0d e3 54 3e
       0.21367991 0.39880064 -0.15654047 0.20789738
0000e0 23 51 54 bd 08 4d 3c be 93 32 c3 3d 03 6b 85 3e
       -0.05183519 -0.1838876 0.09531131 0.26058206
0000f0 e6 2b f7 3d 18 9f 22 be fd 60 7b 3d 30 b9 d5 be
       0.1206892 -0.15881002 0.061371792 -0.4174285

bias f4 [16]
000000 de c4 ac 3e c3 d1 1e be 62 1d a7 3e 9c a0 ae be
       0.33743948 -0.15509705 0.32639605 -0.3410691
000010 08 52 b1 3e 06 8d 9d 3e 64 8d 00 3f 05 00 98 3e
       0.34632897 0.30771655 0.50215745 0.29687515
000020 0a 4b bc 3e 29 7b 8b be fb 93 6c 3d a2 f2 ef be
       0.36776 -0.272424 0.057758313 -0.46864802
000030 f3 52 46 3e 52 7a 06 bd 08 b7 25 3e 20 85 a3 be
       0.1936758 -0.032831497 0.16183102 -0.31937504

weight f4 [16]
000000 af d3 8a 3f df 3e 87 3f 90 35 77 3f 17 0d 78 3f
       1.0845851 1.0566062 0.96566105 0.96894974
000010 30 21 82 3f ce 68 83 3f c9 0f 80 3f 9d c2 72 3f
       1.0166378 1.0266359 1.0004817 0.94828206
000020 86 47 81 3f 5d 4d 86 3f 89 1f 92 3f 2e 33 6c 3f
       1.0099952 1.0492359 1.1415874 0.92265594
000030 ab 06 7b 3f bb e9 83 3f d8 d5 73 3f a6 27 82 3f
       0.9805705 1.0305704 0.95248175 1.016835

bias f4 [16]
000000 c1 56 8f 3d 16 34 c0 bc 89 6b c7 bc fd 6b 48 bd
       0.06998969 -0.023462337 -0.024343269 -0.04893111
000010 e6 14 1b bd cf 39 12 be 60 77 a0 ba d4 fd 9b 3c
       -0.037861727 -0.14279865 -0.0012242608 0.019041933
000020 b9 6a 8a 3c e6 35 4d bd 3e 90 e8 3d d9 cb c9 bd
       0.016896592 -0.05010023 0.11355637 -0.09853334
000030 2f 7a 7d 3d 33 79 9b 3d 22 5b a4 bd ed 44 c6 bd
       0.0618841 0.07591476 -0.08025195 -0.09681115

running_mean f4 [16]
000000 8e 11 cb 3e 7b 6f 2c be a6 9d 9a 3e ce 3a 7b bd
       0.3966183 -0.16839401 0.301984 -0.061335377
000010 f5 6e 8b 3e f2 40 11 3f 4f af ae 3e e3 09 56 3e
       0.2723309 0.56739724 0.34118125 0.20902209
000020 27 d3 86 3e 8b aa ce 3d 85 d5 88 3e ef 88 c0 bd
       0.2633297 0.10091122 0.26725402 -0.09401118
000030 56 51 68 3e 65 31 3b 3e bf 6b 31 3e 72 64 d1 be
       0.22687277 0.18280561 0.17326258 -0.40896946

running_var f4 [16]
000000 53 41 6a 3d 6a 59 a4 3c 7f 38 60 3c 7c 53 9c 3d
       0.057191204 0.020062167 0.013685345 0.07633111
000010 27 8d 26 3d 47 f1 82 3c f7 40 bd 3e c5 5f 0c 3f
       0.040661957 0.01598419 0.36963627 0.5483363
000020 71 8e 65 3c 71 e8 37 3d 9a 5a 3d 3d 55 8f 60 3e
       0.014011011 0.044899408 0.046228983 0.21929677
000030 54 45 1c 3d 9b d3 83 3c 20 13 e2 3d 77 40 ae 3d
       0.038152054 0.016092112 0.11038804 0.085083894

weight f4 [8, 16, 2]
000000 6c ba df bd 13 b7 9a bd d9 aa 23 3e a9 0f 10 3d
       -0.10924229 -0.0755445 0.15983142 0.035171185
000010 14 90 05 be 2c db ce 3d 4b 69 0e 3d c1 6e 14 3e
       -0.13043243 0.101003975 0.034768384 0.14495374
000020 8a 21 26 3e 3d 17 cc bd 4a 7a 18 3e 9d 5c c7 bd
       0.16223732 -0.0996537 0.148904 -0.097344615
000030 8a 06 1c bc 3f 92 bb 3d d5 42 cb bd 13 3d 45 be
       -0.009523043 0.091587536 -0.099248566 -0.19261579
000040 1a c5 3f 3e 5e 04 ca 3b 92 6e bd bb 8f fe 0b be
       0.18727532 0.0061650714 -0.0057810033 -0.13671325
000050 3e 15 63 3d 3f 09 eb bd 16 18 22 3e 0f 15 a8 bd
       0.05544018 -0.11476373 0.158295 -0.082071416
000060 bc 23 8a 3d be 51 0e bd eb 12 ef bd ce 9b f7 3c
       0.06745097 -0.034745924 -0.1167353 0.03022566
000070 36 7b 76 3d bd a0 8a bb 75 dc 74 3d 09 c3 31 3e
       0.060176097 -0.0042305873 0.059780557 0.17359556
000080 e4 8b 67 3e 63 71 12 3e 35 fe 19 3e 13 7d 41 3e
       0.22611958 0.14301066 0.15038379 0.18895368
000090 e1 ca 9b bd e8 3e c4 bc 8f 12 01 3d e3 07 0b bb
       -0.076070555 -0.023955777 0.03151184 -0.0021214418
0000a0 cd f0 f6 bd 42 14 09 be c2 f8 f7 3d f2 8e 02 be
       -0.12057648 -0.13386634 0.12107994 -0.12749842
0000b0 88 9f 01 3e 75 11 bf 3d 32 32 0f 3e 9f 6e 0b be
       0.12658513 0.093295015 0.13983992 -0.13616417
0000c0 23 16 fb 3d 37 2f a7 bd be c7 fe bd d5 ac 7a 3c
       0.122600816 -0.081633024 -0.124404415 0.015299995
0000d0 91 54 54 3e ee 1d 10 bb 78 f6 1d bd 06 f6 0f 3d
       0.20735385 -0.0021990496 -0.03856513 0.035146736
0000e0 e4 c7 4b 3e 23 8f 4f bc ed e4 bb bd dd b9 19 be
       0.19900471 -0.012668404 -0.091745235 -0.15012307
0000f0 b5 3f 80 bd 4c 5b db 3c 8a e6 00 3e bf 7b 04 3e
       -0.06262151 0.026776932 0.12587944 0.1293783
000100 25 53 49 be 02 a0 3c 3e b8 39 b4 bd fc 33 34 3c
       -0.19660623 0.18420413 -0.088000715 0.010998722
000110 33 f7 86 3d e3 37 7b bd b1 36 5e bd d8 1a e0 bc
       0.06590118 -0.061332595 -0.054251377 -0.02735655
000120 3f f3 ea 3c de c8 53 bd c9 f1 94 bd 8e 60 5d bd
       0.028680442 -0.051705234 -0.07272679 -0.05404716
000130 2b 7f be bd c1 cf 63 bd dd 5a 93 3d 74 bb 75 3d
       -0.09301599 -0.05561805 0.07195065 0.059993222
000140 d8 70 fb bd 49 67 1b bd f1 dd 9e be 95 ff 62 be
       -0.122773826 -0.037940297 -0.31028703 -0.2216781
000150 22 98 1b be e0 91 83 3d 93 ec e6 3d f9 98 0f be
       -0.15194753 0.06424308 0.11275592 -0.14023198
000160 eb 46 c7 bd 6b 22 2f 3d 5a fa 20 3b a2 91 7e 3d
       -0.097303234 0.042757433 0.0024563284 0.062150605
000170 db d5 2b 3e 51 13 3e 3e 10 50 b2 bd 12 8b be bc
       0.16780798 0.18562056 -0.08706677 -0.023259673
000180 78 71 cc 3d 08 50 a3 3d ca 3e f1 3c 1e 34 51 3e
       0.0998258 0.07974249 0.029448885 0.20430037
000190 04 77 27 3e e8 bb a1 3b d2 2b 58 bd 48 7a 8f bd
       0.16353995 0.0049357302 -0.052776165 -0.07005745
0001a0 86 2b db 3d 7f 91 dd 3d 71 9b 9d bd 49 02 a5 bd
       0.10701661 0.10818767 -0.07695664 -0.080570765
0001b0 59 24 32 3e 65 43 5e bd 57 c2 c5 bd a1 a6 91 bc
       0.17396678 -0.05426349 -0.09656208 -0.01777965
0001c0 62 83 19 be d2 6f 55 bd 1f 5d 71 bd 81 2c d5 ba
       -0.14991525 -0.052108593 -0.058926698 -0.0016263874
0001d0 01 10 d8 bb 82 05 30 3e 23 3b 98 3d 1d 0a 7d bd
       -0.0065937047 0.17189601 0.074331544 -0.061777223
0001e0 3e cf fa bd 27 76 9f bd aa 2f 54 3e 24 a2 3c be
       -0.122465596 -0.07786208 0.20721307 -0.18421227
0001f0 52 1e f3 ba 8a f9 18 3e 09 95 c6 bd a8 6d 97 bd
       -0.0018548465 0.14938942 -0.09696395 -0.07393962
000200 34 df ea 3d 61 d7 01 be d9 6a 96 bb 6d 2b d4 3d
       0.11468354 -0.12679817 -0.004590374 0.10359845
000210 6c 2c 02 be ed 09 3b be b0 6f 8c bd 32 33 4e be
       -0.12712258 -0.18265505 -0.0685724 -0.20136717
000220 e3 63 29 bd 1b 8a b2 3c 48 d1 0b 3d e2 ea d5 bd
       -0.041355025 0.02179437 0.034135133 -0.10445191
000230 5a af 85 ba 88 eb 3b 3d 58 c6 98 3d 69 42 82 3d
       -0.0010199354 0.045878917 0.07459706 0.06360323
000240 50 80 21 be 35 c2 69 bd eb ff be bd e1 00 0a bd
       -0.15771604 -0.057069976 -0.09326156 -0.033692244
000250 f8 a9 25 be 92 cf 1e be 44 04 60 bc db 7d cf 3d
       -0.16178119 -0.1550887 -0.013672892 0.10131427
000260 07 a4 8c bd ee 52 4a bd ed 39 32 3e 7f 6e fc bd
       -0.06867223 -0.049395494 0.1740491 -0.12325763
000270 3a c8 cc 3d 11 d4 ea bd 2f 45 22 3e ff b7 ac 3d
       0.09999128 -0.1146623 0.15846704 0.08433532
000280 b3 2b d2 bd c1 b5 0f 3e 12 59 fc bd d8 d1 d0 3c
       -0.10262241 0.14034177 -0.12321676 0.025490686
000290 a9 6a 30 3d cc 71 9f bd d8 7e 13 3d ec 8b fb bd
       0.04307047 -0.07785377 0.03600964 -0.12282547
0002a0 b4 1b 52 bd ff 84 1b bd dc 57 8f be 20 e0 12 3d
       -0.05129595 -0.03796863 -0.2799672 0.035858274
0002b0 ee e8 2e 3e 4e 0a 3e 3d 84 c4 e7 bc 26 33 20 be
       0.17081043 0.046396546 -0.028291948 -0.15644512
0002c0 0d b0 a6 3c a8 5c bb bd c1 56 17 be bb 99 aa 3d
       0.02034762 -0.09148532 -0.14779188 0.08330103
0002d0 f5 57 62 be fb ec 8c 3d e1 78 4a be 71 bb bf 3b
       -0.22103865 0.06881138 -0.19772674 0.005851202
0002e0 38 ef 6a 3d f7 57 f3 3a 49 6b 31 3d 36 db 4a 3e
       0.057357043 0.0018565644 0.043315206 0.19810185
0002f0 8d c6 76 bd 13 76 b7 3d ab d9 3d 3e 01 36 1f 3d
       -0.060247947 0.08958068 0.18540065 0.03886986
000300 7a 93 70 be ee 92 b8 bd f5 c3 29 be 0f 1d a9 bb
       -0.23493758 -0.090123996 -0.16578658 -0.0051609348
000310 c6 55 ba 3c 4d ff da 3d 66 b2 0e be 08 29 73 bc
       0.022745978 0.10693226 -0.13935241 -0.014841326
000320 f7 a4 01 3e 00 82 e8 3d b0 c4 8b bd a5 10 ef bd
       0.12660585 0.113529205 -0.068246245 -0.116730966
000330 e3 0b 47 3e 17 d8 9c bd dc 56 52 3d a5 f7 9d bb
       0.19438128 -0.07658403 0.051352367 -0.0048207813
000340 c7 3c 5a 3d 71 4b 43 bd 56 b9 0a 3e 9d 93 32 be
       0.053280618 -0.04767937 0.13547263 -0.17439122
000350 7d a9 0c 3e c9 ae 94 3c f4 97 67 3d b0 fb c8 bc
       0.1373653 0.01814975 0.0565414 -0.024534076
000360 59 c2 33 be 80 24 4d bd e9 f5 37 be de 73 4e 3d
       -0.17554606 -0.050083637 -0.17964901 0.05040347
000370 86 27 c6 3d 0f 64 f2 bd 94 32 85 3e a4 4f c9 bd
       0.09675507 -0.11835491 0.2601515 -0.09829643
000380 cf f5 b8 3c 14 56 fe 3d 37 f8 1d bc 16 e6 17 3e
       0.022578148 0.12418762 -0.009641699 0.14833865
000390 cb a3 84 bd 00 76 21 be 7f b6 06 3c fb 57 17 be
       -0.064765535 -0.1576767 0.008222221 -0.14779656
0003a0 3b 3b 00 be 69 50 42 be 48 34 22 be f5 14 ab bd
       -0.12522595 -0.18975987 -0.15840256 -0.083536066
0003b0 9d 2e b2 3c db 0b 37 bc 8b 06 1d 3d 2f e2 f9 3c
       0.021750743 -0.01117226 0.038336318 0.03050336
0003c0 60 35 e0 3d ab 0c ff 3c e4 33 17 be 4b 43 aa bc
       0.109476805 0.03113397 -0.14765888 -0.02078404
0003d0 25 b9 53 be 4c 16 f1 bd 6a c9 7d 3e 0e 25 20 3e
       -0.20676096 -0.11771831 0.24783865 0.15639135
0003e0 12 21 ea bc 96 c1 82 3d 17 40 37 3e 0a ed ba bc
       -0.028580222 0.0638458 0.17895542 -0.022818107
0003f0 1d c2 a6 bd 2e c9 be bc ea b8 a2 be 15 7e 9e 3c
       -0.08142493 -0.02328929 -0.31781703 0.01934723

bias f4 [8]
000000 b0 0b 34 bc 34 4e 02 be 04 51 aa bd e6 d3 cb 3d
       -0.010989115 -0.12725145 -0.08316234 0.09952526
000010 4d 36 ba bd f3 7a fc bd 9c 1c c0 bd ef e1 52 3d
       -0.09092388 -0.12328138 -0.09380457 0.051485

weight f4 [8]
000000 13 c0 87 3f c1 bd 86 3f a5 61 6c 3f eb aa 5d 3f
       1.0605491 1.0526658 0.92336494 0.86588925
000010 be 4e 7d 3f 9e 7b 9d 3f cd e3 86 3f c5 ac 89 3f
       0.98948276 1.230335 1.0538269 1.075585

bias f4 [8]
000000 ae 2c 0b bd f2 b3 cc bd f9 7f 98 3d 60 bb 99 3d
       -0.033978157 -0.09995259 0.07446284 0.07506442
000010 ee 3c 45 bd 8e 8a f2 3d e1 91 e6 3b f2 c5 83 bd
       -0.04815381 0.118428335 0.007036433 -0.064342394

running_mean f4 [8]
000000 c6 fd 98 3d 0d 5f 94 3d d9 89 ab be ea a3 11 3e
       0.074702784 0.07244692 -0.33503607 0.14222685
000010 5c a7 c6 be 31 bc 6e be 82 b8 96 be d7 5c df bd
       -0.3879956 -0.23313977 -0.29437643 -0.1090638

running_var f4 [8]
000000 d4 62 20 3e 01 5b 7d 3d 0a d7 c2 3d e5 cf 60 3d
       0.156627 0.061854366 0.09513672 0.054885764
000010 73 84 00 3f cc 70 ec 3e 4f e7 71 3e f6 ce 6d 3e
       0.502021 0.46179807 0.23623393 0.2322348

weight f4 [4, 8, 2]
000000 bf 68 2c 3e c9 a8 34 be 78 85 f8 bd 5f 49 98 bc
       0.16836832 -0.17642511 -0.12134832 -0.018589674
000010 f9 7c 28 3e b0 76 b4 bd 4a b7 90 3d da e2 77 bc
       0.16453923 -0.088117 0.070662096 -0.015129769
000020 39 0b 8e 3e 39 a3 14 3e 4a 40 8e 3d 31 a3 3d be
       0.27742937 0.1451539 0.06945856 -0.18519284
000030 37 bc 0e be 02 99 0a 3e 0e 99 fa 3d c7 0a dd 3d
       -0.13938986 0.1353493 0.12236224 0.10793071
000040 d4 e2 57 be 26 ab 5c 3e 2a f3 fb 3d bd 09 57 be
       -0.21082622 0.21549663 0.12302239 -0.20999809
000050 6f 7b 8e 3b a8 34 0d 3e f3 9c 95 3d 25 3b 1b 3e
       0.0043482105 0.13789618 0.07305326 0.1515928
000060 a6 92 e2 3c 81 21 af 3c 07 29 49 be f8 d8 0d 3e
       0.027657818 0.02137828 -0.19644557 0.13852298
000070 72 29 f6 3d 3e 52 5d bc ee b7 4b 3e af ac 36 bd
       0.12019624 -0.013508378 0.19894382 -0.044598278
000080 4b 4a 73 bd 27 d1 d0 bc a7 3d 1d bd 3b 8c 90 bc
       -0.059397023 -0.025490357 -0.038388874 -0.017644992
000090 c6 fc 6e bd 76 52 35 3e d3 7d 4e 3d 7f c6 60 bd
       -0.058346532 0.17707238 0.050412964 -0.0548768
0000a0 57 76 aa 3d e1 f2 4f 3e 4c 0f 72 3e a5 20 3f 3c
       0.08323353 0.20307495 0.23638648 0.011665498
0000b0 0f 15 e9 bd e9 66 76 3e c4 83 a1 3e 82 55 74 be
       -0.1138097 0.24062695 0.31545842 -0.23860744
0000c0 86 81 54 3e e5 af 8f 3d 78 8b be bd fe a8 ca 3d
       0.20752534 0.07015971 -0.09303945 0.09895514
0000d0 8e 68 07 3c 7d 94 a0 bd 7e 7f 8c 3d f3 b5 8e be
       0.008264674 -0.07840822 0.06860255 -0.2787319
0000e0 fb 9a e2 bd fa 78 78 bd e4 65 db bd 1e d8 ba bd
       -0.110647164 -0.060662247 -0.107127935 -0.09123252
0000f0 de 91 7d be 21 33 a5 be 34 d6 a9 3d 90 77 9c 3d
       -0.24762675 -0.3226557 0.08292809 0.07639992

bias f4 [4]
000000 6e 3e 93 be 57 97 3d 3c 70 c3 a1 bc d8 5c 5a be
       -0.28758568 0.011571727 -0.019746512 -0.2132448

weight f4 [4]
000000 54 6f 5e 3f b8 08 86 3f 58 80 95 3f 5c 62 88 3f
       0.86888623 1.0471411 1.1679792 1.0655017

bias f4 [4]
000000 92 72 07 bd 01 99 4e 3c f6 37 2a be 50 b2 d2 3c
       -0.033068247 0.012609721 -0.1662291 0.025719792

running_mean f4 [4]
000000 0c 52 57 be 88 91 17 3e cc 4e 40 3e 51 49 02 bf
       -0.21027392 0.1480161 0.18780059 -0.5089312

running_var f4 [4]
000000 14 c4 bc 3c c9 07 31 3d 7b 97 60 3d 43 7d 44 3e
       0.023042716 0.043220315 0.054831963 0.19188409

weight f4 [1, 4, 2]
000000 f6 54 40 3e e8 3d 43 3e 1f 17 8d bd b2 c7 9c 3e
       0.1878241 0.19066584 -0.068891756 0.30621105
000010 13 2d 17 be fb ae 3a be a5 1d 9f be e4 c2 0d 3e
       -0.14763288 -0.18230812 -0.31077304 0.13843876

weight f4 [16, 80]
000000 0f 2f ed bd 0e 0d d5 3c b9 d7 7b 3c 4f aa ed 3c
       -0.11581241 0.026007202 0.0153712565 0.029011874
000010 c2 e6 82 3e a2 58 ab bd c1 97 94 bd a8 a5 97 3d
       0.2556668 -0.08366515 -0.07255507 0.07404643
000020 0d 70 84 3d 40 d8 31 3d 7a f4 b3 3d e4 3b 45 3e
       0.064666845 0.043419123 0.087868646 0.19261128
000030 39 b9 75 be dd 37 1b 3e 23 fd 1f bd 63 dc d5 bc
       -0.23996438 0.15158029 -0.03905977 -0.026106065
000040 bb 68 07 be 35 90 dd bd 45 03 8e bb a3 a4 a8 be
       -0.13223545 -0.10818521 -0.004333886 -0.32938108
000050 87 d5 40 be 71 15 d3 3b 7c 31 28 bd 27 77 0f bc
       -0.18831454 0.006441765 -0.041062817 -0.0087564355
000060 cf 6a f1 3d 9e 94 3a be ca 53 21 3e 68 45 4c 3e
       0.1178795 -0.18220755 0.15754619 0.19948351
000070 2b a3 41 3d 50 6c cd bb 74 f8 54 be a0 1c 9d bd
       0.04727475 -0.0062690154 -0.20797902 -0.076714754
000080 b2 4f 98 bd 45 57 be bd b6 77 a2 3d cf e7 cf 3c
       -0.07437076 -0.09293989 0.07932989 0.02537909
000090 06 fc a8 bc f7 d2 c0 bd 75 14 85 bc 09 2d 8d bd
       -0.020627987 -0.09415238 -0.016245106 -0.068933554
0000a0 ba 1a 0e 3e a2 ce c0 3d f6 05 80 bc 7b 1d 8d 3c
       0.13877383 0.09414412 -0.015627842 0.017225971
0000b0 5c 74 94 bb 59 b0 e8 bd 80 3f 3d bc 29 2b fb 3b
       -0.0045304727 -0.11361761 -0.011550784 0.007665057
0000c0 15 72 c8 bd 1f 70 0d 3e 59 cd 20 bc fd ba 3a bd
       -0.097873844 0.13812302 -0.009814584 -0.045588482
0000d0 2e 80 46 3d 31 fb ae 3d c8 8f 2a bd 1a 01 60 bd
       0.048462085 0.08544005 -0.041641027 -0.05468855
0000e0 58 2d 1e be ae 31 cc 3d b8 c4 fb 3c 71 d0 17 bd
       -0.15446985 0.09970413 0.030733451 -0.03706402
0000f0 12 0b 1f 3d b2 be 4c 3b ac cd 00 3d f7 9a ed bb
       0.038828917 0.0031241593 0.031446144 -0.0072511393
000100 6b 97 c3 bb f7 f5 9c bc 76 ea d7 3d aa c0 29 bd
       -0.005968978 -0.019160254 0.10542767 -0.041443504
000110 f9 78 89 bc 4f 5e 95 bd 97 51 4d bc 64 0f cd 3d
       -0.016781317 -0.072933786 -0.01253166 0.10012701
000120 66 cd 48 3d 28 3c b4 bc 80 73 04 be 59 92 42 3d
       0.04902401 -0.022001341 -0.12934685 0.04750285
000130 31 17 6e bd 90 ec eb 3d 8a 3e b7 3b 06 42 a8 3c
       -0.058127586 0.1151973 0.005592172 0.020539295
000140 73 13 20 3e 6c 75 7e 3c d9 bb 57 bd fe 4f 8d 3d
       0.1563242 0.015530925 -0.05266938 0.06900023
000150 a6 45 b7 bd 9c 2f 01 3e e0 90 6a 3e 8c f2 64 bc
       -0.08948831 0.12615818 0.22906828 -0.013973843
000160 8d 6d 19 bd e9 d9 e9 3d 9d a4 89 3d 0f 78 94 bd
       -0.03745799 0.11418516 0.067208506 -0.07249462
000170 25 2f 0c 3e 7d a0 6b bd 87 1a 18 be 5b d7 c0 bd
       0.13689859 -0.0575261 -0.1485387 -0.09416076
000180 51 7b ee 3d c3 84 a7 bd b0 69 dd bd 47 95 9d 3e
       0.116446145 -0.08179619 -0.10811174 0.30777952
000190 8f 8c 78 3e c5 b7 41 3d f8 4e 75 3d c9 66 70 3d
       0.24272369 0.047294397 0.059889764 0.058691774
0001a0 cd 0c ee bd 5a 73 90 3d c7 8f 0b be e1 26 2a be
       -0.11623535 0.070532516 -0.13629065 -0.16616394
0001b0 b3 04 b6 bd e5 45 07 bd 13 8f 82 3e ce 3f 11 3d
       -0.08887615 -0.03302564 0.25499782 0.03546124
0001c0 fa 0d 88 3b 2a 78 b0 3c 06 67 03 be da 14 b8 bd
       0.0041520568 0.021541674 -0.12832269 -0.08988352
0001d0 64 92 71 3d 24 17 81 3d 01 68 15 bd bb a9 a2 3b
       0.0589775 0.06303242 -0.03647614 0.004964081
0001e0 fa 92 24 3d e3 39 87 bd f9 09 85 3d 50 73 10 3e
       0.04017923 -0.06602838 0.06496043 0.14106488
0001f0 fe af ab 3d ad ef 7c 3d 68 30 3a 3d ff 8e 8c bd
       0.08383177 0.06175201 0.04545632 -0.06863212
000200 25 06 ca 3c 9a 51 33 be 1f 6e a8 3d 1f 3e 08 3d
       0.024661133 -0.17511597 0.08224129 0.03326237
000210 0e 0b c3 3d 00 42 fd bd 7f 9d 81 bd 4d eb ac 3c
       0.09523593 -0.12366104 -0.06328868 0.021108294
000220 bc 0e 93 3c d6 65 a4 bd 01 9d 13 be 23 8b 5a bd
       0.017951362 -0.08027236 -0.14415361 -0.053355347
000230 b1 fd b7 3d e8 f5 31 3b cc bc b2 3d 76 ef 09 be
       0.08983935 0.0027154628 0.087274164 -0.13470253
000240 35 17 77 bd b1 9a 07 3e dd 1e 32 bc d7 8e 0e be
       -0.060324866 0.13242604 -0.010871616 -0.13921677
000250 c6 7c 34 bc 69 94 8a bd 89 dc 78 bb 44 e8 c1 bc
       -0.011016076 -0.06766588 -0.0037973246 -0.023670323
000260 bd f8 49 3d 7e 13 de 3d ff a1 49 bd b5 35 62 bd
       0.04930948 0.108435616 -0.049226757 -0.055227
000270 af 50 61 3d ce 21 de bd f9 07 c8 ba b7 02 a8 3d
       0.055008586 -0.108462915 -0.0015261165 0.08203643
000280 a5 8b 95 bd d0 3d f0 3d 58 4b 86 3d b6 2b 1b 3d
       -0.07302026 0.1173054 0.065573394 0.037883483
000290 72 dd 00 3e b3 ad 53 3c 93 25 60 be 43 ab 0b bd
       0.12584475 0.012919831 -0.21889333 -0.034098875
0002a0 e7 d7 aa 3d a3 bf 81 bc fb 04 2a 3d f5 d8 da 3d
       0.08341961 -0.01583845 0.041508656 0.106859125
0002b0 fa 1b 61 be 42 c8 7f 3e 09 68 1b bd eb ac ee 3c
       -0.21983328 0.24978736 -0.037941013 0.029135188
0002c0 b0 40 29 3c 46 2e b6 bd 62 70 a3 3c f5 8f 0b be
       0.010330364 -0.08895545 0.01995105 -0.13629134
0002d0 d4 1d b1 bd f4 d2 09 3d 67 c2 2f be 77 63 1b be
       -0.086482674 0.033648446 -0.17164002 -0.15174662
0002e0 5c da 9a 3d 59 31 e1 bd 70 92 d9 3d b0 fe c2 3d
       0.0756118 -0.109957404 0.10623634 0.09521234
0002f0 a7 f7 e7 3d 82 6e 03 be c0 df 86 be 6a 1e 51 3c
       0.11326533 -0.12835124 -0.26342583 0.012763599
000300 23 48 ab bd 0f 58 86 bd 8d 4f e5 3d a7 b9 83 3d
       -0.08363368 -0.065597646 0.11196814 0.06431895
000310 88 50 47 be 06 72 9d bb 5e 83 82 3d 63 26 16 bd
       -0.19464314 -0.0048048524 0.063727126 -0.036657702
000320 19 67 dd 3c fb 65 f5 3d 78 70 8f bd 04 5d df bd
       0.0270267 0.11982342 -0.070038736 -0.10906413
000330 17 a3 dd 3d df 74 1e 3d 8a bc a8 bc ea da 24 bd
       0.108221225 0.038685676 -0.020597715 -0.040247835
000340 12 f4 78 3d c1 8c b4 3d 7f fa 46 3d 40 a0 e4 bd
       0.06077964 0.08815909 0.048578735 -0.11163378
000350 13 3e 3b bd f5 52 31 3d f2 93 49 3d df b7 57 bd
       -0.045713495 0.043292005 0.049213357 -0.052665588
000360 d5 ce 3e bd 66 e2 0e 3d 87 a7 de 3c a6 45 0f be
       -0.04658397 0.03488388 0.027179493 -0.13991413
000370 13 b4 52 bd 5f 8b 93 bb ad 74 93 3d a2 2e cf 3d
       -0.051441263 -0.0045026983 0.071999885 0.101163164
000380 f4 7f 3b 3d e6 41 7a bb 66 b1 45 bd 48 12 83 bd
       0.045776322 -0.0038186251 -0.048264883 -0.06399971
000390 9f e3 e8 3d a0 85 dd bc a4 98 66 3d 1f 75 8f 3d
       0.1137154 -0.027041256 0.056297913 0.07004761
0003a0 bc eb 68 3d 63 43 7e 3c 5e 33 02 3d 40 9c e3 3c
       0.05686544 0.015518996 0.03178727 0.027784467
0003b0 7a 44 2b bd a8 37 11 3e 63 88 1a be 5f 7f ad 3c
       -0.04181335 0.14181387 -0.1509109 0.0211789
0003c0 d4 b4 0a be 44 0a 23 3e bf 90 99 3d 65 99 f7 ba
       -0.13545543 0.15921885 0.07498311 -0.001889032
0003d0 b7 87 cb 3d 8f 5d 18 be 57 3c 8d bd 71 17 22 bd
       0.09937995 -0.1487944 -0.068962745 -0.039573137
0003e0 67 c3 58 3e ee 2b 9a bb 71 e3 5c bd 08 65 17 3e
       0.2116829 -0.004704944 -0.053927843 0.14784634
0003f0 27 c5 24 be f5 0f ac 3d 79 70 25 3e 6f a5 99 bc
       -0.16090833 0.08401481 0.16156186 -0.018755643

bias f4 [16]
000000 8b b3 24 bd 01 66 01 3e 92 a9 11 3c d4 c4 74 bd
       -0.040210288 0.12636568 0.008890526 -0.059758022
000010 4d 98 a0 bd 47 c0 df 3d 9a 49 28 be 99 e5 b3 3c
       -0.07841549 0.10925346 -0.16434327 0.021960067
000020 7b 9c 03 be 7f 9c 1a be fb 6d 8d bc b9 1e 1f bd
       -0.12852661 -0.15098761 -0.017264357 -0.03884766
000030 2c 24 96 bd c6 17 12 3e 23 62 27 bd a8 5e 25 3e
       -0.07331118 0.14266881 -0.040865075 0.1614939

weight f4 [2, 16]
000000 f2 94 5d 3c 26 86 cc bc 3e 25 2f 3e fe 83 7d 3e
       0.013524281 -0.02496631 0.1710405 0.24757382
000010 a0 fc e2 3d d6 34 49 be 6b 25 74 3e cb 9b 98 3e
       0.11083341 -0.19649062 0.23842399 0.2980636
000020 eb 37 ac 3d 91 2d c2 3e f5 a4 9b be ea 48 85 be
       0.08409103 0.3792539 -0.3039929 -0.26032192
000030 ff 3a 0c 3e 30 da 7f be 08 49 88 be 23 fd a3 be
       0.1369438 -0.24985576 -0.26618218 -0.32029065
000040 7f 83 6c be e5 ca b6 3e 2a 28 1a be bd ea 90 bd
       -0.23097037 0.3570167 -0.15054384 -0.07076023
000050 77 26 ab be 64 b4 ed 3d 68 31 1e bd ea ae 85 be
       -0.33427784 0.116066724 -0.038621336 -0.2611001
000060 a8 d5 d8 be 9f 67 a4 be 4f 51 83 3d 70 50 55 3e
       -0.42350507 -0.32110307 0.06411993 0.20831466
000070 7a f5 e1 bd 17 68 0e bd e8 74 c7 3d 1a 44 99 3d
       -0.11033149 -0.034767237 0.09739095 0.074836925

bias f4 [2]
000000 4a e3 57 3d 7d 87 01 3e
       0.052706994 0.12649341
