mlpcnnsemi/model/oneinput_Epoch=10_lr=0.0001.pth (torch, 25249 bytes, 29 tensors)

weight f4 [4, 1, 1]
0	0x3f212ff4	0.62963796
1	0xbf499dd0	-0.7875643
2	0x3ee92e3b	0.45543084
3	0xbf3e0080	-0.7421951

bias f4 [4]
0	0xbf3ad776	-0.7298502
1	0x3e8e5441	0.27798656
2	0x3eb45946	0.3522436
3	0x3d3d5d90	0.046231806

weight f4 [4]
0	0x3f800c32	1.0003722
1	0x3f790ed5	0.97288257
2	0x3f7f0eab	0.99631757
3	0x3f833767	1.0251282

bias f4 [4]
0	0xbcd9a43a	-0.026567567
1	0x3ac2aab2	0.0014851897
2	0x3d020f1d	0.031752694
3	0x3cc95089	0.024574535

running_mean f4 [4]
0	0xbf0ab89e	-0.54187953
1	0x3d2f865b	0.04285274
2	0x3ef9e405	0.48806778
3	0xbe3398cb	-0.17538755

running_var f4 [4]
0	0x3e6300e2	0.22168306
1	0x3eb190a6	0.3468067
2	0x3deda08a	0.11602886
3	0x3e9dbc12	0.3080755

weight f4 [16, 4, 1]
0	0xbe5d95ef	-0.21639226
1	0xbc171403	-0.00922108
2	0x3e94c0f7	0.2905347
3	0x3e0d9953	0.1382802
4	0xbe7f3f0b	-0.24926393
5	0x3c914cf7	0.017736895
6	0xbedb0e8d	-0.4278454
7	0xbe660bbe	-0.22465417
8	0x3e2472b3	0.1605938
9	0x3ef272d4	0.47353232
10	0xbd619f51	-0.055083577
11	0x3ef28e8b	0.47374377
12	0xbeb9df53	-0.36303195
13	0x3ea0373c	0.3129214
14	0x3e671731	0.2256744
15	0x3df8a339	0.12140507
16	0xbe075130	-0.13214564
17	0x3eb70bd3	0.3575121
18	0x3d3b741e	0.045765035
19	0x3e18734f	0.14887737
20	0xbea11fdb	-0.31469616
21	0xbe4bef59	-0.19915523
22	0xbed0ee33	-0.40806732
23	0xbe41bc99	-0.189196
24	0xbec34be5	-0.3814384
25	0xbe311932	-0.17294767
26	0x3ef84f4c	0.48498
27	0xbde09ff7	-0.10968011
28	0x3ec133d6	0.3773486
29	0x3d8164ac	0.0631803
30	0x3f040df1	0.5158377
31	0x3d3f5727	0.046713974
32	0xbef960ef	-0.48706767
33	0xbebd356b	-0.36954817
34	0x3e652fb9	0.22381486
35	0x3ddc5994	0.10759273
36	0x3c90dec0	0.01768434
37	0x3efd3820	0.49456882
38	0x3eb8385c	0.359805
39	0x3e61b570	0.22041869
40	0xbea27e82	-0.31737143
41	0xbee49716	-0.4464652
42	0x3e34fd73	0.17674808
43	0xbe88e78c	-0.26739156
44	0x3ead63ed	0.338653
45	0x3eb108e4	0.34577096
46	0x3b3f675d	0.0029205896
47	0xbedbcfee	-0.42932075
48	0x3be19c4e	0.006885088
49	0x3e818f85	0.2530481
50	0x3cab167d	0.020884747
51	0xbed4babc	-0.41548717
52	0xbd6b164c	-0.05739431
53	0x3e847e6d	0.25877705
54	0xbecc178d	-0.39861718
55	0xbec736ed	-0.38909093
56	0x3e2af9eb	0.16696899
57	0xbe6e7dd8	-0.23290193
58	0x3de7bf8f	0.11315834
59	0x3eef4ff8	0.467407
60	0x3d32ad72	0.04362244
61	0xbe59f3f3	-0.21284465
62	0xbeec786b	-0.46185622
63	0xbec8d5f5	-0.39225736

bias f4 [16]
0	0x3eeb62e3	0.45973882
1	0xbe9cf578	-0.30656028
2	0xbe7eb5f9	-0.24874105
3	0x3ed32821	0.41241553
4	0x3e9820ae	0.29712433
5	0x3ca008d4	0.01953546
6	0x3d87c9fa	0.06630321
7	0x3e18e1a3	0.14929824
8	0xbeb31f7d	-0.3498496
9	0xbdcbb4c9	-0.099465914
10	0xbe2e777d	-0.17037769
11	0x3e071680	0.13192177
12	0x3e878ff8	0.26477027
13	0xbe9dcf60	-0.30822277
14	0xbb9d2a51	-0.0047963043
15	0xbe446b27	-0.191815

weight f4 [16]
0	0x3f7d49fc	0.98941016
1	0x3f823e87	1.0175332
2	0x3f86ecbd	1.0540997
3	0x3f74c243	0.9560892
4	0x3f7b22a8	0.98099756
5	0x3f76b495	0.96369296
6	0x3f80e444	1.0069661
7	0x3f7c1303	0.9846651
8	0x3f830dd1	1.0238591
9	0x3f7fa28c	0.998574
10	0x3f8200ea	1.0156529
11	0x3f804090	1.0019703
12	0x3f7f8f89	0.9982839
13	0x3f83464b	1.0255827
14	0x3f7e033e	0.992237
15	0x3f82c055	1.0214945

bias f4 [16]
0	0xbd278edc	-0.040907726
1	0x3c96874a	0.018375058
2	0x3c8c07e6	0.01709361
3	0xbd5362ff	-0.051608082
4	0xba4944c4	-0.00076777884
5	0xbc1b2b0b	-0.009470711
6	0xbc9bb054	-0.019004978
7	0x3ca365c0	0.01994598
8	0xbc33df1a	-0.0109784845
9	0x3d486880	0.048927784
10	0x3ce7c416	0.028291743
11	0xbb57e923	-0.0032945357
12	0x3cf00155	0.02929751
13	0x3d2096ea	0.039206423
14	0x3c9adbd6	0.018903654
15	0x3d1b3883	0.03789569

running_mean f4 [16]
0	0x3f06172a	0.52379096
1	0xbf0fb63d	-0.5613745
2	0x3d5b8516	0.053593718
3	0x3f002d83	0.50069445
4	0x3ed5c67e	0.41753
5	0xbe979dd9	-0.29612616
6	0x3ca82a75	0.020528058
7	0x3edd57cf	0.43231055
8	0xbef95300	-0.48696136
9	0x3e5879a7	0.21140157
10	0xbed221cc	-0.4104141
11	0x3e415d73	0.18883304
12	0x3e5c4890	0.21512055
13	0xbef93b80	-0.48678207
14	0x3e1c3de3	0.15257983
15	0xbefb5199	-0.49085692

running_var f4 [16]
0	0x3b659cba	0.0035036043
1	0x3eb30a7a	0.3496893
2	0x3cbad38c	0.022805952
3	0x3cedfaca	0.02905025
4	0x3ca93ba3	0.02065832
5	0x3ec44f03	0.3834153
6	0x3c92af76	0.017905932
7	0x3f21d4f7	0.63215584
8	0x3d40a90e	0.047036223
9	0x3db5fc30	0.088859916
10	0x3c8af1e1	0.01696104
11	0x3dceb84a	0.10093744
12	0x3b39566e	0.0028280276
13	0x3e21e007	0.15808116
14	0x3d5abc6f	0.05340236
15	0x3de73715	0.11289803

weight f4 [8, 16, 2]
0	0xbe28cad2	-0.1648362
1	0x3bf0b4b0	0.0073457584
2	0xbe218932	-0.15774992
3	0xbdbce936	-0.09224169
4	0xbd42f21a	-0.047594167
5	0x3df6fa1e	0.12059425
6	0xbdb47ac3	-0.088124774
7	0x3dfe4984	0.12416366
8	0xbe228392	-0.15870503
9	0x3d7ce637	0.061742987
10	0xbe319769	-0.17342915
11	0xbdadcc41	-0.08486224
12	0x3d641cd8	0.05569157
13	0x3e1442fe	0.1447868
14	0xbdd1219c	-0.102114886
15	0xbe1946dd	-0.14968438
16	0xbdb4d7ce	-0.08830224
17	0x3e06fbd3	0.13182001
18	0x3b827032	0.00398066
19	0xbba90e9e	-0.005159213
20	0x3e26ff64	0.16308361
21	0xbd4e35e3	-0.05034436
22	0x3e2ac790	0.1667769
23	0xbde1b714	-0.110212475
24	0x3d1e0f35	0.03858872
25	0x3e1253e9	0.14289822
26	0x3d65e7ba	0.056129195
27	0xbc8d0952	-0.017216358
28	0x3e1e5982	0.15463832
29	0xbcc73ead	-0.024321878
30	0x3ddc2c95	0.10750691
31	0xbd4bccfa	-0.049756028
32	0x3d6e03a3	0.058108937
33	0x3d815821	0.063156374
34	0x3e4cb501	0.19990923
35	0x3d89fe11	0.067379124
36	0xbe1b3e5d	-0.15160508
37	0xbd318897	-0.043343153
38	0xbd3329e2	-0.043741114
39	0x3e0f867d	0.14016147
40	0x3d98547c	0.07437989
41	0x3dcf6b84	0.10127929
42	0x3b49b89f	0.0030780209
43	0x3d30280b	0.043006938
44	0x3d414dc4	0.047193304
45	0x3e2a79be	0.16648003
46	0x3de3936c	0.11112103
47	0x3d3a0300	0.045413017
48	0x3e257d7b	0.16161148
49	0xbc0117e0	-0.007879227
50	0x3dbcff42	0.09228374
51	0x3d96ad89	0.07357318
52	0xbcfa313f	-0.03054106
53	0x3dafc727	0.08582907
54	0xbd5fa165	-0.054597277
55	0x3e2356e2	0.15951112
56	0x3dcfdf9f	0.10150074
57	0x3e39250c	0.18080539
58	0x3df06034	0.11737099
59	0x3c8ce10d	0.017197156
60	0x3e189b7c	0.14903063
61	0xbd6b9e1a	-0.057523824
62	0x3d4b594c	0.049645707
63	0xbe873b3a	-0.26412374
64	0xbd251574	-0.040303662
65	0xbc6263f4	-0.013817776
66	0x3d4221fa	0.047395684
67	0xbd9a8f66	-0.07546882
68	0xbe05c146	-0.13062009
69	0x3dc8021e	0.09766029
70	0xbdf9b2fc	-0.12192342
71	0xbd2e7e9d	-0.042601217
72	0x3e180ac1	0.14847852
73	0xbd43c7eb	-0.04779808
74	0xbdab22ed	-0.08356271
75	0xbd724bbf	-0.05915427
76	0x3c8d1dff	0.017226217
77	0x3e32ad5f	0.17448948
78	0xbe0c68d3	-0.13711862
79	0xbda50395	-0.08057324
80	0x3d92c66c	0.07166752
81	0x3dda763b	0.10667082
82	0x3e236e09	0.15959944
83	0xbe27877d	-0.16360278
84	0x37ab68cc	2.0433588e-05
85	0xbcae991d	-0.021313244
86	0xbe19cf8d	-0.1502058
87	0x3d32f783	0.043693077
88	0x3dbb8299	0.09155769
89	0xbdfa3e15	-0.122188725
90	0x3df8a701	0.121412285
91	0x3e1440bd	0.1447782
92	0xbe10a188	-0.1412412
93	0xbc08258d	-0.008309734
94	0x3e30e3e2	0.1727443
95	0xbe481bb2	-0.19541815
96	0xbdb2c6a1	-0.08729292
97	0x3d8be1fa	0.06830211
98	0x3dac0041	0.08398486
99	0x3dbfd72d	0.093672134
100	0x3df649c0	0.120257854
101	0x3e02b196	0.12763056
102	0x3d111785	0.03542282
103	0xbd06454f	-0.03278094
104	0x3d90b43d	0.07065628
105	0x3ce1b2f4	0.027551152
106	0xbd9964ba	-0.07489915
107	0xbc434a59	-0.011919581
108	0xbd147727	-0.036246445
109	0xbdd1fba2	-0.10253073
110	0xbd5a9d80	-0.05337286
111	0x3e296e62	0.16546014
112	0xbd302aa7	-0.043009426
113	0x3d032a82	0.03202296
114	0x3e43bede	0.19115779
115	0xbe13716c	-0.14398736
116	0xbb714041	-0.003681198
117	0xbde0380e	-0.109481916
118	0xbd6d72e3	-0.057970893
119	0x3e0b2416	0.13587984
120	0xbe0e7ce2	-0.13914827
121	0xbe025fcc	-0.12731856
122	0xbd29e6d5	-0.041479904
123	0x3dfc1a64	0.12309721
124	0xbdebaf83	-0.115080856
125	0x3dee64f2	0.116403475
126	0x3de7282e	0.112869605
127	0xbcf0e5ef	-0.029406516
128	0x3dfc5afa	0.1232204
129	0x3e381193	0.17975454
130	0xbe14284d	-0.14468499
131	0x3d79befe	0.06097316
132	0x3ddeba82	0.10875417
133	0x3e099b8d	0.13438244
134	0xbdbf20ce	-0.09332429
135	0xbd5360cb	-0.05160598
136	0xbcaf9818	-0.021434829
137	0xbe0d5d9a	-0.13805237
138	0x3e2dc821	0.16970874
139	0xbb0acb40	-0.0021178275
140	0x3e3b7243	0.18305306
141	0xbe35c40f	-0.17750572
142	0xbdbb8f09	-0.09158141
143	0xbe141b62	-0.1446357
144	0xbde49198	-0.11160582
145	0xbca00b2a	-0.019536573
146	0xbe3eb25e	-0.18622729
147	0xbe27092d	-0.16312094
148	0xbd39cd25	-0.045361657
149	0xbc4147b5	-0.011796881
150	0xbd1886bc	-0.037237868
151	0x3d043438	0.032276362
152	0xbe20af81	-0.1569195
153	0x3c76bcc4	0.015059654
154	0x3d2775ba	0.040883757
155	0x3e64d1f6	0.22345719
156	0x3d5eb414	0.054370955
157	0xbc9e2339	-0.019303905
158	0x3e015035	0.12628253
159	0x3c92e71e	0.01793247
160	0x3dc13765	0.09434394
161	0x3e31eceb	0.17375533
162	0xbd6ad8c6	-0.057335638
163	0xbdb9cb95	-0.09072033
164	0x3d646613	0.055761408
165	0xbdeca34c	-0.11554584
166	0xbe052a5f	-0.13004445
167	0x3e2c115d	0.16803499
168	0xbdac6259	-0.08417196
169	0x3d076556	0.033055626
170	0xbdbc9549	-0.092081614
171	0x3d493f05	0.049132366
172	0xbdcdd975	-0.10051242
173	0x3d62800a	0.05529789
174	0x3e0ac90d	0.13553257
175	0x3dd041af	0.10168778
176	0x3e265c3e	0.16246125
177	0xbdf2eab9	-0.11861176
178	0x3d975656	0.07389514
179	0xbd534050	-0.051575005
180	0xbdb7460f	-0.089489095
181	0x3c476e62	0.012172313
182	0x3c8db595	0.0172985
183	0x3e06ebd3	0.13175897
184	0x3ddc1093	0.10745349
185	0xbe15c784	-0.1462689
186	0xbe353720	-0.1769681
187	0x3da97da0	0.08275914
188	0x3d5072ce	0.050890736
189	0x3e3a1340	0.18171406
190	0x3dd1d6eb	0.102460705
191	0x3da7156f	0.08158385
192	0x3ce78520	0.028261721
193	0x3e3aeefb	0.18255226
194	0x3e17c83d	0.14822479
195	0x3e420872	0.18948534
196	0xbdbae0c1	-0.091249
197	0xbc12ca8e	-0.008959426
198	0xbddd45ad	-0.10804305
199	0x3dc3d99f	0.09562992
200	0xbe1a2296	-0.15052256
201	0xbb5563b9	-0.003256066
202	0x3c0e3aa4	0.008680973
203	0x3c3f8199	0.011688613
204	0xbe245c5d	-0.16050859
205	0x3d5eb4a2	0.054371484
206	0x3cefc5a3	0.029269045
207	0xbc6d2a6a	-0.014475444
208	0xbe0043cb	-0.12525861
209	0x3e4389f7	0.19095598
210	0xbd83e77c	-0.064406365
211	0xbdefbc9f	-0.117058985
212	0x3e17554c	0.14778632
213	0x3d4cd313	0.050005984
214	0x3de80f31	0.113310225
215	0xbe3fde98	-0.18737257
216	0xbe29bb27	-0.16575299
217	0xba60ae80	-0.00085709244
218	0xbcba0595	-0.02270774
219	0x3e0cf3c3	0.13764863
220	0xbda3a346	-0.07990126
221	0xbce69ad1	-0.028149994
222	0xbe176998	-0.14786375
223	0xbb29d02e	-0.0025911438
224	0x3dfc7458	0.12326878
225	0xba4e0389	-0.0007858803
226	0xbe0f3b46	-0.13987455
227	0xbc93cfda	-0.018043447
228	0x3e529481	0.20564462
229	0xbe2d9472	-0.16951159
230	0xbce3f81e	-0.027828272
231	0xbccf54c2	-0.02530897
232	0xbd1059dd	-0.03524195
233	0x3e04bd6e	0.12962887
234	0x3df90034	0.12158242
235	0xbdf5d8c9	-0.12004239
236	0xbe244056	-0.16040167
237	0xbe031992	-0.12802723
238	0x3e003813	0.1252139
239	0x3ce3ad17	0.027792497
240	0xbc6cafe3	-0.014446232
241	0x3c94e551	0.018175753
242	0x3d2fabb3	0.042888355
243	0x39b4f412	0.00034514122
244	0xbdc856cf	-0.097821824
245	0xbd620d7f	-0.055188652
246	0x3d960f89	0.07327182
247	0xbcb4c773	-0.022067761
248	0x3e0c50e4	0.13702732
249	0x3d97aebc	0.07406375
250	0xbd3d3cf8	-0.046200722
251	0xbd89d833	-0.0673069
252	0x3dca163b	0.098675214
253	0x3dba89ea	0.09108336
254	0x3dea9e75	0.114560045
255	0xbdd3b9db	-0.103381835

bias f4 [8]
0	0x3e381114	0.17975265
1	0xbe1f0e71	-0.15532853
2	0x3d55869a	0.05213032
3	0xbce549cc	-0.02798929
4	0x3d1632c1	0.036669496
5	0x3d5cf5e8	0.053945452
6	0x3cb9cecd	0.022681618
7	0x3e14c67e	0.14528844

weight f4 [8]
0	0x3f7a181e	0.9769305
1	0x3f70d49b	0.9407441
2	0x3f7c0652	0.98447144
3	0x3f86e867	1.0539674
4	0x3f823430	1.0172176
5	0x3f84007e	1.031265
6	0x3f82a2d5	1.0205942
7	0x3f832098	1.0244322

bias f4 [8]
0	0xbbe51184	-0.0069906134
1	0x3d0d0129	0.034424935
2	0x3c67a899	0.014139318
3	0xbd236bfb	-0.0398979
4	0x3b064c5e	0.0020492296
5	0xbd0a632a	-0.033785976
6	0xbbe3da95	-0.0069535472
7	0x3c564550	0.013078049

running_mean f4 [8]
0	0x3e73c165	0.23804243
1	0x3e96721e	0.2938394
2	0x3ca69734	0.020335771
3	0x3d1f6488	0.038914233
4	0xbaf62a34	-0.0018780888
5	0x3e0e88e7	0.13919412
6	0xbd745f9b	-0.05966149
7	0x3e332468	0.17494357

running_var f4 [8]
0	0x3d8aa6e7	0.06770115
1	0x3f1c308d	0.6101158
2	0x3e14faf5	0.14548858
3	0x3dc9bb8b	0.09850224
4	0x3d90f295	0.07077519
5	0x3f00e61d	0.50351125
6	0x3dedba30	0.11607778
7	0x3e777ded	0.2416913

weight f4 [4, 8, 2]
0	0x3d301b88	0.042995006
1	0xbe4f0b40	-0.20219135
2	0xbe3acb1e	-0.18241546
3	0x3d45835c	0.048220977
4	0xbe29f59c	-0.16597599
5	0xbdba34f0	-0.09092128
6	0x3d98e94f	0.07466375
7	0xbe86e94f	-0.26349875
8	0xbe657763	-0.22408824
9	0xbd9981f9	-0.074954934
10	0xbd1b4771	-0.03790993
11	0x3e29e194	0.16589957
12	0x3e8f15fe	0.27946466
13	0x3d52a035	0.051422317
14	0xbcd0b410	-0.025476485
15	0x3e0c5a8f	0.1370642
16	0x3dc3da59	0.09563131
17	0x3e3ea7b5	0.18618663
18	0xbd7df316	-0.061999403
19	0x3d78d4d4	0.060749844
20	0x3e1fbeae	0.15600082
21	0xbd2f4c5b	-0.042797428
22	0x3e09da89	0.13462271
23	0x3e1a22f0	0.1505239
24	0xbdcd0bee	-0.10012041
25	0x3e265781	0.16244318
26	0x3d239212	0.039934225
27	0xbde3103c	-0.11087081
28	0x3dac3e27	0.08410292
29	0xbdb34d41	-0.087549694
30	0x3b2724a6	0.0025504022
31	0x3e84faac	0.25972497
32	0x3e06487a	0.13113585
33	0xbdfb4f8c	-0.12271032
34	0xbd9fc93a	-0.07802053
35	0xbe4842e3	-0.19556765
36	0x3e3e1bec	0.18565339
37	0x3db38a05	0.087665595
38	0xbd046c20	-0.03232968
39	0x3d0e8eef	0.03480428
40	0x3dfc1e5d	0.12310479
41	0xbe391207	-0.18073283
42	0x3e6e5347	0.23273955
43	0x3e1993e3	0.1499782
44	0x3dc3d6d0	0.095624566
45	0xbe3f3817	-0.1867374
46	0x3e6c1b01	0.23057176
47	0x3c56e4e4	0.013116095
48	0xbdaa2491	-0.08307756
49	0xbd5015c3	-0.050802004
50	0xbdbd7869	-0.09251482
51	0x3d4a8ac6	0.04944875
52	0xbe2dbafb	-0.16965859
53	0x3e35d46a	0.17756811
54	0xbe357c0d	-0.17723103
55	0x3e531a08	0.20615399
56	0x3e543d5f	0.20726536
57	0xbe00dbd7	-0.12583862
58	0x3e4b6450	0.19862485
59	0xbdeea095	-0.11651722
60	0xbdaea993	-0.085284375
61	0x3d997438	0.0749287
62	0x3d3a2281	0.04544306
63	0xba7799d7	-0.0009445226

bias f4 [4]
0	0x3de1fd92	0.11034693
1	0xbd99d59c	-0.07511446
2	0x3dabb1f9	0.08383555
3	0xbdd15857	-0.102219276

weight f4 [4]
0	0x3f77d47a	0.9680859
1	0x3f7c2149	0.9848829
2	0x3f807b24	1.003758
3	0x3f88cc7e	1.0687406

bias f4 [4]
0	0xbd0f7ebb	-0.03503297
1	0xbbe8f4bf	-0.007109254
2	0xbc6f8dfe	-0.014621256
3	0xbc747687	-0.014920837

running_mean f4 [4]
0	0xbdc140ce	-0.09436189
1	0x3e75fb93	0.24021749
2	0x3e1b6e3f	0.15178774
3	0xbde5f222	-0.11227824

running_var f4 [4]
0	0x3d755541	0.059895758
1	0x3dce92a1	0.10086561
2	0x3e04ea67	0.12980042
3	0x3ca5e40e	0.020250347

weight f4 [1, 4, 2]
0	0xbea0ab16	-0.31380528
1	0xbe9d5963	-0.3073226
2	0x3c64f19b	0.013973619
3	0x3e203b6d	0.15647669
4	0x3e7a24da	0.2442812
5	0x3ea7be26	0.3276226
6	0xbdc49e87	-0.09600549
7	0xbe886d40	-0.2664585

weight f4 [16, 80]
0	0xbd9a3994	-0.075305134
1	0xbe0be109	-0.13660063
2	0xbde7c6fa	-0.11317249
3	0x3d57b83e	0.05266594
4	0xbd59d228	-0.053178936
5	0xbd8075e9	-0.062724896
6	0x3cfec4a9	0.031099634
7	0xbc3c45b2	-0.011491226
8	0x3e0e1c20	0.13877916
9	0x3e179de6	0.14806327
10	0x3d9d78df	0.0768907
11	0xbd943362	-0.07236363
12	0xbc8ecb64	-0.017430969
13	0x3e061312	0.13093212
14	0xbd01c76d	-0.031684328
15	0xbd9bb4c7	-0.0760284
16	0x3e222fab	0.15838496
17	0xbd7114c5	-0.058857698
18	0xbdc9bea0	-0.09850812
19	0x3d865657	0.06559437
20	0x3d5a00bb	0.053223353
21	0xbd41df4b	-0.04733209
22	0x3d4df319	0.050280664
23	0xbc9a10e4	-0.018806882
24	0xbd6c3d47	-0.057675626
25	0x3c6f0211	0.014587895
26	0x3d00ab84	0.03141357
27	0xbe0c84a0	-0.13722467
28	0xbdead262	-0.114659086
29	0xbcfb1457	-0.030649347
30	0x3dc72aae	0.097249374
31	0xbc26b425	-0.010174786
32	0xbcb26440	-0.021776319
33	0x3dd8a066	0.105774686
34	0x3d192d1e	0.037396543
35	0x3e026cb4	0.1273678
36	0xbdb4566b	-0.088055454
37	0xbd3b40b6	-0.04571601
38	0xbba46f77	-0.0050181705
39	0xbe023c6d	-0.12718363
40	0xbd59c335	-0.05316468
41	0xbd731176	-0.059342824
42	0x39cdeee4	0.00039278634
43	0xbd4edb16	-0.050501905
44	0xbd346037	-0.04403707
45	0xbbc960b5	-0.0061455616
46	0x3c1d5abd	0.009604153
47	0x3d759e4c	0.059965417
48	0xbd89a565	-0.06721
49	0x3db4bcdc	0.088250846
50	0xbd543623	-0.05180944
51	0x3dc23b8f	0.09484016
52	0xbcc6acaf	-0.024252264
53	0xbcb72351	-0.022355707
54	0xbd1bee71	-0.038069192
55	0xbd5869f9	-0.05283544
56	0xbaf0c4e7	-0.0018369228
57	0x3ab45731	0.0013758895
58	0x3ccd9c7a	0.025099028
59	0x3da0edc7	0.078578524
60	0x3b5481ba	0.0032425956
61	0x3d5ca0b2	0.05386419
62	0x3c195004	0.009357456
63	0xbd62e320	-0.055392385
64	0xbd466386	-0.048434757
65	0x3dbac71c	0.09120008
66	0x3cd014b7	0.025400503
67	0xbd417802	-0.04723359
68	0x3c34bada	0.011030877
69	0xbcebe505	-0.028795728
70	0x3dc2b221	0.09506632
71	0x3df89491	0.12137712
72	0xbd33373f	-0.04375386
73	0x3d01b356	0.03166517
74	0x3db113a5	0.08646325
75	0xbc24b5a6	-0.010053074
76	0xbd26c62c	-0.040716335
77	0x3d2f24a2	0.042759545
78	0x3d9f7dc1	0.077876575
79	0xbdd2e5f7	-0.102977686
80	0xbd392bf0	-0.045207918
81	0xbd6c278f	-0.057654914
82	0xbe1ff0f8	-0.15619266
83	0x3cdad303	0.026711946
84	0xbd0a8759	-0.033820484
85	0x3da60bb3	0.081077
86	0xbc1c3a44	-0.009535376
87	0x3d54d741	0.051963095
88	0x3dc6fefd	0.09716604
89	0x3e720701	0.23635484
90	0x3d99098c	0.07472524
91	0xbd3b78fa	-0.04576967
92	0x3db20247	0.086918406
93	0x3d917052	0.071015015
94	0x3d637011	0.055526797
95	0x3bc21e76	0.0059240414
96	0x3deaa16a	0.114565685
97	0x3d503051	0.050827328
98	0xbdd3ee35	-0.10348169
99	0xbc9f86aa	-0.019473393
100	0x3e228846	0.15872297
101	0x3d9e2b56	0.077231094
102	0x3cb423fb	0.021989813
103	0xbd9eaf38	-0.07748264
104	0x3d069bbf	0.032863375
105	0xbd24a248	-0.040193826
106	0x3d8f45dd	0.06995747
107	0xbd27406b	-0.040832918
108	0x3cb4c371	0.02206585
109	0xbc3700d9	-0.011169636
110	0x3d0032b6	0.03129836
111	0x3cfb9242	0.03070939
112	0xbcb450ae	-0.022011127
113	0x3daffff3	0.0859374
114	0x3cdadff3	0.026718115
115	0x3dd8ed97	0.10592192
116	0xbe04cc5b	-0.1296858
117	0x3d001034	0.031265453
118	0xbe31d93c	-0.17368025
119	0xbd5a86c2	-0.05335117
120	0xbc021708	-0.007940061
121	0xbd5b2e7f	-0.05351114
122	0x3d5119b0	0.051049888
123	0x3d63fe86	0.055662654
124	0x3df0c246	0.11755805
125	0x3d02abd9	0.031902168
126	0xbdb42620	-0.08796334
127	0xbd81f45d	-0.06345437
128	0xbdbbf3fb	-0.09177395
129	0x3c7614f1	0.015019641
130	0x3d305716	0.0430518
131	0xbc67fb55	-0.014159043
132	0x3da03db9	0.07824273
133	0xbc98289d	-0.018574053
134	0xbdb6b34f	-0.08920919
135	0xbba4abf4	-0.005025381
136	0x3da02270	0.078190684
137	0x3d90a28c	0.07062253
138	0xbc6f0063	-0.014587495
139	0xbda189d6	-0.07887618
140	0xbe018bc2	-0.1265097
141	0x3cc51975	0.02405999
142	0xbdaa6cbc	-0.08321521
143	0x3e134a3b	0.14383785
144	0x3e1a9183	0.15094571
145	0xbdb38e55	-0.08767382
146	0x3d1b913a	0.037980296
147	0x3e0dde7b	0.13854401
148	0xbd8ee2bd	-0.06976841
149	0x3dbc60f8	0.09198183
150	0xbd503812	-0.050834723
151	0x3c973652	0.01845852
152	0x3d4f87ef	0.050666746
153	0xbd2a7d2f	-0.04162329
154	0x3d3eac96	0.04655131
155	0xbc8f2565	-0.017473886
156	0x3c40c4c9	0.011765667
157	0x3ccafdf0	0.02477929
158	0xbd4a4ffe	-0.049392693
159	0xbcbb1340	-0.022836328
160	0x3d8f0577	0.06983464
161	0x3e011a07	0.12607585
162	0x3e26d640	0.16292667
163	0xbde9341a	-0.11386891
164	0xbc5bb9f1	-0.013411031
165	0x3d422948	0.04740265
166	0xbd965f29	-0.07342369
167	0xbdd9079c	-0.105971545
168	0xbd53f5ff	-0.051748272
169	0xbe1a7d5d	-0.15086885
170	0xbe1c4dd7	-0.15264069
171	0xbc207ff1	-0.009796129
172	0xbdbb4aec	-0.091451496
173	0x3d49d5c7	0.04927614
174	0x3d5b4fc0	0.053542852
175	0x3db91f4f	0.09039175
176	0xbdbc3e23	-0.09191539
177	0x3c5d7e76	0.01351892
178	0xbdb82d72	-0.08993043
179	0xbb122f70	-0.0022306107
180	0xbc6ec5ce	-0.0145735275
181	0xbcebe45e	-0.028795417
182	0x3c6b4922	0.014360698
183	0xbd7c64d9	-0.061619613
184	0x3d90cefd	0.0707073
185	0xbd517ca2	-0.05114425
186	0x3de92636	0.11384241
187	0x3db3f541	0.08787013
188	0x3b66061f	0.0035098863
189	0x3d659f60	0.056060195
190	0xbd88b751	-0.0667559
191	0x3ddf2e32	0.10897483
192	0xbe1a3d6c	-0.15062493
193	0xbe272bfc	-0.16325372
194	0xbdb48e81	-0.08816243
195	0xbd2bcb3d	-0.04194187
196	0x3e2e5471	0.170244
197	0x3d94084b	0.07228144
198	0x3e3d2e3c	0.18474668
199	0xbd091ddc	-0.03347574
200	0x3d1575e7	0.036489394
201	0xbb825d1c	-0.0039783847
202	0xbdba7625	-0.091045655
203	0x3c858a3e	0.01630127
204	0x3d3d7d39	0.046262
205	0x3b2eb05a	0.0026655407
206	0xbd55e86b	-0.052223604
207	0xbbf15eab	-0.0073660216
208	0x3d277642	0.040884264
209	0xbe07d0b8	-0.13263214
210	0xbc0dc6a7	-0.008653319
211	0x3d003024	0.03129591
212	0x3d1f3747	0.038871076
213	0x3e080d08	0.13286221
214	0xbd7f882e	-0.06238573
215	0xbd759129	-0.05995289
216	0xbb04d9ef	-0.00202715
217	0xbcb66dd0	-0.02226916
218	0xbcf6b033	-0.030113315
219	0x3e017c65	0.12645109
220	0xbcd62909	-0.026142614
221	0xbd3336b2	-0.043753333
222	0x3c81e4e1	0.015856208
223	0xbdf57668	-0.11985475
224	0x3b2b7597	0.0026162618
225	0x3d43fc89	0.04784826
226	0xbd47e038	-0.048797816
227	0xbbd1afae	-0.0063991165
228	0x3d3f9e32	0.046781726
229	0xbe169126	-0.14703807
230	0x3d9267c0	0.07148695
231	0xbdc15183	-0.09439375
232	0xbafe4eed	-0.0019402184
233	0x3d63a79d	0.05557977
234	0xbd161d07	-0.036648776
235	0xbde524b8	-0.11188644
236	0xbdb8a82f	-0.090164535
237	0xbd298a06	-0.041391395
238	0x3d678b67	0.05652943
239	0xbd8c4cea	-0.06850608
240	0x3b3064b0	0.0026915483
241	0xbdc16a10	-0.09444058
242	0xbc6d87fc	-0.014497753
243	0x3d2553b7	0.04036304
244	0x3c4e6a54	0.012598593
245	0x3ceb41be	0.028717872
246	0xbccac4ed	-0.024752105
247	0xbd485535	-0.048909385
248	0x3d969020	0.073517084
249	0x3dc0a544	0.09406522
250	0x3e32ef84	0.1747418
251	0xbdfc76d9	-0.12327356
252	0x3d05cfc6	0.03266885
253	0x3e1babb3	0.15202217
254	0x3ccd26c7	0.025042905
255	0xbda8ccb3	-0.08242168

bias f4 [16]
0	0xbcb2de1b	-0.021834424
1	0x3db3a197	0.08771055
2	0xbdaff034	-0.08590737
3	0x3dd39704	0.10331538
4	0x3c0093d9	0.00784775
5	0x3dd2161e	0.10258125
6	0xbd96034a	-0.07324846
7	0x3da6a1c3	0.08136322
8	0xbd706b8e	-0.058696322
9	0xbd9a7389	-0.07541568
10	0xbde6fd14	-0.112787396
11	0xbd1d843b	-0.038456183
12	0xbc26527c	-0.010151502
13	0xbc0023a2	-0.0078209955
14	0xbbcd74a4	-0.006270008
15	0xbdb4878e	-0.088149175

weight f4 [2, 16]
0	0x3e64d5ee	0.22347233
1	0x3e954bad	0.291593
2	0x3cbceaf0	0.023061246
3	0x3e01c114	0.1267131
4	0x3e00d544	0.12581354
5	0x3e713ad3	0.23557596
6	0x3e14e974	0.1454218
7	0xbe66fc23	-0.2255712
8	0xbe7dafbd	-0.2477407
9	0x3ca83512	0.020533118
10	0x3c52058d	0.012818706
11	0xbe336e73	-0.17522602
12	0xbe8fdf8e	-0.28100246
13	0xbe7fcc98	-0.2498039
14	0x3e8bdcac	0.27316797
15	0x3e1790fe	0.14801404
16	0xbe14e640	-0.14540958
17	0xbcc4283a	-0.023944963
18	0x3e90e88d	0.28302422
19	0xbd9d56a3	-0.0768254
20	0xbe7f7613	-0.24947385
21	0xbd894a10	-0.067035794
22	0xbe49056d	-0.19630976
23	0x3d726d7c	0.059186444
24	0x3e79053a	0.243184
25	0xbe9d01ab	-0.30665335
26	0x3e9418cf	0.28925177
27	0x3e9d2c92	0.30698067
28	0x3e86346c	0.2621187
29	0x3d96e961	0.07368732
30	0xbe45abe1	-0.19303848
31	0xbccbce43	-0.024878627

bias f4 [2]
0	0x3e498175	0.1967829
1	0x3cf0521b	0.029336026
