mlpcnnsemi/model/oneinput_batch1_Epoch=47_lr=0.0001.pth (torch, 25249 bytes, 29 tensors)

weight f4 [4, 1, 1]
0	0xbde7930c	-0.11307344
1	0xbef8e76e	-0.48614067
2	0x3f58fb32	0.84758294
3	0x3ca5b48c	0.020227693

bias f4 [4]
0	0xbf2e0884	-0.67981744
1	0xbf4465ef	-0.7671804
2	0x3f29444e	0.6611985
3	0xbf52ede8	-0.82394266

weight f4 [4]
0	0x3f83605d	1.0263783
1	0x3f7e2607	0.99276775
2	0x3f81a239	1.0127631
3	0x3f7bdaec	0.98380923

bias f4 [4]
0	0x3d7a331d	0.0610839
1	0x3d717ce0	0.05895698
2	0x3ca2ebbc	0.019887798
3	0xbdbf9ffd	-0.09356687

running_mean f4 [4]
0	0xbf36a9ea	-0.7135302
1	0xbf69b822	-0.9129659
2	0x3f6a5fb5	0.9155229
3	0xbf516325	-0.8179191

running_var f4 [4]
0	0x3c00c62e	0.00785975
1	0x3e14cb60	0.14530706
2	0x3ee1f7da	0.44134408
3	0x39849d4d	0.000252942

weight f4 [16, 4, 1]
0	0xbe1c98af	-0.15292619
1	0x3ef8cd40	0.48594093
2	0xbe238f06	-0.15972528
3	0xbdc5dbef	-0.0966109
4	0x3d1d226b	0.0383629
5	0x3c9147c6	0.01773442
6	0xbd5eea2f	-0.054422554
7	0xbd9e3357	-0.07724636
8	0xbe49a634	-0.19692308
9	0x3dd3148c	0.103066534
10	0xbe787b14	-0.242657
11	0x3ec4baee	0.38423866
12	0x3f0c393e	0.54774845
13	0x3eb2e362	0.34939104
14	0xbe81c9a0	-0.2534914
15	0x3e0d9118	0.1382488
16	0x3ca3eb25	0.020009587
17	0xbebd5e52	-0.36986023
18	0x3e5257b4	0.20541269
19	0xbd3cc44b	-0.046085637
20	0x3ea79b5c	0.32735717
21	0x3ea1cb25	0.316003
22	0x3e11b4b2	0.14229086
23	0xbdab3d43	-0.08361294
24	0x3d1e92ed	0.038714338
25	0x3c6781c3	0.014130059
26	0xbeef78db	-0.46771893
27	0xbe4d96a8	-0.20077002
28	0xbeb1ab65	-0.34701076
29	0xbef76fd6	-0.48327512
30	0x3ea343e9	0.3188775
31	0x3ec5240a	0.38504058
32	0xbdf9adcf	-0.121913545
33	0xbe59726c	-0.21235055
34	0x3e8651b5	0.26234213
35	0xbe74ccbe	-0.23906228
36	0x3ed8dfa3	0.4235812
37	0x3edce980	0.43146896
38	0x3e8a154a	0.26969367
39	0xbcf71b70	-0.03016445
40	0x3c7ddf9b	0.015495206
41	0x3ec31a5b	0.38106045
42	0x3e968886	0.29401034
43	0xbd08d54c	-0.03340654
44	0x3e020e20	0.12700701
45	0x3f0839f7	0.5321345
46	0x3e74f10f	0.23920082
47	0x3eb09e29	0.34495667
48	0x3e82ba53	0.2553278
49	0xbec1037b	-0.37697968
50	0x3e822e5a	0.25425988
51	0xbd92931b	-0.071569644
52	0x3e3fb9c5	0.18723209
53	0x3ebec17d	0.37256995
54	0xbe21d1e9	-0.1580273
55	0x3e53f7d0	0.20700002
56	0xbd05c322	-0.032656796
57	0xbe272f96	-0.16326746
58	0x3df7487e	0.12074374
59	0x3e8bec1c	0.27328575
60	0x3df0bad3	0.11754384
61	0xbe2726c9	-0.16323389
62	0x3d693166	0.056931876
63	0xbecbd9f9	-0.39814737

bias f4 [16]
0	0x3ebb8b38	0.36629653
1	0xbe2efd98	-0.17088926
2	0x3eb3d27c	0.35121524
3	0xbeaf577a	-0.34246427
4	0x3eb0344c	0.344149
5	0x3e8d0179	0.27540186
6	0x3f03b549	0.51448494
7	0x3e9cf5ce	0.30656284
8	0x3eb1180f	0.34588668
9	0xbeb78acf	-0.3584809
10	0x3cebb397	0.028772159
11	0xbee697b4	-0.45037615
12	0x3e3e21ae	0.18567535
13	0xbc1b7545	-0.009488408
14	0x3e490057	0.19629036
15	0xbe9a76d3	-0.3016878

weight f4 [16]
0	0x3f88e82a	1.0695851
1	0x3f84e482	1.0382235
2	0x3f7b5f11	0.98191935
3	0x3f7fa82a	0.99865973
4	0x3f81f418	1.0152617
5	0x3f8417d1	1.0319768
6	0x3f80001e	1.0000036
7	0x3f74cc90	0.9562464
8	0x3f821c73	1.0164932
9	0x3f83d359	1.0298873
10	0x3f8d4e2b	1.103948
11	0x3f6ace50	0.9172106
12	0x3f7ed765	0.99547416
13	0x3f82b8b6	1.0212619
14	0x3f795e05	0.9740909
15	0x3f7c3012	0.9851085

bias f4 [16]
0	0x3d88e2ba	0.0668387
1	0xbb8a1a76	-0.00421458
2	0xbb9186a6	-0.0044411
3	0xbcb02d5d	-0.021506006
4	0xbcb2bc52	-0.021818314
5	0xbd7eab98	-0.062175363
6	0x3c0d2a05	0.008615975
7	0xba76689f	-0.0009399745
8	0x3b6d84b1	0.003624242
9	0xbd2ef70f	-0.042716082
10	0x3dcd170e	0.10014163
11	0xbde616b9	-0.11234803
12	0x3d4b1f57	0.049590435
13	0x3d90dc31	0.07073248
14	0xbd5cda3b	-0.05391906
15	0xbd983e5d	-0.0743377

running_mean f4 [16]
0	0x3ecddfe8	0.4020989
1	0xbe3fa7ae	-0.18716308
2	0x3eb04c80	0.34433365
3	0xbdb28d90	-0.08718407
4	0x3e8ef5e0	0.27921963
5	0x3f015fab	0.505366
6	0x3eb29393	0.34878215
7	0x3e637640	0.22213078
8	0x3e81a7a9	0.25323227
9	0xbc2589fe	-0.010103701
10	0x3e6d80e7	0.23193704
11	0xbdacda54	-0.0844008
12	0x3e511540	0.20418262
13	0x3e3643f5	0.17799361
14	0x3e707317	0.23481403
15	0xbecb2dfa	-0.39683515

running_var f4 [16]
0	0x3d919e2a	0.071102455
1	0x3c734132	0.014847087
2	0x3c52e3fa	0.012871737
3	0x3d8674b6	0.065652296
4	0x3d19af98	0.037520975
5	0x3c263513	0.01014449
6	0x3ebc9c67	0.36838076
7	0x3f032110	0.51222324
8	0x3c14bc97	0.009078166
9	0x3d1707c1	0.03687263
10	0x3d372ef9	0.04472253
11	0x3e5a8ee4	0.21343571
12	0x3d0cdfdf	0.034393188
13	0x3c256ba1	0.0100964615
14	0x3e07c268	0.13257754
15	0x3da384c2	0.07984306

weight f4 [8, 16, 2]
0	0xbdaadccc	-0.08342895
1	0xbda9561a	-0.08268376
2	0x3e16fa63	0.14743952
3	0x3b256c06	0.002524139
4	0xbe0f7697	-0.14010082
5	0x3dd1856f	0.102305286
6	0x3d963846	0.07334952
7	0x3e27ad49	0.16374697
8	0x3e15e760	0.14639044
9	0xbdc73e76	-0.0972871
10	0x3dc7e5a3	0.097605966
11	0xbdeb3719	-0.114851184
12	0xbd1c7528	-0.038197666
13	0x3d344256	0.044008575
14	0xbde4b873	-0.111679934
15	0xbe44f34b	-0.19233434
16	0x3e389adc	0.18027824
17	0x3c28fe32	0.010314511
18	0xbd0f5a15	-0.03499802
19	0xbde94ac4	-0.113912135
20	0x3d2b0654	0.04175408
21	0xbdc71be4	-0.097221166
22	0x3e166d75	0.14690192
23	0xbd2186a7	-0.039435055
24	0x3d742588	0.059606105
25	0xbd062469	-0.032749567
26	0xbdf68994	-0.1203796
27	0x3d274c3b	0.040844183
28	0x3d554321	0.052065972
29	0xbb50c441	-0.0031855258
30	0x3cc6b8a0	0.024257958
31	0x3e180841	0.14846899
32	0x3e5bb719	0.21456565
33	0x3e125013	0.14288358
34	0x3e1dfa77	0.15427576
35	0x3e3a1052	0.18170288
36	0xbdb43ea2	-0.08801009
37	0xbc83421d	-0.016022736
38	0x3c907c77	0.017637474
39	0xbc64b46a	-0.01395903
40	0xbe0023d3	-0.12513666
41	0xbde62953	-0.11238351
42	0x3e113648	0.14180863
43	0xbdef1bf3	-0.11675253
44	0x3df860e1	0.12127853
45	0x3d63634d	0.055514622
46	0x3e0c2ce4	0.13689
47	0xbde9ddfa	-0.11419292
48	0x3def353a	0.11680074
49	0xbd71035e	-0.0588411
50	0xbe04df9e	-0.12975928
51	0x3c148bc9	0.0090665305
52	0x3e3778be	0.17917153
53	0xbbfefc11	-0.0077815135
54	0xbd81944c	-0.063271135
55	0x3c467f39	0.012115293
56	0x3e46f6bd	0.1943006
57	0x3c15196c	0.009100299
58	0xbdb707a1	-0.08937002
59	0xbe19b8a6	-0.15011844
60	0xbd9215fb	-0.07133099
61	0x3d290168	0.041261107
62	0x3def6bcc	0.116904825
63	0x3d9c3299	0.07626838
64	0xbe343421	-0.1759801
65	0x3e201413	0.15632658
66	0xbd84cf1b	-0.06484815
67	0xbc945689	-0.01810767
68	0x3d3d77e5	0.04625692
69	0xbd98cd21	-0.07461
70	0xbd7c98c3	-0.061669122
71	0xbd3b4f3c	-0.04572986
72	0x3c32f4a9	0.010922589
73	0xbd7115bb	-0.058858614
74	0xbdac03b6	-0.08399145
75	0xbd0ca6de	-0.034338824
76	0xbd9f551b	-0.077799045
77	0xbdae000c	-0.08496103
78	0x3d604ea2	0.05476249
79	0x3d5b1b41	0.05349279
80	0xbe0acfcc	-0.1355583
81	0xbd067205	-0.03282358
82	0xbe589a99	-0.21152724
83	0xbe58873e	-0.21145341
84	0xbe2d92af	-0.16950487
85	0x3d995825	0.07487515
86	0x3dfbeb0e	0.123006925
87	0xbdf7714c	-0.120821565
88	0xbde73e3f	-0.112911694
89	0x3d0feb17	0.03513631
90	0xbb7668fd	-0.00375992
91	0x3d8f0d10	0.06984913
92	0x3e1a98d3	0.1509736
93	0x3e343d73	0.17601566
94	0xbdfcad88	-0.12337786
95	0xbd250b7e	-0.040294163
96	0x3d9dfa60	0.07713771
97	0x3d8c32d3	0.068456315
98	0x3bf4e208	0.007473234
99	0x3e402d1f	0.18767212
100	0x3e1de8fe	0.1542091
101	0x3b841533	0.0040308475
102	0xbd6f17c5	-0.058372278
103	0xbd4870cb	-0.048935693
104	0x3de510a5	0.11184815
105	0x3de0f463	0.10984113
106	0xbdaad3e7	-0.083411984
107	0xbd80f773	-0.06297197
108	0x3e1da7c5	0.1539603
109	0xbd75514a	-0.059891976
110	0xbdcbf6d7	-0.0995919
111	0xbc78df2d	-0.015189928
112	0xbdfe0746	-0.12403731
113	0xbd0f3a03	-0.034967434
114	0xbd7a0f82	-0.061049946
115	0xbc0f3d33	-0.008742618
116	0xbc0a0e8d	-0.008426321
117	0x3e1eaa3f	0.15494631
118	0x3d911ab2	0.0708517
119	0xbda38b03	-0.07985499
120	0xbe037fde	-0.12841746
121	0xbd9c9c9d	-0.07647059
122	0x3e482b9e	0.19547889
123	0xbe1ed471	-0.15510727
124	0xbc251664	-0.010076139
125	0x3e19eefd	0.15032573
126	0xbdbc4880	-0.09193516
127	0xbda7d7af	-0.08195435
128	0x3ded178a	0.11576755
129	0xbe0fc575	-0.14040168
130	0xbc9bf429	-0.019037323
131	0x3dab0cd9	0.0835206
132	0xbde3c17e	-0.1112089
133	0xbe36111a	-0.17779961
134	0xbd488483	-0.048954498
135	0xbe418324	-0.18897682
136	0xbd36e7b3	-0.04465456
137	0x3c57787e	0.013151286
138	0x3ca801fd	0.02050876
139	0xbdd26a4d	-0.102741815
140	0xbd86876b	-0.06568798
141	0x3d030af4	0.031992868
142	0x3db72ac1	0.089437015
143	0x3d84ba51	0.064808495
144	0xbe2b0038	-0.16699302
145	0xbd8aac80	-0.06771183
146	0xbd9f6b43	-0.077841304
147	0xbdd0a72b	-0.10188135
148	0xbdd683b6	-0.104743406
149	0xbde8231f	-0.11334824
150	0x3c9701d3	0.018433487
151	0x3dc900b4	0.09814587
152	0xbd29b23f	-0.041429754
153	0xbd648411	-0.05579001
154	0x3e3378aa	0.17526498
155	0xbdebb20f	-0.11508571
156	0x3df62c55	0.120201744
157	0xbddde17d	-0.10834024
158	0x3d4acf78	0.049514264
159	0x3d851f55	0.06500117
160	0xbdc5b26f	-0.09653174
161	0x3e32a17a	0.17444411
162	0xbdfb096e	-0.12257658
163	0x3d63a422	0.05557645
164	0x3d37270f	0.044714984
165	0xbdcd8a12	-0.100361004
166	0x3cd3b5f4	0.025843598
167	0xbde1512e	-0.11001812
168	0xbd39862d	-0.045293976
169	0xbcee2fc9	-0.02907552
170	0xbe8765e1	-0.26444915
171	0x3c927e30	0.017882437
172	0x3e2fef6d	0.17181177
173	0x3d7114cd	0.058857728
174	0xbcc7fdd0	-0.02441302
175	0xbe2c13ca	-0.16804424
176	0x3d19416f	0.037415918
177	0xbdd1eacc	-0.10249862
178	0xbe247a48	-0.16062272
179	0x3d20f640	0.039297342
180	0xbe366638	-0.17812431
181	0x3d200c3e	0.039074175
182	0xbe1856d4	-0.14876872
183	0x3b9ff2b3	0.004881227
184	0x3d63aed0	0.055586636
185	0xbc3cbd78	-0.011519782
186	0x3d1efc65	0.03881492
187	0x3e415a52	0.1888211
188	0xbd834b6b	-0.06410869
189	0x3d8def88	0.069304526
190	0x3e4fbe12	0.2028735
191	0x3d6cc821	0.057808045
192	0xbe6aa0c3	-0.22912888
193	0xbdf217ca	-0.11820944
194	0xbe1525bf	-0.1456518
195	0xbc6e8a4e	-0.014559342
196	0x3d1aa296	0.03775271
197	0x3ddf8fe4	0.10916117
198	0xbe034656	-0.128198
199	0xbd56a8f6	-0.052407227
200	0x3ded5902	0.115892425
201	0x3dee0b2a	0.11623223
202	0xbd1fee75	-0.03904577
203	0xbdb8d459	-0.09024877
204	0x3e46192a	0.19345537
205	0xbd66ba9a	-0.0563303
206	0x3d688feb	0.056777876
207	0xbbbfe3c7	-0.0058560106
208	0x3c93e56d	0.018053735
209	0xbd00b8e6	-0.031426333
210	0x3e0f0a91	0.13968875
211	0xbe2e7af8	-0.17039096
212	0x3e03683e	0.12832734
213	0x3d0d6f78	0.034530133
214	0x3d616052	0.0550235
215	0xbcaead62	-0.02132291
216	0xbe29a8e6	-0.16568336
217	0xbd5498ab	-0.051903408
218	0xbe002d86	-0.12517366
219	0x3d6cfe64	0.057859793
220	0x3de22b4f	0.11043417
221	0xbdf03f79	-0.117308564
222	0x3e60b9c6	0.21945867
223	0xbcf67bc7	-0.030088319
224	0x3cbc1928	0.022961214
225	0x3d9d7068	0.076874554
226	0xbd1695fe	-0.036764137
227	0x3dd0f79a	0.10203476
228	0xbdba37f8	-0.090927064
229	0xbdf774e7	-0.12082844
230	0x3d219436	0.039447986
231	0xbe1e9f79	-0.15490521
232	0xbdfc6ea0	-0.123257875
233	0xbe3c216f	-0.18372129
234	0xbe0144cc	-0.126239
235	0xbdf0de31	-0.1176113
236	0x3cd25ee3	0.025680011
237	0xbcc94bbc	-0.024572246
238	0x3ca62ea2	0.020285908
239	0x3d1322ca	0.03592185
240	0x3e0f93bd	0.14021201
241	0x3cfb8879	0.030704724
242	0xbdd48938	-0.10377735
243	0xbcfc14e9	-0.03077169
244	0xbe27e884	-0.16397291
245	0xbe08b58c	-0.13350505
246	0x3e2017e4	0.15634114
247	0x3ddac9bd	0.1068301
248	0xbd8aa5f3	-0.067699336
249	0x3d666ce5	0.056256194
250	0x3e4cce17	0.20000492
251	0xbcf894dc	-0.03034442
252	0xbdf994c1	-0.12186576
253	0xbc688c4a	-0.014193604
254	0xbe78fb78	-0.24314678
255	0x3d648269	0.05578843

bias f4 [8]
0	0x3c46bb97	0.012129686
1	0xbe0428e7	-0.12906228
2	0xbd85102b	-0.064972244
3	0x3dcbd12a	0.09952004
4	0xbdc14c82	-0.09438421
5	0xbe281c28	-0.16416991
6	0xbdcb28d0	-0.09919894
7	0x3d871d9f	0.06597447

weight f4 [8]
0	0x3f851f9d	1.0400273
1	0x3f828581	1.0196992
2	0x3f7804f5	0.96882564
3	0x3f67d771	0.9056311
4	0x3f7f0cf7	0.9962916
5	0x3f9ea418	1.2393827
6	0x3f851313	1.0396446
7	0x3f8532d0	1.0406132

bias f4 [8]
0	0xbc7f52e8	-0.015583731
1	0xbdd282e1	-0.102788694
2	0x3d57b7d8	0.05266556
3	0x3d40cfb4	0.04707308
4	0xbcd2201a	-0.025650073
5	0x3e0d75e5	0.13814504
6	0x3ca926db	0.02064841
7	0xbd7309b6	-0.059335433

running_mean f4 [8]
0	0x3d7bfeed	0.061522413
1	0x3d2b4230	0.04181117
2	0xbea7f2e4	-0.32802498
3	0x3e036398	0.12830961
4	0xbec8ee5f	-0.39244363
5	0xbe82002b	-0.25390753
6	0xbe84dabd	-0.25948134
7	0xbde75114	-0.11294761

running_var f4 [8]
0	0x3dfdc114	0.12390342
1	0x3d263c98	0.04058513
2	0x3daa9c3c	0.083305806
3	0x3d1e1cc6	0.03860166
4	0x3eb6954c	0.3566078
5	0x3ee8ee36	0.4549424
6	0x3e3d2c05	0.18473823
7	0x3ec2c7a8	0.3804295

weight f4 [4, 8, 2]
0	0x3e357f8a	0.17724434
1	0xbe249549	-0.16072573
2	0xbda0d167	-0.0785244
3	0x3c22cac4	0.009936038
4	0x3e2bed1e	0.16789672
5	0xbd782bd9	-0.06058869
6	0x3da11cb9	0.078668065
7	0x3b9eb434	0.004843259
8	0x3e8c3f05	0.2739183
9	0x3e295463	0.16536097
10	0x3d3ca278	0.04605338
11	0xbe24490f	-0.16043495
12	0xbe104d10	-0.14091897
13	0x3dd51233	0.10403862
14	0x3dea2f02	0.11434747
15	0x3e3de781	0.18545343
16	0xbe36e99e	-0.17862555
17	0x3e496ed8	0.1967119
18	0x3de3cd10	0.11123097
19	0xbe49d12e	-0.19708702
20	0x3d76022d	0.06006067
21	0x3e1f1c4b	0.15538137
22	0x3da55b73	0.08074083
23	0x3e1a13bc	0.1504659
24	0x3de214d4	0.11039129
25	0x3cd8828f	0.026429443
26	0xbe4cb29f	-0.19990014
27	0x3e0371a5	0.1283632
28	0x3e0bc252	0.13648346
29	0xbd362aa5	-0.044474263
30	0x3e139d29	0.1441542
31	0xba148532	-0.00056655996
32	0xbd928175	-0.07153598
33	0xb9d31ede	-0.00040268054
34	0xbbdbe745	-0.006710919
35	0x3ab69163	0.0013928827
36	0xbb4ea268	-0.0031529907
37	0x3e558b7d	0.20853992
38	0x3da33e2a	0.07970841
39	0xbd920899	-0.07130546
40	0x3c01cf43	0.00792295
41	0x3e25171b	0.16122095
42	0x3e7d2a92	0.2472327
43	0x3d3547a3	0.04425777
44	0xbdfb4f13	-0.122709416
45	0x3e6608da	0.22464314
46	0x3e922570	0.28544188
47	0xbe366719	-0.17812766
48	0x3e63bad8	0.22239244
49	0x3d1bd4eb	0.03804485
50	0xbd25650d	-0.040379573
51	0x3d24a22b	0.040193718
52	0x3b44d8fa	0.0030036555
53	0xbccee5c7	-0.02525605
54	0x3e19cfea	0.15020719
55	0xbe83392c	-0.25629556
56	0xbd122b45	-0.035685796
57	0x3d07f33d	0.033190954
58	0xbe31c903	-0.17361836
59	0xbd174288	-0.036928684
60	0xbe73ca93	-0.23807745
61	0xbe90f1e4	-0.28309548
62	0x3caee076	0.021347266
63	0x3df42c18	0.11922473

bias f4 [4]
0	0xbe86960e	-0.26286358
1	0xbca7b2ae	-0.020470943
2	0xbd363b7c	-0.044490322
3	0xbe464afb	-0.1936454

weight f4 [4]
0	0x3f5fa68a	0.87363493
1	0x3f891847	1.0710534
2	0x3f93d08e	1.1548021
3	0x3f7c522e	0.98562896

bias f4 [4]
0	0xbd330a92	-0.043711253
1	0xbd99be6b	-0.075070225
2	0xbe38fe63	-0.18065791
3	0x3bc3d669	0.0059764874

running_mean f4 [4]
0	0xbe236ea4	-0.15960175
1	0x3dfcf596	0.12351529
2	0x3e39232a	0.1807982
3	0xbec10bc8	-0.377043

running_var f4 [4]
0	0x3cbf39f9	0.023343073
1	0x3d472a80	0.048624516
2	0x3d5aed08	0.053448707
3	0x3e1feb10	0.15617013

weight f4 [1, 4, 2]
0	0x3e526d16	0.20549425
1	0x3e2c4001	0.1682129
2	0xbd3558f2	-0.044274278
3	0x3eaa012d	0.33204022
4	0xbe24ae54	-0.16082126
5	0xbe114df5	-0.14189894
6	0xbe85e4bc	-0.26151073
7	0x3da18bab	0.07887968

weight f4 [16, 80]
0	0xbd5f3d9c	-0.054502115
1	0x3cb570e2	0.022148553
2	0x3b07aab5	0.0020701115
3	0x3d42b029	0.04753128
4	0x3e6c71d3	0.23090295
5	0xbdc17e60	-0.09447932
6	0xbd7c6197	-0.061616506
7	0x3dbab590	0.091166615
8	0x3d32a171	0.043610994
9	0x3d3a56d2	0.045492955
10	0x3dca6827	0.09883147
11	0x3e26e829	0.162995
12	0xbe53ed17	-0.20695911
13	0x3dee7833	0.1164402
14	0xbd3f73fb	-0.046741467
15	0xbd1c34c9	-0.038136277
16	0xbe12c2cf	-0.14332126
17	0xbda41508	-0.08011824
18	0xbb1b7d2b	-0.002372573
19	0xbe82d2b2	-0.25551373
20	0xbe195417	-0.14973484
21	0xbbf132e0	-0.007360801
22	0xbc9339a1	-0.017971816
23	0x3c286b22	0.010279449
24	0x3e0ca3ce	0.13734362
25	0xbe47de53	-0.19518404
26	0x3e090045	0.13379009
27	0x3e2ec2d4	0.17066509
28	0x3d011838	0.031517237
29	0x3b8a3a00	0.00421834
30	0xbe319d79	-0.17345227
31	0xbd5d2e1e	-0.05399906
32	0xbd51a5f6	-0.051183663
33	0xbdc41460	-0.09574199
34	0x3d4f39b2	0.050592132
35	0x39430ef2	0.00018602217
36	0xbaa4d344	-0.0012575169
37	0xbd96d792	-0.073653355
38	0xbc6d9374	-0.014500488
39	0xbd7ad3a2	-0.061236985
40	0x3e000310	0.12501168
41	0x3db7664d	0.08955059
42	0x3c4eb3be	0.012616096
43	0x3d35994d	0.044335652
44	0xbc8b36e7	-0.016993953
45	0xbdb33b03	-0.0875149
46	0xbc81222c	-0.015763365
47	0x3c3b5db4	0.011435915
48	0xbdcd0e5d	-0.10012505
49	0x3d904d89	0.07046039
50	0xbb93c761	-0.004509852
51	0xbd81a878	-0.06330961
52	0x3d2ea988	0.042642146
53	0x3dbbb179	0.091647096
54	0xbd1d8f1e	-0.038466565
55	0xbd7c39be	-0.061578505
56	0xbe0e09c1	-0.13870908
57	0x3dd30607	0.10303884
58	0x3d00e656	0.031469665
59	0xbd31328b	-0.043261092
60	0x3d56ff2c	0.052489445
61	0x3c823b6e	0.015897479
62	0x3cd5ecac	0.02611383
63	0xbca0468b	-0.019564888
64	0x3aedd09e	0.0018143838
65	0xbc19fb0d	-0.009398234
66	0x3dc8792a	0.09788735
67	0xbd51ff76	-0.051269017
68	0xbd0c8d56	-0.034314476
69	0xbd5aa191	-0.053376738
70	0xbc2f9486	-0.010716563
71	0x3dce5aab	0.10075887
72	0x3d4a8765	0.04944553
73	0x3c4c7468	0.012478925
74	0xbdd93ca6	-0.10607271
75	0x3c60cac1	0.013720215
76	0xbd61b982	-0.055108555
77	0x3de9c486	0.11414437
78	0x3c8669a2	0.016407792
79	0x3c86c9fa	0.016453732
80	0x3dc5223b	0.096256696
81	0x3cb3679e	0.021899994
82	0xbd17d642	-0.037069567
83	0x3d572ef1	0.052535
84	0xbd7f90a5	-0.062393803
85	0x3e0ec18b	0.13941018
86	0x3e61d1dc	0.22052711
87	0xbcf623c9	-0.03004636
88	0xbc5fe899	-0.013666295
89	0x3dea1c99	0.11431236
90	0x3d70012d	0.05859487
91	0xbd26d4b3	-0.04073019
92	0x3dd82d18	0.10555476
93	0xbca5c367	-0.020234777
94	0xbe0fb6a0	-0.1403451
95	0xbda5940f	-0.080848806
96	0x3e041440	0.1289835
97	0xbddc3b65	-0.10753516
98	0xbddddae7	-0.10832768
99	0x3e712e61	0.23552848
100	0x3e5331dc	0.20624489
101	0x3d806d71	0.06270874
102	0x3d20586c	0.039146826
103	0x3d2aad50	0.04166919
104	0xbe094452	-0.13404968
105	0x3daeb7d8	0.08531159
106	0xbde24663	-0.110485815
107	0xbe0a9743	-0.13534264
108	0xbd92a783	-0.071608566
109	0xbd26a101	-0.04068089
110	0x3e639ec2	0.2222853
111	0x3c5edbfe	0.013602255
112	0xbc8c8f45	-0.01715816
113	0x3cd73f48	0.026275292
114	0xbdc80b45	-0.097677745
115	0xbd826033	-0.06366005
116	0x3d262ded	0.040571142
117	0x3d35c9d2	0.044381924
118	0xbd12fdcb	-0.035886567
119	0xba8ebf64	-0.0010890779
120	0x3d67fd84	0.056638256
121	0xbd74eed4	-0.059798077
122	0x3d1b5cd1	0.037930313
123	0x3deaef6e	0.11471449
124	0x3dc61a4f	0.09672987
125	0x3d1923f8	0.037387818
126	0x3d52295d	0.05130898
127	0xbd922778	-0.07136434
128	0x3ce9b7a9	0.028529959
129	0xbdda0d0c	-0.1064702
130	0x3d9ebc67	0.07750779
131	0x3d582f69	0.05277959
132	0x3dd3182b	0.10307344
133	0xbe02949b	-0.12752001
134	0xbd84ae1d	-0.06478522
135	0x3ce72453	0.028215563
136	0x3b74c4cf	0.0037348752
137	0xbda810b8	-0.08206314
138	0xbe12d250	-0.1433804
139	0xbd3b3797	-0.04570731
140	0x3da0abd4	0.078452736
141	0xbc203270	-0.00977765
142	0x3dbff03a	0.093719915
143	0xbdf93e08	-0.12170035
144	0xbd885c14	-0.066581875
145	0x3dffc70d	0.12489138
146	0xba9976c2	-0.0011708366
147	0xbe046606	-0.12929544
148	0x3beae670	0.0071685836
149	0xbdb1ec85	-0.08687691
150	0xbb865bcf	-0.0041003
151	0xbcba0e01	-0.022711756
152	0x3d50219c	0.050813302
153	0x3d9c9396	0.07645337
154	0xbd92710a	-0.07150467
155	0xbcac994a	-0.021069188
156	0x3d5c03b6	0.053714477
157	0xbdd6a0f9	-0.10479922
158	0xbc2bafbb	-0.010478909
159	0x3db3c55a	0.08777876
160	0xbc3a2c15	-0.011363049
161	0x3de93929	0.113878556
162	0x3d547b8f	0.051875647
163	0x3d636f7f	0.055526253
164	0x3dce896d	0.10084806
165	0x3aab25b9	0.0013057507
166	0xbe5601cb	-0.20899121
167	0xbc85b3c4	-0.01632107
168	0x3d7cfa5f	0.06176221
169	0xbc5e0fc9	-0.013553568
170	0x3d51f236	0.05125638
171	0x3d9d42db	0.07678767
172	0xbe3f200a	-0.18664566
173	0x3e5b46dd	0.21413751
174	0xbd3868e9	-0.045021925
175	0x3c86432a	0.016389448
176	0xb9bfbf19	-0.00036572738
177	0xbd7c8ac8	-0.06165579
178	0x3cad9bf5	0.02119253
179	0xbd809410	-0.06278241
180	0xbd4627ef	-0.048377927
181	0x3ca46151	0.020065935
182	0xbe18fcc8	-0.14940178
183	0xbe084901	-0.13309099
184	0x3dc1ac16	0.09456651
185	0xbdfcb99a	-0.12340088
186	0x3da70c0a	0.08156593
187	0x3d8692c7	0.06570964
188	0x3dc7ec6b	0.0976189
189	0xbdf3f1d5	-0.1191136
190	0xbe6aa3e8	-0.22914088
191	0x3d120806	0.035652183
192	0xbd79c9c9	-0.060983453
193	0xbd8c7805	-0.068588294
194	0x3da96935	0.0827202
195	0x3d1e859d	0.038701642
196	0xbe33398a	-0.17502418
197	0x3c7bde37	0.015372804
198	0x3d85d197	0.06534117
199	0xbceec0f6	-0.029144745
200	0x3c453de0	0.012038678
201	0x3dec5e31	0.11541403
202	0xbd29bcdf	-0.041439887
203	0xbda575ad	-0.080790855
204	0x3dc6b853	0.09703126
205	0x3d8569a6	0.065142915
206	0xbccda7b6	-0.025104385
207	0xbd1509dc	-0.036386356
208	0x3d715b3e	0.058924906
209	0x3cb1a7be	0.021686431
210	0x3d6387b9	0.055549357
211	0xbe045fe5	-0.12927206
212	0xbd54bb32	-0.051936336
213	0x3d476f44	0.048690096
214	0x3d55720e	0.052110724
215	0xbd6f14aa	-0.058369316
216	0xbcf93d6f	-0.030424802
217	0x3d1a033f	0.037600752
218	0x3ce53ee8	0.027984098
219	0xbe162cb1	-0.14665486
220	0xbd1cfc57	-0.038326588
221	0x3c1743b4	0.00923245
222	0x3d89f0d0	0.067353845
223	0x3db77a0a	0.08958824
224	0x3d5d5879	0.054039452
225	0x3bc41b50	0.005984701
226	0xbd6686a4	-0.056280747
227	0xbd94e494	-0.0727016
228	0x3dc74a18	0.09730929
229	0xbbc5e95a	-0.0060397806
230	0x3d6e39e6	0.058160685
231	0x3d901364	0.070349485
232	0x3d69abde	0.05704867
233	0x3d4c8cf4	0.04993911
234	0x3d657cb5	0.056027133
235	0xbb88606a	-0.004161884
236	0xbd20224d	-0.03909521
237	0x3e0fa466	0.14027557
238	0xbe105b97	-0.14097439
239	0x3c8d6ec1	0.017264726
240	0xbd97fb82	-0.07421018
241	0x3e1f27d5	0.15542538
242	0x3d79398b	0.060845893
243	0x3c7dc1a2	0.01548806
244	0x3d977cd9	0.0739686
245	0xbe24e658	-0.16103494
246	0xbd729439	-0.059223387
247	0xbcb5956c	-0.022165976
248	0x3e423c5a	0.18968335
249	0xbb54e168	-0.0032482985
250	0xbd35fc8d	-0.044430304
251	0x3df0c400	0.11756134
252	0xbe031524	-0.12801033
253	0x3d43cc3b	0.04780219
254	0x3e1e2b07	0.15446101
255	0xbcfeda34	-0.031109907

bias f4 [16]
0	0xbb8c1b3d	-0.004275708
1	0x3dc02d68	0.093836606
2	0x3d374f8b	0.044753592
3	0xbcc97be8	-0.024595216
4	0xbd2f5ae2	-0.042811282
5	0x3d9ac06c	0.07556233
6	0xbe035dc8	-0.12828743
7	0x3d6980cb	0.057007592
8	0xbdc07b10	-0.09398472
9	0xbdf061cc	-0.11737403
10	0xbd59d14a	-0.05317811
11	0xbd9287f9	-0.07154841
12	0xbd20d017	-0.03926095
13	0x3dd9b707	0.10630613
14	0xbd9b874f	-0.075941674
15	0x3e01bbfa	0.12669364

weight f4 [2, 16]
0	0xbc5259fa	-0.012838835
1	0xbc8670e5	-0.016411254
2	0x3e3b1a9d	0.18271871
3	0x3e7568bf	0.23965739
4	0x3d965cd3	0.073419236
5	0xbe4f5570	-0.20247436
6	0x3e784f32	0.2424896
7	0x3e9057bd	0.2819194
8	0x3d5508e2	0.052010424
9	0x3eb0bf4d	0.3452095
10	0xbe98a6b5	-0.29814687
11	0xbe645d9d	-0.22301336
12	0x3e0ae22b	0.13562839
13	0xbe79160b	-0.24324815
14	0xbe900c6f	-0.28134486
15	0xbe97d474	-0.29654276
16	0xbe5184da	-0.20460835
17	0x3eb269f3	0.34846458
18	0xbe261d8e	-0.16222212
19	0xbd80b409	-0.06284339
20	0xbe97fee9	-0.2968667
21	0x3df9f5ae	0.12205063
22	0xbd2ed5da	-0.042684413
23	0xbe7ad623	-0.24495749
24	0xbec86864	-0.39142144
25	0xbe92f95c	-0.2870587
26	0x3d6eb238	0.05827543
27	0x3e2f1bf7	0.17100511
28	0xbddf4405	-0.109016456
29	0xbd29744d	-0.04137068
30	0x3de6800b	0.11254891
31	0x3d5140da	0.051087238

bias f4 [2]
0	0x3db11c15	0.08647934
1	0x3dbde480	0.092720985
