mlpcnnsemi/model/oneinput_batch1_Epoch=1_lr=0.0001.pth (torch, 25249 bytes, 29 tensors)

weight f4 [4, 1, 1]
0	0xbdd660a2	-0.1046765
1	0xbef79c8f	-0.48361632
2	0x3f472c22	0.77801716
3	0x3c024c7a	0.007952804

bias f4 [4]
0	0xbf1a412f	-0.6025571
1	0xbf3bfec3	-0.7343561
2	0x3f2a2604	0.6646426
3	0xbf5d3333	-0.8640625

weight f4 [4]
0	0x3f823258	1.0171614
1	0x3f7f66e2	0.9976636
2	0x3f80261f	1.0011634
3	0x3f7e9cb5	0.99457866

bias f4 [4]
0	0x3c1d8bde	0.0096158665
1	0xbc393435	-0.011303951
2	0xbc8cce36	-0.017188173
3	0x3c1558b6	0.009115389

running_mean f4 [4]
0	0xbf226f15	-0.6345075
1	0xbf61ed5c	-0.88252807
2	0x3f67311d	0.90309316
3	0xbf5c905c	-0.86157775

running_var f4 [4]
0	0x3bcfcf26	0.0063418327
1	0x3e0a813c	0.13525862
2	0x3eb32062	0.34985644
3	0x381d1e0d	3.7459704e-05

weight f4 [16, 4, 1]
0	0xbe0dde56	-0.13854346
1	0x3f004768	0.5010896
2	0xbe0e1762	-0.13876107
3	0xbda1322d	-0.078708984
4	0x3cdd5f7d	0.027023071
5	0x3bcc85fc	0.006241558
6	0xbd75e3ee	-0.060031824
7	0xbd740975	-0.05957933
8	0xbe154845	-0.1457835
9	0x3e1f031f	0.15528534
10	0xbe379dc0	-0.1793127
11	0x3edc2791	0.42998937
12	0x3efc3c61	0.49264815
13	0x3e969145	0.29407707
14	0xbe9ce5cd	-0.30644074
15	0x3da826ea	0.08210547
16	0x3bb6bb63	0.0055765375
17	0xbec35a9f	-0.38155076
18	0x3e391a46	0.18076429
19	0xbdaf0d62	-0.085474744
20	0x3eae7e8f	0.34080932
21	0x3ea59b79	0.3234518
22	0x3de7acc1	0.11312247
23	0xbdeba693	-0.11506381
24	0x3d7669cf	0.0601595
25	0x3d127239	0.035753462
26	0xbed03029	-0.40661743
27	0xbe3de0fe	-0.18542859
28	0xbeb267b7	-0.34844753
29	0xbef8f843	-0.4862691
30	0x3e9a5d9e	0.3014955
31	0x3ec813a8	0.39077497
32	0xbe0c5dcb	-0.13707654
33	0xbe6de3a4	-0.2323137
34	0x3e81ab28	0.25325894
35	0xbe77d1c1	-0.24201109
36	0x3edcb094	0.43103468
37	0x3ee0f783	0.43938836
38	0x3e83c3f8	0.2573545
39	0xbd3624a2	-0.04446853
40	0xbccdac00	-0.02510643
41	0x3eae4b1e	0.34041685
42	0x3ea93d58	0.33054614
43	0xb8d7ecd3	-0.00010296111
44	0x3db1209a	0.086487964
45	0x3efc0b35	0.492273
46	0x3e8d0283	0.2754098
47	0x3ec52712	0.3850637
48	0x3e8c0dc9	0.27354267
49	0xbeb8bd50	-0.36081934
50	0x3e87177d	0.26385108
51	0xbd21cbee	-0.039501123
52	0x3e0e9374	0.13923436
53	0x3ea86789	0.3289149
54	0xbe44248a	-0.19154564
55	0x3e322e1f	0.17400406
56	0xbdc896ec	-0.09794411
57	0xbe68c925	-0.2273298
58	0x3d5ac248	0.053407937
59	0x3e505e8d	0.20348568
60	0x3e05dc5e	0.13072345
61	0xbe1af79e	-0.15133521
62	0x3d52c98c	0.05146174
63	0xbec17246	-0.37782496

bias f4 [16]
0	0x3ebe02e1	0.3711157
1	0xbe267d2d	-0.16258688
2	0x3ea6b80d	0.32562295
3	0xbeba016a	-0.36329204
4	0x3eb71dd9	0.3576496
5	0x3e8b8dd4	0.27256644
6	0x3ee3f872	0.44525486
7	0x3eb47c47	0.35251066
8	0x3e978acf	0.2959809
9	0xbec8c8ba	-0.39215642
10	0x3cb36aab	0.02190145
11	0xbf02457f	-0.5088729
12	0x3e80e860	0.25177288
13	0xbcf28201	-0.029603006
14	0x3e495ccd	0.19664307
15	0xbe92baca	-0.28658134

weight f4 [16]
0	0x3f84729e	1.0347478
1	0x3f7bfa27	0.9842858
2	0x3f7e9b6e	0.99455917
3	0x3f80c9d2	1.0061591
4	0x3f81b2ca	1.0132687
5	0x3f8092c6	1.0044792
6	0x3f807767	1.0036439
7	0x3f7c7719	0.9861923
8	0x3f80be00	1.0057983
9	0x3f807326	1.003514
10	0x3f833328	1.0249987
11	0x3f7a7554	0.9783528
12	0x3f7f33d7	0.99688476
13	0x3f82fadf	1.023281
14	0x3f7e2556	0.9927572
15	0x3f7d4c76	0.98944795

bias f4 [16]
0	0x3d02bd13	0.031918596
1	0xbc38496e	-0.011247976
2	0xbba4359e	-0.0050112745
3	0x3b6ff06f	0.0036611815
4	0x3bcf0938	0.0063182376
5	0x3bd84b91	0.006600805
6	0x3c153402	0.009106638
7	0x3c1ee3eb	0.009697895
8	0xba853387	-0.0010162451
9	0x3cfaae41	0.030600669
10	0x3c9d59e2	0.019207899
11	0xbccb4104	-0.024811275
12	0x392e9e2e	0.0001665286
13	0x3cbcaeb6	0.023032527
14	0x3b75ce42	0.0037506972
15	0xbc71e2f0	-0.014763579

running_mean f4 [16]
0	0x3ed125f0	0.40849257
1	0xbe3cefce	-0.18450853
2	0x3ec40968	0.38288426
3	0xbe4fb935	-0.20285495
4	0x3e916523	0.28397474
5	0x3eecdec0	0.46263695
6	0x3ea0cde3	0.3140708
7	0x3e99884b	0.29986796
8	0x3e4eca23	0.20194297
9	0xbdb1100f	-0.08645641
10	0x3e4b4cdc	0.19853538
11	0xbe35bd09	-0.17747892
12	0x3e981dbb	0.29710183
13	0x3db8ce74	0.09023753
14	0x3e30107d	0.1719379
15	0xbebd1258	-0.36928058

running_var f4 [16]
0	0x3d4dc7b6	0.050239287
1	0x3c32b786	0.010908013
2	0x3d07618c	0.033052012
3	0x3dbdce05	0.09267811
4	0x3c9af4fc	0.018915646
5	0x3c59762a	0.013272801
6	0x3e8b33ca	0.2718795
7	0x3ee4879b	0.4463471
8	0x3bf63659	0.007513803
9	0x3d0668c7	0.032814767
10	0x3d9b13c8	0.07572132
11	0x3e85cc2e	0.2613234
12	0x3d371d89	0.0447059
13	0x3c2d0ff2	0.010562884
14	0x3d7266c5	0.05918004
15	0x3d840b8d	0.06447516

weight f4 [8, 16, 2]
0	0xbdd5bee2	-0.10436799
1	0xbde57e8f	-0.1120578
2	0x3e29ce75	0.16582663
3	0xbd13cc4d	-0.03608351
4	0xbe18e29b	-0.14930193
5	0x3ded0059	0.11572332
6	0xbb30d437	-0.0026981959
7	0x3e08ff0f	0.13378547
8	0x3de11947	0.109911494
9	0xbd9f23ea	-0.07770522
10	0xbc4648da	-0.01210233
11	0xbdfd6781	-0.123732574
12	0x3c562246	0.013069695
13	0xbc88f159	-0.016716646
14	0xbe10d5a3	-0.14143996
15	0xbe31d3a0	-0.17365885
16	0x3e1fdb7e	0.15611073
17	0x3cc5e40a	0.024156589
18	0xbdb48ef4	-0.08816329
19	0xbca1a05c	-0.019729786
20	0x3ceac668	0.02865906
21	0xbd4bf6ab	-0.049795788
22	0x3e09b122	0.13446477
23	0x3d7009bb	0.05860303
24	0x3d1e90aa	0.03871218
25	0xbc4fc0da	-0.012680257
26	0xbe48a2ce	-0.19593355
27	0x3c8b16d3	0.016978657
28	0x3d03e23f	0.032198187
29	0x3c330f9f	0.010929017
30	0x3d3649b7	0.044503894
31	0x3d9f47c0	0.07777357
32	0x3e26113e	0.16217515
33	0x3e02a310	0.12757516
34	0x3dd903ad	0.10596404
35	0x3e1e10b3	0.15436058
36	0xbe024433	-0.12721328
37	0x3d0b37f8	0.033988923
38	0xbc832492	-0.016008649
39	0xbcd143c7	-0.025545014
40	0xbe0d7973	-0.1381586
41	0xbd8c5462	-0.06852032
42	0x3e261f9f	0.16223
43	0xbe1292ca	-0.14313808
44	0x3da28ea8	0.07937366
45	0xbc98663b	-0.018603435
46	0x3df8d1b3	0.12149372
47	0xbd68d129	-0.056840096
48	0x3dca79d7	0.0988652
49	0xbcefed38	-0.02928792
50	0xbe022cd1	-0.12712409
51	0xbe28f501	-0.16499712
52	0x3e03483b	0.12820522
53	0xbd343813	-0.04399879
54	0xbdc2ae8e	-0.0950595
55	0xbd75a9fb	-0.05997656
56	0x3e2c66e6	0.16836128
57	0x3da0f767	0.07859688
58	0xbdf961c6	-0.12176852
59	0xbe0c7046	-0.13714704
60	0xbdc1e559	-0.09467573
61	0x3dc594cf	0.096475236
62	0x3dd04f95	0.10171429
63	0xbd5b3de8	-0.053525835
64	0xbe15349f	-0.14570855
65	0x3e1e3dc7	0.15453254
66	0xbd500ed0	-0.050795376
67	0xbccb2d04	-0.024801739
68	0x3d7605d5	0.060064156
69	0xbdf078dc	-0.11741802
70	0xbd733b52	-0.059382744
71	0xbd4e0e38	-0.05030653
72	0x3c9a14c4	0.01880873
73	0xbdc6e292	-0.097111836
74	0xbdc1e058	-0.09466618
75	0xbc8d81d6	-0.017273825
76	0xbd9020dd	-0.07037518
77	0xbdbca8e9	-0.092119046
78	0x3d85df48	0.06536728
79	0x3c7a8e83	0.0152927665
80	0xbded5f65	-0.11590461
81	0xbd67af90	-0.056563914
82	0xbdc0248d	-0.093819715
83	0xbe1a4595	-0.15065606
84	0xbe27190a	-0.16318145
85	0x3d71ab62	0.059001334
86	0x3e0dcf28	0.13848555
87	0xbddaa3a9	-0.10675747
88	0xbdd066b4	-0.10175839
89	0xbc137179	-0.008999222
90	0xbcce97e1	-0.025218906
91	0x3da3824a	0.07983835
92	0x3e2981b7	0.16553389
93	0x3e0c6f4e	0.13714334
94	0xbe1e4f7a	-0.15460005
95	0xbd4c89d5	-0.049936134
96	0x3da6ed48	0.081507266
97	0x3d5f00c6	0.054444097
98	0xb9339ff2	-0.00017130355
99	0x3df9b5c1	0.1219287
100	0x3e13642c	0.14393681
101	0xbc6ef01e	-0.014583616
102	0xbd853794	-0.06504741
103	0xbd494fb2	-0.04914827
104	0x3de47240	0.11154604
105	0x3df65230	0.12027395
106	0xbceff2b1	-0.029290529
107	0x3cbddee8	0.023177579
108	0x3e06ba42	0.13156989
109	0xbdf4a5be	-0.11945675
110	0xbdd79057	-0.105255775
111	0xbc462f2d	-0.0120962085
112	0xbdcaafb8	-0.09896797
113	0xbc54f2aa	-0.012997309
114	0x3b3febbc	0.0029284796
115	0x3c8927fd	0.0167427
116	0xbc3a7c09	-0.011382111
117	0x3de067ba	0.10957284
118	0x3d9796f0	0.07401836
119	0xbe00e28e	-0.12586424
120	0xbe0a9d79	-0.13536634
121	0xbdab78e9	-0.08372671
122	0x3e37a658	0.17934549
123	0xbdec8253	-0.11548295
124	0xbc8f68c7	-0.017506016
125	0x3e10c7b0	0.14138675
126	0xbdc29045	-0.095001735
127	0xbe0d5eab	-0.13805644
128	0x3ddf11cd	0.10892067
129	0xbe1db173	-0.15399723
130	0xbc8b4a98	-0.017003343
131	0x3d1a404c	0.037658975
132	0xbda37e69	-0.07983095
133	0xbe07d6ea	-0.13265577
134	0xbd34a183	-0.044099342
135	0xbe40a511	-0.18812968
136	0xbd0a62c5	-0.0337856
137	0x3d28af96	0.041183077
138	0x3c9f9e02	0.019484524
139	0xbd99fe13	-0.07519164
140	0xbda32844	-0.079666644
141	0xbd0ca638	-0.034338206
142	0x3de4f020	0.11178613
143	0x3dea23cf	0.11432611
144	0xbe1b783e	-0.15182588
145	0xbd958529	-0.07300789
146	0xbd367552	-0.04454548
147	0xbe2686f8	-0.16262424
148	0xbd5192e2	-0.05116547
149	0xbd8d9e51	-0.06914962
150	0x3d5436fb	0.051810246
151	0x3e03f8e6	0.12887916
152	0xbc38d33b	-0.01128083
153	0xbc2c13c5	-0.01050276
154	0x3e38f9d3	0.1806405
155	0xbd8fa761	-0.07014347
156	0x3e1a8d65	0.15093
157	0xbd80d15a	-0.06289931
158	0x3b67c040	0.0035362393
159	0xbcafd7d9	-0.021465229
160	0xbd852143	-0.06500485
161	0x3e09f10f	0.13470863
162	0xbde9730b	-0.11398896
163	0x3ab9da96	0.0014179524
164	0x3d046ad1	0.03232843
165	0xbe264c69	-0.16240086
166	0x3dc7cfa8	0.09756404
167	0xbe0a5e30	-0.13512492
168	0xbc37ab5d	-0.01121029
169	0x3dc73f03	0.097288154
170	0xbe41ee37	-0.18938528
171	0xbd612bfc	-0.054973587
172	0x3e2ae7dc	0.1669001
173	0xbd9febc5	-0.07808641
174	0xbc80ca19	-0.015721368
175	0xbdcee9ad	-0.10103164
176	0x3dd81efe	0.10552786
177	0x3ce23ee4	0.02761788
178	0xbe1d469c	-0.15358967
179	0x3cc0e6fc	0.023547642
180	0xbde851df	-0.11343741
181	0xbb159901	-0.0022826793
182	0xbe062b6c	-0.13102502
183	0xbd1ffb37	-0.039057937
184	0x3d866857	0.0656287
185	0x3cc552d4	0.024087347
186	0x3dfa5569	0.12223322
187	0x3e0033ef	0.12519811
188	0xbdc0d57c	-0.09415719
189	0x3daa8053	0.08325257
190	0x3e3a8b73	0.18217258
191	0xbe1ca1d4	-0.15296108
192	0xbe3e4e47	-0.18584548
193	0xbdd04197	-0.1016876
194	0xbe1b1ecb	-0.15148465
195	0x3c424027	0.011856115
196	0x3dc8427a	0.097783044
197	0x3defe165	0.117129125
198	0xbd73dbd3	-0.059535813
199	0xbd58ce02	-0.05293084
200	0x3e19a3d8	0.15003908
201	0x3df0246e	0.117256984
202	0xb984072a	-0.0002518234
203	0xbd15a6a9	-0.036535893
204	0x3e093674	0.13399678
205	0xbce20d22	-0.027594153
206	0x3e07e30e	0.13270208
207	0xbb4fd5de	-0.0031713168
208	0xbc4f42a1	-0.012650163
209	0xbd0663fb	-0.032810193
210	0x3e0f8c81	0.14018442
211	0xbe2407a6	-0.16018543
212	0x3deac985	0.11464218
213	0x3d656882	0.05600787
214	0x3cbb5bd1	0.02287093
215	0xbc8a37b1	-0.016872259
216	0xbdbc65e6	-0.09199123
217	0xbd363dbb	-0.044492465
218	0xbd0e866f	-0.034796175
219	0x3d899d38	0.0671944
220	0x3e51db98	0.20493925
221	0xbde81ad7	-0.11333244
222	0x3ded0587	0.1157332
223	0x3c3afa62	0.011412235
224	0xb99420b0	-0.00028253114
225	0x3d62d2c6	0.05537679
226	0xbd62a87d	-0.055336464
227	0x3d8da982	0.06917097
228	0xbda56697	-0.08076208
229	0xbd58dcba	-0.052944876
230	0x3d046ec0	0.032332182
231	0xbe19cccd	-0.15019532
232	0xbe07b3e3	-0.13252215
233	0xbe23b6b8	-0.1598767
234	0xbe213522	-0.15742925
235	0xbdeffe77	-0.11718457
236	0x3d866403	0.065620445
237	0xbd29f809	-0.04149631
238	0x3b00599d	0.0019584664
239	0x3d987d63	0.074457906
240	0x3e1edf48	0.15514863
241	0x3ca68bcc	0.020330332
242	0xbe0d9fb2	-0.1383045
243	0xbdfccee5	-0.123441495
244	0xbda440e1	-0.08020187
245	0xbddea2ef	-0.10870921
246	0x3e00d0c4	0.12579638
247	0x3d1de794	0.03855093
248	0xbdb889cf	-0.0901066
249	0x3dadf3de	0.084937796
250	0x3e352267	0.17688905
251	0xbc8e7221	-0.017388405
252	0xbe11cd89	-0.14238562
253	0x3d011fb5	0.03152438
254	0xbdfe4794	-0.12415996
255	0x3d4fd74a	0.050742425

bias f4 [8]
0	0x3cc1b3ce	0.023645308
1	0xbdf79771	-0.12089432
2	0xbd1f273c	-0.038855776
3	0x3da5d7ea	0.08097823
4	0xbdffed5c	-0.124964446
5	0xbe09f585	-0.13472565
6	0xbdf7a109	-0.12091262
7	0x3d187a25	0.03722586

weight f4 [8]
0	0x3f826146	1.0185935
1	0x3f7d5df5	0.9897149
2	0x3f7fbf7b	0.9990155
3	0x3f836360	1.0264702
4	0x3f8077ec	1.0036597
5	0x3f81f07a	1.0151513
6	0x3f75fc04	0.9608767
7	0x3f7d3c53	0.9892017

bias f4 [8]
0	0x3ccbac5d	0.024862463
1	0xbc5e6b9f	-0.013575464
2	0x3b942346	0.0045208065
3	0x3c756f89	0.014980205
4	0x3bab57a0	0.0052289516
5	0x3d0ad378	0.03389308
6	0xbbdcf050	-0.0067425147
7	0xbd135557	-0.03597006

running_mean f4 [8]
0	0xbd954ece	-0.072904214
1	0xbe121523	-0.14265876
2	0xbea4ec61	-0.32211593
3	0x3df3792d	0.11888347
4	0xbeac9057	-0.33703873
5	0xbe3e6dec	-0.1859662
6	0xbd04f330	-0.032458484
7	0xbe5a8186	-0.21338472

running_var f4 [8]
0	0x3d0c4fd6	0.034255825
1	0x3d260a4e	0.04053717
2	0x3d614240	0.05499482
3	0x3cb16be2	0.021657888
4	0x3d111745	0.035422582
5	0x3e134d80	0.14385033
6	0x3efb6492	0.49100167
7	0x3e62d055	0.22149785

weight f4 [4, 8, 2]
0	0x3e4848ba	0.19558993
1	0xbe73723e	-0.23774049
2	0xbd5fe4e5	-0.05466165
3	0x3856148c	5.104071e-05
4	0x3e3c2ac9	0.18375696
5	0x3c7a86e8	0.015290953
6	0x3de12782	0.10993864
7	0x3d341b8a	0.043971576
8	0x3e73c420	0.23805285
9	0x3d9f1545	0.07767729
10	0x3d6868f6	0.056740724
11	0xbdb28692	-0.087170735
12	0xbdfd36b0	-0.123639464
13	0x3dc864e8	0.09784871
14	0x3bff74e5	0.0077959173
15	0x3dfd6cac	0.12374243
16	0xbe0af978	-0.13571727
17	0x3e025cd2	0.1273072
18	0x3dce79d1	0.100818284
19	0xbd98bf96	-0.07458417
20	0x3df2f376	0.11862843
21	0x3e1cc693	0.15310125
22	0x3e123b61	0.14280464
23	0x3e50d1f8	0.20392597
24	0x3e2dd21b	0.1697468
25	0x3d9ea0c2	0.07745506
26	0xbd450eae	-0.048109703
27	0x3c37d6d6	0.0112206545
28	0x3d8c4427	0.068489365
29	0xbe1203a8	-0.14259207
30	0x3df35846	0.11882071
31	0x3d9fa48d	0.077950574
32	0xbdf0e19d	-0.11761782
33	0x3e257004	0.16156012
34	0x3caaafea	0.020835835
35	0xbe469db7	-0.19396101
36	0xbda72240	-0.081608295
37	0x3e55eb8c	0.20890635
38	0x3dd44d01	0.1036625
39	0xbd811401	-0.063026436
40	0xbc8f1e0e	-0.017470386
41	0x3e3ed4f8	0.18635929
42	0x3e01ccbf	0.1267576
43	0x3d95658f	0.072947614
44	0xbd79563a	-0.060873248
45	0x3e330f8e	0.17486402
46	0x3e60a082	0.21936229
47	0xbdc0441c	-0.09387991
48	0x3e1d7920	0.15378237
49	0x3da98f17	0.08279245
50	0x3d661cf2	0.05617995
51	0x3d9e5c57	0.07732456
52	0xbdb6a169	-0.08917505
53	0x3d12b79e	0.035819642
54	0x3e85505b	0.2603787
55	0xbe41f8f6	-0.18942627
56	0x3dd9116b	0.10599025
57	0x3cf39a1a	0.029736567
58	0xbdc9bdd5	-0.09850661
59	0x3df43e6e	0.1192597
60	0xbe456e93	-0.19280462
61	0xbe531027	-0.2061163
62	0x3e1b4c6f	0.15165876
63	0x3e39e466	0.18153533

bias f4 [4]
0	0xbe6495a6	-0.22322711
1	0x3c578123	0.013153347
2	0xbd8a336c	-0.06748089
3	0xbe348cbf	-0.17631815

weight f4 [4]
0	0x3f707b51	0.93938166
1	0x3f8526e0	1.0402489
2	0x3f881d2b	1.0633901
3	0x3f828499	1.0196716

bias f4 [4]
0	0x3beffb9e	0.0073236963
1	0x3c913e79	0.017729985
2	0xbc2aefb5	-0.010433127
3	0xbcb21608	-0.021739021

running_mean f4 [4]
0	0xbd66882f	-0.05628222
1	0x3e8d47bb	0.27593789
2	0x3dbc6530	0.091989875
3	0xbd2023c8	-0.039096624

running_var f4 [4]
0	0x3d8fb96d	0.07017789
1	0x3da12e98	0.07870215
2	0x3dd022a1	0.10162855
3	0x3e16cb9c	0.14726108

weight f4 [1, 4, 2]
0	0x3e4be4b2	0.19911459
1	0x3e832326	0.25612754
2	0xbcde473f	-0.027133582
3	0x3e99032a	0.29885226
4	0xbda242ae	-0.079228744
5	0xbd1b616c	-0.037934706
6	0xbe83956b	-0.25699934
7	0x3e1dfc13	0.1542819

weight f4 [16, 80]
0	0xbcd4bd01	-0.02596903
1	0x3ba02f2d	0.0048884363
2	0xbd0acfdf	-0.033889648
3	0x3de74969	0.11293299
4	0x3e0b86a4	0.1362558
5	0xbd4f9565	-0.050679583
6	0x3d6220f2	0.0552072
7	0x3df33b73	0.118765734
8	0xbcdab2ae	-0.02669653
9	0x3da2f8f3	0.079576395
10	0x3d8fa225	0.070133485
11	0x3dc788f6	0.0974292
12	0xbe00471d	-0.12527128
13	0x3d3f4691	0.046698157
14	0xbd9766d7	-0.07392662
15	0xbcedfc9d	-0.02905112
16	0xbd20dfc9	-0.03927592
17	0xbd62c859	-0.055366848
18	0xbd50240c	-0.050815627
19	0xbde4f51a	-0.11179562
20	0xbd791201	-0.060808185
21	0xbcf208fe	-0.029545303
22	0x3da739f5	0.08165351
23	0x3dbbb68e	0.09165679
24	0x3dc64e04	0.09682849
25	0xbdda5c96	-0.106621906
26	0x3d8791e3	0.066196226
27	0x3d59953c	0.053120837
28	0x3d35a224	0.044344082
29	0x3c905e1f	0.017623005
30	0xbd91d23b	-0.071201764
31	0xbd174c20	-0.036937833
32	0x3c45fb27	0.012083805
33	0xbd83c38a	-0.064337805
34	0xbb67a622	-0.0035346826
35	0xbc5d5ac2	-0.013510408
36	0x3d92b5fa	0.071636155
37	0xbd4708b6	-0.04859229
38	0xbd620bcc	-0.05518703
39	0xbd329895	-0.043602545
40	0x3e26c5f0	0.16286445
41	0xbbf398ad	-0.007433972
42	0x3d0a9e5e	0.033842437
43	0x3da8ba69	0.0823868
44	0xbc9126ec	-0.017718755
45	0xbd53dd64	-0.051724806
46	0xbcb256d2	-0.021769915
47	0xbd23b366	-0.03996601
48	0xbdc8f5cc	-0.09812507
49	0x3d09f057	0.03367647
50	0x3b8358e1	0.004008398
51	0xbc8dd9cf	-0.017315773
52	0x3da8fd70	0.08251464
53	0x3d5c1625	0.053732056
54	0xbce2df24	-0.027694292
55	0xbdb9479f	-0.09046864
56	0xbdcc05bb	-0.099620305
57	0x3d291d6f	0.041287836
58	0x3a244dfa	0.0006267723
59	0x3c2521b3	0.010078835
60	0x3d134262	0.03595198
61	0x3c12cebe	0.008960424
62	0x3c097f9a	0.008392239
63	0xbce5921c	-0.028023772
64	0x3c66c311	0.014084593
65	0x3d1b4e04	0.0379162
66	0x3ddd0901	0.10792733
67	0xbd73df67	-0.059539225
68	0xbd8c258b	-0.06843098
69	0xbd02708a	-0.031845607
70	0xbce49720	-0.027904093
71	0x3da1cf09	0.07900817
72	0x3db6b14d	0.08920536
73	0x3cedb80e	0.029018428
74	0xbdad5809	-0.08464057
75	0x3c0339d9	0.008009397
76	0xbd0ff7c1	-0.035148386
77	0x3ddbaea1	0.10726667
78	0x3d2f8d94	0.04285963
79	0xbb5e0249	-0.0033875874
80	0x3d920c38	0.07131237
81	0x3d2c8128	0.04211536
82	0xb9ef19f3	-0.00045604966
83	0xbc13f7e6	-0.009031272
84	0x3d0423e6	0.032260798
85	0x3dce5dc8	0.10076481
86	0x3ddecd77	0.10879033
87	0xbd5c4a07	-0.053781535
88	0x3d6cef6a	0.05784551
89	0x3dac0437	0.083992414
90	0x3db6a2ac	0.08917746
91	0x3cd764d2	0.026293192
92	0x3cd29f88	0.025710836
93	0x3d51216f	0.051057275
94	0xbde4e5ba	-0.11176629
95	0xbdb83c6a	-0.08995898
96	0x3cefe054	0.029281773
97	0xbe05b83b	-0.1305856
98	0xbd6d9354	-0.05800183
99	0x3dc5c446	0.09656577
100	0x3df978c7	0.121812396
101	0x3db30af0	0.087423205
102	0xbd694fdc	-0.056960925
103	0xbd01f219	-0.031725023
104	0xbdb9ea0c	-0.09077844
105	0x3bc42363	0.0059856637
106	0xbd24e5cd	-0.040258218
107	0xbc92c38a	-0.017915506
108	0xbda462fc	-0.08026692
109	0xbd51e72b	-0.05124585
110	0x3e006877	0.1253985
111	0x3b053e3e	0.0020331289
112	0xbda21c13	-0.07915511
113	0xb9c12584	-0.0003683978
114	0xbd30d075	-0.04316755
115	0xbd3e1318	-0.046404928
116	0xbccdfa7a	-0.02514385
117	0x3cb6bc7f	0.022306679
118	0x3b207e35	0.0024489288
119	0xbc7a40f6	-0.015274277
120	0x3cbfb39a	0.02340107
121	0x3d18e89b	0.037331205
122	0x3c9188c9	0.01776542
123	0x3da2ffef	0.07958972
124	0x3dc6a144	0.09698728
125	0x3bbf179c	0.005831672
126	0x3d72132a	0.059100308
127	0xbc965122	-0.018349234
128	0x3cf0c153	0.02938906
129	0xbd895119	-0.06704921
130	0x3d8cc8d2	0.06874241
131	0x3c26c979	0.010179871
132	0x3d8b383e	0.06797837
133	0xbdb29daa	-0.08721478
134	0xbd9565ba	-0.072947934
135	0x3d6a93da	0.05726991
136	0xbd0571ca	-0.03257922
137	0xbca27bcc	-0.019834422
138	0xbde49a5b	-0.111622535
139	0xbdc3dde6	-0.09563808
140	0x3dcbb73d	0.09947059
141	0xbb3ae75d	-0.002851925
142	0x3de993d6	0.114051506
143	0xbdea528c	-0.11441526
144	0xbd993209	-0.074802466
145	0x3dad0218	0.08447665
146	0xbbc3b3ad	-0.0059723468
147	0xbdf40855	-0.11915652
148	0x3d26d096	0.040726267
149	0xbde1a70f	-0.11018192
150	0x3c77aa7d	0.015116331
151	0x3afb6764	0.0019180593
152	0x3c6b8fd1	0.01437755
153	0x3d82ee49	0.063931055
154	0xbdba3ef9	-0.09094042
155	0xbc807890	-0.015682489
156	0x3d1b7b88	0.037959605
157	0xbdc1e3e2	-0.09467293
158	0xbd0330fb	-0.032029133
159	0x3de54daa	0.11196454
160	0x3c84fbf0	0.016233414
161	0x3dc72d2e	0.09725414
162	0x3c8d7108	0.017265812
163	0x3df4615a	0.11932631
164	0x3c1afc59	0.009459578
165	0x3d2e7ac7	0.04259756
166	0xbdc3f562	-0.095682874
167	0x3c1bbf3c	0.009506043
168	0xbbe78645	-0.0070655667
169	0x3ca02e5b	0.019553354
170	0x3cc073bb	0.023492685
171	0x3c3fb99c	0.011701968
172	0xbdd725c6	-0.105052516
173	0x3e15c151	0.14624526
174	0xbd9396f1	-0.07206524
175	0x3cdb1056	0.026741188
176	0x3dcc7342	0.09982921
177	0xbd13fa6e	-0.0361275
178	0xbce0b864	-0.027431674
179	0x3d9e7279	0.07736678
180	0x3d190196	0.037355028
181	0xbaf15ee8	-0.0018415125
182	0xbd568501	-0.052372936
183	0xbd6d6308	-0.05795577
184	0x3d5bf095	0.053696234
185	0xbd2e3e70	-0.042540014
186	0x3c612414	0.013741512
187	0xbd4b5b4d	-0.049647618
188	0x3dde113a	0.108431295
189	0xbddb67bf	-0.10713147
190	0xbe052734	-0.13003236
191	0x3d48cc5f	0.04902303
192	0x3b574f31	0.0032853598
193	0xbd20e93f	-0.03928494
194	0x3cf851e8	0.030312493
195	0x3cbe27f0	0.023212403
196	0xbdde7489	-0.10862071
197	0x3d244f98	0.04011497
198	0x3cf2f85c	0.029659443
199	0xbc5996e1	-0.013280601
200	0x3d4140b0	0.04718083
201	0x3cb1f627	0.02172382
202	0xbca7da9a	-0.02048998
203	0xbd2faa6e	-0.042887144
204	0x3dc96f6e	0.09835707
205	0x3dcaf7be	0.09910534
206	0xbcf77f8c	-0.030212186
207	0xbdb21ab3	-0.08696499
208	0x3d798872	0.06092114
209	0xbc7ab987	-0.015303022
210	0x3d86955f	0.06571459
211	0xbdae4494	-0.08509174
212	0xbc6a7f3e	-0.014312563
213	0x3c339595	0.010960956
214	0x3d80ada6	0.06283121
215	0xbdae07f9	-0.084976144
216	0x3bfe356f	0.0077578346
217	0xbcb433a1	-0.021997275
218	0xbad37f51	-0.0016135966
219	0xbdc2a79b	-0.095046245
220	0xbd69d9ee	-0.0570926
221	0x3b9240ff	0.0044633145
222	0x3d4b6b7c	0.049663052
223	0x3dae7625	0.08518628
224	0x3d851206	0.06497578
225	0x3d4475e0	0.047963977
226	0xbd4af7be	-0.04955267
227	0xbda6b764	-0.08140448
228	0x3d88b66e	0.06675421
229	0x3c99208e	0.018692281
230	0x3d29ad7e	0.04142522
231	0x3d457032	0.0482027
232	0x3dc4a3c8	0.09601551
233	0x3d86d75d	0.06584046
234	0x3d9f103e	0.0776677
235	0xbc046e8e	-0.008082999
236	0xbcb49733	-0.022044754
237	0x3e0716c9	0.13192286
238	0xbdf1c5e7	-0.11805325
239	0xbb9d56fa	-0.004801628
240	0xbd423d00	-0.047421455
241	0x3e0dc646	0.13845167
242	0x3cd888eb	0.026432475
243	0x3da32d87	0.07967668
244	0xbc93badf	-0.018033443
245	0xbdf72301	-0.12067223
246	0x3d5ced23	0.05393709
247	0x3b5e622c	0.0033933027
248	0x3df7d4bd	0.121011235
249	0x3cf14d2f	0.02945575
250	0xbd968e39	-0.073513456
251	0x3d56f343	0.052478086
252	0xbd3dc55a	-0.046330787
253	0xbcae09c1	-0.021244885
254	0x3e029c67	0.12754975
255	0xbcab5271	-0.020913335

bias f4 [16]
0	0x3d550e8f	0.052015837
1	0x3d34d7a3	0.04415096
2	0x3dc97aa8	0.09837848
3	0x3ce9ec05	0.028554926
4	0x3c315016	0.010822317
5	0x3cc436dd	0.023951942
6	0xbd97daa4	-0.07414749
7	0x3de10374	0.10986987
8	0xbd26c036	-0.04071065
9	0xbd87da19	-0.06633396
10	0xbddbdeba	-0.10735841
11	0xbdf927b8	-0.12165779
12	0x3c5c00c5	0.013427918
13	0x3d4f4954	0.05060704
14	0xbe04b20c	-0.12958544
15	0x3d980f6b	0.07424816

weight f4 [2, 16]
0	0xbdd3743d	-0.10324905
1	0x3dc525c5	0.096263446
2	0x3e02733b	0.1273927
3	0x3e390bc0	0.18070889
4	0x3b8fdea0	0.0043905526
5	0xbe38b2cd	-0.18036957
6	0x3e54ba69	0.20774235
7	0x3e3358fa	0.1751441
8	0xbdd4034e	-0.10352193
9	0x3e5fce02	0.2185593
10	0xbe755bc5	-0.23960789
11	0xbd8c639f	-0.06854939
12	0x3d95733b	0.07297369
13	0xbe396dc0	-0.18108273
14	0xbe4adf40	-0.19811726
15	0xbe5c81f4	-0.21533948
16	0xbde9e041	-0.11419726
17	0x3e7171d6	0.23578581
18	0xbddaec4a	-0.106896
19	0xbb7f6295	-0.0038968672
20	0xbe694ec7	-0.22783957
21	0x3dccaf8c	0.099944204
22	0xbc02078a	-0.007936368
23	0xbe0d7f1f	-0.13818024
24	0xbe718c26	-0.23588619
25	0xbe24423a	-0.16040888
26	0xb98a8350	-0.00026419247
27	0x3c877f95	0.016540328
28	0xbd3de5f1	-0.046361867
29	0xbdd40bae	-0.1035379
30	0x3cf03b72	0.02932522
31	0xbcf6bd63	-0.030119603

bias f4 [2]
0	0x3e0d3457	0.13789497
1	0x3d2931e9	0.041307364
