mlpcnnsemi/model/cnn/64oneinput_batch1_Epoch=5_lr=0.0001.pth (torch, 25249 bytes, 29 tensors)

weight f4 [4, 1, 1]
0	0x3f2126db	0.62949914
1	0x3f3ba4c7	0.73298305
2	0x3f2d9d5b	0.6781823
3	0xbf19ac64	-0.6002867

bias f4 [4]
0	0x3f32005a	0.69531786
1	0x3f1daf93	0.6159603
2	0xbe88dbc8	-0.2673018
3	0xbebe2d08	-0.3714373

weight f4 [4]
0	0x3f820e02	1.0160525
1	0x3f7d8f97	0.99047226
2	0x3f7f8efb	0.99827546
3	0x3f81bff9	1.013671

bias f4 [4]
0	0xbc182e42	-0.0092883725
1	0xbc073801	-0.008253098
2	0xbc54db0a	-0.012991676
3	0x3b45f657	0.0030206644

running_mean f4 [4]
0	0x3f62b0be	0.8855094
1	0x3f564357	0.836965
2	0xbd8051ac	-0.06265578
3	0xbf0d7dca	-0.55270064

running_var f4 [4]
0	0x3e73dab7	0.23813902
1	0x3ea557c7	0.3229353
2	0x3e8d989f	0.27655503
3	0x3e5dc871	0.21658494

weight f4 [16, 4, 1]
0	0x3ec45883	0.3834878
1	0xbef47247	-0.47743437
2	0xbe775343	-0.24152856
3	0x3ef936e7	0.486747
4	0xbd7e805f	-0.062134143
5	0x3eaa6ebf	0.33287618
6	0xbe2ec158	-0.17065942
7	0x3ec41f29	0.38305023
8	0x3f044a85	0.5167621
9	0xbeed7c82	-0.46384054
10	0x3ea6d0ce	0.3258118
11	0xbef390e6	-0.47571486
12	0x3e6a9177	0.22907053
13	0x3db21013	0.08694472
14	0x3ef9ba44	0.48774922
15	0xbe8f0cbd	-0.27939406
16	0xbd59c9b1	-0.053170864
17	0x3d2a5b56	0.04159101
18	0x3e8c4a4d	0.27400437
19	0x3d4fd16b	0.050736826
20	0xbe40605a	-0.18786755
21	0xbea289fa	-0.31745893
22	0xbeb91ca8	-0.36154675
23	0xbe43d884	-0.19125563
24	0xbedcd45d	-0.4313077
25	0x3e065ffe	0.13122556
26	0xbef9d3d3	-0.48794422
27	0x3ef0b385	0.47011963
28	0xbe510420	-0.2041173
29	0x3d5352a3	0.05159248
30	0x3e48b05a	0.19598523
31	0xbe494292	-0.19654301
32	0xbea98991	-0.33112767
33	0x3eb766eb	0.35820708
34	0xbe99ed67	-0.30063936
35	0xbe23a3a3	-0.15980391
36	0xbed30dfc	-0.41221607
37	0x3c754d0b	0.014971982
38	0xbe779eeb	-0.24181716
39	0xbecde111	-0.40210775
40	0x3e4e6288	0.20154774
41	0xbe4ae9e3	-0.19815783
42	0x3e26ac4b	0.16276662
43	0x3d812922	0.063066736
44	0x3e2becce	0.16789553
45	0xbeae9c62	-0.34103686
46	0xbe92de28	-0.28685117
47	0xbc3dbf8a	-0.011581311
48	0x3eee0c09	0.46493557
49	0xbe91044a	-0.28323585
50	0x3e310d13	0.17290144
51	0xbed51646	-0.41618556
52	0x3eaf60aa	0.34253436
53	0xbdf2eefc	-0.11861989
54	0x3e99a810	0.30011034
55	0x3e85405d	0.26025668
56	0xbe61c9f3	-0.22049694
57	0x3ed67b1d	0.41890803
58	0x3d173583	0.036916267
59	0x3e34e333	0.17664795
60	0x3d970d2c	0.07375559
61	0x3e08b367	0.13349687
62	0xbdca2c58	-0.09871739
63	0xbef04c6d	-0.46933308

bias f4 [16]
0	0xbe359254	-0.17731601
1	0xbd9c30ce	-0.07626496
2	0xbe36b4d2	-0.17842415
3	0x3e654dbc	0.22392935
4	0xbdd4855b	-0.10376998
5	0x3e883c35	0.26608434
6	0xbd33b0bc	-0.04386972
7	0xbdbd11c1	-0.09231902
8	0x3e96c26e	0.29445213
9	0x3ef3071a	0.47466356
10	0xbb2ca08b	-0.0026340808
11	0x3eb43af7	0.35201237
12	0xbeba456a	-0.36381084
13	0xbee259c5	-0.44209114
14	0xbf00581a	-0.5013443
15	0xbea6674b	-0.3250068

weight f4 [16]
0	0x3f7f65ae	0.99764526
1	0x3f807144	1.0034566
2	0x3f7a6ec7	0.9782528
3	0x3f80b4ba	1.0055153
4	0x3f822b9d	1.016956
5	0x3f85e140	1.0459366
6	0x3f8162e5	1.0108305
7	0x3f7e7b32	0.9940673
8	0x3f7d53aa	0.98955786
9	0x3f824530	1.0177364
10	0x3f7b30ea	0.9812151
11	0x3f8005c8	1.0001764
12	0x3f805a9e	1.0027654
13	0x3f81e6f2	1.0148604
14	0x3f8111bf	1.0083541
15	0x3f7a4099	0.9775482

bias f4 [16]
0	0xbc4ccf71	-0.01250063
1	0x3c0e7ccc	0.008696746
2	0xbc6aa267	-0.014320946
3	0xbba364cb	-0.0049863807
4	0xbc2f9fdc	-0.010719266
5	0x3d70bc4c	0.058773324
6	0x3cb0b55c	0.021570854
7	0x3cc377a4	0.02386076
8	0xbbdb7ed3	-0.0066984682
9	0x3c663ce8	0.014052607
10	0xbc1d4c12	-0.009600656
11	0x3c494a21	0.01228574
12	0x3b9971f4	0.0046827737
13	0xbc66257b	-0.014047022
14	0x3b7635fd	0.00375688
15	0xbc78f840	-0.015195906

running_mean f4 [16]
0	0xbe041d9e	-0.12901923
1	0x3d6cfeb0	0.057860076
2	0xbe528edd	-0.2056231
3	0x3ebaa455	0.364535
4	0xbc9ae18c	-0.018906377
5	0xbcc0476e	-0.02347156
6	0xbe036743	-0.1283236
7	0xbe0c3874	-0.1369341
8	0x3e31b0dd	0.17352624
9	0x3e3e785a	0.18600598
10	0x3d7a9c59	0.06118426
11	0x3e66c53a	0.22536173
12	0xbec34272	-0.3813663
13	0xbe662c55	-0.22477849
14	0xbec785a4	-0.38969147
15	0xbeda95fb	-0.4269255

running_var f4 [16]
0	0x3df0d588	0.11759478
1	0x3bd0f71f	0.0063771154
2	0x3e24605d	0.16052385
3	0x3f10c964	0.565573
4	0x3d5987a0	0.053107858
5	0x3f169663	0.5882322
6	0x3f14741a	0.57989657
7	0x3b6f6b87	0.0036532597
8	0x3d6e60f2	0.058197923
9	0x3e9c19ec	0.30488527
10	0x3cb56f8a	0.022147913
11	0x3e2ac611	0.16677119
12	0x3e0c3e14	0.13695556
13	0x3e569fb4	0.2095936
14	0x3d175a71	0.036951486
15	0x3cc738ca	0.024319071

weight f4 [8, 16, 2]
0	0x3e316be4	0.17326313
1	0x3d806c0c	0.06270608
2	0x3d502fc8	0.050826818
3	0xbb29e195	-0.002592181
4	0xbe0a149b	-0.13484423
5	0xbd89aa67	-0.06721955
6	0x3bfb564b	0.007670199
7	0x3e048445	0.12941082
8	0x3e0764af	0.13222001
9	0x3cfc0f11	0.030768903
10	0xbe1e70dc	-0.1547274
11	0x3deeaaeb	0.11653694
12	0x3d258cb8	0.040417403
13	0xbd0c3c59	-0.03423724
14	0xbe24cbf3	-0.16093425
15	0xbdd1397f	-0.10216045
16	0xbdf8618f	-0.12127983
17	0xbe29fada	-0.16599599
18	0x3e258ace	0.16166231
19	0x3cef237d	0.029191727
20	0xbd3d9ef9	-0.046294186
21	0xbdbae8fe	-0.09126471
22	0xbdb875bf	-0.09006833
23	0xbe304f78	-0.17217815
24	0x3e3824b4	0.17982751
25	0x3dc1b06c	0.09457478
26	0x3dca1005	0.09866337
27	0x3dd3fef6	0.10351364
28	0xbd2a7483	-0.04161502
29	0xbd52a2e8	-0.05142489
30	0x3c6a0d07	0.0142853325
31	0xbdee7fe5	-0.11645488
32	0xbe30d49b	-0.17268603
33	0xbdd268ce	-0.10273896
34	0xbe3a0463	-0.18165736
35	0x3e3db280	0.18525124
36	0xbdefcc0c	-0.11708841
37	0x3de1d96f	0.110278
38	0x3e233734	0.15939027
39	0x3ce0b99b	0.027432254
40	0xbe1ca298	-0.152964
41	0xbe2eca6f	-0.1706941
42	0xbe3825fe	-0.17983243
43	0x3e25669e	0.16152427
44	0xbde8cd7d	-0.11367319
45	0x3e3db534	0.18526155
46	0x3e1a3e10	0.15062737
47	0x3dc08d3e	0.0940194
48	0xbe27f652	-0.16402557
49	0xbd6a649f	-0.057224866
50	0xbcdfddb6	-0.0273274
51	0x3d11b92b	0.03557698
52	0xbd67010b	-0.05639748
53	0x3cc177f8	0.023616776
54	0xbd930c17	-0.0718004
55	0xbcadc90a	-0.021214027
56	0xbe2811ea	-0.16413084
57	0x3bf189ca	0.007371162
58	0x3e0dd19f	0.13849495
59	0x3dbd35b9	0.092387624
60	0x3c1e2772	0.009652959
61	0xbe3185b3	-0.17336158
62	0x3e156caa	0.14592233
63	0xbd2e9908	-0.04262641
64	0xbde8e62f	-0.11372029
65	0xbd01f909	-0.03173164
66	0x3d3ca12e	0.04605215
67	0x3ddbeb97	0.107382946
68	0x3e0174ca	0.12642208
69	0xbe2c601e	-0.16833541
70	0x3cc98c94	0.024603166
71	0x3d9ad9bc	0.07561061
72	0x3d38dfbe	0.045135252
73	0x3de89f5a	0.11358519
74	0x3e46c8af	0.19412492
75	0x3e18b0e1	0.14911224
76	0xbdc393a6	-0.09549646
77	0x3d51a7f1	0.051185552
78	0xbd50c7cf	-0.050971802
79	0x3e0d70ca	0.13812557
80	0xbd5b9c91	-0.05361611
81	0x3e180a8e	0.14847776
82	0x3e182273	0.14856891
83	0xbd47c565	-0.048772234
84	0xbe24058d	-0.16017742
85	0x3e1c0f15	0.15240128
86	0x3e3dd80b	0.18539445
87	0x3d450714	0.048102453
88	0xbd903fa8	-0.070433915
89	0x3d391c98	0.045193285
90	0x3d083c36	0.033260547
91	0xbda87edf	-0.08227324
92	0xbd44c28e	-0.048037104
93	0x3c02fa56	0.007994255
94	0x3dfb2aba	0.12264009
95	0xbe14cd22	-0.14531377
96	0x3d51aa3c	0.05118774
97	0xbe05c9d8	-0.13065279
98	0xbe36811d	-0.1782269
99	0xbe1ea27b	-0.15491669
100	0xbd188a7c	-0.037241444
101	0x3dda5764	0.106612
102	0x3d798c50	0.060924828
103	0x3d990233	0.074711226
104	0xbd8a1ba7	-0.067435555
105	0xbd8b1f25	-0.0679305
106	0x3ac39383	0.0014921281
107	0xbd2e6274	-0.04257436
108	0x3d507d88	0.050900966
109	0xbdbb5a93	-0.09148135
110	0x3dc6ad42	0.09701015
111	0x3dcc7562	0.099833265
112	0x3d59e4bf	0.053196665
113	0x3decb21e	0.11557411
114	0xbd92e261	-0.071720846
115	0xbe08e1ff	-0.1336746
116	0xbe2927b5	-0.16519053
117	0x3e2bfc71	0.16795518
118	0x3d7640a6	0.060120247
119	0x3d820b6c	0.06349835
120	0xbe1ce03f	-0.15319918
121	0x3d7dbbeb	0.06194679
122	0xbd20b7da	-0.039237835
123	0x3dd53520	0.104105234
124	0x3df041c1	0.117312916
125	0xbe29daed	-0.1658742
126	0x3dda8f1b	0.106718265
127	0x3db8efb2	0.09030093
128	0xbe2ad173	-0.16681461
129	0x3db62767	0.08894234
130	0x3d1c9066	0.038223647
131	0xbe064890	-0.13113618
132	0xbde3f0de	-0.11129926
133	0x3e13e48a	0.1444265
134	0xbcb198e9	-0.021679359
135	0xbd47db04	-0.048792854
136	0xbe0acf25	-0.13555582
137	0x3e18baee	0.14915058
138	0x3e300bda	0.17192021
139	0xbd8aa869	-0.06770403
140	0x3dad2689	0.084546156
141	0x3da11e1e	0.078670725
142	0xbe1f5190	-0.15558457
143	0x3d67efdf	0.056625243
144	0x3e1818f3	0.14853267
145	0xbd8d0042	-0.06884815
146	0x3e2b6c74	0.1674059
147	0xbdffd50d	-0.12491808
148	0xbdacb619	-0.0843317
149	0xbda69cd0	-0.08135378
150	0xbdb24c00	-0.08705902
151	0xba95b47f	-0.001142159
152	0x3d56775e	0.05235993
153	0x3dca6bb4	0.09883824
154	0xbc969d15	-0.01838545
155	0xbd263df5	-0.04058643
156	0x3e16d8d6	0.14731154
157	0x3df4855a	0.11939497
158	0xbc9efb76	-0.019407015
159	0xbd3000e8	-0.042969614
160	0xbd997784	-0.07493499
161	0x3dbf3030	0.09335363
162	0xbd9610b3	-0.07327404
163	0x3d0391f4	0.032121614
164	0xbd9221f8	-0.07135385
165	0x3cb104d6	0.021608751
166	0x3e31b1e3	0.17353015
167	0x3e0c6eaf	0.13714097
168	0xbd5bf370	-0.053698957
169	0x3dfe8df7	0.124294214
170	0xbdb75380	-0.08951473
171	0x3e03f773	0.12887363
172	0xbe0a51be	-0.13507745
173	0xbd0c7eb4	-0.03430052
174	0x3d4a89bb	0.049447756
175	0xbccb08c9	-0.024784463
176	0xbdcee2d4	-0.10101858
177	0x3d94f35e	0.07272981
178	0xbdac5a9c	-0.0841572
179	0x3d853535	0.06504289
180	0xbda4aede	-0.08041166
181	0x3d14ae25	0.03629889
182	0xbdeebc59	-0.11657018
183	0xbd0bf056	-0.03416475
184	0xbe003687	-0.125208
185	0x3d9c5a76	0.076344416
186	0x3e172f34	0.147641
187	0xbd0c6a1d	-0.034280885
188	0xbd1f02fd	-0.03882121
189	0x3df41c8a	0.11919506
190	0xbe06542c	-0.13118047
191	0xbd361bdd	-0.044460166
192	0x3c97e301	0.018540861
193	0xbdd48806	-0.10377507
194	0xbdd88ab2	-0.10573329
195	0x3e035ea0	0.12829065
196	0xbcbc2ed2	-0.022971544
197	0x3e090a47	0.13382827
198	0x3ddfba6c	0.10924229
199	0xbe349aaa	-0.17637125
200	0xbd49edd5	-0.04929908
201	0x3e11a9a5	0.1422487
202	0x3d6bc018	0.05755624
203	0x3bebcb04	0.007195832
204	0x3dffdf32	0.12493743
205	0x3ca5fc4b	0.020261904
206	0xbdc725e0	-0.09724021
207	0xbdbffddb	-0.09374591
208	0x3dda9ac9	0.10674054
209	0xbbb23626	-0.005438584
210	0x3e019442	0.12654212
211	0xbd3eebd8	-0.046611637
212	0x3da6b074	0.081391245
213	0x3d0b0273	0.033937883
214	0xbda23e67	-0.079220586
215	0xbc655f6a	-0.013999799
216	0xbcf94e10	-0.03043273
217	0xbe237217	-0.1596149
218	0xbdfafadd	-0.122548796
219	0x3dbed5c7	0.093181185
220	0xbce14dc0	-0.027502894
221	0x3d74b1b1	0.059739772
222	0xbc419b9d	-0.011816886
223	0x3d99980b	0.07499703
224	0x3dac303c	0.084076375
225	0xbd915178	-0.07095617
226	0x3d2d65a1	0.04233325
227	0x3e1b4497	0.15162884
228	0x3daf86e2	0.08570649
229	0xbdf4f92c	-0.11961588
230	0xbde12a2d	-0.109943725
231	0x3d860452	0.06543793
232	0x3d9a5471	0.07535637
233	0xbe05afe7	-0.13055383
234	0x3b1dc1d5	0.0024071832
235	0x3d191fea	0.03738395
236	0x3de609fd	0.11232374
237	0x3cfd5688	0.03092505
238	0x3d594daf	0.0530526
239	0xbd44d6a1	-0.04805625
240	0xbe131230	-0.14362407
241	0x3ddea992	0.10872187
242	0x3bc57dad	0.0060269446
243	0xbdeb2d83	-0.1148329
244	0xbd8d6be0	-0.06905341
245	0x3bb452b8	0.005503025
246	0xbdba9810	-0.09111035
247	0xbe0b7db5	-0.13622172
248	0x3e23b633	0.15987472
249	0x3d9a1be5	0.07524852
250	0xbd52106a	-0.051285185
251	0xbdd36dac	-0.103236526
252	0xbdee3827	-0.11631804
253	0xbe135ad7	-0.14390121
254	0xbdbb8daf	-0.091578834
255	0x3deb325b	0.11484214

bias f4 [8]
0	0xbd4ed601	-0.05049706
1	0xbbb7c2a9	-0.005607922
2	0x3e2cfd05	0.16893394
3	0xbdf20ca6	-0.11818819
4	0xbd8d1f6f	-0.06890761
5	0x3defea4b	0.1171461
6	0x3e153fee	0.14575168
7	0x3d51adba	0.05119107

weight f4 [8]
0	0x3f80b600	1.0055542
1	0x3f80f3f8	1.0074453
2	0x3f814ccb	1.010156
3	0x3f8098fd	1.0046688
4	0x3f7d6953	0.98988837
5	0x3f811a7b	1.0086206
6	0x3f7c80c6	0.9863399
7	0x3f7e2f47	0.9929089

bias f4 [8]
0	0x3b2b2e45	0.0026120108
1	0xbb83abd0	-0.0040182844
2	0xbadaa5fe	-0.001668155
3	0x3ca291d1	0.019844921
4	0xbbfccd81	-0.0077149277
5	0xbabe2aea	-0.0014508639
6	0xbce3a270	-0.027787417
7	0x3b809a71	0.003924661

running_mean f4 [8]
0	0xbdd986a2	-0.10621382
1	0xbd94dc45	-0.072685756
2	0x3ecd2610	0.40068102
3	0xbdbb210e	-0.09137164
4	0xbd4ea032	-0.050445743
5	0x3d96e9fd	0.073688485
6	0x3e210254	0.15723544
7	0x3c02ee95	0.007991453

running_var f4 [8]
0	0x3ccf9d52	0.02534357
1	0x3d147c71	0.03625149
2	0x3d411027	0.047134545
3	0x3dc4208c	0.0957652
4	0x3d81bb6f	0.06334578
5	0x3dcb06b0	0.09913385
6	0x3d212396	0.039340578
7	0x3d0eb5d9	0.034841392

weight f4 [4, 8, 2]
0	0x3c0c8018	0.008575462
1	0xbe2c8cb3	-0.16850547
2	0xbd0ed328	-0.034869343
3	0xbe84c1d8	-0.2592914
4	0xbda7caea	-0.08193
5	0xbe02bef7	-0.1276816
6	0x3e3ed5e1	0.18636276
7	0x3c33f661	0.010984034
8	0x3d4d9374	0.05018945
9	0x3e52be4e	0.20580408
10	0xbe1abfd1	-0.15112235
11	0xbe167c44	-0.14695841
12	0xbe0d95dc	-0.13826698
13	0xbe121acb	-0.14268033
14	0x3d130e33	0.035902213
15	0x3e167ce9	0.14696087
16	0x3e1f4343	0.15553002
17	0xbd391559	-0.045186374
18	0x3d4ede8c	0.050505206
19	0xbe495be6	-0.19663963
20	0x3e17aa85	0.14811142
21	0xbc4f398e	-0.012647999
22	0xbd33f5b5	-0.043935496
23	0xbdd5e2b2	-0.10443629
24	0xbc8ed697	-0.017436309
25	0xbe4d4f9c	-0.200499
26	0xbdb97044	-0.09054616
27	0x3d473f50	0.048644364
28	0x3d60a747	0.054847028
29	0x3d73e1bd	0.059541453
30	0x3e816f9b	0.2528046
31	0x3d98a993	0.07454219
32	0xbe63acef	-0.22233938
33	0x3d4cf025	0.050033707
34	0x3dbe0608	0.09278494
35	0x3e0c129b	0.13678972
36	0xbdac0d9c	-0.08401033
37	0xbd2e05c4	-0.042485967
38	0xbd1c07da	-0.038093425
39	0x3e3e3620	0.18575335
40	0x3da88a3f	0.08229493
41	0x3dc51f9d	0.096251704
42	0x3d989295	0.07449833
43	0xbd98f3c9	-0.07468373
44	0xbcf4160a	-0.029795665
45	0xbd6967e2	-0.056983836
46	0x3e66a5b0	0.22524142
47	0xbd66e12e	-0.05636709
48	0xbd098426	-0.033573292
49	0xbce7c300	-0.028291225
50	0x3e0387ec	0.12844819
51	0xbe304a02	-0.17215732
52	0x3e2552cc	0.16144866
53	0x3db031c1	0.0860324
54	0xbe797fcb	-0.24365155
55	0x3e6fe0c6	0.23425588
56	0x3d800ac8	0.06252056
57	0xbe065a3e	-0.13120362
58	0x3def7d69	0.11693842
59	0xbcdab098	-0.026695535
60	0xbe39b458	-0.18135202
61	0x3d20c560	0.03925073
62	0x3e235508	0.15950406
63	0xbdafb675	-0.08579723

bias f4 [4]
0	0x3da01781	0.07816983
1	0x3e796e6e	0.24358532
2	0xbe1ad81b	-0.151215
3	0x3cea09da	0.02856915

weight f4 [4]
0	0x3f7c79c5	0.98623306
1	0x3f834df6	1.0258167
2	0x3f80c52e	1.0060174
3	0x3f7bd905	0.9837802

bias f4 [4]
0	0xbc36c57f	-0.011155485
1	0x3c1664ac	0.0091792755
2	0x3c0f5a9a	0.008749628
3	0x3cf56f45	0.029960284

running_mean f4 [4]
0	0xbd94438f	-0.07239448
1	0x3e6931ff	0.22772978
2	0xbc27ef75	-0.010249962
3	0x3c23b66b	0.009992222

running_var f4 [4]
0	0x3ea3782e	0.31927627
1	0x3da526d0	0.080640435
2	0x3db5e3f1	0.08881367
3	0x3dae4115	0.08508507

weight f4 [1, 4, 2]
0	0x3e845e8f	0.25853392
1	0x3b86846d	0.004105142
2	0x3e7336a2	0.2375131
3	0x3e913105	0.2835771
4	0x3e0fc209	0.14038862
5	0xbc3017bb	-0.010747845
6	0xbe7957a1	-0.24349834
7	0xbe3a1e9e	-0.18175742

weight f4 [16, 80]
0	0xbdf53a93	-0.11974063
1	0x3d547178	0.051866025
2	0xbd334d2b	-0.043774765
3	0x3d8f4e88	0.069974005
4	0xbd11937c	-0.035541043
5	0x3dd04734	0.10169831
6	0x3cdffc00	0.027341843
7	0x3cab9fe3	0.020950263
8	0xbcb29f85	-0.02180458
9	0x3d94833c	0.072515935
10	0xbe01bc39	-0.12669457
11	0xbd233b2a	-0.039851345
12	0x3df8a106	0.12140088
13	0x3c212eec	0.009837847
14	0xbcbe582c	-0.023235403
15	0x3dcaf2e6	0.099096105
16	0xbdaa2f71	-0.0830983
17	0xbdbafbe8	-0.091300786
18	0x3dbb9358	0.09158963
19	0x3d8ab27d	0.06772325
20	0x3d4dfc87	0.050289657
21	0x3d011825	0.031517167
22	0xbd8a960f	-0.06766903
23	0x3d2c76a9	0.04210535
24	0x3dbe0a4a	0.09279306
25	0xbcd73f0c	-0.02627518
26	0x3dad9e00	0.08477402
27	0xbc9f6b10	-0.019460231
28	0x3d70b7fb	0.058769207
29	0xbdb6fd77	-0.08935063
30	0x3d63c56e	0.055608205
31	0x3d2a9ac8	0.041651517
32	0xbc03384f	-0.0080090305
33	0xbde0f068	-0.10983354
34	0xbdfba3e9	-0.12287123
35	0xbce54a6f	-0.027989594
36	0x3d24209e	0.04007017
37	0x3d80cb8f	0.06288826
38	0x3d9255c6	0.07145266
39	0xbde5c906	-0.11219983
40	0xbd7ed14b	-0.062211316
41	0x3d785cca	0.060635366
42	0xbe004d6f	-0.12529539
43	0x3d2f738a	0.042834796
44	0x3d1ed3f1	0.03877634
45	0x3dc66ca5	0.09688691
46	0x3dde7d70	0.10863769
47	0x3d1d4c81	0.038403038
48	0x3d937431	0.07199896
49	0xbcfeb175	-0.031090477
50	0xbd620744	-0.05518271
51	0xbd6352b2	-0.055498786
52	0xbde2034f	-0.11035787
53	0xbdcf56e4	-0.10123995
54	0x39072fed	0.00012892457
55	0xbd38d320	-0.04512322
56	0x3dbbb1a4	0.09164742
57	0x3d973d68	0.07384759
58	0xbdb7c8cc	-0.08973846
59	0xbc9a00f3	-0.01879928
60	0x3daadf5e	0.08343385
61	0xbd8d1c46	-0.06890158
62	0xbc5f6695	-0.013635297
63	0x3d9091b3	0.0705904
64	0xbe0c0707	-0.13674556
65	0x3ddd9972	0.10820283
66	0xbe03e65a	-0.12880841
67	0x3cdcdb3b	0.026960006
68	0x3cd93b7a	0.026517618
69	0xbbdb31d4	-0.0066892896
70	0xbd920032	-0.071289435
71	0xbc83f86f	-0.016109673
72	0xbd806b44	-0.06270459
73	0x3cd1044b	0.025514742
74	0x3cec0a4f	0.02881351
75	0x3ce8cd60	0.028418243
76	0xbcf9dd25	-0.030500958
77	0xbd9a2a7b	-0.07527634
78	0xbd31e2dd	-0.043429244
79	0x3d8c6a41	0.06856204
80	0x3d65a2e0	0.056063533
81	0xbda1783d	-0.07884262
82	0xbcdb8f3d	-0.0268017
83	0xbe06aa55	-0.13150914
84	0xbd4f8745	-0.050666112
85	0xbd5fea55	-0.054666836
86	0xbded0042	-0.11572315
87	0x3caee819	0.021350907
88	0xbd87f051	-0.066376336
89	0x3d8f9f24	0.070127755
90	0x3d4412cc	0.04786949
91	0x3cc2808d	0.023742938
92	0xbd274ec5	-0.040846605
93	0x3c1def9f	0.00963965
94	0x3dbaa11e	0.09112762
95	0x3d8d38d5	0.068956055
96	0xbd6d26a4	-0.05789818
97	0xbdb83ec3	-0.08996346
98	0xbe0d45e9	-0.137962
99	0xbda02003	-0.07818606
100	0x3d30e4a4	0.0431868
101	0xbe079053	-0.13238649
102	0x3dce0377	0.100592546
103	0xbc26e829	-0.010187187
104	0xbe021abb	-0.1270551
105	0xbde250d5	-0.11050574
106	0xbc13cb4f	-0.0090206405
107	0xbdde5cc8	-0.1085754
108	0x3c50ab37	0.012736133
109	0x3ccd38ab	0.025051435
110	0xba75244a	-0.0009351416
111	0xbda8b16f	-0.08236968
112	0xbd90d09a	-0.070710376
113	0x3d33bdc3	0.043882143
114	0xbda06ecd	-0.078336336
115	0xbd42ffaf	-0.04760712
116	0x3da704b9	0.08155198
117	0xbe00e380	-0.12586784
118	0xbd6168f4	-0.05503173
119	0x3d01491e	0.03156387
120	0x3def78e1	0.11692978
121	0xbd924ded	-0.071437694
122	0x3d424573	0.047429513
123	0x3da2faa5	0.07957963
124	0xbdf0fd04	-0.11767009
125	0xbde2b57c	-0.11069772
126	0xbe043b06	-0.1291314
127	0xbda6f0c8	-0.08151394
128	0x3cab04cc	0.02087631
129	0xbdbe9250	-0.09305251
130	0xbd1de51b	-0.03854857
131	0x3dea2991	0.114337094
132	0xbd02cbba	-0.03193257
133	0x3d58ec79	0.052959893
134	0x3c7e9802	0.015539171
135	0x3e043836	0.12912068
136	0xbdd108c2	-0.102067485
137	0xbdb8e0e4	-0.090272695
138	0xbd36356c	-0.04448454
139	0xbdc6c90b	-0.09706315
140	0xbc989afe	-0.018628594
141	0xbdd8791b	-0.10569974
142	0xbddb488f	-0.10707199
143	0xbd9aada6	-0.07552652
144	0x3dbd6b23	0.0924895
145	0xbdde7432	-0.10862006
146	0xbdd31060	-0.10305858
147	0x3d75860f	0.0599423
148	0x3caea268	0.021317676
149	0xbbc6708e	-0.006055898
150	0x3cb0eea1	0.021598162
151	0xbd145397	-0.03621253
152	0x3dd31a05	0.10307697
153	0x3c2b9b21	0.010473997
154	0x3d28d191	0.041215483
155	0x3d4bb751	0.04973537
156	0xbcef0acd	-0.029179955
157	0xbe1a4511	-0.15065409
158	0x3d92a144	0.07159665
159	0x3c8d5c89	0.017256038
160	0x3cd4967b	0.02595066
161	0x3d8da8ae	0.06916939
162	0x3c7025b0	0.014657423
163	0x3d84ef81	0.06490994
164	0x3e029220	0.12751055
165	0x3dcfebbc	0.10152385
166	0x3db32b94	0.08748546
167	0x3d9799b1	0.07402361
168	0x3dffa73e	0.12483071
169	0xbd977fd2	-0.07397427
170	0x3a59e2f5	0.00083117123
171	0x3ba552b0	0.0050452575
172	0x3db41d42	0.08794643
173	0xbdca7070	-0.09884727
174	0x3d6a825a	0.05725322
175	0x3dc44da3	0.095851205
176	0xbad868a2	-0.0016510675
177	0x3d34a053	0.04409821
178	0x3e1dbab6	0.15403256
179	0x3d8dcffc	0.069244355
180	0xbdbaee35	-0.09127466
181	0x3dedea15	0.11616913
182	0x3dab871c	0.083753794
183	0x3bc4eca5	0.0060096555
184	0x3c8b71ad	0.017021978
185	0xbc14c8ae	-0.009081049
186	0x3dd66b00	0.104696274
187	0x3d8240ad	0.06359992
188	0x3e0314cf	0.12800907
189	0x3cfbc643	0.030734187
190	0xbd41b6d1	-0.047293488
191	0x3e47d860	0.19516134
192	0xbd9cbd18	-0.07653254
193	0xbda077f4	-0.07835379
194	0x3d6c119b	0.057633977
195	0xbd270b23	-0.040782105
196	0x3db973e2	0.09055306
197	0xbd85395f	-0.06505083
198	0x3e0c36d9	0.13692798
199	0xbd633937	-0.055474486
200	0xbca93a0e	-0.020657565
201	0x3c3b1a83	0.011419895
202	0xbd3b4ed9	-0.04572949
203	0xbd0fe379	-0.035129044
204	0x3da40aa7	0.08009844
205	0x3cb31e0a	0.02186491
206	0xbc44ec33	-0.012019205
207	0x3dbe2cc0	0.09285879
208	0xbd21ea7a	-0.039530255
209	0x3da46636	0.08027308
210	0xbdb2c09f	-0.08728146
211	0xbdc39f2d	-0.09551845
212	0x3beca80d	0.0072221817
213	0x3c26b38f	0.010174646
214	0x3c853c4d	0.016264105
215	0xbc412881	-0.011789442
216	0x3d12fa97	0.035883512
217	0x3c9996c3	0.018748647
218	0xbdc692de	-0.096959814
219	0x3d9f488c	0.07777509
220	0xbd077a2b	-0.033075493
221	0xbd977fa1	-0.0739739
222	0x3d00af42	0.03141714
223	0xba79ff29	-0.0009536618
224	0x3d759fbc	0.059966788
225	0x3e0d4bd2	0.13798454
226	0xbd6d5da8	-0.057950646
227	0x3bf84759	0.0075768647
228	0x3d9bd6d4	0.076093346
229	0xbd7f92f2	-0.062395997
230	0xbd2baba4	-0.041911736
231	0xbd4c9c39	-0.049953673
232	0x3d483921	0.048882607
233	0x3d1c657d	0.038182724
234	0x3c41e664	0.011834715
235	0x3dcc1866	0.09965591
236	0xbc110c11	-0.0088529745
237	0xbd06dbed	-0.03292458
238	0x3b99a0fe	0.004688381
239	0xbd2a992d	-0.041649986
240	0xbc85cec6	-0.016333949
241	0xbb9da9fa	-0.0048115226
242	0x3e0f23a7	0.13978444
243	0xbda08ec3	-0.0783973
244	0xbd926af2	-0.071493044
245	0x3d22ade0	0.0397166
246	0xbd62eeb7	-0.055403437
247	0xbe14ef88	-0.14544499
248	0xbe26e0cf	-0.16296695
249	0xbddb6d90	-0.10714257
250	0xbd5850b9	-0.052811358
251	0xbd04a891	-0.03238732
252	0xbdc53b1f	-0.09630417
253	0xbd87bead	-0.066281654
254	0x3ddd19d5	0.10795943
255	0xbd27b18f	-0.040940817

bias f4 [16]
0	0x3d241de9	0.040067587
1	0x3d9d50c7	0.07681423
2	0xbda52fbe	-0.08065747
3	0x3d838230	0.06421316
4	0xbd9703c2	-0.073737636
5	0xbdfc25d5	-0.123119034
6	0xbd93edc6	-0.07223086
7	0xbd1ac784	-0.03778793
8	0x3d1d218d	0.038362075
9	0x3d7366c5	0.05942418
10	0xbccba917	-0.024860902
11	0xbcddf19c	-0.027092747
12	0x3d71a2af	0.058993038
13	0x3d0dab03	0.034586918
14	0xbda9d066	-0.08291702
15	0xbdb3706b	-0.087616764

weight f4 [2, 16]
0	0xbd2d5525	-0.04231753
1	0xbd8a9f94	-0.06768718
2	0x3e879db0	0.26487494
3	0xbdb38709	-0.0876599
4	0xbdb71f89	-0.08941562
5	0xbdd3335c	-0.103125304
6	0xbe0f0420	-0.13966417
7	0x3ded3112	0.11581625
8	0xbe61585a	-0.2200636
9	0xbe895cb3	-0.26828536
10	0xbe85634b	-0.26052317
11	0x3e015bf8	0.1263274
12	0x3d5176f6	0.05113884
13	0xbdb752d4	-0.08951345
14	0x3e7d2a44	0.24723154
15	0xbdfa46ab	-0.1222051
16	0xbe016abc	-0.12638372
17	0x3d1cc197	0.03827056
18	0xbe48837e	-0.1958141
19	0x3df1627a	0.11786361
20	0x3e438d2b	0.1909682
21	0xbaa15ccc	-0.0012310981
22	0xbe6fad67	-0.23405991
23	0xbce63813	-0.02810291
24	0x3d3f9c7d	0.0467801
25	0xbdcdbc54	-0.10045686
26	0x3e73acca	0.23796383
27	0x3d30f85d	0.043205608
28	0xbe952fec	-0.29138124
29	0xbe3f1c60	-0.18663168
30	0xbdb1eb89	-0.08687503
31	0xbce9254d	-0.02846017

bias f4 [2]
0	0xbe549427	-0.2075964
1	0x3e533bcc	0.2062828
