mlpcnnsemi/model/cnn/64oneinput_batch1_Epoch=26_lr=0.0001.pth (torch, 25249 bytes, 29 tensors)

weight f4 [4, 1, 1]
000000 c4 e2 21 3f ed 95 35 3f 44 b2 30 3f 11 32 20 bf
       0.6323664 0.70931894 0.6902201 -0.62576395

bias f4 [4]
000000 86 16 33 3f 9a 6b 1e 3f 0f 90 92 be b9 ee d8 be
       0.69956243 0.61882937 -0.28625533 -0.4236963

weight f4 [4]
000000 b0 87 82 3f a3 de 7c 3f 8f 8f 7e 3f 07 7b 82 3f
       1.0197659 0.98777217 0.99437803 1.0193795

bias f4 [4]
000000 23 0a 3f bd a4 83 e8 bc 2c 3d 14 bd 7e 38 6b 3b
       -0.046640527 -0.028383084 -0.03619115 0.0035891826

running_mean f4 [4]
000000 76 9f 64 3f 4b 06 56 3f e1 bf 99 bd 04 86 1d bf
       0.8930582 0.8360335 -0.07507301 -0.61532617

running_var f4 [4]
000000 3f 68 7b 3e 66 2f 9e 3e a9 09 96 3e 5e 93 76 3e
       0.24551485 0.30895537 0.29304245 0.24079654

weight f4 [16, 4, 1]
000000 d2 ff ca 3e 55 c7 ed be 7d f9 69 be 51 36 00 3f
       0.396483 -0.4644114 -0.22849078 0.5008288
000010 be fe 69 bd 7a c1 ac 3e 29 91 29 be de b6 c4 3e
       -0.057127707 0.3374136 -0.1655928 0.38420767
000020 e2 ab 0b 3f 79 12 df be 2a 6c b5 3e a1 14 e5 be
       0.5455915 -0.4356878 0.35434085 -0.447423
000030 58 47 6f 3e bf 12 bb 3d 9e 7d fc 3e ad dd 8c be
       0.23367059 0.09134435 0.49314588 -0.27512875
000040 b0 4d a2 bd c0 29 56 3c 5d a9 7d 3e 1c 0d a5 3d
       -0.07924974 0.013071477 0.24771638 0.08059141
000050 f4 c8 3f be 76 69 a0 be 7e 6a b9 be 48 ef 45 be
       -0.18729001 -0.3133046 -0.3621406 -0.1932956
000060 bf 93 dd be ee 53 08 3e 56 8b fa be 95 12 f0 3e
       -0.43276784 0.13313267 -0.4893443 0.46889177
000070 a1 a0 50 be f7 b9 55 3d 07 9f 48 3e ef 85 58 be
       -0.20373775 0.052179303 0.19591914 -0.21144842
000080 3b c2 a8 be 70 a4 b7 3e 58 0d 99 be 47 30 29 be
       -0.32960686 0.35867643 -0.29892993 -0.16522323
000090 1b d1 d4 be ec da 70 3c dc 79 7c be cf 36 cc be
       -0.41565785 0.014700633 -0.2465586 -0.39885566
0000a0 cd 64 5f 3e fb 39 39 be f8 ad 37 3e 4f 78 54 3d
       0.21815796 -0.18088524 0.17937458 0.051872548
0000b0 e9 4b 28 3e 30 6c 9f be 82 5c 9c be 22 11 0d bd
       0.16435207 -0.31137228 -0.30539328 -0.034440167
0000c0 7e 8b f6 3e 09 83 88 be 53 31 42 3e 33 37 cd be
       0.481533 -0.26662472 0.18964128 -0.40081176
0000d0 de da ac 3e 09 76 fd bd 0f 0c 97 3e 10 67 88 3e
       0.33760732 -0.12376029 0.29501387 0.2664113
0000e0 22 61 6b be 1b 23 d1 3e 20 de e1 3c cd 84 42 3e
       -0.22986272 0.40847096 0.027571738 0.18995972
0000f0 8b cf 8e 3d df 32 04 3e 0a de d1 bd af 1b f5 be
       0.069731794 0.12910031 -0.10247429 -0.47872683

bias f4 [16]
000000 52 a3 62 be b2 fb ca bd b9 e5 39 be 66 12 59 3e
       -0.22132614 -0.09911288 -0.18154038 0.21198425
000010 7d e8 b3 bd 07 a7 83 3e 66 f7 07 bd 09 86 d8 bd
       -0.08784578 0.2571337 -0.033194922 -0.1057244
000020 eb af 95 3e bc d8 ea 3e 78 23 8b bc 77 18 c0 3e
       0.29235777 0.4586848 -0.016984686 0.37518665
000030 95 d2 be be 74 6f f9 be 09 51 04 bf 95 b9 b8 be
       -0.37270036 -0.48717844 -0.5168615 -0.36079088

weight f4 [16]
000000 49 d8 83 3f a5 ba 81 3f cd 1e 7a 3f e4 17 80 3f
       1.030038 1.0135084 0.9770325 1.0007291
000010 fe 98 83 3f 84 19 86 3f 54 ac 80 3f 31 b0 7a 3f
       1.0281065 1.0476537 1.005259 0.97925097
000020 68 72 7b 3f d7 d5 7c 3f c3 86 7b 3f 59 b8 7a 3f
       0.98221445 0.98763794 0.98252505 0.9793754
000030 32 45 81 3f c4 92 82 3f c4 95 81 3f 23 3b 77 3f
       1.0099242 1.0201039 1.012383 0.9657461

bias f4 [16]
000000 2c 62 5b 3c f0 05 e0 3c 47 1c 51 bd a7 07 a2 bc
       0.013390105 0.027346581 -0.051052358 -0.01977904
000010 ca 54 1b bd 3e 63 c2 3d 5b fa 25 3d 6f 5e cb 3c
       -0.037922658 0.09491585 0.04052196 0.024825303
000020 c3 97 c9 bc a4 95 29 3d e5 29 99 3b f4 d6 55 3d
       -0.024608498 0.041402474 0.0046741837 0.05220695
000030 b9 eb b9 bb c5 20 05 bc 88 c5 cb bc 4b 48 8a bc
       -0.0056738523 -0.008125489 -0.024874464 -0.016880175

running_mean f4 [16]
000000 cb f8 1e be 52 f6 2b 3d ff 18 3b be 0c 26 b5 3e
       -0.15524594 0.041982956 -0.18271254 0.3538059
000010 d5 a7 82 bc 08 9b ff bc d5 de e6 bd de 55 1f be
       -0.01594917 -0.031201854 -0.112729706 -0.155601
000020 2d 8e 2e 3e f0 4a 2c 3e eb fd 68 3d cb f3 79 3e
       0.17046423 0.16825461 0.05688278 0.24409406
000030 e0 98 c0 be c6 59 8b be 3a df d0 be 0d 09 f2 be
       -0.37616634 -0.2721693 -0.40795308 -0.4727253

running_var f4 [16]
000000 95 a2 c1 3d e1 ff f0 3b a3 26 62 3e 3a c0 12 3f
       0.09454838 0.007354722 0.22085051 0.57324564
000010 1e e9 be 3c 3d 49 11 3f a6 51 12 3f b5 6d 83 3b
       0.023304518 0.5675238 0.57155836 0.004010881
000020 aa 2a 63 3d f0 35 9c 3e 93 f1 16 3d 03 5d 1f 3e
       0.05546061 0.305099 0.036851477 0.15562825
000030 74 b6 2c 3e a3 74 44 3e 23 87 d7 3c d0 7e ae 3c
       0.16866475 0.19185118 0.026309555 0.021300703

weight f4 [8, 16, 2]
000000 27 84 44 3e 26 38 9f 3d 53 01 da 3c 0b 63 04 3c
       0.19191037 0.07774381 0.02661196 0.008080254
000010 db 7e 02 be 1d bf 7e bd 48 39 94 3c 07 a4 0a 3e
       -0.12743704 -0.06219398 0.01809372 0.13539134
000020 8a 6a 12 3e c2 a6 11 3d e4 b7 2e be e9 88 f9 3d
       0.14298454 0.035559423 -0.17062336 0.12184317
000030 a2 9c 45 3d b8 47 99 bc 8e 1d 26 be e9 b3 d2 bd
       0.04824508 -0.018710956 -0.16222212 -0.102882214
000040 1a c2 28 be eb ad 35 be 0f 73 f7 3d a0 9e ad 3c
       -0.16480294 -0.17742126 0.120824926 0.021193802
000050 7c 98 13 bd 1a a0 b1 bd b2 4e c3 bd e6 79 24 be
       -0.036034092 -0.08673115 -0.09536494 -0.16062126
000060 35 69 3f 3e ca 73 cb 3d 6d fb db 3d c8 85 db 3d
       0.18692477 0.099341944 0.10741315 0.10718876
000070 26 4c 18 bd 73 cc 46 bd cd e1 46 3c 4d 6a ef bd
       -0.037181996 -0.04853482 0.012138796 -0.11690197
000080 82 76 73 be 5d 59 bd bd fd ea 43 be 2b 47 3a 3e
       -0.23775676 -0.0924556 -0.1913261 0.18191211
000090 d8 17 07 be 37 c2 d9 3d 92 ce 15 3e 4e 86 d3 3c
       -0.1319269 0.10632747 0.14629582 0.025820877
0000a0 3b e6 27 be de f3 2c be e5 91 27 be a2 f7 3d 3e
       -0.1639642 -0.16889903 -0.16364248 0.18551496
0000b0 f9 a1 2b be 77 82 45 3e f2 50 1f 3e 33 8f ac 3d
       -0.16761006 0.1928805 0.15558222 0.084257506
0000c0 da da 01 be 0e 30 90 bc 4d 5a b4 3b c0 30 94 3d
       -0.12681141 -0.01760104 0.0055039288 0.07235861
0000d0 b6 c0 8a bd 4a 2b d3 3c 88 fe 67 bd 05 7b 87 bb
       -0.06775038 0.025777478 -0.056639224 -0.004134538
0000e0 e2 a3 36 be a5 35 6b 3b 48 54 01 3e 06 d8 c3 3d
       -0.17835954 0.003589013 0.12629807 0.095626876
0000f0 87 6d 61 bb 66 62 2c be 0a fe 1b 3e 97 22 4c bd
       -0.0034397559 -0.16834411 0.15233627 -0.049837675
000100 b1 3e 58 bd 33 2a 6f bd a7 af 7b 3d 72 3f 2e 3e
       -0.052794162 -0.058389854 0.061446812 0.1701639
000110 a5 37 04 3e 18 e5 29 be 9a 83 cd 3c 14 44 99 3d
       0.12911852 -0.16591299 0.025087167 0.07483688
000120 7a 84 22 3d 8c cd e4 3d 0b bf 43 3e d0 a0 32 3e
       0.03967712 0.111720175 0.19115846 0.17444158
000130 e9 81 3e bd 45 de f7 3c ed ef 78 bd 97 a5 12 3e
       -0.04651061 0.030257354 -0.060775686 0.1432098
000140 7c ed a1 bd 6f db 50 3e 8d 01 f7 3d 68 85 40 3b
       -0.07906625 0.20396207 0.12060843 0.0029376391
000150 47 3a 2a be 56 dd 1a 3e 53 50 4d 3e 7f 72 57 3d
       -0.16623794 0.15123495 0.20050173 0.052599426
000160 4a 13 8b bd e4 7c 42 3d 5b c8 d8 3c f2 ab a8 bd
       -0.067907885 0.047482386 0.026462724 -0.08235921
000170 f0 1e 5c bd 46 b9 6e 3c 16 39 ed 3d fc a5 0b be
       -0.05374044 0.01457054 0.11583154 -0.13637537
000180 70 ac 20 3d 7a e8 b4 bd 2f d2 43 be 88 a4 15 be
       0.03922695 -0.08833404 -0.19123147 -0.14613545
000190 fa 30 26 bd 5c 78 00 3e 40 44 5d 3d 29 f3 c3 3d
       -0.04057405 0.12545913 0.054020166 0.095678635
0001a0 da e5 94 bd 73 01 5a bd bd a1 a1 3c 64 4f 31 bd
       -0.07270403 -0.05322404 0.019730443 -0.043288603
0001b0 2c 43 0d 3d 75 80 33 bd 83 3e bc 3d df fc a7 3d
       0.03448789 -0.043823678 0.09191611 0.08202528
0001c0 70 40 99 3d d2 c4 a6 3d 44 71 3f bd 69 f9 2a be
       0.074829936 0.08143009 -0.046738878 -0.16696705
0001d0 72 de 2e be b0 e0 39 3e b7 9e 7c 3d 60 a8 bd 3d
       -0.17077044 0.18152118 0.0616748 0.092606306
0001e0 1f 66 20 be 6b e5 a4 3d e2 b4 34 bd b9 84 ee 3d
       -0.15663956 0.080515705 -0.044117816 0.116464086
0001f0 93 12 ee 3d cc ce 1d be bc f7 cd 3d ff c4 a7 3d
       0.116246365 -0.15410918 0.10057017 0.08191871
000200 d2 42 0c be 9a 00 b3 3d 41 09 0f 3d b9 90 05 be
       -0.13697365 0.08740349 0.034920935 -0.13043489
000210 8f 92 e8 bd 90 c3 18 3e 79 91 ba bc 43 b5 1e bd
       -0.11356079 0.14918351 -0.022774445 -0.038747083
000220 ed 93 09 be 85 f2 27 3e 4f fa 2d 3e af 93 4c bd
       -0.13435335 0.16401108 0.16990016 -0.04994553
000230 cf 85 d8 3d e9 0a b4 3d 6d bd 30 be 36 db 64 3d
       0.10572397 0.087911434 -0.1725976 0.05587312
000240 a6 1f fd 3d e6 24 24 bd bd cb 15 3e bf 79 c7 bd
       0.12359552 -0.04007425 0.14628501 -0.09740018
000250 db a1 a8 bd 34 5b 87 bd 80 5a 9b bd ac 33 9b 3c
       -0.082339965 -0.066091925 -0.07585621 0.018945538
000260 19 90 4c 3d ba 42 d3 3d 34 07 82 bc 70 26 c4 bc
       0.04994211 0.103154615 -0.015872575 -0.02394411
000270 b0 a2 1b 3e c4 36 10 3e 5a df 0c bd c5 f0 27 bd
       0.15198779 0.14083391 -0.034392692 -0.0410011
000280 17 f9 b1 bd ba 67 e7 3d 06 3e a5 bd 7a f1 1d 3d
       -0.08690088 0.11299081 -0.08068471 0.038560368
000290 e9 ed 9b bd 98 a4 bc 3c 2e d0 2d 3e d4 2f 0f 3e
       -0.07613737 0.023027703 0.16973945 0.13983089
0002a0 a9 90 79 bd 8f 65 04 3e f5 a1 91 bd 47 9a fc 3d
       -0.060928974 0.12929367 -0.07110969 0.123341136
0002b0 05 ed f8 bd cb 10 95 bc 67 92 f1 3c 73 ea fa bc
       -0.12154583 -0.018196484 0.029488755 -0.030629372
0002c0 11 f6 8b bd 9f ff 80 3d 86 c0 54 bd 31 a3 63 3d
       -0.06834043 0.06298756 -0.051941417 0.055575553
0002d0 4f 45 b3 bd 78 9e 25 3d d6 a1 c1 bd 8a 72 ee bc
       -0.08753454 0.04043433 -0.09454696 -0.02910735
0002e0 86 59 05 be 53 95 9f 3d ce 88 11 3e e3 2f d6 bc
       -0.13022432 0.07792153 0.14212343 -0.026145881
0002f0 0c ef 1b bd 93 be 05 3e 7f 51 17 be ff 4e 45 bd
       -0.03806977 0.1306098 -0.14777182 -0.04817104
000300 d6 e5 c6 3a 20 13 2c be 0a 37 e7 bd ba 60 0c 3e
       0.0015174698 -0.1680417 -0.11289795 0.13708773
000310 10 83 ee bc aa 5f 06 3e 1f e3 d2 3d 9e 3f 34 be
       -0.02911523 0.1312243 0.10297226 -0.17602393
000320 d5 4c 67 bd 6f 57 14 3e cb 0e 5e 3d 70 40 55 3d
       -0.056469757 0.14486478 0.054213326 0.052063406
000330 85 77 d9 3d 9e 4d 0b bc 81 1d 9e bd 3a 7d 9f bd
       0.106185 -0.008502392 -0.07720471 -0.07787557
000340 a7 1d ea 3d 9f c5 9e 3d ee 62 09 3e bc 4c 06 3d
       0.11431437 0.07752537 0.13416645 0.032788023
000350 4a 9f 97 3d b4 01 17 3d 81 07 bb bd 68 a4 5f 3c
       0.07403429 0.03686686 -0.09132291 0.013650037
000360 39 c7 14 bd bf 11 26 be 25 ad 05 be 26 6c c4 3d
       -0.036322806 -0.16217707 -0.1305433 0.0959094
000370 b2 eb 1a bd 2f 76 78 3d 33 d8 b3 3a 16 40 af 3d
       -0.037822433 0.060659584 0.0013721049 0.08557145
000380 8a be e4 3d fc 14 8e bd 24 ef b0 3d d7 ed 06 3e
       0.11169155 -0.06937596 0.086393625 0.13176666
000390 eb db a0 3d 6a c5 f6 bd 77 53 f2 bd b7 49 93 3d
       0.07854446 -0.120493725 -0.11832326 0.07191794
0003a0 09 68 87 3d 8f e9 0b be fe 4f 24 3c 4d 10 0e 3d
       0.0661164 -0.13663314 0.010028837 0.034683514
0003b0 13 96 00 3e 9f 7b 12 3d a0 b8 4d 3d 7a eb 48 bd
       0.12557249 0.035762426 0.0502249 -0.049052693
0003c0 c7 b6 12 be 59 45 cd 3d a1 be a2 3b ba 04 f6 bd
       -0.14327537 0.10022993 0.0049665724 -0.1201262
0003d0 16 65 9e bd 6b 62 df ba 67 62 a7 bd d2 9b 00 be
       -0.07734124 -0.0017042881 -0.08173066 -0.1255944
0003e0 59 d6 1b 3e f9 7d 95 3d 12 aa 70 bd b7 14 e8 bd
       0.15218486 0.07299418 -0.05875594 -0.11332076
0003f0 65 88 f7 bd ab d1 23 be ff 74 bf bd 1b fe e5 3d
       -0.12086562 -0.1599795 -0.09348487 0.112301074

bias f4 [8]
000000 cf 26 d0 bc ee 69 86 3c d5 06 25 3e f3 53 0a be
       -0.02540913 0.016407933 0.16115887 -0.13508587
000010 73 de 80 bd 0f d9 13 3e 5e be 16 3e 8c 2f 99 3d
       -0.06292429 0.1443827 0.14721057 0.07479772

weight f4 [8]
000000 72 2e 7f 3f ba 57 87 3f 2f e9 83 3f 27 5a 76 3f
       0.99680245 1.0573647 1.0305537 0.9623131
000010 88 fb 7c 3f 85 99 83 3f 25 c9 7d 3f 00 06 74 3f
       0.98821306 1.0281225 0.9913505 0.95321655

bias f4 [8]
000000 6c 95 ec 3c 8c a2 2a 3d 63 20 56 bd 93 b8 59 3b
       0.028879844 0.041658923 -0.05227698 0.0033221587
000010 b9 a7 3f bd 2d 36 22 3d 69 5f 03 bd 7d 19 9a bd
       -0.046790812 0.039602447 -0.032073412 -0.07524393

running_mean f4 [8]
000000 4b 00 81 bd 70 73 83 bd da 74 ee 3e 96 71 a9 bd
       -0.06298884 -0.06418502 0.46573526 -0.08273618
000010 d7 a8 a3 ba 95 c2 e0 3d 2e f3 3b 3e 19 f0 d7 3c
       -0.0012486231 0.109746136 0.18354484 0.026359605

running_var f4 [8]
000000 6f 8b 53 3d 75 ff 72 3d 74 77 84 3d 3e c5 fc 3d
       0.051646646 0.059325654 0.064680964 0.123423085
000010 c8 a2 9d 3d 37 f2 c1 3d 20 b4 59 3d c8 c4 52 3d
       0.07697064 0.09470027 0.053150296 0.051457196

weight f4 [4, 8, 2]
000000 f5 17 70 bd 93 db ab bd b2 3b 28 3b dc 77 9b be
       -0.058616597 -0.0839149 0.0025670347 -0.30364883
000010 52 b2 d4 bd f4 78 e9 bd 70 a0 12 3e 76 f5 82 bc
       -0.103855744 -0.11400023 0.14319015 -0.015986186
000020 4a da 18 3d 5f 4c 57 3e 5a f5 24 be a4 71 24 be
       0.03731755 0.21025227 -0.16109219 -0.16058975
000030 0b be 48 be dc 97 55 be f4 07 ab bd 24 5f 05 3e
       -0.19603746 -0.20858711 -0.08351126 0.13024575
000040 02 9c 0a 3e ab aa 7a bd dc 30 91 3d f7 47 74 be
       0.13536075 -0.061197918 0.07089397 -0.23855577
000050 54 87 1f 3e aa 13 7d bc a2 3b 1f bd aa b3 f9 bd
       0.15578967 -0.015446583 -0.03887523 -0.12192471
000060 fd 06 d6 bc d8 ca 34 be 43 19 a6 bd 76 d0 ae 3d
       -0.02612638 -0.17655504 -0.08110287 0.085358545
000070 75 5a 57 3d af bf b6 3c 1f ff 5a 3e 27 46 b9 3d
       0.0525765 0.022308199 0.21386383 0.090465836
000080 9f e7 5b be 70 55 f2 3d c6 93 cb 3d d9 a5 9b 3c
       -0.21475075 0.11832702 0.09940295 0.01899998
000090 56 08 93 bd 29 5d cf bd 8b 69 a7 bc 67 0f 2c 3e
       -0.07179324 -0.10125191 -0.020436069 0.1680275
0000a0 62 e9 aa 3d 95 9c bc 3d d5 03 c1 3d b2 30 b8 bd
       0.083452955 0.09209553 0.09424559 -0.08993663
0000b0 92 b2 4a bd 8b 2c 18 be e2 2f 67 3e c6 44 96 bd
       -0.049486704 -0.14860742 0.2257686 -0.07337336
0000c0 20 24 63 bd 5a b0 44 3c 59 27 16 3e f0 84 35 be
       -0.055454373 0.012004936 0.14663447 -0.17726493
0000d0 90 22 17 3e a9 99 fc 3d 6a 70 5c be fa 56 7a 3e
       0.14759278 0.12333996 -0.21527258 0.24447241
0000e0 9d 13 87 3d 12 9c 1e be bd 0b e7 3d 24 82 a4 bd
       0.06595538 -0.15489224 0.11281536 -0.08032635
0000f0 f6 f0 27 be 23 58 07 3d e1 cb 08 3e da a9 b5 bd
       -0.16400513 0.033043038 0.13359024 -0.08870287

bias f4 [4]
000000 b8 86 61 3d da df 84 3e 20 53 2c be 7f 08 86 3b
       0.05506012 0.25952035 -0.16828585 0.0040903683

weight f4 [4]
000000 6a 13 7e 3f d5 ad 82 3f ce 96 84 3f 1f 5b 79 3f
       0.99248374 1.0209299 1.0358522 0.97404665

bias f4 [4]
000000 7a 84 1a bd bd 77 4d bc 08 ed 19 bd 5d 2d f3 3d
       -0.037723996 -0.012540755 -0.037579566 0.11873887

running_mean f4 [4]
000000 29 5d 3d be de 4f 5a 3e b2 f6 e2 bd 80 c2 45 bb
       -0.18492569 0.2131953 -0.1108221 -0.0030175745

running_var f4 [4]
000000 d0 c4 a8 3e 9b 31 9a 3d 4f b4 6e 3d b7 a1 94 3d
       0.32962656 0.07528993 0.058277424 0.07257407

weight f4 [1, 4, 2]
000000 dd b5 88 3e eb fb 9e 3b 21 42 74 3e 4f 4a 87 3e
       0.2670125 0.0048518083 0.23853351 0.2642388
000010 af e9 31 3e a5 1d 04 3c 61 c0 6b be 93 eb 5d be
       0.173743 0.008063708 -0.23022605 -0.21671896

weight f4 [16, 80]
000000 3d fa 4b be 74 bc b9 3c 82 13 81 bd 21 6d e6 3d
       -0.19919677 0.02267287 -0.06302549 0.112512834
000010 1a 17 ee bc 94 8d e3 3d ff c5 e0 3d da a0 17 3d
       -0.02906375 0.11110988 0.10975265 0.037018634
000020 96 80 a8 3c b0 5e 01 3e f7 51 25 be 0f 09 88 bd
       0.020569127 0.12633777 -0.16144548 -0.06642353
000030 de 90 31 3e 54 b9 de 3c 75 35 59 bd 21 92 bf 3d
       0.17340419 0.02718798 -0.053029496 0.09354044
000040 00 66 db bd c3 8d 14 be 7d fd df 3d af 16 87 3d
       -0.10712814 -0.14507203 0.10937021 0.065961234
000050 cf ce d2 3a d3 dc b7 3c bf 6b 19 be d5 2a 4a 3d
       0.0016083362 0.022444164 -0.14982508 0.049357254
000060 01 35 08 3e 9b cd a9 bd 5f 3b 17 3e e8 21 61 bd
       0.1330147 -0.08291169 0.14768742 -0.054963976
000070 77 41 e8 3d 6f d8 b9 bd fc b9 40 3c 12 9d 1c 3e
       0.113406114 -0.090744846 0.011763092 0.15294293
000080 62 44 81 bd 98 03 13 be 4d d2 19 be 97 43 cc bd
       -0.06311871 -0.1435684 -0.1502163 -0.09973829
000090 ea f0 02 3d 8f 07 89 3d 8f 04 a5 3d 02 d3 e3 bd
       0.031968035 0.06690895 0.0805751 -0.11124231
0000a0 13 eb c9 bc 86 af a0 bb af 7d bb bd de 46 18 3d
       -0.024648225 -0.0049037365 -0.091548316 0.03717696
0000b0 85 44 0f 3d af 68 d1 3d 40 c7 e3 3d 54 e5 1a 3d
       0.034977455 0.10225045 0.11121988 0.03781636
0000c0 71 8f 95 3d 5f 27 10 bc c7 5b 8d bd c5 9e cc bc
       0.0730275 -0.008798449 -0.06902271 -0.024978051
0000d0 5b c8 04 be 13 2d de bd 1a 35 98 bb b7 c9 22 be
       -0.12967055 -0.10848441 -0.004645002 -0.1589726
0000e0 0f 7e a2 3d 9b c9 af 3d c8 54 00 be 40 8e 1c bd
       0.079342 0.08583375 -0.12532341 -0.038221598
0000f0 60 82 dc 3d b7 3a 1f bd 8d 93 a8 3c 59 a7 86 3d
       0.107670546 -0.038874354 0.02057817 0.06574888
000100 42 ff fb bd f1 36 f0 3d 60 ab 0c be d2 c1 00 3d
       -0.12304546 0.11729229 -0.1373725 0.03143484
000110 34 a4 24 3d fd f7 18 bd 85 d3 86 bd b6 1f 35 3c
       0.04019566 -0.037345875 -0.06583313 0.011054924
000120 d1 14 c5 bd b2 11 89 3c fd 45 63 3d 8a 20 ce 3c
       -0.09623111 0.01673207 0.055486668 0.025162
000130 f8 f9 7f bd ce 9d 18 bd e6 06 52 bd c5 d0 04 3d
       -0.06249425 -0.03725987 -0.05127611 0.03242566
000140 8b bf 09 3e 1f a3 47 bd 97 da ed bb 2b f1 2f be
       0.13451974 -0.04873955 -0.007258724 -0.17181842
000150 0f e9 64 bd cd 8d 80 bd 2a 76 46 be a8 73 da 3b
       -0.055886324 -0.06277046 -0.19381014 0.0066666193
000160 b1 22 d7 bd 4e cb 96 3c 43 a6 a7 3d 42 06 4f 3d
       -0.10504664 0.01840749 0.08186009 0.050543077
000170 57 0a b8 bd b7 40 dc bb e9 fc f6 3d c0 00 9b 3d
       -0.08986347 -0.006721582 0.120599575 0.075685024
000180 67 c3 0b bd 42 bb 14 bd 36 64 1d be f3 4c 9a bd
       -0.034121897 -0.036311395 -0.15370259 -0.07534208
000190 a4 f7 ba 3d 98 8b fa bd ce 68 3a 3e 14 72 7b bc
       0.09129265 -0.12233657 0.18204042 -0.015347023
0001a0 16 74 29 be 5d d9 5c bd b0 05 90 bd ad 46 95 bd
       -0.1654819 -0.05391823 -0.07032335 -0.07288871
0001b0 d4 18 20 bd 36 6f e4 3c f6 7f 32 3d cc d0 41 be
       -0.039086178 0.02788506 0.043579064 -0.18927306
0001c0 60 e2 84 bc 7b c3 9f 3d 39 58 52 bd 25 a6 be 3c
       -0.016221225 0.07800957 -0.051353667 0.023272583
0001d0 32 7f b9 3d bb b2 04 be 7d 63 80 bd 19 93 00 3d
       0.09057464 -0.12958805 -0.06268976 0.031390283
0001e0 a4 cc a5 3d 2a 92 e4 bb 27 94 69 3c f8 77 b0 3d
       0.08095673 -0.006975432 0.014256514 0.08616632
0001f0 bf de e6 bd 54 33 ea bd db 01 05 be f6 35 a4 bd
       -0.11272954 -0.11435571 -0.12988989 -0.08018105
000200 e4 48 b0 3c b9 78 e7 bd cf a4 c2 bc a8 40 af 3d
       0.021519132 -0.11302323 -0.023760227 0.08557254
000210 ab 01 3d bc 3e 6c 79 3d 1f 16 ad 3c 85 38 76 3e
       -0.011536042 0.060894243 0.021128712 0.24044998
000220 25 50 b6 bd 9c 8c cf bd 0a a0 08 bc 7d cb 9e bd
       -0.08902005 -0.10134241 -0.008338938 -0.07753656
000230 66 bc 27 bd f8 a4 08 be 6c d7 0e be 15 2e 8e bd
       -0.040951155 -0.1334418 -0.13949364 -0.06942383
000240 82 61 a3 3d 57 fb ec bd 2e 1c c0 bd 35 f1 64 3d
       0.079775825 -0.11571377 -0.09380375 0.055894095
000250 88 8c 13 3c 07 6e ce 3c 3b 10 8f 3c 2a 4a 7a bd
       0.009005673 0.02519895 0.017463794 -0.061105885
000260 82 20 0b 3e 90 b3 9e 3c aa 3a 8b 3c ce 3b 5d 3d
       0.1358662 0.019372731 0.016995747 0.054012112
000270 30 21 40 3b a3 1f 3e be b7 dd a3 3d dd ff 5b 3d
       0.0029316656 -0.18566756 0.08001273 0.053710807
000280 ff 38 50 bd 07 51 22 3d 34 64 79 bb 16 bb d6 3d
       -0.050835606 0.039628055 -0.003805411 0.104849026
000290 61 7b 07 3e 72 e4 e0 3d 7f 25 28 3e 25 0a b6 3d
       0.13230659 0.109810725 0.16420554 0.08888654
0002a0 43 86 26 3e 6f 88 ba bc 64 ef 01 bd 7c c6 a9 bc
       0.16262154 -0.022770135 -0.03172244 -0.020724528
0002b0 73 86 0b 3e 22 2e a8 bd 3a b6 eb 3c e8 c7 b6 3d
       0.13625507 -0.08211924 0.028773416 0.08924848
0002c0 dc 5f c6 bc d9 f7 09 bc b9 f0 2d 3e 14 35 89 3d
       -0.024215631 -0.008420908 0.1698636 0.06699577
0002d0 ac 1e 0d be 85 ca da 3d e7 ac 84 3b 44 89 3e 3c
       -0.13781232 0.10683159 0.004048932 0.011629406
0002e0 6f 69 63 3d 97 a0 83 bd 4f bf 29 3e a6 b9 e8 3c
       0.05552047 -0.064271145 0.16576885 0.028408837
0002f0 22 d2 37 3e 03 56 e8 3c 33 6c ba bd c4 e3 99 3e
       0.17951253 0.028361326 -0.091026686 0.30056584
000300 cf ce 04 be 40 47 e4 bd a5 f4 03 3d f1 de e0 bd
       -0.12969516 -0.11146402 0.032215733 -0.10980023
000310 62 20 a8 3d 0f 9d 76 bd e3 31 14 3e c2 1a 60 bd
       0.082093015 -0.060208376 0.14472155 -0.05471302
000320 ba 7f 80 3c 6d b8 51 bd 84 d6 40 bc 14 d0 26 bd
       0.015685905 -0.051201273 -0.0117698945 -0.040725783
000330 81 ed 9b 3d 24 00 d5 3c 36 9e 2e bc b1 53 bd 3d
       0.0761366 0.026001044 -0.010657838 0.092444785
000340 ba d6 20 bd 0f b8 cd 3d 7e 9a ce bd 21 d8 88 bd
       -0.03926728 0.10044872 -0.10088061 -0.06681848
000350 c4 62 4d bc ae 43 57 3b 82 3d 3d 3c 08 8a f6 bd
       -0.012535755 0.0032846737 0.011550309 -0.12038046
000360 c0 74 c3 3c e0 58 fb 3c 30 d6 06 be 4b 77 73 3d
       0.023859382 0.030682027 -0.13167644 0.05943994
000370 cf e1 31 bc 19 10 3d bd 41 af 83 3d 5a 62 d2 bb
       -0.01085706 -0.04615793 0.064299114 -0.006420416
000380 a3 52 96 3d 9e 28 15 3e 89 03 87 bd 06 bd 4c 3c
       0.073399805 0.14566275 -0.06592471 0.012496239
000390 56 88 b6 3d 49 37 bd bd b2 f8 19 bd c9 17 cc bc
       0.08912723 -0.092390604 -0.03759069 -0.024913685
0003a0 61 c9 90 3c 04 ba f8 3c c8 64 14 3d 2e 94 c5 3d
       0.01767415 0.030362137 0.036228925 0.09647404
0003b0 84 7d 22 bd 5c 71 f3 3a 87 15 2f bb 64 4e 9d bd
       -0.039670482 0.0018573212 -0.0026715712 -0.076809675
0003c0 ce a6 79 3d fe de c7 3c ae df 21 3e dd 63 f3 bd
       0.060950093 0.024398323 0.15807983 -0.11884282
0003d0 fb 3a 9d bd 9e 88 fe 3c 47 6f 08 be 45 67 24 be
       -0.07677265 0.031071004 -0.13323699 -0.16055019
0003e0 94 64 4e be cd e0 22 be b2 72 a3 bc 80 27 d6 bb
       -0.20155555 -0.15906067 -0.019952152 -0.0065354705
0003f0 2e 34 15 be 00 b0 aa bd d6 b3 0b 3e a7 92 0e bd
       -0.14570686 -0.083343506 0.1364282 -0.034807827

bias f4 [16]
000000 a7 a0 e4 ba 5d 23 f4 3d c2 78 f8 bd e4 0a d7 3d
       -0.0017442898 0.119208075 -0.12132408 0.10500124
000010 81 51 06 bd c5 4b a5 bd e9 b9 e7 bd a8 51 a3 bd
       -0.032792572 -0.080710925 -0.113147564 -0.07974559
000020 af 62 a2 3d 0d fa ce 3d e6 0b 80 3c 12 50 8c bd
       0.07928979 0.10106287 0.015630674 -0.0685121
000030 5b 1a 95 3c c2 fe e7 bb 0c 41 fd bd 4b 84 3a bd
       0.018201044 -0.00707993 -0.12365922 -0.04553632

weight f4 [2, 16]
000000 12 28 0a 3e 3f 75 12 be 4f 08 b3 3e 02 ad 40 be
       0.13491848 -0.14302538 0.34967276 -0.18815997
000010 a7 89 05 be e3 51 39 be 52 7e 2f bc 2d 5f 24 3e
       -0.13040791 -0.18097644 -0.010711269 0.16051932
000020 55 91 a4 be 30 6b b6 be 0f f8 c0 be ed 8d 2f 3e
       -0.3214213 -0.35628653 -0.37689254 0.17143984
000030 7f f0 f4 3d 3a 72 72 3d cf 2a ac 3e 0e d4 3a be
       0.119599335 0.059190966 0.3362641 -0.18244955
000040 58 74 9b be 13 ac e8 3d bf ac 8f be e1 9a 5f 3e
       -0.303622 0.113609456 -0.28061482 0.21836425
000050 ee 86 6d 3e 5c eb 9c 3d 05 dd b9 be 5b 1b 95 bd
       0.23196003 0.07662079 -0.36301437 -0.07280608
000060 cd b1 17 3e ed 0a 4c bc 38 6b b5 3e af c2 f9 ba
       0.1481392 -0.012453777 0.35433364 -0.0019055213
000070 4b 3d b8 be f0 b0 ab be 02 21 34 be d7 2e 02 3d
       -0.35984263 -0.3353343 -0.17590716 0.03178295

bias f4 [2]
000000 11 5c 7d be b8 03 7c 3e
       -0.24742152 0.24610794
