mlpcnnsemi/model/cnn/64oneinput_batch1_Epoch=2_lr=0.0001.pth (torch, 25249 bytes, 29 tensors)

weight f4 [4, 1, 1]
0	0x3f213322	0.6296865
1	0x3f3cbf64	0.7372954
2	0x3f2dac3d	0.6784094
3	0xbf187e2a	-0.5956751

bias f4 [4]
0	0x3f31342a	0.6922022
1	0x3f1e610f	0.6186685
2	0xbe830d2b	-0.25595984
3	0xbec2662e	-0.37968582

weight f4 [4]
0	0x3f826638	1.0187445
1	0x3f7d532b	0.9895503
2	0x3f7fa720	0.9986439
3	0x3f812984	1.0090795

bias f4 [4]
0	0x3be7e06c	0.0070763137
1	0xbc3c5083	-0.011493805
2	0x3bcc461b	0.006233943
3	0x3c1f9eac	0.00974242

running_mean f4 [4]
0	0x3f6245b2	0.88387597
1	0x3f57cf43	0.8430063
2	0xbd4abd70	-0.049497068
3	0xbf0f8d52	-0.5607501

running_var f4 [4]
0	0x3e75af61	0.23992683
1	0x3ea84962	0.32868487
2	0x3e8e9669	0.2784913
3	0x3e5bd128	0.21466506

weight f4 [16, 4, 1]
0	0x3ebdcfb6	0.37072533
1	0xbefaf59a	-0.49015504
2	0xbe822fca	-0.25427085
3	0x3ef2be8b	0.47410998
4	0xbd853131	-0.06503523
5	0x3ea8fbb3	0.3300453
6	0xbe31b9d2	-0.17356041
7	0x3ec50019	0.38476637
8	0x3f00893c	0.50209403
9	0xbef4f4da	-0.47843057
10	0x3e9f57e2	0.31121737
11	0xbefb22df	-0.49050042
12	0x3e63f2dc	0.22260612
13	0x3da4cc77	0.08046811
14	0x3ef68b30	0.48153067
15	0xbe923f6a	-0.28564006
16	0xbd29cf0b	-0.041457217
17	0x3d5de7f1	0.054176275
18	0x3e922705	0.28545395
19	0x3d220fb0	0.039565742
20	0xbe4d216a	-0.20032278
21	0xbea8a601	-0.3293915
22	0xbebfa702	-0.37432104
23	0xbe374384	-0.17896849
24	0xbede0c26	-0.43368644
25	0x3e045a7d	0.12925144
26	0xbefb1d38	-0.4904573
27	0x3eef54e8	0.46744466
28	0xbe539c00	-0.20664978
29	0x3d492ce6	0.049115084
30	0x3e462555	0.19350179
31	0xbe499522	-0.19685796
32	0xbeb07316	-0.34462804
33	0x3eb041d4	0.34425223
34	0xbea0f006	-0.31433123
35	0xbe1609f3	-0.14652233
36	0xbed63c3b	-0.41842827
37	0x3c102e43	0.008800092
38	0xbe7e09f6	-0.24808487
39	0xbeca9bb1	-0.39571908
40	0x3e4b7d2d	0.1987197
41	0xbe4ded53	-0.20110063
42	0x3e23f511	0.16011454
43	0x3d85292a	0.06501992
44	0x3e27d811	0.16391017
45	0xbeb14165	-0.34620205
46	0xbe9443cb	-0.28957972
47	0xbb917efb	-0.004440186
48	0x3eefb81e	0.46820158
49	0xbe8f65cf	-0.2800736
50	0x3e344040	0.17602634
51	0xbed34dbe	-0.4127025
52	0x3eb2e082	0.3493691
53	0xbde5c214	-0.11218658
54	0x3e9d2a5c	0.3069638
55	0x3e81aec0	0.25328636
56	0xbe61b73f	-0.22042559
57	0x3ed67dff	0.41893002
58	0x3d178ce0	0.036999583
59	0x3e34a48a	0.17640892
60	0x3d9b6210	0.07587063
61	0x3e0aca19	0.13553657
62	0xbdc5edb9	-0.096644826
63	0xbeeeeac4	-0.46663487

bias f4 [16]
0	0xbe2ff71d	-0.1718411
1	0xbd8b5692	-0.06803621
2	0xbe28cf92	-0.16485432
3	0x3e644194	0.22290641
4	0xbdd5d2f7	-0.10440629
5	0x3e8ce95a	0.27521783
6	0xbcdd190d	-0.026989484
7	0xbdbd83bf	-0.09253644
8	0x3e96994d	0.29413834
9	0x3eeb5fa8	0.45971417
10	0xbaf24763	-0.001848441
11	0x3eb343ad	0.3501257
12	0xbeb561f9	-0.3542631
13	0xbee103a7	-0.439481
14	0xbefaf634	-0.49015963
15	0xbea743c1	-0.3266888

weight f4 [16]
0	0x3f7d5037	0.98950523
1	0x3f809a52	1.0047095
2	0x3f7bf529	0.9842096
3	0x3f7ea60f	0.99472135
4	0x3f8203b4	1.015738
5	0x3f8401cc	1.0313048
6	0x3f807d87	1.0038308
7	0x3f7f80b9	0.9980579
8	0x3f7de848	0.9918256
9	0x3f810678	1.0080099
10	0x3f7e6f49	0.9938856
11	0x3f807b05	1.0037543
12	0x3f7f12f5	0.996383
13	0x3f8043b2	1.0020659
14	0x3f81c3e2	1.0137904
15	0x3f7c9a76	0.9867319

bias f4 [16]
0	0xbc42156b	-0.011845927
1	0x3c112922	0.0088599045
2	0xba9a84d4	-0.0011788853
3	0xbb13cc2e	-0.002255212
4	0xbbb6199b	-0.0055572516
5	0x3d0b50d3	0.034012627
6	0x3c338d52	0.010958986
7	0x3cc3e44f	0.023912577
8	0xbbefcb7f	-0.00731796
9	0x3b8a0fe6	0.004213321
10	0xba2aa866	-0.00065100787
11	0x3c254fd1	0.0100898305
12	0xba3c2ed8	-0.0007178611
13	0xbb9355c6	-0.004496309
14	0x3bb598e5	0.005541908
15	0xbc5a9ec6	-0.013343519

running_mean f4 [16]
0	0xbe09d8a8	-0.13461554
1	0x3d81166a	0.06303103
2	0xbe52da90	-0.20591187
3	0x3eb74957	0.3579814
4	0xbc445910	-0.011984125
5	0xbcb76ad5	-0.022389809
6	0xbdec378b	-0.115340315
7	0xbe0f6f4f	-0.14007305
8	0x3e260f55	0.16216786
9	0x3e28fc6c	0.16502541
10	0x3d8020c6	0.06256251
11	0x3e643813	0.22287016
12	0xbebb72b0	-0.36610937
13	0xbe5d0566	-0.2158409
14	0xbec269b4	-0.3797127
15	0xbedacbab	-0.4273351

running_var f4 [16]
0	0x3e0eb817	0.13937412
1	0x3bb589e7	0.005540121
2	0x3e0bbac6	0.13645467
3	0x3f0c75ac	0.54867053
4	0x3d90da45	0.070728816
5	0x3f25ff0d	0.648423
6	0x3f195843	0.599003
7	0x3b3e1369	0.0029003269
8	0x3da5bc30	0.080925345
9	0x3ea82fd1	0.3284898
10	0x3ca99bb6	0.020704132
11	0x3e348df1	0.17632271
12	0x3e176221	0.14783527
13	0x3e6d5d7b	0.23180191
14	0x3d162e02	0.03666497
15	0x3cd49e59	0.025954412

weight f4 [8, 16, 2]
0	0x3e28778a	0.1645185
1	0x3d6cef53	0.057845425
2	0x3d325f42	0.043547876
3	0xbc69e0e7	-0.014274812
4	0xbe0d90bd	-0.13824745
5	0xbda4ed04	-0.0805302
6	0x3b6f95c3	0.003655777
7	0x3decc137	0.1156029
8	0x3e02c561	0.12770607
9	0x3c881f30	0.016616434
10	0xbe222b73	-0.15836887
11	0x3df86464	0.12128523
12	0x3d0f6726	0.03501048
13	0xbd0fc6a6	-0.035101555
14	0xbe275895	-0.16342385
15	0xbde3dff6	-0.111267015
16	0xbdffaef0	-0.124845386
17	0xbe24e1b2	-0.16101721
18	0x3e23620e	0.15955374
19	0x3d1420c5	0.036164064
20	0xbd50b2af	-0.050951656
21	0xbdd8070f	-0.10548221
22	0xbdbfe384	-0.09369567
23	0xbe2d99e8	-0.16953242
24	0x3e34a1e0	0.17639875
25	0x3da67b72	0.08129014
26	0x3dc0a87e	0.09407137
27	0x3db70342	0.08936168
28	0xbd3bb499	-0.04582653
29	0xbd850e00	-0.06496811
30	0x3c3e7856	0.01162537
31	0xbe02a8db	-0.12759726
32	0xbe2e8e79	-0.17046537
33	0xbdf2b218	-0.11850375
34	0xbe373056	-0.17889532
35	0x3e313a9b	0.17307512
36	0xbdf04e92	-0.11733736
37	0x3de84d3f	0.113428585
38	0x3e22ca5c	0.15897506
39	0x3ce67d5b	0.028135946
40	0xbe1d9e48	-0.15392411
41	0xbe2feff8	-0.17181385
42	0xbe3e0bf5	-0.18559249
43	0x3e08b7b6	0.1335133
44	0xbdec6242	-0.11542179
45	0x3e2a2672	0.16616228
46	0x3e1b9efd	0.15197368
47	0x3dd0bf97	0.10192793
48	0xbe2dc5cd	-0.16969986
49	0xbdb13085	-0.086518325
50	0xbd044d72	-0.03230042
51	0x3baf4fb1	0.005350076
52	0xbd6b47d2	-0.05744154
53	0x3cb25821	0.021770539
54	0xbda081e9	-0.078372784
55	0xbd3d9a29	-0.046289597
56	0xbe285fc5	-0.16442783
57	0x3c26e5a7	0.010186589
58	0x3e0ca71e	0.13735625
59	0x3db83bac	0.089957565
60	0x3c08a1e1	0.008339376
61	0xbe3537d8	-0.17697084
62	0x3e162593	0.14662771
63	0xbd14c13e	-0.036317103
64	0xbde7f6d1	-0.11326373
65	0xbd1a0d7b	-0.037610512
66	0x3d39ee8f	0.045393523
67	0x3dce2d05	0.100671805
68	0x3e035824	0.12826592
69	0xbe229152	-0.15875748
70	0x3cd958a1	0.02653152
71	0x3db16185	0.086611785
72	0x3d3f2f45	0.04667594
73	0x3dfcc9d8	0.12343186
74	0x3e3fa19d	0.18713994
75	0x3e0eee41	0.13958074
76	0xbdc087e7	-0.09400921
77	0x3d44dc30	0.04806155
78	0xbd4b27f2	-0.04959864
79	0x3e120efe	0.14263532
80	0xbd83bff3	-0.06433096
81	0x3e0c469c	0.1369881
82	0x3e0d7e56	0.13817725
83	0xbd7f1778	-0.06227824
84	0xbe2274ef	-0.15864919
85	0x3e257f9c	0.1616196
86	0x3e399b12	0.18125561
87	0x3d2ca2ba	0.042147376
88	0xbd8c6bae	-0.06856476
89	0x3d62306b	0.055221956
90	0x3d0ef1de	0.03489863
91	0xbd9623a8	-0.0733102
92	0xbd3da758	-0.04630217
93	0x3c8920c9	0.016739266
94	0x3dfd0cdb	0.123559676
95	0xbe0e8f3b	-0.13921826
96	0x3d4c81d6	0.04992851
97	0xbe0b0ff7	-0.13580309
98	0xbe38727b	-0.18012421
99	0xbe245528	-0.1604811
100	0xbd238c06	-0.03992846
101	0x3dc910c3	0.0981765
102	0x3d69b5e4	0.05705823
103	0x3d8740cf	0.06604158
104	0xbd94299f	-0.07234501
105	0xbd9aa8e5	-0.07551745
106	0xbb2b6c69	-0.0026157147
107	0xbcfe64fd	-0.031054014
108	0x3d4ab434	0.04948826
109	0xbdc35dd0	-0.09539378
110	0x3dc85b6a	0.09783061
111	0x3dc6ad68	0.09701043
112	0x3d4e6a7a	0.050394513
113	0x3e038032	0.12841871
114	0xbd92b5db	-0.071635924
115	0xbdf65728	-0.120283425
116	0xbe2e29b6	-0.17008099
117	0x3e24cee4	0.16094548
118	0x3d675d07	0.056485202
119	0x3d8f2266	0.06988983
120	0xbe1fd863	-0.15609889
121	0x3d5a67e0	0.05332172
122	0xbd344d5c	-0.04401909
123	0x3dc75186	0.09732346
124	0x3de764d6	0.1129853
125	0xbe306ef6	-0.17229828
126	0x3dda9273	0.10672464
127	0x3dabdbf3	0.08391561
128	0xbe186ae4	-0.14884526
129	0x3da36d58	0.0797984
130	0x3d327f2b	0.043578308
131	0xbe0da564	-0.13832623
132	0xbdf0a195	-0.11749569
133	0x3e0e361c	0.13887829
134	0xbcdbd7a9	-0.026836233
135	0xbd65c95e	-0.05610024
136	0xbe10a4d2	-0.14125374
137	0x3e109609	0.14119734
138	0x3e31c375	0.17359717
139	0xbd82850c	-0.06373033
140	0x3dce17e4	0.100631505
141	0x3d94a6b0	0.072583556
142	0xbe29bd52	-0.16576126
143	0x3d759ca2	0.05996383
144	0x3e1054fe	0.14094922
145	0xbd7529a8	-0.05985418
146	0x3e1ff14d	0.15619393
147	0xbde68d72	-0.11257447
148	0xbdb86980	-0.090044975
149	0xbdb72bd8	-0.089439094
150	0xbda3a2c4	-0.079900295
151	0xbae16164	-0.0017195162
152	0x3d3d45c4	0.04620911
153	0x3dbe831a	0.093023494
154	0xbcc552c2	-0.024087314
155	0xbd470ad7	-0.048594322
156	0x3e111d7a	0.141714
157	0x3de50220	0.11182046
158	0xbce3ff5e	-0.02783173
159	0xbd317ef0	-0.043333948
160	0xbdae1b14	-0.085012585
161	0x3da0f45c	0.07859108
162	0xbda50857	-0.08058231
163	0x3cab111f	0.020882187
164	0xbd9b1aa0	-0.07573438
165	0x3cadaa28	0.0211993
166	0x3e2cffc9	0.1689445
167	0x3e095e91	0.1341498
168	0xbd6c28c0	-0.05765605
169	0x3df5e497	0.12006491
170	0xbdaa8757	-0.08326595
171	0x3df19f3b	0.11797949
172	0xbe0fb6d0	-0.14034581
173	0xbd44b169	-0.048020754
174	0x3d4e8f0d	0.050429393
175	0xbc983ac3	-0.018582707
176	0xbdb9704f	-0.09054624
177	0x3d80b323	0.062841676
178	0xbd964633	-0.07337608
179	0x3d5ff83b	0.05468009
180	0xbdaca9cc	-0.08430824
181	0x3d01e42a	0.031711735
182	0xbde7c6f8	-0.11317247
183	0xbd3c8a72	-0.04603047
184	0xbe04cd80	-0.12969017
185	0x3d9a6793	0.075392865
186	0x3e13161d	0.14363904
187	0xbd211e49	-0.039335523
188	0xbd31d022	-0.04341138
189	0x3de76923	0.1129935
190	0xbe090785	-0.13381775
191	0xbd278e44	-0.04090716
192	0x3a24809c	0.0006275268
193	0xbdde0568	-0.10840875
194	0xbde010e7	-0.10940724
195	0x3e039a9b	0.12851946
196	0xbc92fd4a	-0.017943043
197	0x3e0fdadb	0.1404833
198	0x3de5911b	0.11209317
199	0xbe306c53	-0.17228822
200	0xbd45920d	-0.048234988
201	0x3e1437fc	0.14474481
202	0x3d64b14b	0.055833142
203	0xbb1b4782	-0.0023693745
204	0x3de4471b	0.11146375
205	0x3c55fe50	0.013061121
206	0xbdb2e764	-0.087355405
207	0xbdae6a26	-0.0851634
208	0x3de57c9f	0.1120541
209	0xbc814ce9	-0.015783744
210	0x3e08d9a2	0.1336427
211	0xbd6bb2d0	-0.057543576
212	0x3da7f206	0.08200459
213	0x3d13729f	0.035997983
214	0xbdb0581b	-0.08610555
215	0xbcb9a392	-0.022661004
216	0xbcd1d011	-0.02561191
217	0xbe1d031e	-0.1533322
218	0xbdf9eeb6	-0.122037336
219	0x3dc2a632	0.095043555
220	0xbcd69727	-0.026195122
221	0x3d7d6e99	0.061873052
222	0xbb76023e	-0.0037537958
223	0x3daaf3af	0.0834726
224	0x3da308cb	0.079606615
225	0xbd927aa1	-0.07152296
226	0x3d260ee9	0.040541563
227	0x3e1d1301	0.1533928
228	0x3daba151	0.08380378
229	0xbdf32953	-0.11873116
230	0xbde577a8	-0.11204463
231	0x3d8ab50c	0.06772813
232	0x3d94b59e	0.07261203
233	0xbe01e413	-0.1268466
234	0x3b300d81	0.0026863518
235	0x3d1959b2	0.037439056
236	0x3de2894e	0.11061345
237	0x3d03d3cf	0.03218442
238	0x3d5517fb	0.052024823
239	0xbd459ce3	-0.048245322
240	0xbe115956	-0.14194235
241	0x3ddbc443	0.10730793
242	0x3c2d34e4	0.010571692
243	0xbdefedcb	-0.11715277
244	0xbd9320ee	-0.07184015
245	0x3c22e815	0.009943028
246	0xbdbc9823	-0.09208705
247	0xbe0c55d6	-0.13704619
248	0x3e21d315	0.15803178
249	0x3d9d86c3	0.076917194
250	0xbd5ba84f	-0.05362731
251	0xbdc93b6a	-0.098257855
252	0xbdef442e	-0.11682926
253	0xbe0c9836	-0.13729939
254	0xbdbe9d39	-0.093073316
255	0x3dec2f32	0.11532439

bias f4 [8]
0	0xbd575947	-0.052575376
1	0x3b9e209d	0.004825665
2	0x3e2c87ea	0.16848722
3	0xbde2e4af	-0.11078774
4	0xbd85a054	-0.06524721
5	0x3e07a53f	0.1324663
6	0x3e1c9900	0.1529274
7	0x3d4e48a0	0.05036223

weight f4 [8]
0	0x3f80d625	1.0065352
1	0x3f801603	1.0006717
2	0x3f7e2991	0.99282175
3	0x3f82bea1	1.0214425
4	0x3f7a3272	0.97733223
5	0x3f805790	1.0026722
6	0x3f7e58b9	0.9935413
7	0x3f802af8	1.0013113

bias f4 [8]
0	0x3b6e4117	0.0036354715
1	0xbbddb129	-0.006765504
2	0xbc80845d	-0.015688116
3	0x3c911dcc	0.017714404
4	0xbc99d785	-0.018779526
5	0x39eb56ad	0.0004488727
6	0xbc5c7136	-0.013454726
7	0x3cb67409	0.022272127

running_mean f4 [8]
0	0xbe2e45a0	-0.17018747
1	0xbdc370b2	-0.09542979
2	0x3ed06f76	0.40710038
3	0xbdd722d3	-0.10504689
4	0xbd90f5b4	-0.07078114
5	0x3d7b4f3e	0.061354868
6	0x3e2f5090	0.17120576
7	0x3c2716bc	0.010198291

running_var f4 [8]
0	0x3cb34cc4	0.02188719
1	0x3d2dcea1	0.042433385
2	0x3da12833	0.078689955
3	0x3dbdb868	0.09263688
4	0x3dac3a07	0.08409505
5	0x3dba4ff4	0.09097281
6	0x3d1dd616	0.038534246
7	0x3d24b402	0.04021073

weight f4 [4, 8, 2]
0	0x3d3379d2	0.04381735
1	0xbe3dd84f	-0.18539546
2	0xbd47f5b3	-0.0488183
3	0xbe7fd1cd	-0.24982376
4	0xbd9ac38e	-0.0755683
5	0xbe028ce1	-0.12749054
6	0x3e30a53b	0.1725053
7	0x3b26b7e4	0.0025439197
8	0x3d2340d2	0.03985674
9	0x3e410b7b	0.18852036
10	0xbe2f62a3	-0.1712747
11	0xbe14037c	-0.14454454
12	0xbe13d6db	-0.1443743
13	0xbe1a9cec	-0.15098923
14	0x3d746e4e	0.059675507
15	0x3e277070	0.16351485
16	0x3e182288	0.14856923
17	0xbd3baf6f	-0.045821603
18	0x3d47bc16	0.048763357
19	0xbe5170d8	-0.20453203
20	0x3e0f444f	0.13990901
21	0xbc715d89	-0.014731773
22	0xbd4f1217	-0.05055436
23	0xbdf4f2fc	-0.11960408
24	0xbc538210	-0.012909427
25	0xbe509a65	-0.20371397
26	0xbdbc86b3	-0.09205379
27	0x3d1d2c06	0.038372062
28	0x3d571ab2	0.052515693
29	0x3d8b2e47	0.06795936
30	0x3e80d0f8	0.2515943
31	0x3d7eb5a7	0.062184956
32	0xbe656668	-0.22402346
33	0x3d15488c	0.03644614
34	0x3daaa658	0.08332509
35	0x3e0ff211	0.14057185
36	0xbda8438c	-0.082160085
37	0xbd09914e	-0.03358584
38	0xbd27bf62	-0.040954
39	0x3e442fae	0.19158813
40	0x3d9ac02d	0.07556186
41	0x3dc0c068	0.094116986
42	0x3d98ae26	0.07455091
43	0xbd978651	-0.07398666
44	0xbcabb372	-0.02095959
45	0xbd468b56	-0.048472725
46	0x3e70ed13	0.23527937
47	0xbd63ebe6	-0.055644892
48	0xbcef6c76	-0.029226523
49	0xbd29d89a	-0.041466333
50	0x3de751b3	0.1129488
51	0xbe300f22	-0.17193273
52	0x3e2308d3	0.15921335
53	0x3da5cf71	0.08096207
54	0xbe7e07cd	-0.24807663
55	0x3e7a7566	0.24458846
56	0x3d89c348	0.067267
57	0xbde93b4e	-0.113882646
58	0x3dd9cd1f	0.10634827
59	0xbc30f8a5	-0.010801469
60	0xbe3f12f2	-0.18659571
61	0x3d5b9705	0.05361082
62	0x3e29e166	0.16589889
63	0xbdd5c5eb	-0.104381405

bias f4 [4]
0	0x3da8e5f0	0.08246982
1	0x3e77ed6a	0.2421166
2	0xbe140b8e	-0.14457533
3	0x3d06e2f5	0.032931287

weight f4 [4]
0	0x3f7e1a9e	0.99259365
1	0x3f832957	1.0246991
2	0x3f7ebf6a	0.99510825
3	0x3f7c7416	0.98614633

bias f4 [4]
0	0x3be55152	0.0069982195
1	0x3cbeba71	0.023282262
2	0x3b4f6e54	0.0031651454
3	0x3bff7619	0.0077960608

running_mean f4 [4]
0	0xbdb270e6	-0.0871294
1	0x3e5bb3b3	0.21455269
2	0xbc89a9c2	-0.01680458
3	0x3b0e09d9	0.002167335

running_var f4 [4]
0	0x3ea8ecca	0.32993156
1	0x3d8364b7	0.06415694
2	0x3d69d377	0.057086434
3	0x3dad2829	0.084549256

weight f4 [1, 4, 2]
0	0x3e8789bc	0.2647227
1	0xbad48aa1	-0.0016215631
2	0x3e71ed11	0.2362559
3	0x3e90f65d	0.2831296
4	0x3e0327fc	0.12808222
5	0xbcff083b	-0.031131854
6	0xbe7f6419	-0.24940528
7	0xbe2de8e0	-0.16983366

weight f4 [16, 80]
0	0xbdeaa3d4	-0.11457029
1	0x3d7639d0	0.060113728
2	0xbb9adc47	-0.004725966
3	0x3d60a119	0.054841135
4	0xbd52d4a0	-0.051472306
5	0x3da6de08	0.08147818
6	0xbccab74c	-0.024745606
7	0x3c290dce	0.010318233
8	0xbd6e0560	-0.058110595
9	0x3d96fd06	0.07372479
10	0xbde6a58b	-0.112620436
11	0xbce21fc2	-0.027603034
12	0x3dc3c5b4	0.09559193
13	0x3c999eac	0.018752418
14	0xbbd2e206	-0.0064356355
15	0x3dc03ad2	0.09386219
16	0xbd879a31	-0.066212066
17	0xbdb030c2	-0.0860305
18	0x3d942caf	0.07235085
19	0x3d9b9e33	0.075985335
20	0x3d8271e0	0.06369376
21	0x3d0b795c	0.034051284
22	0xbd509860	-0.050926566
23	0x3cfc29a7	0.03078158
24	0x3dbc7bdd	0.092033125
25	0xbc91731f	-0.01775509
26	0x3db51396	0.08841626
27	0xbc8c1834	-0.017101385
28	0x3d150506	0.036381744
29	0xbdc9d219	-0.09854526
30	0x3d2671b2	0.040635772
31	0x3b079acc	0.0020691631
32	0x3c0a0aa6	0.00842539
33	0xbdbe0160	-0.09277606
34	0xbdca70fe	-0.09884833
35	0xbc074451	-0.008256034
36	0x3d33d631	0.04390544
37	0x3d922f3a	0.07137914
38	0x3d78b6c7	0.060721185
39	0xbdc4cfa7	-0.09609919
40	0xbd390a3b	-0.045175772
41	0x3daf0a6b	0.08546909
42	0xbdd1c07f	-0.10241794
43	0x3d4f27ce	0.05057507
44	0x3d34ef6a	0.044173636
45	0x3dcb19ad	0.09917007
46	0x3dcab849	0.09898431
47	0x3d397a37	0.04528257
48	0x3d96fd02	0.07372476
49	0xbcea6498	-0.02861242
50	0xbd589246	-0.052873872
51	0xbd435ba9	-0.047694836
52	0xbde1931e	-0.110143885
53	0xbdb9bb8b	-0.09068974
54	0x3c1d33b9	0.009594851
55	0xbbd92049	-0.006626163
56	0x3dc1d27c	0.09463975
57	0x3da7f5af	0.08201157
58	0xbdb021de	-0.0860021
59	0xba03b013	-0.00050234905
60	0x3d864666	0.06556396
61	0xbd935079	-0.07193083
62	0xbcac5da2	-0.021040741
63	0x3d9796ee	0.074018344
64	0xbddc95e9	-0.107707806
65	0x3db72273	0.089421175
66	0xbdebb6f5	-0.11509506
67	0x3cff3062	0.031151
68	0x3cf787c7	0.03021611
69	0x3a8b3986	0.0010622002
70	0xbd934ce8	-0.07192403
71	0xbc8dff39	-0.017333614
72	0xbd15893a	-0.036507823
73	0x3d0b9ec9	0.034086976
74	0x3cff011a	0.031128455
75	0x3d013bc4	0.031551138
76	0xbcd58a79	-0.026067005
77	0xbdcdb6cd	-0.10044632
78	0xbd1d6eb1	-0.03843564
79	0x3da43bb2	0.080191985
80	0x3d50f68c	0.051016375
81	0xbdb25ce5	-0.087091245
82	0xbd76d1fa	-0.060258843
83	0xbdf4c515	-0.11951653
84	0xbd20f635	-0.0392973
85	0xbd1fa1bf	-0.038972612
86	0xbd93b769	-0.07212717
87	0x3cf1defe	0.029525276
88	0xbd161a02	-0.036645897
89	0x3d8b6959	0.06807203
90	0x3d0da154	0.034577683
91	0x3c5668d9	0.013086521
92	0xbca3ba01	-0.019986155
93	0x3b0ee71d	0.0021805235
94	0x3d9e0cfb	0.077173196
95	0x3d9405d8	0.07227677
96	0xbd93b395	-0.07211987
97	0xbdc27bf2	-0.09496297
98	0xbdfd32c2	-0.12363197
99	0xbdaf7038	-0.08566326
100	0x3d00b80c	0.03142552
101	0xbe0ac86c	-0.13553017
102	0x3db0e60d	0.08637629
103	0xba6d2010	-0.000904561
104	0xbe0214b4	-0.1270321
105	0xbdf0e859	-0.11763067
106	0xbc48503e	-0.0122261625
107	0xbde2e694	-0.110791355
108	0x3cf69568	0.03010054
109	0x3d00c81b	0.031440835
110	0x3c24556e	0.010030134
111	0xbd4ff21a	-0.050767995
112	0xbdaed2f6	-0.08536331
113	0x3ced95bb	0.029002061
114	0xbdc9a22f	-0.09845387
115	0xbd82b506	-0.06382184
116	0x3d9e52c6	0.077306315
117	0xbe09418d	-0.13403912
118	0xbd3f6f29	-0.04673687
119	0x3c998ef8	0.01874493
120	0x3dd27955	0.102770485
121	0xbdbf3ec6	-0.09338145
122	0x3ce7d515	0.028299848
123	0x3d93cff7	0.072174005
124	0xbdfb903c	-0.1228337
125	0xbdea9b00	-0.11455345
126	0xbdfb4cba	-0.12270494
127	0xbdb4e1ab	-0.08832105
128	0x3c98f2d5	0.018670479
129	0xbdc3562c	-0.0953792
130	0xbd27374b	-0.040824216
131	0x3dd9e3bf	0.10639142
132	0xbd07d2c5	-0.03315999
133	0x3d2e4677	0.04254767
134	0x3bcd14d0	0.0062585846
135	0x3dc56330	0.09638059
136	0xbdd7f307	-0.10544401
137	0xbdc9d6e0	-0.09855437
138	0xbd489df8	-0.048978776
139	0xbde85275	-0.113438524
140	0xbbaa51b1	-0.0051977267
141	0xbdd5847d	-0.10425661
142	0xbdd09b90	-0.10185921
143	0xbda217d6	-0.079147026
144	0x3d890291	0.06689943
145	0xbdc02622	-0.09382273
146	0xbdeb28da	-0.11482401
147	0x3d6430b6	0.055710517
148	0x3c8e2f0e	0.017356422
149	0xbc576188	-0.013145812
150	0x3caf4faa	0.021400291
151	0xbd1af956	-0.03783544
152	0x3da33461	0.07968975
153	0x3b1ee682	0.002424628
154	0x3d1fc57d	0.0390067
155	0x3d407a68	0.046991736
156	0xbd0e069c	-0.034674272
157	0xbe0604ea	-0.13087812
158	0x3d86636b	0.06561931
159	0x3bc8654b	0.0061155907
160	0x3cfb24f6	0.030657273
161	0x3d9d54cb	0.076821886
162	0x3d3f4344	0.04669501
163	0x3d5a1378	0.053241223
164	0x3deee589	0.11664874
165	0x3db0a6fa	0.08625598
166	0x3d3845df	0.04498851
167	0x3d87bfe6	0.066283986
168	0x3dc4d8b5	0.09611646
169	0xbd93d627	-0.07218581
170	0x3c5d3022	0.013500245
171	0x3c76246f	0.015023335
172	0x3d8a4d51	0.06753028
173	0xbdbc4b9f	-0.09194111
174	0x3d8fddcd	0.07024727
175	0x3dbd3874	0.09239283
176	0x3c403c0d	0.011733067
177	0x3d46f9a7	0.04857793
178	0x3e0f1a6c	0.13974923
179	0x3d9bac1d	0.076011874
180	0xbda46741	-0.080275066
181	0x3df375ab	0.11887678
182	0x3dc72670	0.09724128
183	0xbb59f86f	-0.003325965
184	0x3c88a86c	0.016681872
185	0xbb2240c4	-0.0024757842
186	0x3ddc3442	0.10752155
187	0x3d85f4e7	0.06540852
188	0x3de3769d	0.11106608
189	0x3cc75c7d	0.024336094
190	0xbd6e2895	-0.05814417
191	0x3e284c98	0.16435468
192	0xbd800cb4	-0.06252423
193	0xbd838f63	-0.06423833
194	0x3d9d2c70	0.076744914
195	0xbccfcb96	-0.025365632
196	0x3dc116d6	0.09428184
197	0xbd6b7956	-0.05748876
198	0x3e03aaa8	0.12858069
199	0xbd31815b	-0.043336254
200	0xbbefa6c1	-0.00731358
201	0x3d03ef8c	0.03221087
202	0xbce2a924	-0.027668543
203	0xbce796b4	-0.028270103
204	0x3dad9088	0.08474833
205	0x3cd0de01	0.025496485
206	0xbc968fd9	-0.018379139
207	0x3dcb2ec7	0.099210314
208	0xbd19e42f	-0.03757113
209	0x3da8a061	0.08233715
210	0xbdaed272	-0.08536233
211	0xbdb42de2	-0.08797814
212	0x3c080a09	0.008303174
213	0x3ca423eb	0.020036658
214	0x3ccc842e	0.024965372
215	0x3ca02bd9	0.019552158
216	0x3d1eeb8c	0.038798854
217	0x3cd90ce7	0.02649541
218	0xbdbe0903	-0.092790626
219	0x3dbfcd00	0.093652725
220	0xbd3d5a5f	-0.046228763
221	0xbd9a4329	-0.07532341
222	0x3cd5cc4a	0.02609839
223	0x3b12d73c	0.0022406122
224	0x3dad0f9e	0.08450244
225	0x3dfcad97	0.12337797
226	0xbd4007cb	-0.046882432
227	0x3c3b877d	0.011445877
228	0x3da32345	0.079657115
229	0xbd64c179	-0.055848572
230	0xbd2b34f7	-0.041798558
231	0xbd45c8a5	-0.048287053
232	0x3d92477f	0.07142543
233	0x3d3bd572	0.045857854
234	0x3c619623	0.013768706
235	0x3dd0f44a	0.102028444
236	0xbb746021	-0.0037288743
237	0xbd561e88	-0.05227521
238	0x3c27abe7	0.010233856
239	0xbcffbbf0	-0.031217545
240	0xbcae6b9b	-0.021291545
241	0xbc513774	-0.012769569
242	0x3ddacde7	0.10683804
243	0xbd881384	-0.06644347
244	0xbd77d047	-0.060501363
245	0x3d62cab6	0.0553691
246	0xbc465891	-0.012106077
247	0xbe0cc979	-0.1374873
248	0xbe08ac85	-0.13347061
249	0xbddf734f	-0.10910665
250	0xbd86d2fe	-0.06583212
251	0xbd2e787c	-0.04259537
252	0xbd9ab571	-0.075541385
253	0xbd967908	-0.07347304
254	0x3dc16e25	0.094448365
255	0xbd196b8b	-0.037456077

bias f4 [16]
0	0x3d56207f	0.052277084
1	0x3d86850f	0.06568348
2	0xbd901618	-0.07035464
3	0x3d5b5d16	0.05355557
4	0xbdac4b04	-0.084127456
5	0xbe08c84f	-0.13357662
6	0xbd78f05a	-0.060776092
7	0xbcddd66b	-0.027079782
8	0x3ce50fbb	0.027961602
9	0x3d4773cb	0.048694413
10	0xbd10ba4c	-0.035333917
11	0xbc849f6c	-0.0161893
12	0x3d8e2931	0.069414504
13	0x3d3c9e7e	0.046049587
14	0xbd94907d	-0.072541215
15	0xbdc8fca8	-0.09813815

weight f4 [2, 16]
0	0xbd9ea175	-0.07745639
1	0xbd63e139	-0.05563471
2	0x3e824721	0.25444892
3	0xbd901c24	-0.070366174
4	0xbdaa4263	-0.083134435
5	0xbdd55808	-0.10417181
6	0xbe251517	-0.16121326
7	0x3dde3328	0.10849601
8	0xbe5ec225	-0.21753748
9	0xbe835076	-0.25647324
10	0xbe6b2d95	-0.22966607
11	0x3df6062b	0.12012895
12	0x3d29668d	0.041357566
13	0xbddd8f42	-0.1081834
14	0x3e755efd	0.23962016
15	0xbdff9471	-0.12479485
16	0xbdbade97	-0.09124487
17	0x3cd6c728	0.026218012
18	0xbe3dd6b6	-0.18538937
19	0x3dcdf794	0.100569874
20	0x3e3d1ec7	0.18468772
21	0xb9416e85	-0.00018447086
22	0xbe599c71	-0.21251084
23	0xbcaa405c	-0.020782642
24	0x3d35440d	0.04425435
25	0xbde5ecf5	-0.112268366
26	0x3e5413e8	0.20710719
27	0x3d4a5bf6	0.049404107
28	0xbe902de8	-0.28160024
29	0xbe2bfe2a	-0.16796175
30	0xbda254be	-0.079263195
31	0xbcd3ee58	-0.025870487

bias f4 [2]
0	0xbe4a2f65	-0.19744642
1	0x3e48d70a	0.19613281
