mlpcnnsemi/model/cnn/64oneinput_batch1_Epoch=84_lr=0.0001.pth (torch, 25249 bytes, 29 tensors)

weight f4 [4, 1, 1]
00000000: 136e 2f3f a277 2a3f 1811 293f 2fe0 36bf
0.68527335 0.66588795 0.6604171 -0.71435827

bias f4 [4]
00000000: 05ce 283f a582 1f3f cb37 99be 6c7e e0be
0.6593936 0.6230872 -0.2992538 -0.43846452

weight f4 [4]
00000000: 993c 833f 1c83 7b3f b693 7c3f e01b 863f
1.0252868 0.9824693 0.9866289 1.0477257

bias f4 [4]
00000000: 28bc 6fbd d6ed 96bd f008 91bc b09c 1b3d
-0.05852905 -0.07369582 -0.017704457 0.037991226

running_mean f4 [4]
00000000: af0e 5f3f f42a 543f 84ec c2bd 08ca 28bf
0.8713178 0.8287804 -0.09517768 -0.65933275

running_var f4 [4]
00000000: 9969 913e d357 893e cd22 873e 4711 9e3e
0.28400877 0.26824817 0.26393738 0.30872557

weight f4 [16, 4, 1]
00000000: 3a68 d23e d977 e6be d2ce 5cbe 8dbb 043f
00000010: d49c 51bd 6130 af3e 9709 24be 63e7 c93e
00000020: 39df 123f 1f30 d1be dfd9 bf3e a27f dabe
00000030: bb29 903e 59b9 103e ebdc 0f3f cc5b 60be
00000040: 53fd 9ebd 302b 263c 93ab 703e c666 dc3d
00000050: d0d2 4fbe 6072 abbe 12a5 d0be 4c11 28be
00000060: 8ef4 e6be d77b ed3d f10d 03bf 5472 e63e
00000070: 5e9b 59be 09cf 313d ee00 413e ef81 88be
00000080: 13cf a1be 33b1 bb3e c6d6 9bbe e6ca 2fbe
00000090: 3024 e4be ae48 2fbc 2431 8dbe b937 bebe
000000a0: bebf 473e 419b 51be 70c9 1a3e 498b b63d
000000b0: de5d da3d 89c4 9cbe 8b7b 85be 9f32 afbd
000000c0: 8122 fe3e 64ee 80be 319e 4f3e 6cb8 c7be
000000d0: c644 af3e d399 f6bd 0090 933e a4e5 8a3e
000000e0: 26e7 63be 2382 d43e bf04 113d 5fb9 433e
000000f0: 5030 843d 220a fe3d d495 d9bd 215d 00bf
0.41095144 -0.45013312 -0.2156327 0.5184868 -0.051174954 0.34216598 -0.16019283 0.39434347
0.5737186 -0.40857026 0.3747091 -0.426755 0.28156838 0.14133205 0.5619647 -0.21910018
-0.077631615 0.010142133 0.2350295 0.1076179 -0.20295262 -0.334857 -0.4075094 -0.16412848
-0.45108455 0.11595886 -0.5119315 0.450091 -0.21250674 0.043410335 0.18848011 -0.2666163
-0.31603298 0.3665863 -0.30437297 -0.17167243 -0.4455886 -0.0106984805 -0.27576554 -0.37151888
0.19506738 -0.20469381 0.15115905 0.08913285 0.10662435 -0.30618694 -0.26070818 -0.08554577
0.496357 -0.25181878 0.20275189 -0.3900789 0.34232157 -0.120410584 0.288208 0.27128327
-0.22256145 0.41505536 0.035404917 0.19113682 0.064545274 0.124042764 -0.106242806 -0.50142103

bias f4 [16]
00000000: e08c 4fbe e8be 0fbe 6cfc 02be 250a 403e
00000010: 18f5 ddbd 167b 893e 0a6e e7bc cd42 f2bd
00000020: e6a8 6b3e cb7c 033f a2d4 13bc 2988 b93e
00000030: f05d b1be 402d f1be d4d4 00bf 4c9e c5be
-0.20268583 -0.14037669 -0.12791604 0.1875387 -0.108377635 0.2685172 -0.028250713 -0.118291475
0.23013648 0.51362294 -0.009022864 0.36236694 -0.3464198 -0.47104836 -0.5032475 -0.38597333

weight f4 [16]
00000000: 7a12 8a3f f165 803f 8096 753f c55b 7a3f
00000010: 9e97 843f 5927 973f b12b 823f 2094 723f
00000020: 75de 853f 8a38 793f 5de8 7b3f e883 703f
00000030: eb06 823f 689f 853f d099 813f a8d7 713f
1.0786889 1.003111 0.9593277 0.9779628 1.035877 1.1808883 1.0169584 0.9475727
1.0458513 0.97351897 0.98401433 0.9395127 1.0158361 1.0439272 1.0125065 0.9446969

bias f4 [16]
00000000: 5266 c23d 85f0 a43d 90c3 01be c2f9 f9bc
00000010: e3ea e6bd 50c6 a03d 327e 663d 2d20 2a3d
00000020: 3897 debd 81c2 253d 8008 23bd e97b 2a3e
00000030: 1d6f 23bd e7d2 42bd dc68 3a3d dd14 26bb
0.09492172 0.08053688 -0.12672257 -0.030514602 -0.1127527 0.07850325 0.056272693 0.04153459
-0.108686864 0.040468697 -0.039803028 0.1664883 -0.039900888 -0.047564413 0.045510158 -0.0025342025

running_mean f4 [16]
00000000: c908 ccbd f048 653c 215c e6bd 1cc8 c13e
00000010: 4ed2 f4bc ce13 f4bc 055c e8bd 7f58 4abe
00000020: fad8 d23d 6343 4e3e 3fca 753d 0e93 5e3e
00000030: a26f b1be 35dd 7dbe 8010 c7be cf27 06bf
-0.09962613 0.01399444 -0.11248041 0.37847984 -0.029885437 -0.0297946 -0.11345676 -0.19760321
0.10295291 0.20142893 0.06000733 0.21735784 -0.34655482 -0.24791415 -0.38879776 -0.52404493

running_var f4 [16]
00000000: d551 973d ebad 2e3c d849 993e 985c 503f
00000010: c858 9b3c e97d 2e3f c36c 293f d1d1 713b
00000020: 82d5 4f3d eda0 cb3e 357c 833c 140e 1f3e
00000030: 016e 553e 29cf 473e 5eec fd3c 4aab b03c
0.07388655 0.010661582 0.2993915 0.81391287 0.018963233 0.68160874 0.6618158 0.0036898742
0.050740726 0.39771214 0.016050437 0.15532714 0.20842744 0.19512619 0.030996498 0.021566052

weight f4 [8, 16, 2]
00000000: f736 5f3e 6e5c be3d 882c d6b9 9f24 9c3d
00000010: 2259 ecbd b0d3 80bd 5f32 003d 8f5c 0a3e
00000020: a766 1b3e 0554 233d 96fd 45be 4826 143e
00000030: b9a7 743d 6272 803a b0aa 2fbe 502e dcbd
00000040: e2eb 6dbe 1abf 2dbe abde 813d eb8d 6a3d
00000050: ad69 cbbc edaf aabd c2c3 ebbd cab6 09be
00000060: 28be 493e 9736 c83d 167a f03d 0e97 e33d
00000070: 56dc fabc 1e4c 34bd 25eb b53b 917f f4bd
00000080: 26d7 63be 6d1d 87bd ca40 30be 4eed 493e
00000090: 187b 1dbe a325 d93d 5b0f fc3d a3cf ff3c
000000a0: 51b9 44be dbe6 1bbe 4a37 67be ce03 4e3e
000000b0: 130c 67be 7381 323e f0e4 2d3e 9857 953d
000000c0: 5ed6 4bbe 9e8f cf3c f85e 54bd accd c33d
000000d0: 3122 c6bd 20ea 263d 7d2f edbd 52b4 f53a
000000e0: eb8f 49be 99e2 5a3b cfbb c23d 0fd2 e53d
000000f0: 6e85 e2bc 937a 1bbe 75c5 223e 8b95 67bd
00000100: 22f4 0e3c 5600 cabc 2e07 aa3d ea16 473e
00000110: 931d 0b3e 031e 22be 7572 0c3d 3f3c b13d
00000120: c43d 5e3d db05 0c3e ce5e 953e 92da 373e
00000130: 9c34 ca3c 5276 283d 719e b8bd 75bc f43d
00000140: bae4 523c 3053 503e fb0e 563e 5e40 c63b
00000150: ca45 1bbe 5e25 333e 20a7 9a3e e177 793d
00000160: f7e2 81bd 23c4 573d 0232 273d c077 68bd
00000170: 587c 1cbd c6a4 253d 0577 ba3d e9b2 10be
00000180: 7df8 183d 22e1 ebbd acf3 25be 59d7 e6bd
00000190: 9976 7dbd dce8 243e 146f de3c d06e f73d
000001a0: 1e78 b9bd d597 0dbd 075c 8b3c fa1d 90bd
000001b0: 3478 fe3a 23f1 85bd eff9 b13d d984 803d
000001c0: 3a64 243d 2020 853d e02f 32bd 59f1 28be
000001d0: bbd5 44be b081 483e 5e4a 653d bc1e 943d
000001e0: 4a89 31be c98b ed3d 6093 83bd dd2f 083e
000001f0: 30d0 d73d 0417 0abe 43fc b73d 0e1c d03d
00000200: 286f 15be b9ef 753d 52c7 25bd ec1c 17be
00000210: 0bbe c1bd d53d 113e f85c 07bb 3d6e 40bd
00000220: 4e37 f8bd dda6 2b3e d51a 5a3e 4d64 a5bc
00000230: c322 023e 9de9 ac3d 91ba 48be b7f6 833d
00000240: 1461 2f3e facc 313c ee94 263e 4cf0 5ebd
00000250: ede1 90bd 4981 90bd 8ae5 1dbd c8d7 1b3d
00000260: ead8 803d cffa c13d 0d0e 68bb 7e93 d5bc
00000270: 7e6b 2e3e 82b5 203e 733f 31bd b8f1 0dbd
00000280: bbf1 24be c448 2f3e d89f c8bd 5894 9c3d
00000290: 7a21 89bd 520e 473c 0b71 3e3e c468 033e
000002a0: 0596 2fbd bf96 023e cda2 22bd 3091 e93d
000002b0: c600 d9bd b287 45bb 35ba 8b3c 0a3d 00bd
000002c0: 5932 5f3c 8a84 003d 3802 953a 35b2 373d
000002d0: 643f 8abd 9c02 0e3d 0722 85bd ac2a 0dbd
000002e0: 25ec 00be 5c59 8c3d 5e1b 243e b220 fbbc
000002f0: a6a4 b1bc c101 0a3e 5979 1fbe bc2b 52bd
00000300: fcfa 053c 792f 5dbe a67f eabd 7396 083e
00000310: 85ca 16bd c09a 0c3e df80 bd3d 9a0c 29be
00000320: eca1 96bd eb0b 1c3e 7b33 633d 8db8 db3d
00000330: 2f37 013e b921 243c 2c61 7abd f271 88bd
00000340: 8e63 d73d 5bb3 2c3e a08f f83d 3ad0 bb3d
00000350: 7810 713d b94c 433d 7e3b babd 4b88 883d
00000360: 7bc8 38bd 204e 26be 8711 15be 4eb6 d83d
00000370: d8ff 5ebd fe0f 853d cd50 073c 6540 b43d
00000380: 80a0 1f3e 5fbc 80bd cf1b 0a3e e9ad 033e
00000390: 7382 c13d b7d7 f3bd 7260 d7bd 0fb4 b43d
000003a0: 0608 863d 72ec 19be 9747 673c 8995 8b3d
000003b0: 6c86 0b3e 8437 6e3d f179 113d 09ac 09bd
000003c0: 39e3 1abe 754c 283e 98db b0bb 8fc4 c7bd
000003d0: e13d 93bd c0d2 1e3c 0d4d 9ebd 62de bcbd
000003e0: 901a 2b3e 73d4 8f3d a4ff 67bd 9cd8 e8bd
000003f0: 8a4c 01be d3e9 34be 4c85 bebd 16ba e33d
0.21798311 0.09294973 -0.0004085044 0.076241724 -0.11540438 -0.06290376 0.031298038 0.13511871
0.15175878 0.03987505 -0.19335017 0.14467728 0.059730265 0.0009799714 -0.17154956 -0.10751021
-0.23234513 -0.1696743 0.06341299 0.05726425 -0.024830664 -0.083343364 -0.11511947 -0.13448635
0.19701445 0.09776037 0.11742036 0.11112796 -0.030622642 -0.044017904 0.005551713 -0.11938394
-0.22250041 -0.065974094 -0.17212215 0.19719431 -0.15378988 0.10602882 0.12307616 0.031226939
-0.19211318 -0.15224783 -0.22579685 0.20118639 -0.225632 0.17432193 0.16981864 0.07292098
-0.19905993 0.025337037 -0.05184838 0.09560713 -0.0967449 0.040750623 -0.11581323 0.0018745756
-0.19683807 0.0033399223 0.09508478 0.11221706 -0.027651515 -0.15183477 0.15895636 -0.0565391
0.008725198 -0.024658363 0.08302151 0.19442335 0.135855 -0.15831761 0.034288842 0.08654069
0.054258123 0.13674109 0.29173893 0.17954472 0.02468329 0.041128464 -0.09014595 0.11950008
0.0128719155 0.20344234 0.20904152 0.0060501536 -0.15163341 0.17494723 0.3020563 0.06090534
-0.06342118 0.052677285 0.040819176 -0.056754827 -0.03820452 0.040440343 0.091047324 -0.14130749
0.037346352 -0.1151755 -0.16206235 -0.11271543 -0.06188068 0.16104454 0.027152576 0.12081683
-0.09056114 -0.034568626 0.017011655 -0.070369676 0.0019414485 -0.06540134 0.08690249 0.06275339
0.040134646 0.06500268 -0.04350269 -0.16498317 -0.19222157 0.19580722 0.055979125 0.072324246
-0.17337528 0.115989275 -0.06424594 0.13299508 0.105377555 -0.13485342 0.08983662 0.10161601
-0.14593184 0.06004307 -0.04047329 -0.14757127 -0.09460076 0.14183743 -0.002065478 -0.04698013
-0.121199235 0.16762872 0.21299298 -0.020189429 0.12708573 0.08442996 -0.1960242 0.064435415
0.17126876 0.010852093 0.1626775 -0.054428384 -0.07074342 -0.07055909 -0.038548984 0.038047582
0.06291373 0.09471666 -0.0035408766 -0.026071306 0.17033193 0.1569424 -0.0432734 -0.03465435
-0.16107838 0.17117602 -0.09796113 0.07645482 -0.06695838 0.01214941 0.1859781 0.12832934
-0.04286768 0.12752818 -0.03970604 0.114046454 -0.10595851 -0.0030140695 0.017056564 -0.03130821
0.013622844 0.0313764 0.0011368459 0.044847686 -0.06750372 0.034670457 -0.06500631 -0.034464523
-0.12590082 0.068529814 0.16026065 -0.030655239 -0.021684956 0.13477232 -0.15573634 -0.05131124
0.008177515 -0.2160014 -0.11450128 0.13338642 -0.03681423 0.13730907 0.09253096 -0.16508713
-0.07355103 0.15238921 0.055469017 0.1072856 0.12618707 0.010017806 -0.061127827 -0.06662358
0.105170354 0.16865294 0.12136769 0.091705754 0.058853596 0.04768059 -0.090933785 0.06666621
-0.045113068 -0.1624074 -0.14557467 0.10581647 -0.05444321 0.06497191 0.0082590105 0.08801345
0.1558857 -0.06285929 0.1348717 0.1285931 0.09448709 -0.11906379 -0.10516442 0.08823406
0.06544499 -0.15031603 0.014116189 0.06815631 0.13625497 0.058158413 0.035516683 -0.03361133
-0.15125741 0.16435416 -0.0053972714 -0.097542875 -0.07189537 0.009693801 -0.0772954 -0.09222104
0.16709352 0.07022943 -0.056640282 -0.1136944 -0.12626854 -0.17667322 -0.09302768 0.111194775

bias f4 [8]
00000000: 5aa1 11bd 3009 4f3b 5a1f 423e 4179 d0bd
00000010: 274e e0bd 3ec7 173e eae4 333e 7f3b fb3d
-0.035554267 0.003159117 0.18957272 -0.10179377 -0.109524064 0.14822099 0.17567793 0.12267207

weight f4 [8]
00000000: 48b9 7c3f 3c78 943f 3bf3 853f 15d7 683f
00000010: cd00 723f d891 843f add9 803f b05e 733f
0.98720217 1.1599193 1.0464853 0.9095319 0.9453247 1.0357008 1.0066429 0.95066357

bias f4 [8]
00000000: 50f6 88bc ac64 723b d56f 14bd 9226 3bbc
00000010: d41a 42be 0d32 03bc a5b6 c5bb 1d3c 8abd
-0.016719013 0.0036986275 -0.036239464 -0.01142277 -0.18955547 -0.0080075385 -0.006033736 -0.06749747

running_mean f4 [8]
00000000: 712a 06bd 6ff0 19be 5ea4 383f f38c 88bd
00000010: d306 3bbc 66fa 183e 141c 7a3e 0e9b 343e
-0.03275532 -0.15033124 0.72125804 -0.06667509 -0.011415201 0.1493927 0.24424773 0.17637274

running_var f4 [8]
00000000: 7375 303e 3b1a 0f3e 81a4 323e 4c90 5b3e
00000010: 5038 763d a156 0f3e d80b 783d 815d 6b3d
0.17232303 0.1397485 0.17445566 0.21441764 0.060112298 0.1399789 0.06055817 0.05746222

weight f4 [4, 8, 2]
00000000: 8bf0 0cbe a178 4ebd d778 8dbd 96e5 87be
00000010: f4a7 1cbe 9ffc bbbd a8b5 1a3d 62b6 92bd
00000020: 50b2 173d add9 853e 2cda efbd e72c f5bd
00000030: 9aef 7dbe b95b 47be 27f9 22be d497 bb3d
00000040: c980 db3d 7468 99bd 783f ef3d 9535 8ebe
00000050: ce10 253e 5377 8cbc e9c4 20bd 1dd2 06be
00000060: 3be9 aabd 5884 a8bd c0e2 c9bd 5d55 e63d
00000070: 0cad 303d 26c7 edbc 254a f13d d735 173e
00000080: 1d79 46be ba92 223e d6fd c43d 57c4 923b
00000090: c6be 84bd 030b edbd af85 5ebc 9b79 0b3e
000000a0: f00d ab3d 660b 9b3d a81e b63d efaf 97bd
000000b0: d45b 49bd dd67 6cbe c2d8 8f3e 04c5 f5bd
000000c0: ecbf 94bd 2348 2c3c 06d3 123e 8fe3 5cbe
000000d0: 9983 053e e1f2 223e 164f 49be ae3d 7b3e
000000e0: 2185 8b3d 1213 0cbe 3b4b fc3d 34eb c5bd
000000f0: 5b33 27be d1e3 42bd c0bf f53d 31df c7bd
-0.13763635 -0.05040801 -0.06907814 -0.26542348 -0.15298444 -0.09179043 0.037770897 -0.07163693
0.037035286 0.26142636 -0.11711535 -0.11971455 -0.24798432 -0.19468583 -0.15915357 0.09159818
0.10717923 -0.07490626 0.116820276 -0.27775255 0.16119692 -0.017146742 -0.03925029 -0.1316609
-0.083452664 -0.082283676 -0.09857702 0.112467505 0.04313378 -0.029025625 0.1178172 0.14766632
-0.19382139 0.15876284 0.09618728 0.004478972 -0.064817 -0.11574366 -0.013581677 0.13620608
0.08352268 0.075705335 0.08892566 -0.074066035 -0.04915984 -0.23086496 0.2809506 -0.120004684
-0.07263169 0.010515246 0.14338312 -0.21571182 0.13038482 0.15912963 -0.19659075 0.24535248
0.06812502 -0.1367915 0.123190366 -0.09664002 -0.16328184 -0.047580544 0.11999464 -0.09759367

bias f4 [4]
00000000: d822 793c 56eb 803e 3575 ecbd 6ea9 2e3d
0.015206061 0.25179547 -0.11545793 0.04264205

weight f4 [4]
00000000: 3768 853f 3d3f 813f 51ff 853f 5335 783f
1.0422429 1.0097424 1.0468541 0.96956366

bias f4 [4]
00000000: 6182 49bd 79a3 55bd 78a0 94bd fd8c 093e
-0.049196605 -0.052157853 -0.072571695 0.13432689

running_mean f4 [4]
00000000: 1a3b 9abe 9451 4f3e a94b 91bd 4bf5 be3b
-0.30123216 0.20245963 -0.07094509 0.005827581

running_var f4 [4]
00000000: 058c d33e c642 a03d be00 4b3d 73aa 7f3d
0.41317764 0.07825236 0.049561255 0.062418412

weight f4 [1, 4, 2]
00000000: 9f94 a43e 651d 73bc 6065 6a3e 87ae 863e
00000010: 26fb 423e eaad c0bc 960d 65be b177 73be
0.3214464 -0.014838551 0.22890234 0.2630503 0.19041118 -0.023520429 -0.22368464 -0.23776127

weight f4 [16, 80]
00000000: 8023 49be 8535 fe3c 9555 3dbd 75a5 2e3e
00000010: 8ee6 98bd c899 c63d 1508 273e 6e25 143d
00000020: 456d 993c 148c 293e 99ca 38be dace b9bd
00000030: 3a5d 473e 4b3f b83d 8026 38bd 6051 ac3d
00000040: 60ae a1bd b1b0 41be f21d ea3d 78c2 3a3d
00000050: 28f6 78bb 0a00 553c d8c9 4ebe 3f03 813d
00000060: f378 2f3e da59 debd c8fa 143e 165a eabd
00000070: 4170 193e 0154 70bd e74c 07bd 4da6 753e
00000080: a16e b8bd 0f62 6ebe ea27 1ebe 3746 36be
00000090: f196 493d 8585 c83d e188 d53d d6f3 a1bd
000000a0: 15c8 653b 9861 69bc 096f 4fbd 9295 153d
000000b0: 89c0 753d b85d 9f3d a94b c73d a2f6 783d
000000c0: 1edf b63d 82f9 72bb 336a efbc c2a2 d4bc
000000d0: e4d4 00be e94b b4bd 3710 c6bb f6e1 55be
000000e0: ee8c 893d 841b ec3d f5c8 cebd efcd e3bc
000000f0: daa8 bc3d 6e10 08bd 24dd af3b 40e3 223d
00000100: dcc0 03be ae86 043e 1022 e2bd aaf2 6a3d
00000110: 54d5 003d 9571 6cbd f851 67bd 1e81 54bc
00000120: 9b15 c4bd 301e c53c 398c 803d 9b9f 413c
00000130: ae1b 70bd a43c 0abd 5f69 f4bc ceca b23c
00000140: 7bcc 073e a28c 64bd 6195 b7bc 9b96 69be
00000150: b5f4 12bc a0e0 40bd 2c95 7bbe de14 123c
00000160: b7c3 cfbd effb 9ebc 2d10 d33d 6c99 9e3d
00000170: 1ebf debd 52d1 88bd 2999 eb3d d9c7 b23d
00000180: 634d 75bd 52fb 2d3c b80f 20be 08db 56bd
00000190: 6c23 cb3d aae7 e1bd c150 723e 2869 d7bc
000001a0: d4ea 4dbe b795 d2bc 538e 86bd b961 35bc
000001b0: cc16 96bd 5fb9 d0ba e695 ba3d d744 8cbe
000001c0: 7ea0 583c 9fa4 2d3e c8b6 36bd 9e81 d53d
000001d0: 2d58 9b3d a9da 21be 3f3b abbd 44f5 e33a
000001e0: 1675 623d 4472 973b d9ee c3bc 65c8 b63d
000001f0: 141b 0abe e47f b4bd 156e e9bd 22f6 cdbd
00000200: d79c f23b 7a83 ecbd c4ec 78bd 25e5 b43d
00000210: 52bd 60bc d255 2d3d c229 c93c d20d 963e
00000220: 6920 98bd 0fbc 03be 8076 fbbc 6654 b0bd
00000230: aefe c0bc 3cef 0bbe cc00 f9bd 9a90 29bd
00000240: 1af0 b23d 52f6 00be a699 f2bd cac8 013d
00000250: ea8b a53c 1f2b 463d 1f26 213c 8a3a 11bd
00000260: b09d 0c3e 7d9a 643c 4022 4b3c e89c 8f3d
00000270: 52e0 943a 4a34 3fbe 8571 773d 8689 873d
00000280: c636 47bd d13e 413d 3bd1 483c 03a1 253e
00000290: 619e af3d 7809 c23d 61d6 5d3e 9248 b23d
000002a0: d37b 233e b289 803c 2e99 55bd 1889 3ebd
000002b0: 9de4 1f3e 52e6 aabc e9d8 103d 5df3 a03d
000002c0: 2100 233b a323 5dbd 69ad 313e 7570 393d
000002d0: 731b 14be 7d6d c43d 8409 4bbd 03ed c23c
000002e0: 57f4 bc3d a610 bbbd 8a04 263e 67ad 04bd
000002f0: 998d 5b3e eff1 703d 46b3 0cbe dba5 c53e
00000300: afda 21be 50f6 4ebe 6447 d93c ff29 42be
00000310: 0e95 c83d 85e0 fbbc 67c9 2a3e cde8 c6bc
00000320: 4d4f 2d3d 3ff5 7cbd 3970 e23c 8d2d 2ebd
00000330: 5348 cc3d 1edf 333a 3b42 d1bc 1d8f e93d
00000340: 2b1b c4bc d182 d53d c0d0 7fbd d8b1 8cbd
00000350: 9d72 20bc 5b9c b83c fadc 153c a3b5 2fbe
00000360: 8c7c 2c3c 7d65 723d a2f5 ddbd 2815 8d3d
00000370: ee5d dfbc c1d1 2abd 1c7e 443d 26cd 08bd
00000380: c8ac 883d 7599 203e c55d 24bd 91cb 193d
00000390: 6d3b a23d 43b7 e9bd 27c6 efbc 45b6 4bbd
000003a0: 4aa7 8b3c a385 163d 15e8 2c3d 8f63 a73d
000003b0: 0650 16bd b9ca 8c3b 6005 923c a280 b4bd
000003c0: 1b2d 713d 7100 873c dcc3 103e fb69 34be
000003d0: 24b2 fbbc e8b1 3a3d d4b7 3ebe 53f5 22be
000003e0: 41c8 4bbe 099e 4abe 421d cbb9 0284 963c
000003f0: 0e70 2abe 86f5 14be a1fb 033e 355f cbbc
-0.19642448 0.03103138 -0.046224196 0.17055304 -0.0746585 0.096973 0.16311677 0.03616851
0.018728862 0.16557342 -0.18046035 -0.09072657 0.19469157 0.08996447 -0.04495859 0.084139585
-0.078945875 -0.18915059 0.11431493 0.045595616 -0.0037988517 0.013000498 -0.20194185 0.06299447
0.17135982 -0.108569816 0.1454879 -0.11442964 0.14984228 -0.058673862 -0.033032324 0.2398922
-0.09005476 -0.23279594 -0.15444914 -0.17800222 0.049216215 0.09791092 0.10426498 -0.07907836
0.0035061885 -0.01424446 -0.050643 0.036519594 0.05999807 0.07781547 0.09731228 0.060782082
0.08929275 -0.0037074988 -0.029225444 -0.025956515 -0.12581211 -0.08803541 -0.0060444134 -0.20886979
0.06716333 0.11528686 -0.10096923 -0.027808158 0.092118934 -0.033218794 0.005366938 0.039767504
-0.12866539 0.12942001 -0.11041653 0.05736033 0.031453446 -0.057725508 -0.056474656 -0.012970237
-0.095744334 0.024062246 0.06276745 0.011817838 -0.058620147 -0.033749238 -0.029835401 0.02182522
0.13261597 -0.05579818 -0.022410097 -0.22811358 -0.0089694755 -0.04708922 -0.24568623 0.008916108
-0.101447515 -0.01940724 0.1030582 0.07744107 -0.108762965 -0.0668055 0.11503822 0.08729524
-0.059888255 0.010619001 -0.15630996 -0.05245498 0.099188656 -0.110305145 0.23663618 -0.02629526
-0.20109111 -0.025706155 -0.06570115 -0.011070662 -0.07328567 -0.0015924386 0.09110622 -0.2739627
0.013221858 0.16957329 -0.044607908 0.10425113 0.075851776 -0.15806068 -0.0836091 0.001739182
0.055287443 0.004621776 -0.023917602 0.08924941 -0.13486892 -0.08813456 -0.113979496 -0.10056712
0.0074039507 -0.11548515 -0.060772672 0.08832768 -0.0137170125 0.042318173 0.024556044 0.2930742
-0.07428057 -0.12864707 -0.030696154 -0.08609848 -0.02355894 -0.1366548 -0.12158355 -0.04139767
0.08737202 -0.12593964 -0.11845712 0.031685628 0.020208318 0.048380967 0.009835749 -0.035456218
0.13732028 0.0139528485 0.012398303 0.07012349 0.0011358357 -0.1867229 0.060410995 0.066180274
-0.04863622 0.047179047 0.012256916 0.16174702 0.0857513 0.09474462 0.2166381 0.08705248
0.15965204 0.015690658 -0.052148037 -0.04651746 0.15614553 -0.020861778 0.03536311 0.07858918
0.0024871903 -0.053989064 0.17351307 0.045273263 -0.14463596 0.09591196 -0.04956962 0.023794657
0.092262916 -0.09134035 0.16212669 -0.03239193 0.21440734 0.058824476 -0.13740262 0.386031
-0.15806077 -0.20211148 0.0265233 -0.18961333 0.09794055 -0.030746708 0.16678391 -0.02428093
0.042311955 -0.061757322 0.027641403 -0.04252391 0.09974732 0.0006861555 -0.025544276 0.1140425
-0.023938736 0.10425342 -0.06245494 -0.068698585 -0.009792951 0.022535494 0.009146923 -0.17159133
0.010527741 0.059178818 -0.10837866 0.06888801 -0.027266469 -0.041703943 0.04797183 -0.03339877
0.066735804 0.15683539 -0.040128488 0.03754765 0.07921491 -0.114119075 -0.029269291 -0.049734373
0.017047543 0.03674854 0.04221352 0.08173286 -0.03669741 0.0042966274 0.017824829 -0.08813597
0.058880907 0.016479703 0.14137214 -0.17618553 -0.030724593 0.04557982 -0.18624812 -0.15913896
-0.1990061 -0.19786848 -0.00038740976 0.018373493 -0.16644308 -0.14546785 0.12888958 -0.024825672

bias f4 [16]
00000000: be9f 7bbd 61b7 3a3e 8325 3bbe a283 293e
00000010: 798d f03c 28e8 96bc 98ac 30be 0ecc 12be
00000020: 69d1 0f3e ab45 273e 5c2a 9c3d 96c1 04be
00000030: 1d15 33bd 7be5 8abd eb29 3dbe 1a10 893c
-0.06143164 0.18234016 -0.18276028 0.1655412 0.029364334 -0.018421248 -0.1725334 -0.14335653
0.14044727 0.1633517 0.07625267 -0.12964472 -0.043721307 -0.06782051 -0.18473022 0.01673131

weight f4 [2, 16]
00000000: 1d12 553e 66f4 4dbe ef1e d33e 4910 81be
00000010: 44d9 44be ec2b 74be d65e 923d eec9 4b3e
00000020: 4b1b d3be da36 c2be 991c e0be 0f2a 6d3e
00000030: 1274 2d3e 3858 3b3e eaed c63e b1c0 58be
00000040: a8e9 c0be 28d5 2f3e 58c3 afbe 9486 903e
00000050: 526b 963e 654f 093e 01f1 e3be feef e3bd
00000060: 94c6 743e 994c 2d3c be8f d43e b53d 7ebd
00000070: 6aba d1be 030f ebbe 82a7 69be b4e1 793d
0.20807691 -0.20112762 0.41234538 -0.25207737 -0.19223505 -0.2384488 0.07146995 0.19901249
-0.4123176 -0.37932473 -0.43771818 0.23160575 0.16938809 0.18295372 0.3885339 -0.21167256
-0.37678266 0.17171156 -0.34328723 0.28227675 0.29378754 0.13409193 -0.4451981 -0.11129759
0.23903877 0.010577344 0.41515917 -0.062070567 -0.40962535 -0.4590989 -0.22817805 0.061006263

bias f4 [2]
00000000: 0d77 9dbe d6ca 9c3e
-0.3075489 0.30623502
