mlpcnnsemi/model/cnn/64oneinput_batch1_Epoch=82_lr=0.0001.pth (torch, 25249 bytes, 29 tensors)

weight f4 [4, 1, 1]
000000 27 63 2f 3f 87 5e 2a 3f bf 52 2a 3f 53 41 35 bf
       0.6851067 0.6655049 0.6653251 -0.708028

bias f4 [4]
000000 b7 2a 29 3f 2d 72 1e 3f 85 f6 9a be c1 0b de be
       0.660808 0.6189297 -0.30266204 -0.43368343

weight f4 [4]
000000 52 1c 83 3f 3f 9b 7b 3f 50 0b 7d 3f fb ab 85 3f
       1.0243018 0.9828376 0.98845387 1.0443109

bias f4 [4]
000000 8b ca 6f bd 0f 75 93 bd 4c 60 8c bc 8f 06 14 3d
       -0.05854277 -0.072000615 -0.017135762 0.036139067

running_mean f4 [4]
000000 d2 e4 5f 3f a3 90 53 3f 25 f5 c1 bd ce 91 27 bf
       0.8745853 0.82642573 -0.09470586 -0.65456855

running_var f4 [4]
000000 c0 6b 95 3e d2 ef 8c 3e f8 e3 8c 3e 23 94 9f 3e
       0.2918377 0.27526718 0.27517676 0.31167707

weight f4 [16, 4, 1]
000000 31 7f d1 3e 61 66 e7 be cd 98 5e be b9 32 04 3f
       0.40917352 -0.45195296 -0.21737976 0.51639897
000010 f4 ed 4f bd 77 6b af 3e 83 95 23 be cf 65 c9 3e
       -0.05076404 0.34261677 -0.15975003 0.39335486
000020 cb 22 12 3f ca bd d2 be 4f 87 be 3e 95 bb db be
       0.5708434 -0.41160423 0.37212607 -0.4291655
000030 83 97 90 3e b7 ed 11 3e 45 ce 0f 3f c7 c5 5f be
       0.28240594 0.14250837 0.5617412 -0.2185279
000040 52 58 9e bd 35 db 2a 3c 34 1d 71 3e 4a e7 da 3d
       -0.077316895 0.01042824 0.23546296 0.10688646
000050 60 7c 50 be 81 e4 ab be f9 fe d0 be ac 24 27 be
       -0.20359945 -0.33572772 -0.4081953 -0.16322583
000060 af 42 e8 be ea 3d e8 3d 1f b7 03 bf 37 17 e5 3e
       -0.45363376 0.11339934 -0.51451296 0.44744274
000070 60 6e 58 be 36 91 36 3d 82 35 42 3e 36 e6 85 be
       -0.21135855 0.044572078 0.18965724 -0.261522
000080 e2 e7 a0 be 96 6c bc 3e 76 ab 9a be 5c 3f 32 be
       -0.31426913 0.36801594 -0.3020894 -0.17406982
000090 e8 5b e4 be 68 c5 39 bc d2 41 8d be 2c 01 be be
       -0.4460137 -0.011338569 -0.2758928 -0.3711027
0000a0 f3 2e 4c 3e c1 4a 4d be f5 56 1f 3e 3a c1 ac 3d
       0.19939785 -0.20048048 0.15560515 0.084352925
0000b0 60 75 d8 3d 04 27 9d be b5 23 86 be a4 5f ac bd
       0.105692625 -0.3069383 -0.26199117 -0.084166795
0000c0 e1 73 ff 3e 35 37 7f be d5 40 52 3e 80 55 c6 be
       0.49893096 -0.24923404 0.20532544 -0.38737106
0000d0 76 c9 b2 3e ff 7d e9 bd 8a 66 97 3e 95 24 87 3e
       0.34919327 -0.11400985 0.2957042 0.26395097
0000e0 79 36 65 be 6b de d3 3e e0 97 0b 3d 75 be 44 3e
       -0.22384061 0.4138063 0.034080386 0.19213279
0000f0 b4 ff 7d 3d db e5 f8 3d fa e0 de bd eb ce 00 bf
       0.062011436 0.121532165 -0.108827546 -0.5031573

bias f4 [16]
000000 71 54 4b be 56 59 13 be 4f 8c f9 bd 85 e7 4b 3e
       -0.1985643 -0.14389548 -0.12184965 0.19912536
000010 86 d1 d2 bd 72 7e 87 3e 60 40 a5 bc 7d 76 f3 bd
       -0.1029387 0.26463658 -0.020172298 -0.11887834
000020 65 a3 69 3e ee e6 fd 3e d5 0d 88 bc ac 5f b2 3e
       0.22816236 0.49590248 -0.016608158 0.34838617
000030 93 a9 af be cd fd f1 be f5 b3 01 bf e4 4b c3 be
       -0.34309062 -0.47263947 -0.5066522 -0.38143837

weight f4 [16]
000000 72 e4 89 3f e3 c3 80 3f 5d 5e 76 3f 3d 23 7a 3f
       1.0772841 1.005978 0.96237737 0.9771002
000010 f7 5c 84 3f 9b 87 96 3f b0 44 82 3f 2f 46 73 3f
       1.0340871 1.1760134 1.0177212 0.95028967
000020 f8 8f 85 3f 7c 79 78 3f 4b c2 7b 3f db d1 6f 3f
       1.0434561 0.9706037 0.9834334 0.9367959
000030 5f fd 81 3f 5b 6d 85 3f 32 9c 81 3f c5 35 72 3f
       1.0155448 1.0423998 1.0125792 0.94613296

bias f4 [16]
000000 35 28 c1 3d dd 9d a0 3d ed 19 f9 bd c9 34 06 bd
       0.09431497 0.0784261 -0.12163148 -0.032765184
000010 67 86 e9 bd 01 d9 a0 3d 15 31 76 3d 23 b5 26 3d
       -0.11402588 0.0785389 0.060105402 0.04070009
000020 c3 4d d6 bd 8d 3a 2b 3d d6 a8 1a bd 32 05 24 3e
       -0.104640506 0.041803885 -0.03775867 0.16017607
000030 1c c3 2c bd 2e 8d 24 bd 8e a6 2e 3d 57 ab 06 bb
       -0.04217826 -0.040173702 0.042639308 -0.0020548904

running_mean f4 [16]
000000 84 7e c7 bd 97 68 64 3c 8a 1c dd bd c0 6e cb 3e
       -0.09740928 0.013940952 -0.10796459 0.39732933
000010 a1 2f b7 bc 43 1a 2f bd 9b 2d e6 bd 2d 00 4a be
       -0.022361578 -0.042749655 -0.11239167 -0.1972663
000020 0b a1 ca 3d 63 29 34 3e 09 7d 65 3d 41 f2 4b 3e
       0.09893998 0.17593913 0.056027446 0.19916631
000030 97 8b ad be cd 66 76 be 55 63 c7 be 8e 2e 06 bf
       -0.3389556 -0.24062653 -0.38942972 -0.52414787

running_var f4 [16]
000000 12 c0 9d 3d 83 b9 1e 3c 46 c4 94 3e fd 02 50 3f
       0.0770265 0.009687784 0.29055995 0.8125456
000010 01 43 9c 3c f2 4d 2d 3f 75 5e 2b 3f e6 70 6f 3b
       0.019074919 0.6769706 0.66941005 0.0036535799
000020 01 37 43 3d 32 77 c8 3e 4f 38 9b 3c b3 e0 1e 3e
       0.047659878 0.3915344 0.018947748 0.15515403
000030 c6 42 5b 3e 34 e5 55 3e 9f c0 ed 3c 44 53 a2 3c
       0.21412191 0.20888215 0.029022513 0.019815095

weight f4 [8, 16, 2]
000000 bf 1b 5f 3e 22 2a be 3d a9 59 15 bb ca 0a 98 3d
       0.21787928 0.0928538 -0.0022789037 0.07423933
000010 52 09 f3 bd 38 b1 81 bd e2 88 e7 3c 2e 1d 0a 3e
       -0.11867012 -0.0633263 0.028263513 0.13487694
000020 df 6b 18 3e 42 7a 21 3d 30 a3 42 be 5f d2 15 3e
       0.148849 0.039423235 -0.19007564 0.14631031
000030 04 d3 77 3d 55 d8 b3 3a 92 41 33 be 80 71 df bd
       0.060503975 0.0013721088 -0.17505482 -0.1091032
000040 58 ac 67 be d0 d4 29 be 27 26 8d 3d 95 26 76 3d
       -0.22624338 -0.16585088 0.068920426 0.06009539
000050 b0 7a e3 bc ce 80 ab bd 82 78 e4 bd 1b 45 08 be
       -0.027768463 -0.08374177 -0.111557975 -0.13307612
000060 0a 6a 46 3e 1f 35 c7 3d 9f 9a ea 3d 1c d0 e2 3d
       0.19376388 0.09726929 0.11455273 0.1107485
000070 0e 39 0a bd 2f d5 36 bd ee e3 01 3b cd fd f6 bd
       -0.033745818 -0.0446369 0.0019819695 -0.120601274
000080 9b d2 62 be 84 d5 8e bd 65 bc 30 be 52 5f 48 3e
       -0.22150652 -0.069743186 -0.17259367 0.19567612
000090 b6 70 1d be 52 94 de 3d e2 90 fc 3d c9 18 0a 3d
       -0.15375027 0.108681336 0.12332322 0.033715043
0000a0 f5 71 44 be 09 49 1a be 64 85 66 be 68 95 49 3e
       -0.19184096 -0.15066923 -0.22511822 0.196859
0000b0 a3 04 66 be 43 c0 30 3e 3f a6 2d 3e 11 b2 98 3d
       -0.22462706 0.17260842 0.16957949 0.074558385
0000c0 68 29 4b be 72 3b aa 3c 9f 2b 51 bd cb 87 b9 3d
       -0.19840014 0.020780299 -0.05106699 0.090591036
0000d0 cf 71 c4 bd 39 5c 2e 3d 59 08 ec bd 40 cf 1d bb
       -0.0959202 0.04256842 -0.1152503 -0.002407983
0000e0 c8 88 49 be d9 ed c3 3b 36 71 c4 3d 00 99 e9 3d
       -0.19681084 0.0059792814 0.09591906 0.114061356
0000f0 db 02 e3 bc 1e 05 1a be dd 6a 22 3e c6 e8 5f bd
       -0.027711323 -0.15041015 0.15861078 -0.05466535
000100 5c 1c eb 3b cc d1 c6 bc 5d 51 ab 3d cc e4 48 3e
       0.0071750116 -0.02426996 0.08365128 0.19618529
000110 ef 80 0b 3e 72 14 23 be db cb 0d 3d 4f 18 af 3d
       0.13623403 -0.15925768 0.03461824 0.08549558
000120 08 53 5e 3d c9 16 0a 3e 7c 99 93 3e 7d 62 38 3e
       0.054278404 0.13485254 0.28828037 0.1800632
000130 82 ca b7 3c 5c a8 2c 3d e8 8a b5 bd ca 3b f1 3d
       0.02243543 0.042152748 -0.08864385 0.11778982
000140 57 02 3b 3c 03 fb 4f 3e 80 69 54 3e cb 8a c2 3b
       0.011414132 0.20310597 0.2074337 0.0059369556
000150 0b 2d 1b be ca 6d 31 3e df 3f 99 3e 78 a8 7b 3d
       -0.15153901 0.17327037 0.29931542 0.06143996
000160 6a e9 80 bd a6 5d 54 3d 74 af 27 3d 02 56 6f bd
       -0.0629452 0.051847123 0.04093881 -0.058431633
000170 02 bb 1c bd a8 12 1d 3d 6a ef bc 3d 73 bb 12 be
       -0.038264282 0.03834787 0.09225352 -0.14329319
000180 e4 5e 15 3d 02 d9 e6 bd 42 d4 2a be 09 a6 eb bd
       0.036467448 -0.1127186 -0.16682532 -0.11506278
000190 e5 be 7f bd 6c e1 21 3e 08 6e db 3c 48 19 f2 3d
       -0.06243791 0.15808648 0.026785865 0.11821228
0001a0 42 a9 bc bd 7a b9 1a bd 0e b0 6b 3c 4e 80 92 bd
       -0.09211971 -0.03777454 0.014385236 -0.071533784
0001b0 2d 49 e1 3a 91 1c 83 bd e7 b8 b1 3d 93 ad 7e 3d
       0.0017187946 -0.06401933 0.086778454 0.062177252
0001c0 d5 5d 24 3d 01 e6 7d 3d 1e e6 38 bd d8 c9 2c be
       0.040128548 0.061986927 -0.04514133 -0.16873872
0001d0 2c 50 46 be 94 71 45 3e 4a 2f 5a 3d 8b e7 8e 3d
       -0.1936652 0.19281608 0.053267755 0.06977757
0001e0 33 23 32 be 10 8e e7 3d 14 79 86 bd 90 10 05 3e
       -0.1739624 0.11306393 -0.065660626 0.129946
0001f0 78 4b d4 3d 1f 2e 0d be db 35 b7 3d 5d 4f ca 3d
       0.10365957 -0.13787125 0.08945819 0.098784186
000200 11 c4 13 be 75 88 7b 3d 25 03 14 bd ce 63 16 be
       -0.14430262 0.061409432 -0.03613581 -0.1468651
000210 b7 86 c3 bd 4b a8 10 3e 1d e6 36 bb e9 48 41 bd
       -0.09547179 0.14126699 -0.0027908154 -0.047188673
000220 de 0b f7 bd 9c 5f 2c 3e 71 a0 5a 3e 2c cf 99 bc
       -0.1206281 0.16833347 0.21350266 -0.018775545
000230 e2 98 04 3e 82 20 b0 3d fc 23 48 be d0 e5 82 3d
       0.12948945 0.085999504 -0.19544977 0.063914895
000240 5b 08 2e 3e b0 27 3a 3c 06 79 26 3e c8 96 5a bd
       0.16995375 0.011362001 0.16257104 -0.053366452
000250 bc 7b 90 bd fb 71 8f bd 85 b4 1a bd 70 d2 22 3d
       -0.070548505 -0.07004162 -0.037769813 0.03975147
000260 4a fc 7d 3d 83 84 c0 3d 23 2b 5a bb bb b3 d0 bc
       0.06200818 0.094002746 -0.0033289872 -0.025476327
000270 70 3a 2f 3e 99 87 21 3e e4 1d 31 bd a6 88 10 bd
       0.17112136 0.15774383 -0.043241397 -0.035286568
000280 95 3c 22 be 36 7f 2f 3e d0 e9 cb bd 5b da 93 3d
       -0.15843423 0.17138371 -0.099567056 0.072193824
000290 3b 99 8c bd fe 4c 47 3c de 77 3c 3e 99 ae 03 3e
       -0.06865164 0.012164352 0.184051 0.12859572
0002a0 83 67 38 bd 5f 7e 01 3e 5d 72 17 bd 35 0f e4 3d
       -0.04502059 0.12645863 -0.0369743 0.11135713
0002b0 6b a4 d6 bd 30 3d 17 bb 86 f0 73 3c ff 78 02 bd
       -0.10480579 -0.0023077242 0.014888888 -0.031853672
0002c0 75 06 6d 3c 7d 37 d6 3c 90 0f 5e 3b 66 51 24 3d
       0.0144668715 0.026149506 0.0033883788 0.04011669
0002d0 4f ae 8e bd 77 b2 0c 3d 62 60 7f bd b5 8c 18 bd
       -0.069668405 0.034349885 -0.062347777 -0.037243564
0002e0 57 b1 02 be 67 76 8c 3d 19 e9 21 3e e4 75 fc bc
       -0.12762962 0.06858521 0.15811576 -0.030817933
0002f0 90 51 c1 bc 4b 0e 08 3e f9 a1 21 be 9b 40 53 bd
       -0.023598462 0.13286702 -0.15784444 -0.051575284
000300 5c ef 21 3c 52 c4 5c be d6 0e ed bd 89 f8 07 3e
       0.009883728 -0.21559265 -0.11575095 0.13278402
000310 72 1c 1b bd 78 0a 0c 3e d4 16 bc 3d 1c b2 29 be
       -0.037868924 0.13675869 0.091840416 -0.1657185
000320 0a 18 97 bd 37 7d 1b 3e f5 b8 65 3d e0 3d d6 3d
       -0.07377632 0.15184484 0.056084592 0.104610205
000330 19 06 02 3e d1 04 07 3c cf ef 80 bd a3 5d 88 bd
       0.12697639 0.008240894 -0.0629574 -0.06658485
000340 1a 48 d5 3d a7 74 28 3e 57 95 f9 3d 2c f7 b6 3d
       0.10414143 0.1645075 0.121866874 0.08933863
000350 6b 86 6f 3d 77 cc 40 3d 5f b4 b7 bd fa 86 84 3d
       0.0584778 0.047069993 -0.0896995 0.06471057
000360 9f 4a 3d bd fb 9c 26 be aa 66 15 be 6b 72 d7 3d
       -0.046213742 -0.16270821 -0.14589944 0.1051987
000370 6a b4 60 bd d7 ac 83 3d 09 18 d6 3b aa 56 b4 3d
       -0.054859556 0.06429451 0.006533627 0.08805592
000380 ca f8 1e 3e 98 bb 82 bd 76 d2 08 3e 75 92 02 3e
       0.15524593 -0.06383437 0.13361534 0.12751181
000390 28 50 be 3d fa e0 f6 bd bd a1 da bd f4 e1 b0 3d
       0.09292632 -0.120546296 -0.106753804 0.08636847
0003a0 0b ad 83 3d 99 af 19 be f2 c3 6b 3c 94 42 8f 3d
       0.0642949 -0.15008391 0.014389979 0.06995121
0003b0 67 d0 0a 3e f7 54 6c 3d 40 f6 10 3d eb 61 0e bd
       0.13556062 0.057698216 0.035391092 -0.03476135
0003c0 c3 26 19 be a8 6a 2a 3e 95 cf 66 bb 33 01 c0 bd
       -0.14956193 0.16642249 -0.0035218943 -0.09375229
0003d0 14 98 95 bd 51 f8 0d 3c e7 02 9d bd 05 af b6 bd
       -0.07304397 0.00866516 -0.07666569 -0.08920101
0003e0 33 83 29 3e 93 c5 8c 3d 00 eb 6c bd c9 ba ea bd
       0.16553955 0.06873622 -0.0578413 -0.11461408
0003f0 45 53 02 be e5 b8 34 be 52 e0 c0 bd 7f bf e2 3d
       -0.12727077 -0.17648657 -0.09417786 0.11071681

bias f4 [8]
000000 c0 38 10 bd 25 da f0 3b 43 3b 47 3e 0e ac ed bd
       -0.03521037 0.0073502236 0.194562 -0.116050825
000010 37 1a e1 bd da 95 1b 3e c2 d4 29 3e 8a 9e f4 3d
       -0.10991328 0.15193883 0.16585067 0.119443014

weight f4 [8]
000000 3e ef 7c 3f b3 56 94 3f 51 ed 85 3f 6b e7 68 3f
       0.98802555 1.1588959 1.0463048 0.90978116
000010 d9 0b 72 3f 05 9c 84 3f 45 cb 80 3f d2 64 73 3f
       0.9454933 1.0360113 1.0062033 0.95075715

bias f4 [8]
000000 d8 bf 4d bc bd 25 85 3b 85 11 2e bd 73 5d 5b bc
       -0.012557946 0.0040633366 -0.042497177 -0.013388979
000010 b3 9b 3f be de fd 57 bb d9 f5 94 bb d4 dc 89 bd
       -0.18711738 -0.0032957713 -0.004545909 -0.06731573

running_mean f4 [8]
000000 43 fb 03 bd e6 c8 12 be 78 59 3a 3f 66 48 b8 bd
       -0.032222044 -0.14334449 0.7279277 -0.08998184
000010 25 f3 a6 3b 8d ef 21 3e 07 72 7a 3e 7d bf 21 3e
       0.005094903 0.15814038 0.2445756 0.15795703

running_var f4 [8]
000000 8f ba 04 3e fa 3e 0e 3e a7 ba 2a 3e 10 7e 6b 3e
       0.12961791 0.13891211 0.16672765 0.22997308
000010 28 7b 7b 3d ce 8a 12 3e 76 02 98 3d be 99 85 3d
       0.061396748 0.14310762 0.074223444 0.065234646

weight f4 [4, 8, 2]
000000 87 25 0b be 5e b5 49 bd f5 45 8c bd 12 eb 89 be
       -0.13588534 -0.04924523 -0.06849281 -0.26937157
000010 8d a6 18 be f5 43 b7 bd 26 d6 23 3d 66 3e 94 bd
       -0.14907284 -0.08948509 0.03999915 -0.07238464
000020 0f dd 1b 3d 8f 26 84 3e ff a5 f6 bd 3f 1e fe bd
       0.038052615 0.25810668 -0.1204338 -0.12408113
000030 46 2f 7e be f2 11 46 be 48 60 22 be f1 4d c1 3d
       -0.24822721 -0.19342783 -0.15857041 0.09438694
000040 4d b8 db 3d 97 ac 9b bd d7 81 eb 3d 92 62 8e be
       0.10728512 -0.07601278 0.11499374 -0.27809578
000050 bf 41 25 3e b3 25 83 bc 60 f4 1b bd 12 c1 05 be
       0.16138361 -0.016009187 -0.03807485 -0.13061932
000060 a5 9e a6 bd 77 95 ae bd 4b 80 c8 bd 8f e1 e8 3d
       -0.08135728 -0.08524602 -0.09790095 0.11371147
000070 f1 67 3a 3d d6 06 c5 bc 2c fa f3 3d b1 fd 17 3e
       0.045509282 -0.024051111 0.11912951 0.1484287
000080 d4 9d 49 be 3d 68 20 3e 89 f8 bf 3d 8c cf 02 3a
       -0.19689113 0.15664764 0.09373576 0.00049900333
000090 46 29 8a bd d3 a0 f2 bd 23 54 51 bc 9d 26 0b 3e
       -0.067461535 -0.11847081 -0.012776407 0.13588949
0000a0 af 17 ae 3d f0 9d 9b 3d b6 78 b5 3d da 00 9c bd
       0.08500611 0.075984836 0.088609144 -0.0761735
0000b0 bb c6 3f bd 13 61 6b be 42 01 8f 3e 2c c3 ec bd
       -0.046820384 -0.2298625 0.27930647 -0.115606636
0000c0 bd a9 92 bd 9f 12 35 3c d8 0c 15 3e f8 54 5a be
       -0.07161281 0.011051803 0.14555681 -0.21321476
0000d0 15 99 04 3e f4 0e 23 3e 22 1a 48 be b7 d8 7c 3e
       0.12949021 0.15923673 -0.19541219 0.24692045
0000e0 c5 a2 8d 3d 45 92 0a be 99 ce fa 3d a5 4f c4 bd
       0.069158114 -0.1353236 0.122464366 -0.095855035
0000f0 64 eb 26 be 8c 59 3c bd 34 4f f7 3d 01 e2 cb bd
       -0.16300732 -0.045983836 0.12075654 -0.09955216

bias f4 [4]
000000 f3 d5 4e 3c a4 a4 83 3e 13 62 db bd 03 3a 26 3d
       0.012624252 0.25711548 -0.107120655 0.040582668

weight f4 [4]
000000 30 31 85 3f 2d 73 81 3f 9f 91 85 3f 9b 73 78 3f
       1.0405636 1.0113274 1.0435065 0.970514

bias f4 [4]
000000 99 ec 44 bd da 1a 42 bd c8 20 9d bd ec 6d 07 3e
       -0.0480772 -0.04738889 -0.07672268 0.13225526

running_mean f4 [4]
000000 de 87 a1 be 33 e7 5d 3e 6e 57 96 bd 2e a1 39 3c
       -0.3154897 0.21670227 -0.07340895 0.011329932

running_var f4 [4]
000000 5b 2c ee 3e f8 d4 a1 3d d3 56 52 3d af c0 53 3d
       0.46518216 0.07901949 0.051352333 0.05169743

weight f4 [1, 4, 2]
000000 13 9b a3 3e 85 6a 63 bc 72 0f 6b 3e 54 b6 87 3e
       0.3195425 -0.013880377 0.2295511 0.26506293
000010 78 e9 3f 3e 60 87 a6 bc c0 f9 64 be b7 84 75 be
       0.18741405 -0.020328224 -0.22360897 -0.23976408

weight f4 [16, 80]
000000 bb 11 4e be c0 68 f4 3c fc e4 42 bd fc dc 2c 3e
       -0.20123951 0.029835105 -0.047581658 0.16881174
000010 5f c2 9a bd 87 8d ba 3d f5 05 25 3e dc 05 06 3d
       -0.075566046 0.091090254 0.16115554 0.03272043
000020 ad fb 86 3c a8 c8 28 3e 21 f3 35 be df 6f ba bd
       0.01647743 0.16482794 -0.17768528 -0.09103369
000030 ec 88 47 3e 12 cf b4 3d 07 33 3b bd 36 18 ab 3d
       0.19485825 0.08828558 -0.04570296 0.08354227
000040 84 6e a0 bd c9 42 42 be f3 76 e9 3d 7c ed 3a 3d
       -0.07833579 -0.18970789 0.11399641 0.04563664
000050 28 9b 46 bb a8 ae 5d 3c e3 0d 4f be b7 9d 7a 3d
       -0.0030304883 0.013530411 -0.20220141 0.061185565
000060 d1 a2 2e 3e 89 24 df bd 6d c7 13 3e e8 d0 e2 bd
       0.17054297 -0.108956404 0.14431544 -0.11075002
000070 5f bf 18 3e 32 3d 73 bd 4a b5 05 bd 91 b9 72 3e
       0.14916752 -0.059384532 -0.032643594 0.237036
000080 65 15 b7 bd a0 6e 6e be be 3a 1d be b4 70 32 be
       -0.089396276 -0.23284388 -0.1535444 -0.17425805
000090 a2 9b 46 3d af 31 c7 3d a8 b6 d5 3d 2a 10 a6 bd
       0.048488267 0.09726273 0.104352295 -0.08108552
0000a0 05 c9 83 3b 6e 1f 44 bc 09 ac 52 bd 42 aa 12 3d
       0.004021766 -0.011970384 -0.051433597 0.0358069
0000b0 3b 71 6a 3d 81 df a3 3d 88 a8 c6 3d 65 20 75 3d
       0.05723689 0.08001614 0.097001135 0.059845347
0000c0 28 cc b3 3d 92 cf 8a bb 98 8b 01 bd 75 7f d6 bc
       0.08779174 -0.00423617 -0.031627268 -0.026183823
0000d0 84 0e 02 be 2d 8c b7 bd c4 ef 8a bb 47 ee 54 be
       -0.1270085 -0.08962283 -0.004240008 -0.2079402
0000e0 db 69 86 3d 0d 99 ea 3d 65 df d1 bd 35 7c dc bc
       0.06563159 0.11454973 -0.10247687 -0.026914695
0000f0 43 81 ba 3d e4 45 08 bd 69 5a 8f 3b f3 65 25 3d
       0.09106686 -0.033269778 0.0043747914 0.04038043
000100 34 f2 04 be 2d 8e 08 3e b1 69 e4 bd f9 86 63 3d
       -0.12983018 0.13335486 -0.111529715 0.05554864
000110 5d c2 fd 3c 44 33 74 bd 91 50 63 bd 99 b0 62 bc
       0.030976469 -0.059619203 -0.055496756 -0.0138360495
000120 f8 ca c4 bd 77 21 bb 3c c5 32 80 3d fb 3c 49 3c
       -0.09609026 0.022843106 0.062596835 0.012282605
000130 92 62 6d bd 6a b1 03 bd ba 5f f8 bc e0 5f a4 3c
       -0.057955332 -0.032151617 -0.030319083 0.020065248
000140 4a b6 0c 3e 61 db 5f bd 83 07 ad bc 28 db 67 be
       0.13741413 -0.054652575 -0.021121746 -0.22642195
000150 87 23 04 bc d6 16 29 bd f9 98 79 be 82 2b 4a 3c
       -0.008065111 -0.041281544 -0.2437476 0.012339475
000160 ee 39 cb bd 0a 7c 99 bc 8d 3d cd 3d 86 17 9f 3d
       -0.099231586 -0.018735904 0.100215055 0.077681586
000170 55 24 df bd 39 84 85 bd af 0a ed 3d 6c e9 b3 3d
       -0.10895602 -0.0651936 0.11574303 0.08784756
000180 13 1a 78 bd 63 d9 35 3c 7d d1 1f be 49 4b 57 bd
       -0.06057174 0.011099192 -0.15607257 -0.052562032
000190 80 67 c9 3d 53 20 e3 bd 04 8b 72 3e f1 7a c9 bc
       0.09834194 -0.1109015 0.23685843 -0.024594756
0001a0 a7 2a 4d be c0 fb cf bc 53 4a 84 bd eb 9c 72 bc
       -0.20035802 -0.025388598 -0.06459489 -0.01480792
0001b0 41 c0 94 bd d3 18 7c ba 49 a8 b9 3d 95 d8 8a be
       -0.07263232 -0.0009616736 0.09065301 -0.27118364
0001c0 41 aa 4c 3c 59 9d 2d 3e 6a c9 3a bd 67 b3 cd 3d
       0.012491764 0.16954555 -0.04560224 0.10043984
0001d0 df ae 9c 3d 88 47 21 be 49 82 ab bd 09 4c 71 3b
       0.076505415 -0.15749943 -0.08374459 0.0036819002
0001e0 78 16 60 3d 9f 5a 14 3b fa 1a be bc ce 24 b8 3d
       0.054708928 0.0022637022 -0.023206223 0.08991395
0001f0 ed 5c 07 be 49 16 b9 bd b8 e6 e8 bd a9 2d cc bd
       -0.13219042 -0.09037454 -0.11372131 -0.099696465
000200 76 e8 10 3c 5d 94 eb bd 98 4e 6f bd 33 4d b5 3d
       0.0088444855 -0.115029074 -0.058424562 0.08852615
000210 26 d3 4d bc 02 b2 33 3d fa 20 ba 3c bd 8b 95 3e
       -0.012562549 0.043870933 0.022720803 0.29208174
000220 bf 19 95 bd df 05 03 be 7e 74 ef bc af 3a b2 bd
       -0.07280301 -0.12795208 -0.029230352 -0.08702599
000230 92 a9 b8 bc 10 f0 0b be e1 1f f7 bd 3f 40 2c bd
       -0.022541795 -0.13665795 -0.12066627 -0.042053457
000240 04 41 b5 3d ad 0b 05 be b8 70 f0 bd 01 fa 08 3d
       0.08850291 -0.12992735 -0.117402494 0.033441547
000250 b7 18 a9 3c 36 9f 4d 3d 57 99 10 3c b0 d6 0d bd
       0.020641668 0.050200664 0.008825622 -0.03462857
000260 d5 ee 0c 3e af 16 78 3c bd ab 4c 3c d0 8e 8e 3d
       0.13762982 0.015142127 0.0124921175 0.06960833
000270 04 9f dd 39 72 ed 40 be b1 2b 79 3d 7b 0d 8b 3d
       0.0004227088 -0.18840578 0.060832683 0.067896806
000280 9d e3 5a bd 86 6e 3c 3d ed 78 33 3c 0f e2 23 3e
       -0.053439725 0.04600384 0.010954124 0.16004203
000290 31 d3 ad 3d 21 14 b6 3d 4a ec 5b 3e 44 49 ab 3d
       0.08487547 0.08890558 0.21476856 0.08363584
0002a0 fe 3c 21 3e b3 9c 75 3c 97 14 4a bd 8c 97 3f bd
       0.15745923 0.014990973 -0.049336042 -0.046775386
0002b0 0f 1a 20 3e 67 4a b8 bc 5f 00 0e 3d b1 dc 9f 3d
       0.1563494 -0.022496415 0.034668323 0.078057654
0002c0 8b d9 50 3b 42 27 5f bd bb 68 31 3e 7b d7 39 3d
       0.0031867947 -0.0544808 0.17325108 0.045371514
0002d0 2a 43 13 be 18 98 c5 3d da d3 4b bd 63 b3 b4 3c
       -0.1438109 0.0964815 -0.049762584 0.022058195
0002e0 57 6f bb 3d d9 b3 bb bd 09 df 24 3e 7f ca ea bc
       0.09152096 -0.091651626 0.16100706 -0.02866101
0002f0 45 ed 5a 3e a4 3c 6e 3d ca 3f 0c be 72 34 c4 3e
       0.21379574 0.0581633 -0.13696209 0.38321263
000300 1c 1f 21 be 7b f4 4e be 39 10 e1 3c a7 48 3e be
       -0.15734524 -0.2021045 0.027473556 -0.18582402
000310 9b 39 c7 3d b5 55 00 bd 2d ef 2a 3e d6 05 d7 bc
       0.09727784 -0.031331737 0.16692801 -0.0262479
000320 3b a8 2f 3d f6 6c 73 bd 75 ae dc 3c 17 e1 30 bd
       0.042885046 -0.059430085 0.026938656 -0.043183412
000330 a1 c6 c6 3d 9c 39 40 3b ce 8e d3 bc d8 b7 e7 3d
       0.09705854 0.0029331213 -0.02582493 0.11314362
000340 6d 68 d0 bc 89 91 d4 3d 0d bd 84 bd 2d 11 8d bd
       -0.02544042 0.10379321 -0.06481371 -0.06888042
000350 95 9d 33 bc 28 0e ac 3c 1b d3 33 3c c4 af 2e be
       -0.010962863 0.021002844 0.010975624 -0.17059237
000360 9d 46 14 3c 4a 94 6f 3d 5c fa e0 bd 8c fe 8e 3d
       0.009050039 0.05849103 -0.10985252 0.06982145
000370 10 59 e7 bc fd e1 2a bd cf c0 40 3d 1b 07 06 bd
       -0.02824071 -0.041719425 0.047058877 -0.03272162
000380 65 5d 86 3d 6f b0 24 3e 74 c0 28 bd 46 95 12 3d
       0.06560782 0.16082929 -0.041199163 0.03578689
000390 ea 5b a1 3d 08 74 ed bd 0e 91 e7 bc 4b 3b 4f bd
       0.07878859 -0.11594397 -0.02826741 -0.050593656
0003a0 e5 68 89 3c 09 bf 11 3d 28 7a 2c 3d 6c 6d a8 3d
       0.01677365 0.035582576 0.042108685 0.082239956
0003b0 3f 5c 13 bd f8 f1 c2 3b 3f 60 8e 3c ac 08 b8 bd
       -0.035976645 0.005949255 0.017379878 -0.08986029
0003c0 a4 78 82 3d ec 99 90 3c 3e 26 12 3e c4 aa 32 be
       0.063706666 0.01765152 0.142724 -0.17447954
0003d0 b0 51 f4 bc 6a f4 52 3d dc bd 3c be 52 6e 1f be
       -0.029824108 0.051502623 -0.184318 -0.15569428
0003e0 d6 82 49 be 29 ea 49 be 13 59 52 bb 3a 84 98 3c
       -0.19678816 -0.19718231 -0.003209655 0.018617738
0003f0 b5 a4 2a be ae 43 13 be 6a b9 04 3e 20 9f c6 bc
       -0.16664393 -0.14381287 0.12961355 -0.024245799

bias f4 [16]
000000 f8 a2 79 bd c0 21 3a 3e 57 91 3a be ab f4 28 3e
       -0.060946435 0.18176937 -0.18219505 0.16499583
000010 34 04 ec 3c c1 96 9b bc 11 2a 30 be 73 29 12 be
       0.028810598 -0.018992784 -0.17203547 -0.14273624
000020 3e 43 0f 3e fc a7 26 3e c6 0d 9b 3d 31 2d 04 be
       0.13990495 0.16275018 0.075709864 -0.12907864
000030 09 c5 30 bd 7d c8 89 bd eb 98 3c be bf 40 84 3c
       -0.043156657 -0.06727693 -0.18417709 0.016144155

weight f4 [2, 16]
000000 20 cf 54 3e b1 c6 4d be e0 2a d2 3e 1f 31 81 be
       0.20782137 -0.20095326 0.41048336 -0.2523279
000010 7f e5 42 be 6c 63 74 be 34 b7 93 3d 66 16 4b 3e
       -0.19032858 -0.23866051 0.072126776 0.19832763
000020 09 10 d3 be 13 76 c1 be ae a0 df be 01 4f 6b 3e
       -0.4122317 -0.37785396 -0.43677276 0.22979356
000030 04 87 2a 3e cb 75 36 3e 9e fe c5 3e 4c 75 57 be
       0.16653067 0.17818372 0.3867082 -0.21040839
000040 40 c8 c0 be 73 a7 2f 3e 49 cf ae be 64 a7 90 3e
       -0.3765278 0.1715372 -0.3414252 0.2825271
000050 46 71 95 3e e3 86 09 3e 27 47 e4 be 04 89 e2 bd
       0.29187983 0.13430361 -0.44585535 -0.1106129
000060 40 b0 74 3e bb 31 15 3c d3 13 d4 3e e6 d1 76 bd
       0.23895359 0.009106095 0.41421375 -0.06025877
000070 09 44 d0 be c7 9d e8 be 0c c9 67 be 8f b4 74 3d
       -0.40676907 -0.45432875 -0.22635287 0.059742507

bias f4 [2]
000000 44 32 9d be 0c 86 9c 3e
       -0.30702412 0.3057102
