mlpcnnsemi/model/cnn/64oneinput_batch1_Epoch=60_lr=0.0001.pth (torch, 25249 bytes, 29 tensors)

weight f4 [4, 1, 1]
0	0x3f2bb60d	0.6707466
1	0x3f2e70d9	0.6814094
2	0x3f2e6e6a	0.6813723
3	0xbf28d600	-0.6595154

bias f4 [4]
0	0x3f30e52b	0.6909968
1	0x3f1fec87	0.6247029
2	0xbe9c7dc8	-0.30564713
3	0xbee1fbb3	-0.44137344

weight f4 [4]
0	0x3f82f7f1	1.0231916
1	0x3f7c54d7	0.98566955
2	0x3f7da8d6	0.9908575
3	0x3f839502	1.0279849

bias f4 [4]
0	0xbd90be7b	-0.07067581
1	0xbd701bea	-0.05862037
2	0xbce66275	-0.02812312
3	0x3c53a4e5	0.012917732

running_mean f4 [4]
0	0x3f6669a7	0.9000496
1	0x3f563713	0.83677787
2	0xbdbf1d64	-0.09331778
3	0xbf259301	-0.64677435

running_var f4 [4]
0	0x3e80b8ed	0.25141087
1	0x3e84c278	0.25929618
2	0x3e84ea63	0.25960073
3	0x3e7908ed	0.24319811

weight f4 [16, 4, 1]
0	0x3ed01604	0.40641797
1	0xbee8dd3b	-0.45481285
2	0xbe60b34f	-0.21943401
3	0x3f0317a5	0.51207954
4	0xbd547aed	-0.051875044
5	0x3eaf0353	0.34182224
6	0xbe249995	-0.16074212
7	0x3ec70ae8	0.38875508
8	0x3f11570e	0.5677346
9	0xbed4a461	-0.4153166
10	0x3ebe4c81	0.37167743
11	0xbedb8b98	-0.4287994
12	0x3e85e426	0.26150626
13	0x3dfb99f0	0.122852206
14	0x3f07e34a	0.5308119
15	0xbe78d6ac	-0.24300641
16	0xbda3ae9a	-0.07992287
17	0x3bf8fc1f	0.0075984146
18	0x3e7307aa	0.23733392
19	0x3dccff65	0.1000965
20	0xbe5659d0	-0.20932698
21	0xbeb07e7d	-0.34471503
22	0xbecb83dc	-0.39749038
23	0xbe2717ff	-0.16317748
24	0xbee79a79	-0.4523504
25	0x3de989a3	0.11403205
26	0xbf0215d3	-0.5081455
27	0x3ee6d1f6	0.45082062
28	0xbe54af49	-0.20769991
29	0x3d46d762	0.04854525
30	0x3e457d50	0.19286084
31	0xbe70c1b5	-0.23511393
32	0xbea6da97	-0.32588646
33	0x3eb5f425	0.3553783
34	0xbe9cb361	-0.30605605
35	0xbe2d6691	-0.16933657
36	0xbee0931d	-0.4386224
37	0xbbaeb413	-0.005331525
38	0xbe87f3ed	-0.26553288
39	0xbec1e8cf	-0.3787293
40	0x3e4edee6	0.20202217
41	0xbe4b95cf	-0.19881366
42	0x3e245825	0.1604925
43	0x3d99ce69	0.07510073
44	0x3dd4d27a	0.10391708
45	0xbe9d7bf0	-0.3075862
46	0xbe8c86f3	-0.27446708
47	0xbd951d20	-0.07280946
48	0x3ef90f34	0.48644412
49	0xbe860fae	-0.26183838
50	0x3e45bff0	0.193115
51	0xbecbf37f	-0.3983421
52	0x3eb1f269	0.34755257
53	0xbdef070b	-0.11671265
54	0x3e98c5a2	0.29838282
55	0x3e860279	0.2617376
56	0xbe6654f6	-0.22493348
57	0x3ed38be5	0.4131767
58	0x3d04b421	0.032398347
59	0x3e4212cd	0.18952484
60	0x3d8a4a1c	0.067524165
61	0x3e0202d5	0.12696393
62	0xbdd53a40	-0.10411501
63	0xbefb3eea	-0.49071437

bias f4 [16]
0	0xbe6ea5af	-0.23305391
1	0xbdfc4412	-0.12317671
2	0xbe26504c	-0.16241568
3	0x3e335dec	0.17516297
4	0xbdd1e063	-0.102478765
5	0x3e6f4fc3	0.2337027
6	0xbcd40f7e	-0.025886294
7	0xbda79e50	-0.081844926
8	0x3e748707	0.23879634
9	0x3ef3c898	0.47613978
10	0xbca1b19c	-0.019738011
11	0x3ec15d4a	0.37766486
12	0xbeb09c30	-0.34494162
13	0xbef3829f	-0.47560593
14	0xbef6b5c3	-0.48185548
15	0xbeac5bf5	-0.33663908

weight f4 [16]
0	0x3f888162	1.0664485
1	0x3f8111ae	1.008352
2	0x3f785b22	0.9701406
3	0x3f7d3dce	0.9892243
4	0x3f8447b1	1.0334378
5	0x3f905f3f	1.1279067
6	0x3f80983a	1.0046456
7	0x3f76c8ac	0.9639995
8	0x3f81d846	1.0144126
9	0x3f77969e	0.967142
10	0x3f7a415c	0.9775598
11	0x3f7428c4	0.95374703
12	0x3f81b564	1.0133481
13	0x3f8582d6	1.0430553
14	0x3f811e13	1.0087303
15	0x3f738d36	0.95137346

bias f4 [16]
0	0x3d9867c3	0.07441666
1	0x3d819300	0.06326866
2	0xbdd33980	-0.10313702
3	0xbcd3ac67	-0.025839044
4	0xbdcacfe9	-0.09902937
5	0x3dc372a5	0.09543351
6	0x3d5e0df0	0.05421251
7	0x3d0c3958	0.034234375
8	0xbd95a65a	-0.0730712
9	0x3d5487c2	0.05188728
10	0xbce81aea	-0.028333146
11	0x3e02b8ac	0.12765759
12	0xbce361d2	-0.027756605
13	0xbcd32ee7	-0.0257792
14	0x3b8f18dd	0.0043669776
15	0xbc5525b0	-0.013009474

running_mean f4 [16]
0	0xbe18db4c	-0.14927405
1	0x3ccfd0a0	0.025368035
2	0xbe148d32	-0.14506987
3	0x3eb32dca	0.34995872
4	0xbce3bebc	-0.02780091
5	0xbd91ae8e	-0.07113372
6	0xbdfa665c	-0.12226555
7	0xbe12edc7	-0.14348517
8	0x3de15126	0.11001806
9	0x3e2e6836	0.17031941
10	0x3d47c24c	0.04876928
11	0x3e69b236	0.22821888
12	0xbeb29d86	-0.34885806
13	0xbe812d61	-0.25229934
14	0xbebcb566	-0.36857146
15	0xbeeba962	-0.46027666

running_var f4 [16]
0	0x3da6093a	0.081072286
1	0x3c2196ba	0.009862596
2	0x3e8ca69b	0.2747086
3	0x3f33258d	0.6997917
4	0x3c963fd9	0.018340992
5	0x3f2f68c8	0.6851926
6	0x3f259589	0.646813
7	0x3b81b8da	0.0039588036
8	0x3d6e5b09	0.058192287
9	0x3ebbae72	0.3665653
10	0x3caa9e1a	0.020827342
11	0x3e2d62c0	0.16932201
12	0x3e37e3f4	0.17958051
13	0x3e536724	0.20644814
14	0x3cf094ad	0.02936777
15	0x3cb4b6d2	0.022059832

weight f4 [8, 16, 2]
0	0x3e549b73	0.20762424
1	0x3da8345f	0.08213114
2	0x3b05dcec	0.002042587
3	0x3d3a3c78	0.045467824
4	0xbdf6d6db	-0.12052699
5	0xbd75ddb5	-0.06002589
6	0x3cd2e260	0.02574271
7	0x3e0d5b06	0.13804254
8	0x3e174648	0.14772904
9	0x3d289351	0.041156117
10	0xbe42a6d6	-0.19008955
11	0x3e1434f7	0.1447333
12	0x3d5567e7	0.052101042
13	0xbb739c1e	-0.003717191
14	0xbe2c6f4f	-0.16839336
15	0xbdd8791d	-0.105699755
16	0xbe5d25da	-0.2159647
17	0xbe198de6	-0.14995536
18	0x3d9e8c3e	0.07741593
19	0x3d6b78f7	0.057488408
20	0xbcf367ef	-0.029712645
21	0xbda7d90e	-0.08195697
22	0xbde2865f	-0.110607855
23	0xbe0dca3a	-0.13846675
24	0x3e457543	0.19283013
25	0x3dce629f	0.10077404
26	0x3de70928	0.11281043
27	0x3de6c135	0.1126732
28	0xbd0949fc	-0.033517823
29	0xbd2a9b90	-0.041652262
30	0x3be60e38	0.007020738
31	0xbdf20391	-0.118170865
32	0xbe6c64fd	-0.23085399
33	0xbd9f883c	-0.077896565
34	0xbe33bfa0	-0.17553568
35	0x3e48c889	0.19607748
36	0xbe152071	-0.14563157
37	0x3ddb77d1	0.107162125
38	0x3e0734b8	0.13203704
39	0x3cf44b28	0.029820994
40	0xbe3a8e04	-0.18218237
41	0xbe205b66	-0.15659866
42	0xbe505795	-0.2034591
43	0x3e42f75c	0.19039673
44	0xbe4e8df1	-0.20171334
45	0x3e3530bf	0.17694376
46	0x3e271c0a	0.1631929
47	0x3da5673c	0.08076331
48	0xbe2db3de	-0.16963145
49	0x3b0649e8	0.002049083
50	0xbd0713b1	-0.032977764
51	0x3dae304f	0.08505308
52	0xbdacba7a	-0.08434005
53	0x3d1245e0	0.03571117
54	0xbdc5b6ac	-0.096539825
55	0xbb91b9f9	-0.0044472185
56	0xbe431764	-0.19051892
57	0x3b98c8f7	0.0046626288
58	0x3ddcdfa8	0.107848465
59	0x3ddc1560	0.107462645
60	0xbcac331f	-0.02102047
61	0xbe1f5d0d	-0.1556284
62	0x3e22207f	0.15832709
63	0xbd579ddb	-0.052640777
64	0x39c8720f	0.00038231953
65	0xbd11237e	-0.03543424
66	0x3da9e8c8	0.082963526
67	0x3e4a3461	0.19746543
68	0x3e0b0c1e	0.13578841
69	0xbe2def1c	-0.16985744
70	0x3d0ae3b1	0.03390855
71	0x3d97d6d9	0.07414026
72	0x3d54889f	0.051888105
73	0x3df4a3eb	0.11945327
74	0x3e82c136	0.25538033
75	0x3e3a5c9c	0.1819939
76	0x3c741772	0.014898168
77	0x3d28364d	0.04106741
78	0xbda3ce53	-0.079983376
79	0x3e0188fa	0.12649909
80	0xbce98dd4	-0.028510012
81	0x3e4f9a2b	0.20273654
82	0x3e2c4798	0.16824186
83	0x3bf04d2c	0.0073334184
84	0xbe1d0919	-0.15335502
85	0x3e232c4d	0.15934868
86	0x3e89c9e2	0.26911837
87	0x3d7f229a	0.062288858
88	0xbd80d574	-0.06290713
89	0x3d2f43fb	0.04278944
90	0x3d2064a6	0.039158486
91	0xbd956aad	-0.072957374
92	0xbd2c23ab	-0.042026203
93	0x3ca97eee	0.020690408
94	0x3dc94e79	0.098294206
95	0xbe148f2f	-0.14507745
96	0x3cfd9f21	0.030959668
97	0xbdd7c68e	-0.10535918
98	0xbe3236db	-0.17403738
99	0xbe045753	-0.12923937
100	0xbd52f4c2	-0.05150295
101	0x3e17eb23	0.14835791
102	0x3d211b96	0.03933295
103	0x3de6505c	0.11245796
104	0xbdac2f00	-0.08407402
105	0xbd2d1e50	-0.042265236
106	0x3c880cf5	0.01660774
107	0xbd32b10f	-0.043625887
108	0x3bded68e	0.0068004793
109	0xbd5afeb1	-0.05346555
110	0x3db83516	0.089945
111	0x3d913e4c	0.0709196
112	0x3d85b051	0.0652777
113	0x3db0006b	0.0859383
114	0xbd16be6b	-0.03680269
115	0xbe1dc184	-0.15405852
116	0xbe3db07c	-0.18524355
117	0x3e42574b	0.18978612
118	0x3d5815c9	0.05275515
119	0x3db43633	0.087994
120	0xbe28aa26	-0.16471156
121	0x3dd26fb1	0.1027521
122	0xbd6a359d	-0.057180036
123	0x3e0179c0	0.126441
124	0x3de2900b	0.1106263
125	0xbe10bddf	-0.1413493
126	0x3dc78cd4	0.09743658
127	0x3dc19343	0.09451916
128	0xbe18b984	-0.14914519
129	0x3d6b447b	0.057438355
130	0xbb9814e9	-0.0046411646
131	0xbe0d1175	-0.1377619
132	0xbdd52f5c	-0.10409424
133	0x3e15e7c1	0.14639188
134	0xbc558273	-0.01303159
135	0xbd2ca88d	-0.04215293
136	0xbe0337ac	-0.12814206
137	0x3e2e9df5	0.17052443
138	0x3e501868	0.2032181
139	0xbcbb8533	-0.022890663
140	0x3deaa406	0.11457066
141	0x3d9e022c	0.07715258
142	0xbe37e486	-0.17958269
143	0x3d8e0875	0.06935207
144	0x3e2935c6	0.16524419
145	0x3c9362d0	0.017991453
146	0x3e31181f	0.17294358
147	0xbd3b35f6	-0.045705758
148	0xbda1f545	-0.079081096
149	0xbd89e42f	-0.06732976
150	0xbd2d37f4	-0.04228969
151	0x3d22df67	0.039763834
152	0x3d644d9b	0.055738073
153	0x3dcba781	0.09944058
154	0xbc3db615	-0.011579056
155	0xbcb5dfe0	-0.022201478
156	0x3e277186	0.163519
157	0x3e2189f2	0.15775278
158	0xbd0f6e66	-0.035017394
159	0xbcebae99	-0.028769778
160	0xbe135f4a	-0.14391819
161	0x3e24b33c	0.16083997
162	0xbdb78ec0	-0.08962774
163	0x3d9ee93a	0.07759328
164	0xbd851f3b	-0.06500097
165	0x3c5fd452	0.013661461
166	0x3e3d3b9b	0.18479769
167	0x3e06995b	0.13144438
168	0xbd3e2e1d	-0.046430696
169	0x3e011abf	0.12607859
170	0xbd301409	-0.042987857
171	0x3df0a2e3	0.11749818
172	0xbde41a10	-0.111377835
173	0x399ec392	0.0003028182
174	0x3c89244f	0.016740946
175	0xbd169d20	-0.03677094
176	0xbbee10d1	-0.0072651883
177	0x3d1164e5	0.03549661
178	0xbbb46a48	-0.005505834
179	0x3d33bfcb	0.04388408
180	0xbd91fe97	-0.07128637
181	0x3d118671	0.035528604
182	0xbd84e3a0	-0.064887285
183	0xbcfe7d71	-0.031065674
184	0xbdfb87b0	-0.1228174
185	0x3d8d3436	0.06894724
186	0x3e20c1c9	0.15698923
187	0xbcecce39	-0.028906928
188	0xbcc4221e	-0.02394205
189	0x3e0369f5	0.12833388
190	0xbe1e3d35	-0.15453036
191	0xbd605c01	-0.05477524
192	0x3c5949e0	0.013262242
193	0xbe500f73	-0.20318393
194	0xbdda19d9	-0.10649461
195	0x3e0c08d2	0.1367524
196	0xbd127092	-0.035751887
197	0x3e0bd702	0.13656238
198	0x3dc2ec6e	0.09517752
199	0xbe2adddb	-0.16686194
200	0xbd8b79f1	-0.06810368
201	0x3e1b81d0	0.15186238
202	0x3d5b803d	0.053589094
203	0x3db6fda5	0.089350976
204	0x3df7cf82	0.12100126
205	0x3a8ae92f	0.0010598059
206	0xbd870fdd	-0.065948226
207	0xbd8f9687	-0.07011133
208	0x3dd0a0d1	0.10186923
209	0x3e0b2ce3	0.13591342
210	0x3e00f11e	0.12591979
211	0x3d9407d0	0.072280526
212	0x3d809b12	0.06279577
213	0x3d3f5080	0.04670763
214	0xbdb7e02f	-0.089783065
215	0x3d57f4c8	0.052723676
216	0xbd3274e7	-0.043568518
217	0xbe24807c	-0.16064638
218	0xbe10e8ad	-0.14151259
219	0x3dd67837	0.10472148
220	0xbd47ba49	-0.04876164
221	0x3d842c29	0.064537354
222	0x3bf98f7e	0.0076159826
223	0x3db5b79c	0.08872911
224	0x3e143b43	0.14475732
225	0xbd885d4c	-0.0665842
226	0x3dfb3c27	0.122673325
227	0x3dfc96e1	0.12333465
228	0x3dbad5c3	0.09122803
229	0xbdf0d380	-0.117590904
230	0xbdddef68	-0.10836679
231	0x3dab7247	0.08371406
232	0x3d8aeffc	0.06784055
233	0xbe13b639	-0.14424981
234	0x3bd0e11d	0.006374492
235	0x3d50d6f3	0.05098624
236	0x3e0723ff	0.13197325
237	0x3d55e1cb	0.052217286
238	0x3d3ddc1f	0.046352502
239	0xbd36ee03	-0.04466058
240	0xbe23b92d	-0.15988608
241	0x3e05533e	0.13020036
242	0xbc5fb17d	-0.013653156
243	0xbde9a4dd	-0.11408398
244	0xbd919fbf	-0.07110547
245	0x3be43b97	0.0069651115
246	0xbda792d2	-0.081823006
247	0xbdcf0a28	-0.10109359
248	0x3e286923	0.16446356
249	0x3d93f60a	0.072246626
250	0xbd651187	-0.05592492
251	0xbdec8bfd	-0.11550138
252	0xbdf8bc31	-0.1214527
253	0xbe2ec56a	-0.17067495
254	0xbdb98719	-0.09058971
255	0x3ddf1ff0	0.108947635

bias f4 [8]
0	0xbca806ed	-0.020511115
1	0x3cf88a50	0.03033939
2	0x3e55bf72	0.20873812
3	0xbdc35a0a	-0.09538658
4	0xbe06de97	-0.13170849
5	0x3e15deb9	0.14635743
6	0x3e43a5ec	0.19106263
7	0x3dd363b2	0.1032175

weight f4 [8]
0	0x3f7d5deb	0.9897143
1	0x3f90d320	1.131443
2	0x3f848929	1.0354358
3	0x3f6b3705	0.9188083
4	0x3f76a2b5	0.9634202
5	0x3f853426	1.040654
6	0x3f80e5d8	1.0070143
7	0x3f742108	0.953629

bias f4 [8]
0	0x3bbdc194	0.0057908986
1	0x3c82e28e	0.01597717
2	0xbd2adf7b	-0.041717034
3	0xbc1132b4	-0.008862186
4	0xbe03dd51	-0.12877394
5	0x3c797622	0.015225919
6	0xba7f1348	-0.0009730351
7	0xbd5e356c	-0.054250166

running_mean f4 [8]
0	0xbcbb50b5	-0.022865633
1	0xbdccdeaa	-0.10003407
2	0x3f2ad7a4	0.6673529
3	0xbd7578e8	-0.05992976
4	0xbcba4a38	-0.022740468
5	0x3e1885b2	0.1489475
6	0x3e811d90	0.25217867
7	0x3de3b005	0.111175574

running_var f4 [8]
0	0x3dd8e187	0.10589891
1	0x3dd91e98	0.106015384
2	0x3ddb988e	0.10722457
3	0x3e429337	0.1900147
4	0x3dab1b4f	0.08354818
5	0x3df653da	0.12027712
6	0x3d9abbd6	0.07555358
7	0x3d40823a	0.046999194

weight f4 [4, 8, 2]
0	0xbdead952	-0.11467232
1	0xbd14d5c7	-0.036336686
2	0xbd3dd795	-0.046348173
3	0xbe98bbf7	-0.29830906
4	0xbe108ad1	-0.14115454
5	0xbda76567	-0.08173638
6	0x3d8b8a90	0.06813538
7	0xbd3dda8f	-0.04635101
8	0x3cce3533	0.025171852
9	0x3e738b9c	0.23783726
10	0xbe288c55	-0.16459782
11	0xbe0e7c30	-0.13914561
12	0xbe785ade	-0.24253413
13	0xbe443cec	-0.19163865
14	0xbe1bdfbd	-0.15222068
15	0x3ddf58dc	0.109056205
16	0x3de4a2a4	0.11163834
17	0xbd9bf74f	-0.0761553
18	0x3de54a1c	0.11195776
19	0xbe881bb0	-0.26583624
20	0x3e217bf8	0.15769947
21	0xbc28ec37	-0.010310224
22	0xbd10b5e0	-0.0353297
23	0xbe02ad37	-0.12761389
24	0xbd835cb7	-0.06414168
25	0xbdf1677b	-0.117873155
26	0xbdbd6c21	-0.092491396
27	0x3ddb27bc	0.10700938
28	0x3d445ee4	0.047942057
29	0xbbab9ad0	-0.005236961
30	0x3e16e268	0.14734805
31	0x3e0703e7	0.13185082
32	0xbe4ce079	-0.20007505
33	0x3e192d31	0.14958645
34	0x3db98f5d	0.090605475
35	0x3bb8304e	0.0056209927
36	0xbd91cf48	-0.07119614
37	0xbdf99727	-0.12187033
38	0xbcd1c482	-0.025606398
39	0x3e08d904	0.13364035
40	0x3da8f4d7	0.082498245
41	0x3daaa46a	0.08332141
42	0x3db6d197	0.08926695
43	0xbda92dfd	-0.08260725
44	0xbd3b3af5	-0.045710523
45	0xbe603d51	-0.2189839
46	0x3e86ed35	0.2635285
47	0xbdc75adb	-0.09734126
48	0xbd8a6114	-0.067567974
49	0x3c908ce5	0.017645309
50	0x3e0c79ba	0.1371831
51	0xbe538a59	-0.20658244
52	0x3e068509	0.13136686
53	0x3e147588	0.1449796
54	0xbe48d9f1	-0.19614388
55	0x3e807baa	0.25094348
56	0x3d9a7cb4	0.075433165
57	0xbe144dac	-0.14482754
58	0x3dfa872a	0.12232812
59	0xbdb95552	-0.09049477
60	0xbe2b5df2	-0.16735056
61	0xbd02be2e	-0.03191965
62	0x3e00d64a	0.12581745
63	0xbdcfd7bd	-0.10148571

bias f4 [4]
0	0x3c46f560	0.012143463
1	0x3e838e0a	0.25694305
2	0xbdf1149a	-0.117715076
3	0x3d5caad6	0.05387386

weight f4 [4]
0	0x3f831ded	1.0243508
1	0x3f8127f4	1.0090318
2	0x3f85e2bc	1.0459819
3	0x3f795808	0.9739995

bias f4 [4]
0	0xbd07c2d3	-0.033144783
1	0xbd1c4be6	-0.03815832
2	0xbda0cd7d	-0.07851694
3	0x3e126f7d	0.14300342

running_mean f4 [4]
0	0xbe9bd39b	-0.3043488
1	0x3e6366ad	0.22207136
2	0xbdab59e8	-0.08366758
3	0x3c888b98	0.016668126

running_var f4 [4]
0	0x3edb8701	0.42876437
1	0x3da64cbc	0.08120105
2	0x3d755f86	0.05990555
3	0x3d83ca25	0.064350404

weight f4 [1, 4, 2]
0	0x3e99e57b	0.30057892
1	0xbc5b3835	-0.0133801
2	0x3e652f9f	0.22381447
3	0x3e88f7f6	0.2675168
4	0x3e41fc0d	0.18943806
5	0xbc0b4720	-0.008500844
6	0xbe65959c	-0.22420353
7	0xbe7df2f2	-0.24799708

weight f4 [16, 80]
0	0xbe53d16b	-0.20685355
1	0x3cd3bfe9	0.025848346
2	0xbd592d8a	-0.053021945
3	0x3e194936	0.14969334
4	0xbd7d0da2	-0.06178058
5	0x3dc38eff	0.09548759
6	0x3e1b7731	0.15182187
7	0x3d1d6792	0.03842885
8	0x3c12cad4	0.008959491
9	0x3e1bf408	0.1522981
10	0xbe36d48f	-0.17854522
11	0xbdb37c8a	-0.08763988
12	0x3e3d2ca8	0.18474066
13	0x3d8eabd9	0.06966371
14	0xbd53150e	-0.05153375
15	0x3dab36a5	0.08360032
16	0xbdb5c5d5	-0.08875624
17	0xbe3f95fe	-0.18709561
18	0x3ded8ffb	0.11599728
19	0x3d33187a	0.043724515
20	0xbb1843cb	-0.0023233767
21	0x3c4b682b	0.012414972
22	0xbe400f4f	-0.1875584
23	0x3d4f5e4d	0.05062704
24	0x3e25660e	0.16152212
25	0xbdde1d2a	-0.10845406
26	0x3e15c200	0.14624786
27	0xbdbb1998	-0.09135741
28	0x3e125e1a	0.1429371
29	0xbd93cc81	-0.072167404
30	0xbca9a852	-0.020710144
31	0x3e60423e	0.2190027
32	0xbda9ee9d	-0.08297465
33	0xbe586269	-0.2113129
34	0xbe19865f	-0.14992665
35	0xbe15749e	-0.14595267
36	0x3d377e9e	0.044798486
37	0x3db98be6	0.09059887
38	0x3dca7dda	0.098872855
39	0xbdbde307	-0.09271818
40	0xbb8ca207	-0.004291776
41	0xbc466eae	-0.012111349
42	0xbd54804c	-0.051880166
43	0x3ced4c7c	0.028967135
44	0x3d4d6b51	0.050151173
45	0x3da1166f	0.07865607
46	0x3dca01d3	0.09863629
47	0x3d601186	0.05470421
48	0x3db08a0e	0.08620082
49	0xbc276c6b	-0.01021872
50	0xbd45e96c	-0.04831831
51	0xbcf7e254	-0.030259289
52	0xbe0231a1	-0.12714244
53	0xbdc8aea5	-0.09798936
54	0x3bea2486	0.007145467
55	0xbe47c97a	-0.19510451
56	0x3d8f8f79	0.07009787
57	0x3de27ca4	0.110589296
58	0xbdd7c70e	-0.105360135
59	0xbcd4c5f8	-0.025973305
60	0x3db38cd5	0.08767096
61	0xbd0d086f	-0.03443187
62	0x3b38e70e	0.0028213891
63	0x3d4376a0	0.04772055
64	0xbdfb9bbf	-0.122855656
65	0x3e0080f6	0.12549195
66	0xbdf30f50	-0.11868155
67	0x3d6e4943	0.058175337
68	0x3d052dff	0.03251457
69	0xbd623cf5	-0.055233914
70	0xbd6afbac	-0.05736892
71	0xbc8ae25d	-0.016953642
72	0xbdbe0c60	-0.09279704
73	0x3cdbb641	0.026820304
74	0x3d6f1eb3	0.058378886
75	0x3ccbc2fe	0.024873253
76	0xbd817123	-0.06320407
77	0xbd124f6a	-0.035720266
78	0xbd11d94e	-0.03560763
79	0x3c469c73	0.012122261
80	0x3e122590	0.14272141
81	0xbd505c19	-0.05086908
82	0xbc84c529	-0.016207295
83	0xbe54fc5b	-0.20799391
84	0xbcb72f71	-0.022361489
85	0xbd3d80e4	-0.046265498
86	0xbe7098ff	-0.23495863
87	0x3bca7039	0.0061779288
88	0xbdbd2597	-0.09235685
89	0xbbdd9e38	-0.006763246
90	0x3dcd8c7d	0.10036562
91	0x3d96411f	0.073366396
92	0xbdcc1fc8	-0.09966999
93	0xbd42ed9f	-0.047589894
94	0x3df72e65	0.12069396
95	0x3db20112	0.086916104
96	0xbd51262e	-0.0510618
97	0x3bf3c734	0.0074395183
98	0xbe22b445	-0.1588908
99	0xbd52f28a	-0.051500835
100	0x3dc636ce	0.09678422
101	0xbde2d5d4	-0.11075941
102	0x3e629aa5	0.22129305
103	0xbc7676ac	-0.015042942
104	0xbe44eb34	-0.19230348
105	0xbcdc10b3	-0.026863432
106	0xbd89c7eb	-0.067275845
107	0xbd0fec65	-0.035137553
108	0xbd898c45	-0.067162074
109	0x3c315310	0.010823026
110	0x3d9f63d5	0.07782713
111	0xbe820ea7	-0.25401804
112	0x3ba7e0b2	0.0051232213
113	0x3e16a9d4	0.14713222
114	0xbd4d26ea	-0.05008594
115	0x3d919d3c	0.07110068
116	0x3da20a72	0.079121485
117	0xbe1b5a38	-0.15171134
118	0xbda288f8	-0.07936281
119	0x3c6d6cc2	0.014491262
120	0x3d7e933c	0.062152132
121	0x3ad66b44	0.0016358872
122	0xbcc1425a	-0.02359121
123	0x3dc49168	0.095980465
124	0xbe00eb96	-0.12589869
125	0xbdb7ab2b	-0.089681946
126	0xbdedb7c9	-0.1160732
127	0xbdc3a65d	-0.09553216
128	0x3c232c5e	0.009959308
129	0xbde0ed27	-0.10982733
130	0xbd2e257c	-0.042516217
131	0x3dbcaefb	0.092130624
132	0xbc558daa	-0.013034264
133	0x3d533251	0.051561657
134	0x3c2ce28b	0.010552059
135	0x3e8e89e3	0.27839574
136	0xbd9fdae4	-0.07805422
137	0xbdff770f	-0.124738805
138	0xbcdc009c	-0.02685576
139	0xbdb54b15	-0.088522114
140	0xbca19d91	-0.019728454
141	0xbe0b8162	-0.13623574
142	0xbdf5a817	-0.11994951
143	0xbd4d08e8	-0.05005732
144	0x3da5b3af	0.080909126
145	0xbdfb76c0	-0.12278509
146	0xbde36ab5	-0.11104337
147	0x3cf78175	0.030213097
148	0x3c962594	0.018328466
149	0x3d387443	0.04503275
150	0x3c258e36	0.0101047065
151	0xbd02ddbb	-0.03194974
152	0x3e08e1a3	0.13367324
153	0x3c2e44c3	0.010636511
154	0x3c82a40c	0.015947364
155	0x3d6624a0	0.056187272
156	0x3ba5d9f0	0.0050613806
157	0xbe3df6b0	-0.18551135
158	0x3d866e15	0.06563965
159	0x3d9a5d6c	0.0753735
160	0xbd71137c	-0.058856472
161	0x3d2d0076	0.042236768
162	0x3bbccee8	0.00576197
163	0x3e10bbed	0.14134188
164	0x3dcac64b	0.09901103
165	0x3dbfa8ab	0.09358343
166	0x3e52a0ab	0.20569102
167	0x3db79b77	0.089651994
168	0x3e19fafd	0.1503715
169	0x3b3259fc	0.002721428
170	0xbd4ba1c4	-0.04971482
171	0xbd2f5cfa	-0.04281328
172	0x3e16386f	0.14669965
173	0xbd260dcc	-0.0405405
174	0x3cf12130	0.02943477
175	0x3da0fb78	0.07860464
176	0xbbdb0d74	-0.0066849533
177	0xbd521d07	-0.051297214
178	0x3e33e883	0.17569165
179	0x3d3438cd	0.043999482
180	0xbe120222	-0.14258626
181	0x3dc474ec	0.095926136
182	0xbd0dabd9	-0.034587715
183	0x3c45ca2a	0.012072125
184	0x3daa1a10	0.08305752
185	0xbdb98bfa	-0.090599015
186	0x3e2744bf	0.16334818
187	0xbc0e0c04	-0.008669857
188	0x3e551361	0.20808174
189	0x3d3c51ae	0.045976333
190	0xbdfee424	-0.12445858
191	0x3ebb3bb0	0.36568975
192	0xbe1a030d	-0.15040226
193	0xbe385b9f	-0.180037
194	0x3d017773	0.031608056
195	0xbe20ae46	-0.1569148
196	0x3dc1078d	0.09425268
197	0xbd195e03	-0.037443172
198	0x3e25fb03	0.16209035
199	0xbd18abde	-0.03727328
200	0x3d0fcddf	0.035108443
201	0xbd720d1d	-0.059094537
202	0x3cdca309	0.02693321
203	0xbd4b323b	-0.04960845
204	0x3db91a69	0.090382405
205	0x3aed512a	0.0018105854
206	0xbcc3a40f	-0.02388194
207	0x3dde170f	0.10844242
208	0xbcdba911	-0.026814016
209	0x3dc90f6d	0.09817395
210	0xbda6171d	-0.08109877
211	0xbd950835	-0.07276956
212	0xbc30d5aa	-0.010793129
213	0x3c55671d	0.013025072
214	0x3cb9ccc2	0.022680644
215	0xbe211c9c	-0.1573357
216	0x3c630dcb	0.013858269
217	0x3d60f1e6	0.054918192
218	0xbde67d97	-0.11254423
219	0x3d916949	0.0710016
220	0xbd00b03d	-0.031418074
221	0xbd2e2e22	-0.042524464
222	0x3d3bd2d0	0.045855343
223	0xbcccad8e	-0.024985101
224	0x3d9537f8	0.07286066
225	0x3e1cfd61	0.15331031
226	0xbd447d28	-0.04797092
227	0x3d1e7ca6	0.038693093
228	0x3da54fe2	0.08071877
229	0xbde39cd6	-0.111138985
230	0xbcf43b4a	-0.029813427
231	0xbd5b7803	-0.05358125
232	0x3ca7afe4	0.020469613
233	0x3d22eecf	0.039778527
234	0x3d1c8f2f	0.038222488
235	0x3dc31d79	0.09527106
236	0xbd27caba	-0.04096482
237	0x3b2b838c	0.0026170937
238	0x3c4a013f	0.012329399
239	0xbdc804c7	-0.09766536
240	0x3d8d2d92	0.068934575
241	0x3cb0e088	0.02159144
242	0x3e17c3ab	0.14820735
243	0xbe1f7b8a	-0.1557447
244	0xbd33a04e	-0.04385405
245	0x3d4036fd	0.04692744
246	0xbe335771	-0.17513825
247	0xbe257684	-0.16158491
248	0xbe4224a0	-0.18959284
249	0xbe3d1dd6	-0.18468413
250	0xbb231939	-0.002488686
251	0x3c74579f	0.014913469
252	0xbe207172	-0.15668276
253	0xbe00898c	-0.1255247
254	0x3e0a84aa	0.1352717
255	0xbcca7863	-0.024715608

bias f4 [16]
0	0xbd2e0a98	-0.04249057
1	0x3e260ecf	0.16216587
2	0xbe27106f	-0.16314863
3	0x3e15bf11	0.14623667
4	0x3c1c3bb2	0.009535717
5	0xbd1cd5a0	-0.038289666
6	0xbe1d4e20	-0.15361834
7	0xbdfbf4f0	-0.123025775
8	0x3df7d01f	0.12100243
9	0x3e12d8ef	0.14340566
10	0x3d693684	0.056936756
11	0xbde1dd70	-0.11028564
12	0xbcc384de	-0.023867067
13	0xbd46930b	-0.048480075
14	0xbe293392	-0.16523579
15	0xbb49d229	-0.0030795431

weight f4 [2, 16]
0	0x3e45fadf	0.19333981
1	0xbe3bd6a7	-0.18343602
2	0x3ecd4070	0.40088224
3	0xbe6d7362	-0.23188546
4	0xbe3773dc	-0.1791529
5	0xbe6ea544	-0.23305231
6	0x3d657a36	0.056024753
7	0x3e40d570	0.1883142
8	0xbecbd7f5	-0.398132
9	0xbec13609	-0.37736538
10	0xbed7c26c	-0.4214052
11	0x3e5ae26c	0.21375436
12	0x3e1d1be4	0.1534267
13	0x3e1e3151	0.154485
14	0x3ec09254	0.3761164
15	0xbe5c35a7	-0.21504842
16	0xbeb95e42	-0.36204726
17	0x3e1db769	0.15401997
18	0xbea9e4dd	-0.3318242
19	0x3e863077	0.2620885
20	0x3e8fb886	0.28070468
21	0x3e03c8ba	0.1286954
22	0xbedc086a	-0.4297517
23	0xbdce0716	-0.10059945
24	0x3e663f48	0.22485077
25	0x3c0d4407	0.008622176
26	0x3ecc3592	0.3988462
27	0xbd352245	-0.044222135
28	0xbec98e65	-0.3936645
29	0xbedc7ba5	-0.43063083
30	0xbe5cf0b6	-0.21576199
31	0x3d83dab3	0.06438198

bias f4 [2]
0	0xbe93a6e5	-0.28838268
1	0x3e92faac	0.28706872
