mlpcnnsemi/model/cnn/64oneinput_batch1_Epoch=98_lr=0.0001.pth (torch, 25249 bytes, 29 tensors)

weight f4 [4, 1, 1]
0	0x3f3122e2	0.6919385
1	0x3f28a985	0.65883666
2	0x3f25e88a	0.6480795
3	0xbf3d2cb9	-0.73896366

bias f4 [4]
0	0x3f212565	0.62947685
1	0x3f1d287a	0.6138989
2	0xbe9f66c9	-0.31133106
3	0xbed211ec	-0.41029298

weight f4 [4]
0	0x3f834235	1.025458
1	0x3f7b5dc2	0.9818994
2	0x3f7beb01	0.9840546
3	0x3f8760ea	1.0576451

bias f4 [4]
0	0xbd67cb83	-0.05659057
1	0xbdabb48d	-0.08384047
2	0xbc2abaee	-0.010420544
3	0x3d2f8aec	0.042857096

running_mean f4 [4]
0	0x3f55b545	0.8347972
1	0x3f4f2262	0.8091184
2	0xbdf436e7	-0.11924534
3	0xbf212db0	-0.6296034

running_var f4 [4]
0	0x3e95dd09	0.292702
1	0x3e87f168	0.26551366
2	0x3e8397a0	0.25701618
3	0x3eab093f	0.33405492

weight f4 [16, 4, 1]
0	0x3ed1242c	0.4084791
1	0xbee79054	-0.452273
2	0xbe5fc549	-0.21852602
3	0x3f047e08	0.5175481
4	0xbd51fa37	-0.051264014
5	0x3eaf0f9e	0.34191602
6	0xbe241bf8	-0.16026294
7	0x3ecbcac8	0.39803147
8	0x3f149187	0.5803456
9	0xbecd3cb8	-0.40085387
10	0x3ec2824b	0.3799003
11	0xbed8873b	-0.42290673
12	0x3e96a6a2	0.29424006
13	0x3e1a500e	0.15069601
14	0x3f150331	0.58207995
15	0xbe515e47	-0.2044612
16	0xbd9b9824	-0.07597378
17	0x3c567b2c	0.01309089
18	0x3e70a4cf	0.2350037
19	0x3de1a7b9	0.11018319
20	0xbe533a3c	-0.20627683
21	0xbeab4da5	-0.33457676
22	0xbed27cfc	-0.4111098
23	0xbe2670ab	-0.16253917
24	0xbee9596b	-0.45576033
25	0x3de37d57	0.11107891
26	0xbf043d87	-0.51656383
27	0x3ee45ac4	0.446005
28	0xbe5c1a6e	-0.21494457
29	0x3d26f38e	0.040759616
30	0x3e3e858b	0.1860563
31	0xbe98ba85	-0.29829803
32	0xbe9e5098	-0.30920863
33	0x3ec0ada1	0.37632468
34	0xbe99f455	-0.30069223
35	0xbe319c08	-0.17344677
36	0xbee9ebe9	-0.45687798
37	0xbca1850e	-0.019716766
38	0xbe944c6c	-0.28964555
39	0xbeb835db	-0.35978588
40	0x3e439225	0.19098718
41	0xbe559f8f	-0.20861648
42	0x3e169ecc	0.14709014
43	0x3dc34f82	0.09536649
44	0x3de00318	0.1093809
45	0xbe9b7cd5	-0.30368677
46	0xbe828b06	-0.2549669
47	0xbdbc9f16	-0.09210031
48	0x3eff5bc6	0.49874705
49	0xbe7f7f3c	-0.2495088
50	0x3e51f190	0.20502305
51	0xbec70cc3	-0.38876924
52	0x3ea92f8a	0.33044082
53	0xbe0471fd	-0.12934108
54	0x3e8bc5b5	0.27299276
55	0x3e928045	0.28613487
56	0xbe5f9e52	-0.21837738
57	0x3ed68df6	0.41905183
58	0x3d21f41c	0.03953944
59	0x3e419b55	0.1890691
60	0x3d81afc4	0.06332353
61	0x3dfb9183	0.122836135
62	0xbddba487	-0.107247405
63	0xbf01d376	-0.5071329

bias f4 [16]
0	0xbe5819a1	-0.21103527
1	0xbe2bd116	-0.16778979
2	0xbdffc1bf	-0.12488126
3	0x3e1df536	0.15425572
4	0xbdc4214c	-0.095766634
5	0x3e8d57de	0.276061
6	0xbcc5c7f9	-0.024143206
7	0xbdcaa4b8	-0.09894699
8	0x3e7272d4	0.23676616
9	0x3f038486	0.5137409
10	0xbb89a2cc	-0.004200315
11	0x3eb6641f	0.3562326
12	0xbea1d22e	-0.31605667
13	0xbeec884f	-0.46197745
14	0xbef89744	-0.48552907
15	0xbec0a87a	-0.37628537

weight f4 [16]
0	0x3f8a7724	1.0817609
1	0x3f814c43	1.0101398
2	0x3f74ac98	0.9557586
3	0x3f789a97	0.97110885
4	0x3f848634	1.0353456
5	0x3f99e49c	1.2022891
6	0x3f82b2b2	1.0210783
7	0x3f7013cc	0.9378021
8	0x3f88322d	1.0640312
9	0x3f781768	0.96910715
10	0x3f7c2990	0.9850092
11	0x3f704b55	0.9386495
12	0x3f81c879	1.0139304
13	0x3f8599a7	1.0437516
14	0x3f819585	1.0123755
15	0x3f71281d	0.94201833

bias f4 [16]
0	0x3dd8883f	0.10572862
1	0x3daf5b39	0.08562321
2	0xbe10350a	-0.14082733
3	0xbd102281	-0.035189155
4	0xbdedf9f3	-0.1161994
5	0x3d96be26	0.07360487
6	0x3d6b5789	0.057456527
7	0x3d331175	0.04371782
8	0xbdf7736a	-0.1208256
9	0x3c7066c6	0.014672941
10	0xbd1935c4	-0.03740479
11	0x3e391b8c	0.18076915
12	0xbd40f4c4	-0.047108427
13	0xbd9b7cdd	-0.07592175
14	0x3d6847bf	0.056709047
15	0x3ad5a76d	0.0016300507

running_mean f4 [16]
0	0xbdd6a76b	-0.10481151
1	0xbc0b3306	-0.008496052
2	0xbdd583d7	-0.10425537
3	0x3eb9d77a	0.36297208
4	0xbc5f25ef	-0.013619884
5	0xbced0cb6	-0.028936725
6	0xbde92274	-0.113835245
7	0xbe467ddf	-0.19383954
8	0x3de167c0	0.11006117
9	0x3e4166a2	0.18886808
10	0x3d86a812	0.065750256
11	0x3e571988	0.21005833
12	0xbea17d50	-0.31540918
13	0xbe739814	-0.23788482
14	0xbebb80db	-0.36621746
15	0xbf05d508	-0.52278185

running_var f4 [16]
0	0x3d9d17d2	0.07670559
1	0x3c1d878a	0.009614835
2	0x3ea48815	0.32135072
3	0x3f613246	0.87967336
4	0x3ca1c64d	0.019747877
5	0x3f301b35	0.68791515
6	0x3f2f2274	0.68411946
7	0x3b70c407	0.0036737935
8	0x3d2ede9b	0.042692762
9	0x3edede9c	0.43529212
10	0x3c586a43	0.0132089285
11	0x3e159bb8	0.14610183
12	0x3e5cd8ab	0.21567027
13	0x3e2911bd	0.16510673
14	0x3d0b0528	0.033940464
15	0x3ca7277e	0.020404574

weight f4 [8, 16, 2]
0	0x3e62770b	0.22115724
1	0x3dc409f0	0.09572208
2	0xbbf501fb	-0.0074770427
3	0x3db9833d	0.09058235
4	0xbde70436	-0.112801
5	0xbd85a42d	-0.06525455
6	0x3d0ac676	0.033880673
7	0x3e07d3d1	0.13264395
8	0x3e1bc3cb	0.15211408
9	0x3d1e2444	0.038608804
10	0xbe4f9ddd	-0.20275064
11	0x3e17a345	0.14808376
12	0x3d74a3d6	0.05972656
13	0x3b89d46e	0.004206232
14	0xbe2f4f79	-0.1712016
15	0xbde2f98f	-0.11082756
16	0xbe815247	-0.25258085
17	0xbe2dce0a	-0.16973129
18	0x3d3d87d7	0.046272125
19	0x3d7f3f23	0.06231607
20	0xbcc1bd2f	-0.02364978
21	0xbdadea56	-0.08491962
22	0xbe017058	-0.12640512
23	0xbe03af88	-0.12859929
24	0x3e4c04b9	0.19923677
25	0x3dc30b1a	0.09523602
26	0x3df288df	0.11842512
27	0x3de0ccb6	0.109765455
28	0xbcfda2e6	-0.030961465
29	0xbd38f88c	-0.045158908
30	0x3bd9469d	0.006630732
31	0xbdfd7b64	-0.123770505
32	0xbe5f77f2	-0.218231
33	0xbd4d5992	-0.05013425
34	0xbe3a10e9	-0.18170513
35	0x3e4c71ac	0.19965237
36	0xbe1fc8dc	-0.15603966
37	0x3ddf2a3c	0.108967274
38	0x3df9dea0	0.122006655
39	0x3d1100a6	0.03540101
40	0xbe45a929	-0.1930281
41	0xbe17c789	-0.1482221
42	0xbe65d80b	-0.22445695
43	0x3e5174dd	0.20454736
44	0xbe6eb66c	-0.23311776
45	0x3e3420f6	0.17590699
46	0x3e32c94a	0.17459598
47	0x3d8aecc8	0.06783444
48	0xbe562cbf	-0.20915507
49	0x3ca2854a	0.019838948
50	0xbd672d51	-0.0564397
51	0x3dbd35e7	0.09238797
52	0xbdcab9d2	-0.09898724
53	0x3d3b2f4e	0.04569941
54	0xbde834e1	-0.11338211
55	0xba4180ea	-0.00073815754
56	0xbe4b8a2d	-0.19876929
57	0x3bcd8a4d	0.0062725903
58	0x3dbddf39	0.09271092
59	0x3deee886	0.11665444
60	0xbce72435	-0.028215507
61	0xbe172928	-0.14761794
62	0x3e250960	0.16116858
63	0xbd674bbb	-0.056468707
64	0x3c427817	0.011869452
65	0xbc6f1ae9	-0.014593818
66	0x3da5babe	0.08092259
67	0x3e4e0dc5	0.2012244
68	0x3e099937	0.13437353
69	0xbe21d823	-0.15805106
70	0x3d05bf06	0.032652877
71	0x3db2eb7a	0.0873632
72	0x3d5adea3	0.05343498
73	0x3e10ed25	0.14152963
74	0x3e9c9aec	0.30586946
75	0x3e3db95e	0.18527743
76	0x3cc770f0	0.024345845
77	0x3d3b3dbd	0.045713175
78	0xbdc0f186	-0.09421067
79	0x3de1654f	0.11005651
80	0x3cd90a90	0.026494294
81	0x3e53f87c	0.20700258
82	0x3e6804e7	0.2265812
83	0x3c344518	0.011002801
84	0xbe1c724b	-0.15277974
85	0x3e368bc2	0.17826751
86	0x3ea12f34	0.31481326
87	0x3d8ac195	0.06775204
88	0xbd850a5a	-0.06496115
89	0x3d557b31	0.052119438
90	0x3d22c7f8	0.039741486
91	0xbd575fe3	-0.05258168
92	0xbd1e5d55	-0.038663227
93	0x3d3f8a09	0.0467625
94	0x3db45250	0.08804762
95	0xbe14cba0	-0.14530802
96	0x3cda0cdb	0.026617458
97	0xbdefc969	-0.11708338
98	0xbe1ef9cf	-0.15524982
99	0xbdd350cf	-0.103181474
100	0xbd878dc2	-0.06618835
101	0x3e2b1093	0.16705541
102	0x3cb5f59c	0.022211842
103	0x3dff211d	0.12457488
104	0xbdbda374	-0.09259692
105	0xbcf95b9b	-0.030439189
106	0x3c648e9f	0.013950019
107	0xbdb2c443	-0.0872884
108	0xbc43dc81	-0.011954428
109	0xbd86245e	-0.06549905
110	0x3dc42241	0.09576846
111	0x3d59c10c	0.05316262
112	0x3ce5d7c4	0.028056987
113	0x3d6487a5	0.055793423
114	0xbd3a84ab	-0.04553668
115	0xbe2f2b6e	-0.17106411
116	0xbe475087	-0.19464312
117	0x3e4b3105	0.19842918
118	0x3d61f059	0.055160854
119	0x3d845b7a	0.0646276
120	0xbe343f47	-0.17602263
121	0x3df93d06	0.121698424
122	0xbd882174	-0.06647006
123	0x3e0bbaa4	0.13645416
124	0x3dd41ae5	0.10356692
125	0xbe073904	-0.13205343
126	0x3dbdf850	0.092758775
127	0x3dd165f7	0.102245264
128	0xbe1722fd	-0.1475944
129	0x3d865e1b	0.06560918
130	0xbd765b47	-0.060145643
131	0xbe1e9066	-0.15484771
132	0xbdbff283	-0.09372427
133	0x3e0dd50c	0.13850802
134	0xba017df2	-0.0004939727
135	0xbd4bcb74	-0.049754575
136	0xbdf7b4a1	-0.12094999
137	0x3e2c6fbf	0.16839503
138	0x3e5b82c0	0.21436596
139	0xbc8fc1ba	-0.01754843
140	0x3e010583	0.12599759
141	0x3db82dc4	0.08993104
142	0xbe4a6663	-0.1976562
143	0x3d83adbf	0.06429624
144	0x3e34f470	0.1767137
145	0x3ad414cf	0.0016180518
146	0x3e2414d4	0.1602357
147	0xbd7fdec2	-0.062468298
148	0xbd8f10ee	-0.06985651
149	0xbd8f7f44	-0.07006696
150	0xbd24aae9	-0.040202055
151	0x3d1eb08b	0.038742583
152	0x3d81684c	0.06318721
153	0x3db9f6f9	0.090803094
154	0xbb41389c	-0.0029483205
155	0xbcd1dd89	-0.025618332
156	0x3e2e6302	0.17029956
157	0x3e21b3c0	0.15791225
158	0xbd31962d	-0.04335611
159	0xbd1d7607	-0.038442638
160	0xbe317717	-0.17330585
161	0x3e347316	0.17622027
162	0xbdc76024	-0.09735134
163	0x3d9665dc	0.07343647
164	0xbd8a7e45	-0.06762365
165	0x3c6f027c	0.014587995
166	0x3e3efc91	0.18651034
167	0x3e05e643	0.13076119
168	0xbd29d8a6	-0.041466378
169	0x3e07aa81	0.13248636
170	0xbd2714d3	-0.040791344
171	0x3def2c52	0.11678375
172	0xbddcfcc3	-0.10790398
173	0xbb7e308d	-0.0038786263
174	0x3ca4170d	0.020030523
175	0xbd075cda	-0.033047535
176	0x3ca5a67b	0.020220986
177	0x3d0760e1	0.033051375
178	0xba7aa4ee	-0.00095613196
179	0x3d479d57	0.048734035
180	0xbd87c49e	-0.066292986
181	0x3d20bfd9	0.03924546
182	0xbd8a54cf	-0.06754457
183	0xbd005660	-0.031332374
184	0xbe01e068	-0.1268326
185	0x3d91528e	0.07095824
186	0x3e254c70	0.1614244
187	0xbcd5efe6	-0.026115369
188	0xbcaa8342	-0.020814542
189	0x3e110c1a	0.14164773
190	0xbe1d1bfc	-0.15342706
191	0xbd56d98a	-0.052453555
192	0x3b4a67be	0.003088459
193	0xbe6382b1	-0.22217824
194	0xbdf752b4	-0.12076321
195	0x3e083f9e	0.13305518
196	0xbd1327cb	-0.03592662
197	0x3e0edc35	0.1395119
198	0x3dbcc273	0.09216776
199	0xbe268ab3	-0.16263847
200	0xbd9ecd31	-0.07753981
201	0x3e1c6576	0.1527308
202	0x3d4025bb	0.046910983
203	0x3de9f735	0.11424104
204	0x3e04b324	0.12958962
205	0x3c8a6725	0.016894886
206	0xbd78488a	-0.060616054
207	0xbd82be86	-0.06383996
208	0x3dd184c3	0.102304004
209	0x3e3d49e6	0.18485221
210	0x3dda4f1f	0.106596224
211	0x3dc704b2	0.097176924
212	0x3d666d3c	0.056256518
213	0x3d4818b7	0.048851695
214	0xbdd8d0cd	-0.105867006
215	0x3d8e3014	0.06942764
216	0xbd362fce	-0.044479184
217	0xbe259be5	-0.1617275
218	0xbe1838b4	-0.1486538
219	0x3ddadf2c	0.10687098
220	0xbd6dfbf0	-0.058101594
221	0x3d86ec3e	0.06588028
222	0x3bfe2b1e	0.007756605
223	0x3db5b323	0.08872058
224	0x3e25614f	0.16150402
225	0xbd6a8998	-0.057260126
226	0x3e0f4eb6	0.1399487
227	0x3e0c7d47	0.13719665
228	0x3dc442cb	0.09583052
229	0xbdf8796c	-0.121325344
230	0xbdd4d194	-0.10391536
231	0x3db6ab4b	0.0891939
232	0x3d836fa1	0.06417776
233	0xbe1b9dbf	-0.15196894
234	0x3c4283bd	0.011872229
235	0x3da2a06a	0.07940753
236	0x3e0b48a8	0.13601935
237	0x3d7bd83f	0.061485525
238	0x3d15e1ab	0.036592167
239	0xbcea4833	-0.02859888
240	0xbe27a847	-0.16372786
241	0x3e382e09	0.17986311
242	0xbc4f4528	-0.0126507655
243	0xbdb51ad0	-0.08843005
244	0xbd954aec	-0.07289681
245	0x3c4d5116	0.012531539
246	0xbda3d846	-0.08000235
247	0xbdb43259	-0.087986656
248	0x3e2cae20	0.16863298
249	0x3d8c724a	0.068577364
250	0xbd6ced49	-0.05784348
251	0xbde843d1	-0.1134106
252	0xbe033fd5	-0.12817319
253	0xbe359f95	-0.17736657
254	0xbdb8a76f	-0.090163104
255	0x3de45665	0.11149291

bias f4 [8]
0	0xbc52fe0b	-0.012877951
1	0x3c09e9b2	0.008417534
2	0x3e390394	0.18067771
3	0xbdd131e4	-0.10214594
4	0xbe093a7a	-0.13401213
5	0x3deed16f	0.1166104
6	0x3e440cc7	0.19145499
7	0x3e0a527d	0.1350803

weight f4 [8]
0	0x3f7c38e5	0.98524314
1	0x3f94e5b5	1.1632601
2	0x3f8716c8	1.0553827
3	0x3f6913df	0.91045946
4	0x3f6fed9c	0.9372194
5	0x3f83cedb	1.0297502
6	0x3f80ad58	1.00529
7	0x3f745050	0.9543505

bias f4 [8]
0	0xbcd9f4a0	-0.026605904
1	0xbabb09db	-0.0014269905
2	0xbd1e368a	-0.03862623
3	0xbc4fcd22	-0.012683185
4	0xbe5e8299	-0.21729507
5	0xbc3f1e93	-0.011665004
6	0x3c96cca4	0.018408127
7	0xbd9bd832	-0.07609595

running_mean f4 [8]
0	0xbc20144e	-0.009770466
1	0xbe12d5ea	-0.14339414
2	0x3f38dbc1	0.7221032
3	0xbdd1ac3f	-0.102379315
4	0xbd6add1a	-0.057339765
5	0x3debdb64	0.11516455
6	0x3e715830	0.23568797
7	0x3e53be77	0.20678125

running_var f4 [8]
0	0x3e2bc590	0.16774583
1	0x3e3f6b88	0.18693364
2	0x3e2d2348	0.1690799
3	0x3e9a880f	0.3018193
4	0x3d8ce0c2	0.06878807
5	0x3e2ff316	0.17182574
6	0x3dd7130a	0.10501678
7	0x3d45b832	0.048271365

weight f4 [4, 8, 2]
0	0xbe18703b	-0.14886563
1	0xbd62bd53	-0.055356335
2	0xbd8c4dad	-0.06850753
3	0xbe87e8c8	-0.26544785
4	0xbe21980f	-0.15780662
5	0xbddc0301	-0.107427604
6	0x3cce815b	0.025208166
7	0xbdb612cf	-0.08890306
8	0x3d0893a9	0.033343945
9	0x3e895530	0.26822805
10	0xbdb2de1b	-0.087337695
11	0xbde97c71	-0.114006884
12	0xbe7f9042	-0.24957374
13	0xbe3c4d85	-0.18388946
14	0xbe2732d9	-0.1632799
15	0x3db2c205	0.087284125
16	0x3ddb30c8	0.10702664
17	0xbd9c0e3e	-0.07619904
18	0x3dedce87	0.116116576
19	0xbe938174	-0.28809702
20	0x3e2b4d46	0.16728696
21	0xbc989083	-0.018623596
22	0xbd17f20f	-0.03709608
23	0xbe0adecc	-0.13561553
24	0xbdb06bee	-0.08614336
25	0xbd682c7c	-0.05668305
26	0xbdc89fdb	-0.09796115
27	0x3ddfc8c4	0.10926965
28	0x3d378d5e	0.044812553
29	0xbd0c89dc	-0.03431116
30	0x3ddbc6a3	0.10731246
31	0x3e1f61ae	0.15564606
32	0xbe43de23	-0.19127707
33	0x3e220f4c	0.15826148
34	0x3dc43c2b	0.09581789
35	0x3b3514de	0.0027630846
36	0xbd82f85b	-0.06395026
37	0xbdeb64bf	-0.11493825
38	0xbc34b6cc	-0.01102991
39	0x3e0cfb22	0.13767675
40	0x3db8f273	0.090306185
41	0x3d990378	0.07471365
42	0x3db1b6fb	0.08677479
43	0xbd8f4bf3	-0.06996908
44	0xbd74b510	-0.059742987
45	0xbe73fb0d	-0.23826237
46	0x3e94aa80	0.2903633
47	0xbe019cdb	-0.12657492
48	0xbd9cb14b	-0.076510035
49	0x3bb0e24a	0.0053980695
50	0x3e136fd3	0.14398126
51	0xbe5ea451	-0.21742369
52	0x3e0779f8	0.13230121
53	0x3e25c704	0.161892
54	0xbe493c3a	-0.19651881
55	0x3e7e29cf	0.24820636
56	0x3d8987be	0.06715344
57	0xbe0cc633	-0.13747482
58	0x3dfa27c3	0.12214615
59	0xbdd253cb	-0.102698885
60	0xbe22db62	-0.15904
61	0xbd5605e5	-0.052251715
62	0x3dfe873f	0.1242814
63	0xbdbde622	-0.0927241

bias f4 [4]
0	0x3c8a1af2	0.016858552
1	0x3e7356b8	0.2376355
2	0xbdf634bc	-0.12021777
3	0x3d40b999	0.047052

weight f4 [4]
0	0x3f86251c	1.0480075
1	0x3f81ba4a	1.0134976
2	0x3f85e056	1.0459087
3	0x3f7766d3	0.9664127

bias f4 [4]
0	0xbd46a5fb	-0.048498135
1	0xbd4b772e	-0.049674205
2	0xbd9365d8	-0.071971595
3	0x3e031e43	0.12804513

running_mean f4 [4]
0	0xbe993f45	-0.29931083
1	0x3e41e3cd	0.18934555
2	0xbdc3dd3d	-0.09563682
3	0x3c4b67ad	0.012414855

running_var f4 [4]
0	0x3ee540bc	0.4477595
1	0x3db41184	0.08792403
2	0x3d5e603f	0.054291006
3	0x3d69fc24	0.057125226

weight f4 [1, 4, 2]
0	0x3ea7ec42	0.32797438
1	0xbc495869	-0.012289145
2	0x3e73d934	0.23813325
3	0x3e842fe1	0.2581778
4	0x3e42ce02	0.19023898
5	0xbccb2ea9	-0.024802523
6	0xbe65518e	-0.22394392
7	0xbe6a13a0	-0.22859049

weight f4 [16, 80]
0	0xbe4548bc	-0.19266027
1	0x3cd94c48	0.026525632
2	0xbd2d83e9	-0.042362127
3	0x3e3a5071	0.18194748
4	0xbd9a5dfa	-0.07537456
5	0x3dd27c25	0.10277585
6	0x3e2b2c1f	0.1671605
7	0x3d00be04	0.031431213
8	0x3cbab1a0	0.022789776
9	0x3e2f2692	0.17104557
10	0xbe3544b9	-0.17701997
11	0xbdb00be1	-0.08596016
12	0x3e487506	0.19575891
13	0x3dcdc32f	0.10046994
14	0xbd28a908	-0.041176826
15	0x3db23773	0.08701982
16	0xbd963617	-0.073345356
17	0xbe400f41	-0.18755819
18	0x3de3406b	0.11096271
19	0x3d4404bd	0.04785608
20	0xba68e607	-0.00088843744
21	0x3c7f8708	0.015596159
22	0xbe56bf60	-0.20971441
23	0x3d90aebb	0.07064577
24	0x3e34183f	0.17587374
25	0xbddd2994	-0.10798946
26	0x3e1eb130	0.15497279
27	0xbdf58ce7	-0.119897656
28	0x3e1f5c7b	0.15562622
29	0xbd5ca134	-0.053864673
30	0xbd25506a	-0.040359892
31	0x3e812418	0.2522285
32	0xbdb61d27	-0.08892279
33	0xbe751c53	-0.23936586
34	0xbe2132ff	-0.1574211
35	0xbe405540	-0.1878252
36	0x3d4bc3bc	0.049747214
37	0x3dd00f2e	0.10159145
38	0x3dd9bb3e	0.10631417
39	0xbd97093a	-0.07374807
40	0x398b83ae	0.00026610255
41	0xbc8e9d2a	-0.017408926
42	0xbd42e46e	-0.04758113
43	0x3d29a4b8	0.041416854
44	0x3d8ed950	0.06975043
45	0x3da0d4cf	0.0785309
46	0x3dc1c26d	0.09460912
47	0x3d7921b6	0.060823165
48	0x3db95899	0.09050102
49	0x3904d386	0.000126673
50	0xbc81533e	-0.015786763
51	0xbcee8015	-0.029113809
52	0xbdf5a355	-0.11994044
53	0xbdac5c91	-0.08416093
54	0xbc503afa	-0.012709374
55	0xbe5b6f36	-0.21429142
56	0x3d81722d	0.063206054
57	0x3de8d81f	0.11369347
58	0xbdc0bfbd	-0.09411571
59	0xbd0acff2	-0.03388972
60	0x3dbeef36	0.093229696
61	0xbd091a0f	-0.033472117
62	0x3c3dfb5f	0.011595576
63	0x3d181c2c	0.03713624
64	0xbe049c36	-0.12950215
65	0x3e06cd40	0.13164234
66	0xbddd6edd	-0.10812161
67	0x3d784aa4	0.060618058
68	0x3d012a3a	0.03153441
69	0xbd6e3da2	-0.058164246
70	0xbd6ab112	-0.057297774
71	0xbc880d7e	-0.016607996
72	0xbdc8e71a	-0.09809704
73	0x3ca4ea6a	0.020131309
74	0x3d885b44	0.066580325
75	0x3c0c3db0	0.008559629
76	0xbd59ad87	-0.053144004
77	0xbcf6bc4f	-0.03011909
78	0xbcbc7053	-0.02300278
79	0x3caf2455	0.02137963
80	0x3e04250a	0.12904754
81	0xbd51e1a3	-0.051240575
82	0xbcd52d45	-0.026022563
83	0xbe7521cc	-0.23938674
84	0xbc027b09	-0.007963904
85	0xbd577313	-0.052599978
86	0xbe7f6726	-0.24941692
87	0x3c63bcd7	0.013900003
88	0xbdd788bc	-0.10524127
89	0xbcc9322d	-0.024560058
90	0x3dccdaec	0.100026935
91	0x3d95c037	0.07312053
92	0xbde00d2f	-0.109400146
93	0xbd9d60fb	-0.07684513
94	0x3de4d427	0.11173277
95	0x3dadca98	0.08485907
96	0xbd85528b	-0.065098844
97	0x3c1c4a58	0.009539209
98	0xbe1c1ddc	-0.15245765
99	0xbd5e5821	-0.054283265
100	0x3dc6107f	0.09671115
101	0xbde6104e	-0.112335786
102	0x3e7ab57c	0.24483293
103	0xbd08fce4	-0.0334443
104	0xbe521e2f	-0.20519327
105	0xbcd357c3	-0.025798684
106	0xbd992fa6	-0.07479791
107	0xbbaa8390	-0.0052036718
108	0xbda0d956	-0.078539535
109	0xbbc1b4bf	-0.005911439
110	0x3dcabd10	0.09899342
111	0xbe9266b9	-0.28593996
112	0x3c4c6753	0.012475806
113	0x3e34c5f5	0.1765364
114	0xbd28b77e	-0.041190617
115	0x3dea8307	0.11450773
116	0x3d9b2d2b	0.075769745
117	0xbe2549ed	-0.16141482
118	0xbdae76c5	-0.08518747
119	0xbb4f7444	-0.0031654993
120	0x3d717b47	0.058955457
121	0x3c06f5fc	0.008237358
122	0xbcd85572	-0.026407931
123	0x3dadbbab	0.084830604
124	0xbe137440	-0.14399815
125	0xbdb4f0f0	-0.08835018
126	0xbde2e677	-0.11079114
127	0xbdcd4db2	-0.10024585
128	0x3bd8d92f	0.006617687
129	0xbdf342d1	-0.118779786
130	0xbd97131b	-0.07376691
131	0x3dbc1b59	0.09184904
132	0xbc9d17b3	-0.01917634
133	0x3d1eef76	0.038802586
134	0x3d01c238	0.031679362
135	0x3e9920be	0.29907793
136	0xbd8efb6f	-0.06981551
137	0xbe01c07b	-0.12671082
138	0xbd1863c1	-0.037204508
139	0xbda34a7f	-0.079731934
140	0xbcc77178	-0.024346098
141	0xbe0b174c	-0.13583106
142	0xbe025792	-0.12728718
143	0xbd1cbfc0	-0.038268805
144	0x3db58052	0.08862366
145	0xbe02e117	-0.12781177
146	0xbdf658d0	-0.120286584
147	0x3cec2b2d	0.028829182
148	0x3ca8e356	0.020616215
149	0x3d4a5ad8	0.04940304
150	0x3c34475c	0.0110033415
151	0xbd012169	-0.031526003
152	0x3e0f7258	0.14008462
153	0x3c964ed3	0.018348133
154	0x3c15564a	0.009114811
155	0x3d9743fa	0.073860124
156	0xbb823c63	-0.003974484
157	0xbe42608f	-0.18982147
158	0x3d5d3574	0.054006055
159	0x3d88d59d	0.066813685
160	0xbd382077	-0.044952836
161	0x3d2e934b	0.04262094
162	0x3c834360	0.016023338
163	0x3e31467b	0.17312042
164	0x3dadb1b3	0.08481159
165	0x3dcdab08	0.10042387
166	0x3e61c386	0.22047243
167	0x3da82a04	0.08211139
168	0x3e277c4a	0.16356006
169	0x3cabb2d5	0.020959297
170	0xbd48bb4a	-0.049006738
171	0xbd2c324a	-0.042040147
172	0x3e20b809	0.15695204
173	0xbc2e372b	-0.01063327
174	0x3d1f04c7	0.038822915
175	0x3da62e59	0.08114309
176	0x3c00491f	0.007829933
177	0xbd57c81e	-0.05268108
178	0x3e2df3bf	0.16987513
179	0x3d41bbc1	0.047298197
180	0xbe116074	-0.1419695
181	0x3dc924fe	0.09821509
182	0xbd6c176b	-0.05763952
183	0x3cff9a99	0.031201648
184	0x3dc5ae83	0.09652426
185	0xbdba89d7	-0.09108322
186	0x3e2f7619	0.17134894
187	0xbd1be151	-0.038056675
188	0x3e61244f	0.21986507
189	0x3d81b41c	0.06333181
190	0xbe148be7	-0.14506494
191	0x3ecbd767	0.39812776
192	0xbe20f4f2	-0.15718439
193	0xbe560225	-0.20899256
194	0x3cbed35b	0.023294142
195	0xbe4c8096	-0.19970927
196	0x3dc92dd9	0.09823198
197	0xbcdf1b46	-0.027234685
198	0x3e2c9a93	0.1685584
199	0xbc9db05f	-0.01924914
200	0x3d1eded0	0.03878671
201	0xbd856e20	-0.06515145
202	0x3cf85f3a	0.030318845
203	0xbd1b0014	-0.03784187
204	0x3ddf7ad2	0.10912098
205	0x3a986f7b	0.0011629903
206	0xbce8fa2a	-0.0284396
207	0x3de964dd	0.11396191
208	0xbcbbc903	-0.022922998
209	0x3ddcc76e	0.10780226
210	0xbd49d05b	-0.04927097
211	0xbd937477	-0.07199948
212	0xbb876509	-0.0041319174
213	0x3cd71079	0.026252972
214	0x3b144229	0.0022622442
215	0xbe35a142	-0.17737296
216	0x3bcf8986	0.0063335327
217	0x3d6b5d63	0.057462107
218	0xbdd02a0f	-0.10164272
219	0x3d806f78	0.06271261
220	0xbcd79435	-0.026315788
221	0xbd2ce68a	-0.042212047
222	0x3d5cebe4	0.0539359
223	0xbd14e2c6	-0.03634908
224	0x3d8690c9	0.06570584
225	0x3e22ac44	0.15886027
226	0xbd1bee99	-0.03806934
227	0x3d26524e	0.040605836
228	0x3da1ef45	0.07906965
229	0xbdeb4c95	-0.11489216
230	0xbcf85b79	-0.030317055
231	0xbd5aec6d	-0.05344813
232	0x3c6d7a38	0.014494471
233	0x3d05894a	0.032601632
234	0x3d3b52d8	0.045733303
235	0x3da020a2	0.07818724
236	0xbd0091bb	-0.03138898
237	0x3bfcbc9f	0.007712915
238	0x3cc81400	0.0244236
239	0xbdb59381	-0.08866025
240	0x3d61cbd4	0.055126026
241	0x3cab3c1e	0.02090269
242	0x3e0cbc86	0.13743791
243	0xbe40035f	-0.18751286
244	0xbcf49865	-0.029857824
245	0x3d233f71	0.039855424
246	0xbe42d875	-0.19027884
247	0xbe1df768	-0.15426409
248	0xbe4fde1d	-0.20299573
249	0xbe500dc3	-0.2031775
250	0xbb70e489	-0.0036757311
251	0x3c5e73d7	0.013577423
252	0xbe2b758a	-0.16744056
253	0xbe1f909b	-0.15582506
254	0x3e00313c	0.12518781
255	0xbce1e4d1	-0.027574928

bias f4 [16]
0	0xbd8ec556	-0.069712326
1	0x3e43df8e	0.19128248
2	0xbe43fcaf	-0.1913936
3	0x3e3220a4	0.17395264
4	0x3d1c16e8	0.038107783
5	0xbc1dc7cb	-0.009630154
6	0xbe391163	-0.18073039
7	0xbe1c11a8	-0.1524111
8	0x3e189650	0.1490109
9	0x3e3052ed	0.17219134
10	0x3dad7f77	0.084715776
11	0xbe0d8435	-0.13819964
12	0xbd56e014	-0.05245979
13	0xbd9c37ce	-0.076278314
14	0xbe45e98b	-0.19327371
15	0x3cd17a11	0.025570901

weight f4 [2, 16]
0	0x3e5493b9	0.20759477
1	0xbe56a66b	-0.20961921
2	0x3ed59775	0.41717115
3	0xbe826589	-0.2546809
4	0xbe4cc935	-0.1999863
5	0xbe77e076	-0.24206719
6	0x3d9eb77d	0.07749841
7	0x3e531b78	0.20615947
8	0xbed7e875	-0.42169538
9	0xbec17142	-0.3778172
10	0xbedf121a	-0.43568498
11	0x3e6fae65	0.2340637
12	0x3e31d976	0.17368111
13	0x3e45de96	0.19323191
14	0x3ec7ec93	0.3904768
15	0xbe538f41	-0.20660116
16	0xbec0a99a	-0.37629396
17	0x3e38872e	0.18020317
18	0xbeb23bdd	-0.34811297
19	0x3e91dbd3	0.28488025
20	0x3e9a6349	0.30153874
21	0x3e0d03ee	0.1377103
22	0xbee706ac	-0.45122278
23	0xbdf29308	-0.1184445
24	0x3e7e6094	0.24841529
25	0x3c1499d6	0.0090698805
26	0x3ed3853e	0.41312593
27	0xbd842774	-0.064528376
28	0xbed3ed5f	-0.41392037
29	0xbef05205	-0.46937576
30	0xbe6ba49b	-0.23012011
31	0x3d651ca3	0.055935513

bias f4 [2]
0	0xbea1bfec	-0.31591737
1	0x3ea113b4	0.31460345
