mlpcnnsemi/model/cnn/64oneinput_batch1_Epoch=66_lr=0.0001.pth (torch, 25249 bytes, 29 tensors)

weight f4 [4, 1, 1]
0.6734555 0.6774006 0.67794955 -0.6738085
00000000: 9467 2c3f 206a 2d3f 1a8e 2d3f b77e 2cbf

bias f4 [4]
0.67456543 0.6250505 -0.30888072 -0.42814487
00000000: 52b0 2c3f 4f03 203f 9d25 9ebe ce35 dbbe

weight f4 [4]
1.0240529 0.98257846 0.9920522 1.033967
00000000: 2a14 833f 438a 7b3f 22f7 7d3f 0859 843f

bias f4 [4]
-0.06643037 -0.06551188 -0.025636889 0.017846903
00000000: a50c 88bd 182b 86bd 7404 d2bc ab33 923c

running_mean f4 [4]
0.87342227 0.825367 -0.10850079 -0.62732226
00000000: 9a98 5f3f 404b 533f aa35 debd 3198 20bf

running_var f4 [4]
0.28150365 0.28447327 0.28503475 0.2815896
00000000: 3f21 903e 7ba6 913e 13f0 913e 832c 903e

weight f4 [16, 4, 1]
0.40856612 -0.4527075 -0.21740527 0.51456714 -0.05341293 0.34018016 -0.1623229 0.39204374
0.5654263 -0.41764203 0.36850926 -0.43200585 0.26677203 0.12825698 0.53944856 -0.23634505
-0.07765354 0.009631809 0.23842162 0.10044006 -0.20846626 -0.34512812 -0.40158638 -0.16159478
-0.4567515 0.10951451 -0.51355404 0.44610167 -0.20862114 0.047582373 0.19205023 -0.24094896
-0.3239905 0.35682127 -0.3063052 -0.17012201 -0.44160852 -0.008286775 -0.2687299 -0.37591332
0.19851075 -0.20239311 0.1571715 0.079189025 0.10067559 -0.3102968 -0.27425572 -0.07284855
0.49095306 -0.25723377 0.19753417 -0.39429548 0.34993127 -0.1143159 0.29962867 0.26034698
-0.22473508 0.41331723 0.03272742 0.19018209 0.06574892 0.12525168 -0.10559279 -0.4943642
00000000: 942f d13e 47c9 e7be 7d9f 5ebe acba 033f
00000010: 84c7 5abd 182c ae3e f937 26be f5b9 c83e
00000020: c7bf 103f 2dd5 d5be 3fad bc3e df2f ddbe
00000030: 5896 883e cc55 033e 4d19 0a3f 7004 72be
00000040: d208 9fbd bcce 1d3c cc24 743e 85b3 cd3d
00000050: 2e78 55be a2b4 b0be bb9c cdbe 1a79 25be
00000060: 55db e9be 2549 e03d 4778 03bf 7067 e43e
00000070: c8a0 55be bce5 423d d1a8 443e 53bb 76be
00000080: 15e2 a5be 47b1 b63e 09d4 9cbe 7734 2ebe
00000090: 831a e2be 41c5 07bc f796 89be b677 c0be
000000a0: 6746 4b3e 2440 4fbe 91f1 203e db2d a23d
000000b0: 012f ce3d 39df 9ebe 3f6b 8cbe 9f31 95bd
000000c0: 335e fb3e 25b4 83be 6646 4a3e 19e1 c9be
000000d0: 312a b33e 741e eabd ee68 993e 334c 853e
000000e0: f420 66be 519e d33e 300d 063d 18bf 423e
000000f0: 5fa7 863d fa41 003e 0841 d8bd 4e1d fdbe

bias f4 [16]
-0.24456203 -0.13176998 -0.16293208 0.20078444 -0.11443914 0.24542439 -0.03360911 -0.082140066
0.23634456 0.46633652 -0.0066331355 0.36882854 -0.3379195 -0.4704398 -0.5021875 -0.35060734
00000000: 786e 7abe b6ee 06be abd7 26be 709a 4d3e
00000010: 115f eabd 8850 7b3e b5a9 09bd 0d39 a8bd
00000020: 4f04 723e a9c3 ee3e c65a d9bb 18d7 bc3e
00000030: c903 adbe 7cdd f0be 5c8f 00bf ce82 b3be

weight f4 [16]
1.0684851 1.0064132 0.9639015 0.9874005 1.0330383 1.1440063 1.0097853 0.96265507
1.020693 0.9711503 0.9796146 0.9494887 1.0156244 1.0417686 1.0106145 0.9497267
00000000: 1fc4 883f 26d2 803f 40c2 763f 47c6 7c3f
00000010: 993a 843f cc6e 923f a540 813f 9070 763f
00000020: 11a6 823f 4e9d 783f 06c8 7a3f b111 733f
00000030: fbff 813f ac58 853f d15b 813f 4a21 733f

bias f4 [16]
0.07697154 0.0697131 -0.10728211 -0.025245298 -0.103672646 0.09621838 0.06321411 0.038868427
-0.07821767 0.056130756 -0.027208578 0.13319969 -0.031457923 -0.028023366 0.010486804 -0.010499228
00000000: 41a3 9d3d bec5 8e3d b9b6 dbbd 3acf cebc
00000010: 5352 d4bd 240e c53d 6676 813d 8034 1f3d
00000020: 9630 a0bd 5de9 653d 86e4 debc 8065 083e
00000030: 06da 00bd 4291 e5bc d8d0 2b3c f404 2cbc

running_mean f4 [16]
-0.1590254 0.0089394925 -0.15008721 0.3710272 -0.041523848 -0.042777266 -0.12709711 -0.14414442
0.113044985 0.17413843 0.057951797 0.22698331 -0.33827302 -0.2569853 -0.3950901 -0.47248054
00000000: 8ed7 22be f376 123c 76b0 19be 47f7 bd3e
00000010: e914 2abd 3737 2fbd bf25 02be 989a 13be
00000020: 2184 e73d 5851 323e dd5e 6d3d 506e 683e
00000030: 1f32 adbe 9493 83be 4049 cabe f8e8 f1be

running_var f4 [16]
0.07532828 0.009449832 0.2737207 0.7462773 0.0209673 0.71360815 0.6801262 0.0033904074
0.060714446 0.39299077 0.019384284 0.17796798 0.19280094 0.2216015 0.030635482 0.019568697
00000000: b745 9a3d 78d3 1a3c 1f25 8c3e 070c 3f3f
00000010: 9dc3 ab3c 06af 363f c01c 2e3f 9931 5e3b
00000020: b6af 783d 1636 c93e cacb 9e3c 3d3d 363e
00000030: 9c6d 453e 81eb 623e 43f7 fa3c 884e a03c

weight f4 [8, 16, 2]
0.2088792 0.08550253 -0.00031723882 0.05340017 -0.118809156 -0.06140056 0.027665686 0.13675499
0.14880154 0.04039101 -0.19251515 0.14702694 0.052207552 -0.0015635621 -0.16921517 -0.10729376
-0.22117266 -0.15084141 0.07277682 0.062015623 -0.028226743 -0.08280492 -0.11303842 -0.1352678
0.1943076 0.099296845 0.11426867 0.11177442 -0.033018336 -0.04271997 0.0067193937 -0.11975455
-0.22899279 -0.07875079 -0.17520025 0.19495004 -0.14840934 0.106034465 0.12913421 0.029423976
-0.18508877 -0.15578556 -0.2118211 0.19620824 -0.21113773 0.17590404 0.16458814 0.07761915
-0.1790238 0.014010527 -0.038999658 0.09250181 -0.08776018 0.03659388 -0.104187064 0.00053270435
-0.19251211 0.0032852015 0.10431262 0.10829374 -0.023794448 -0.15499526 0.15792008 -0.05505375
0.0024166957 -0.030509846 0.0826528 0.19941197 0.13449681 -0.16412646 0.032714356 0.08000042
0.051172618 0.12606965 0.26687688 0.17780013 0.017652728 0.04109085 -0.082524806 0.12332367
-0.013070282 0.19870442 0.18265247 0.002791796 -0.1542096 0.16564932 0.279646 0.058470998
-0.06434591 0.048215184 0.03828258 -0.06653003 -0.042493433 0.027691348 0.09619816 -0.1440642
0.033501428 -0.10719682 -0.17251773 -0.12648621 -0.053878397 0.15142101 0.03676672 0.11460273
-0.08583339 -0.041337427 0.014026584 -0.053976815 0.00637782 -0.05587885 0.08880617 0.067662746
0.054992754 0.07634113 -0.04270493 -0.16199008 -0.1869872 0.19055451 0.050814856 0.079283446
-0.16667166 0.10596724 -0.058860637 0.12737776 0.10919354 -0.1407636 0.09528986 0.09424344
-0.14196588 0.0549114 -0.011310564 -0.13968442 -0.102012895 0.14507034 -0.010229291 -0.04293248
-0.12545973 0.17140235 0.20300467 -0.02078973 0.12272707 0.077680975 -0.18806736 0.0712392
0.15883663 0.021768963 0.16450915 -0.044192404 -0.076111816 -0.06649702 -0.042484406 0.04062892
0.05705561 0.09779964 -0.008615337 -0.021533722 0.1660181 0.15893742 -0.0406409 -0.028326292
-0.1477345 0.16590583 -0.09256309 0.07886593 -0.06593641 0.013359069 0.18468057 0.13098323
-0.046303637 0.12560633 -0.040588886 0.11280533 -0.10805554 -0.00016941878 0.01388334 -0.03588418
-0.0012613753 0.02555089 -0.0028178066 0.038190287 -0.07100933 0.034858063 -0.06317317 -0.035450894
-0.12415351 0.06904967 0.15711418 -0.029633477 -0.02410909 0.12835906 -0.156907 -0.05418896
0.014198844 -0.205072 -0.110567115 0.13336633 -0.038362704 0.13470279 0.09230683 -0.16840556
-0.071530506 0.1500249 0.059507784 0.096385375 0.12465739 0.004753163 -0.06624585 -0.07220319
0.1070528 0.14523323 0.13085335 0.08000167 0.05966379 0.044907395 -0.08397491 0.059164543
-0.04647545 -0.16328932 -0.14468732 0.102968715 -0.052497905 0.06248954 0.0057845893 0.08565249
0.15132643 -0.06625585 0.1265632 0.123631135 0.0906891 -0.11720258 -0.10885074 0.08593284
0.06622242 -0.14487325 0.010467434 0.056214716 0.13525154 0.05389959 0.03954891 -0.042626373
-0.15562247 0.14172581 -0.00888586 -0.107979305 -0.0722011 0.008662969 -0.07822453 -0.097380385
0.1635598 0.07205078 -0.057158317 -0.11410201 -0.12372983 -0.1715156 -0.09473456 0.109112516
00000000: 6ee4 553e f31b af3d 1353 a6b9 23ba 5a3d
00000010: 3752 f3bd 277f 7bbd 26a3 e23c 8009 0c3e
00000020: 6e5f 183e 0b71 253d b122 45be 3b8e 163e
00000030: 96d7 553d 70f0 ccba be46 2dbe d5bc dbbd
00000040: 167b 62be 2c76 1abe 030c 953d 1804 7e3d
00000050: c53b e7bc a095 a9bd b080 e7bd a483 0abe
00000060: 92f8 463e 255c cb3d b105 ea3d fde9 e43d
00000070: 3c3e 07bd 23fb 2ebd 5c2e dc3b e041 f5bd
00000080: 167d 6abe 1848 a1bd b267 33be fca0 473e
00000090: 9ef8 17be 9928 d93d c23b 043e 8d0a f13c
000000a0: e987 3dbe 4086 1fbe a1e7 58be d0ea 483e
000000b0: 7d34 58be 3020 343e cb89 283e caf6 9e3d
000000c0: 0452 37be 698c 653c 1bbe 1fbd 9771 bd3d
000000d0: 9cbb b3bd 77e3 153d 0760 d5bd 2fa5 0b3a
000000e0: e521 45be 894c 573b dba1 d53d 1cc9 dd3d
000000f0: 93ec c2bc 14b7 1ebe cdb5 213e 0a80 61bd
00000100: 6d61 1e3b c9ef f9bc df45 a93d a732 4c3e
00000110: 88b9 093e c410 28be 7dff 053d 43d7 a33d
00000120: 619a 513d 6718 013e 16a4 883e 3d11 363e
00000130: 749c 903c e14e 283d c402 a9bd 1f91 fc3d
00000140: bc24 56bc 2c79 4b3e 4009 3b3e 91f6 363b
00000150: 1fe9 1dbe fa9f 293e c32d 8f3e 497f 6f3d
00000160: cac7 83bd 497d 453d 32ce 1c3d e540 88bd
00000170: 980d 2ebd f7d8 e23c 8a03 c53d 9185 13be
00000180: cb38 093d 028a dbbd 7da8 30be 9a85 01be
00000190: 98af 5cbd 1c0e 1b3e b398 163d d6b4 ea3d
000001a0: 6bc9 afbd 6f51 29bd c2cf 653c cb16 5dbd
000001b0: 08fd d03b 39e1 64bd 02e0 b53d c492 8a3d
000001c0: 1540 613d bd58 9c3d 5deb 2ebd bae0 25be
000001d0: 9379 3fbe b920 433e 3d23 503d 5c5f a23d
000001e0: faab 2abe 5a05 d93d da17 71bd 516f 023e
000001f0: dda0 df3d 5524 10be 5527 c33d b402 c13d
00000200: 815f 11be c7ea 603d f24f 39bc 6f09 0fbe
00000210: 23ec d0bd 528d 143e c298 27bc f8d9 2fbd
00000220: 8478 00be 1984 2f3e 75e0 4f3e 394f aabc
00000230: 5458 fb3d 3417 9f3d bb94 40be dce5 913d
00000240: 12a6 223e d354 b23c 1675 283e 1803 35bd
00000250: 83e0 9bbd 972f 88bd 2104 2ebd 836a 263d
00000260: 25b3 693d 2d4b c83d 5827 0dbc 7d67 b0bc
00000270: a600 2a3e 7ec0 223e 1377 26bd 8a0c e8bc
00000280: b647 17be 38e3 293e b891 bdbd 7684 a13d
00000290: ab09 87bd ffdf 5a3c e71c 3d3e 7820 063e
000002a0: e2a8 3dbd f29e 003e 8840 26bd 7b06 e73d
000002b0: 394c ddbd 02a6 31b9 f376 633c 4afb 12bd
000002c0: bb54 a5ba 1a50 d13c f3aa 38bb 6b6d 1c3d
000002d0: 576d 91bd 54c7 0e3d ef60 81bd f534 11bd
000002e0: 3244 febd ea69 8d3d 8ae2 203e e8c1 f2bc
000002f0: 6d80 c5bc 8f70 033e 3bac 20be 3ef5 5dbd
00000300: 45a2 683c 65fe 51be 0371 e2bd 2f91 083e
00000310: 3622 1dbd 87ef 093e 5d0b bd3d 8272 2cbe
00000320: 967e 92bd 21a0 193e 6fbe 733d b265 c53d
00000330: 604c ff3d 6cc0 9b3b e7ab 87bd 44df 93bd
00000340: 803e db3d 05b8 143e 6cfe 053e ead7 a33d
00000350: 0562 743d d1f0 373d 0afb abbd 8556 723d
00000360: 0b5d 3ebd 5135 27be ea28 14be 43e1 d23d
00000370: 0b08 57bd 08f5 7f3d a78c bd3b 936a af3d
00000380: 51f5 1a3e 26b1 87bd c999 013e 5232 fd3d
00000390: 35bb b93d e807 f0bd 23ed debd 8ffd af3d
000003a0: 9f9f 873d a759 14be 9a7f 2b3c 6741 663d
000003b0: 617f 0a3e d1c5 5c3d 0afe 213d fe98 2ebd
000003c0: 7f5b 1fbe 9220 113e 0096 11bc 4124 ddbd
000003d0: 2cde 93bd 20ef 0d3c 2f34 a0bd 5e6f c7bd
000003e0: 387c 273e 5c8f 933d d71e 6abd 51ae e9bd
000003f0: 1166 fdbd c9a1 2fbe 3104 c2bd 6276 df3d

bias f4 [8]
-0.018551776 0.022721006 0.19875084 -0.103363276 -0.13007358 0.13382342 0.19586872 0.10337328
00000000: e5f9 97bc 6721 ba3c 5785 4b3e 20b0 d3bd
00000010: 0232 05be 0209 093e cf91 483e 5fb5 d33d

weight f4 [8]
0.9900906 1.1413745 1.0365359 0.91613424 0.9600637 1.039956 1.0065306 0.9526177
00000000: 9476 7d3f 8f18 923f 35ad 843f c687 6a3f
00000010: bcc6 753f 471d 853f ffd5 803f c1de 733f

bias f4 [8]
0.0025209808 0.013555048 -0.04555326 -0.011856169 -0.1369123 0.015246928 -0.007905019 -0.058280077
00000000: 0a37 253b fe15 5e3c 0e96 3abd 6140 42bc
00000010: bd32 0cbe 40ce 793c 0e84 01bc 17b7 6ebd

running_mean f4 [8]
-0.023935815 -0.095103174 0.65195674 -0.077049814 -0.035130475 0.12588863 0.2543163 0.13128829
00000000: 0b15 c4bc 74c5 c2bd a3e6 263f 4bcc 9dbd
00000010: f9e4 0fbd f3e8 003e bf35 823e 7070 063e

running_var f4 [8]
0.12112785 0.11402286 0.14844832 0.17392254 0.077939525 0.13475321 0.060996607 0.053280238
00000000: e111 f83d d184 e93d d602 183e c018 323e
00000010: c29e 9f3d bffc 093e 94d7 793d 613c 5a3d

weight f4 [4, 8, 2]
-0.12018208 -0.04506528 -0.054308593 -0.29175213 -0.14168638 -0.07870749 0.056570508 -0.051383425
0.026772702 0.24618989 -0.15149046 -0.1374659 -0.24553935 -0.18858719 -0.15699598 0.10577713
0.111645825 -0.07592057 0.115548514 -0.26560247 0.15865788 -0.011814911 -0.03357999 -0.12714091
-0.070310585 -0.10964116 -0.095119536 0.107964404 0.04683464 -0.007295856 0.13723621 0.1364941
-0.1970921 0.1535104 0.092990525 0.0051067406 -0.06965373 -0.118882395 -0.022163203 0.13409038
0.08206741 0.08205375 0.08881442 -0.07959771 -0.045084007 -0.22277713 0.2701183 -0.09875221
-0.06755666 0.014302867 0.1391322 -0.2100005 0.13082401 0.14798938 -0.19593012 0.25124243
0.07487002 -0.13945685 0.122985795 -0.09124372 -0.16593574 -0.039460443 0.12458623 -0.099735156
00000000: 0622 f6bd 5f96 38bd b072 5ebd 8960 95be
00000010: 3c16 11be 6431 a1bd 7ab6 673d 6d77 52bd
00000020: 6d52 db3c 3419 7c3e 5120 1bbe dcc3 0cbe
00000030: ab6e 7bbe 001d 41be 8ec3 20be aea1 d83d
00000040: 91a6 e43d 3e7c 9bbd b3a4 ec3d 0cfd 87be
00000050: 3677 223e 5493 41bc 2c8b 09bd 3a31 02be
00000060: fffe 8fbd 8b8b e0bd 08ce c2bd 711c dd3d
00000070: aed5 3f3d 1312 efbb a687 0c3e 1cc5 0b3e
00000080: 83d2 49be d531 1d3e d171 be3d 7256 a73b
00000090: 9da6 8ebd 9d78 f3bd 9b8f b5bc fd4e 093e
000000a0: f512 a83d cc0b a83d 56e4 b53d 2004 a3bd
000000b0: 02aa 38bd b01f 64be f24c 8a3e 993e cabd
000000c0: 255b 8abd 9356 6a3c ac78 0e3e 5f0a 57be
000000d0: bbf6 053e 878a 173e e8a1 48be d9a2 803e
000000e0: 7455 993d c7cd 0ebe fadf fb3d fddd babd
000000f0: 0feb 29be 46a1 21bd 1127 ff3d f241 ccbd

bias f4 [4]
0.011796695 0.25141844 -0.120458424 0.028617749
00000000: ed46 413c ebb9 803e e8b2 f6bd c56f ea3c

weight f4 [4]
1.0304145 1.0104479 1.0463698 0.97163546
00000000: 9fe4 833f 5b56 813f 72ef 853f 1abd 783f

bias f4 [4]
-0.039329737 -0.04104314 -0.075832315 0.13727133
00000000: 3818 21bd da1c 28bd f94d 9bbd db90 0c3e

running_mean f4 [4]
-0.30387112 0.19844209 -0.08281949 -0.01533854
00000000: ff94 9bbe 6734 4b3e 449d a9bd 804e 7bbc

running_var f4 [4]
0.35153484 0.08232721 0.04166991 0.06290092
00000000: 60fc b33e 2b9b a83d 11ae 2a3d 33d2 803d

weight f4 [1, 4, 2]
0.3075034 -0.013254824 0.22611412 0.26770604 0.18992333 -0.01084055 -0.22165565 -0.24693917
00000000: 1671 9d3e c32a 59bc 768a 673e c410 893e
00000010: 437b 423e 909c 31bc b3f9 62be 9fdd 7cbe

weight f4 [16, 80]
-0.2012619 0.031227902 -0.05033487 0.15226635 -0.06555491 0.09286128 0.15722346 0.03450775
0.013968264 0.155584 -0.17785566 -0.09176684 0.18749112 0.07393451 -0.049028575 0.08562876
-0.081092454 -0.18547784 0.11586186 0.04322422 -0.0005684546 0.012228465 -0.18987161 0.052812167
0.1618097 -0.10743589 0.14592169 -0.096161105 0.14705229 -0.06505143 -0.02561047 0.22401902
-0.08544433 -0.21846157 -0.14945187 -0.15356833 0.047624625 0.09256221 0.10005652 -0.09050995
0.0017571145 -0.010759007 -0.051184338 0.030773165 0.053448956 0.08034589 0.09706448 0.05988635
0.08955622 -0.0059942887 -0.041419283 -0.026744343 -0.12628932 -0.096205965 0.0042551467 -0.19764064
0.070651926 0.113339 -0.10444992 -0.024881992 0.08950229 -0.030736286 0.0044243387 0.045904316
-0.12516358 0.13095659 -0.11391887 0.056177884 0.03130116 -0.05582847 -0.05402649 -0.016163008
-0.09044831 0.028559897 0.062485144 0.0235426 -0.058052175 -0.033443063 -0.032817703 0.01538166
0.13723022 -0.056158878 -0.018819716 -0.21047737 -0.018460063 -0.04345803 -0.24029297 0.010168496
-0.097191036 -0.009904695 0.099863514 0.07773527 -0.10218234 -0.051551763 0.11840939 0.08507941
-0.058491934 0.006135465 -0.15853749 -0.050805923 0.0953076 -0.11030472 0.2237851 -0.016955514
-0.19228208 -0.027658785 -0.06687283 -0.030094061 -0.07105607 0.003977268 0.0829832 -0.25887057
0.007910895 0.15455423 -0.05033348 0.07902064 0.07665548 -0.15342443 -0.08015702 0.012474664
0.0563493 0.00043773543 -0.02408455 0.094372295 -0.12899473 -0.09124099 -0.11421231 -0.100466534
0.0066498793 -0.11382075 -0.049224682 0.08880183 -0.013797028 0.049926646 0.013609415 0.2811378
-0.07841802 -0.12723848 -0.02758957 -0.08950613 -0.021406654 -0.13975957 -0.12127999 -0.048078064
0.083376125 -0.12808082 -0.115570374 0.032380152 0.019783523 0.045827284 0.006861752 -0.032545015
0.1315268 0.008998015 0.012055931 0.057732377 0.00013251459 -0.18770185 0.06288225 0.07214676
-0.05334868 0.04754265 0.008431952 0.14382657 0.09519141 0.09088836 0.21106106 0.08568284
0.15529531 0.005946707 -0.049162123 -0.04707801 0.14936946 -0.036431525 0.031837903 0.08053255
0.00085683464 -0.049854185 0.1754386 0.04339097 -0.14097694 0.0956077 -0.03702359 0.014119216
0.08320859 -0.08971431 0.16299331 -0.013614772 0.21209265 0.05292174 -0.1295139 0.37064204
-0.15304716 -0.18734479 0.03193169 -0.16472116 0.09688213 -0.035621457 0.16305587 -0.03519841
0.04099756 -0.05781905 0.027541794 -0.047896598 0.093617134 0.0034451147 -0.02560117 0.113509454
-0.023468845 0.10230811 -0.07428243 -0.06932254 -0.009998266 0.014732206 0.01974267 -0.15996243
0.014353219 0.057580728 -0.111691765 0.072028175 -0.029617693 -0.038903806 0.047358103 -0.02686925
0.0704806 0.15867792 -0.043320093 0.03663826 0.079397745 -0.11180352 -0.026543947 -0.0528355
0.022699077 0.041499592 0.04225003 0.09384726 -0.0359009 0.004854424 0.015098927 -0.09438975
0.06344639 0.016255757 0.14545251 -0.15826583 -0.03999775 0.049595088 -0.1805648 -0.15770221
-0.19456838 -0.18797773 -0.003082131 0.019080553 -0.15942056 -0.12976442 0.13278379 -0.026689803
00000000: 9917 4ebe a8d1 ff3c f02b 4ebd b6eb 1b3e
00000010: a741 86bd 0e2e be3d 30ff 203e 0058 0d3d
00000020: 25db 643c 6951 1f3e cb1f 36be 41f0 bbbd
00000030: acfd 3f3e fa6a 973d 30d2 48bd 225e af3d
00000040: cd13 a6bd e7ed 3dbe fc48 ed3d e10b 313d
00000050: 5804 15ba e659 483c b46d 42be 9251 583d
00000060: 71b1 253e 5907 dcbd 7f6c 153e 1df0 c4bd
00000070: e094 163e af39 85bd 0ccd d1bc 3e65 653e
00000080: 70fd aebd 64b4 5fbe e909 19be 0441 1dbe
00000090: 0a12 433d 4291 bd3d 6fea cc3d 485d b9bd
000000a0: fb4e e63a 8c46 30bc aba6 51bd 0118 fc3c
000000b0: 4bed 5a3d 638c a43d bec9 c63d 644b 753d
000000c0: 4069 b73d bd6b c4bb 44a7 29bd f416 dbbc
000000d0: fd51 01be a207 c5bd c26e 8b3b 4f62 4abe
000000e0: f5b1 903d 471e e83d d7e9 d5bd 52d5 cbbc
000000f0: fa4c b73d aaca fbbc 0bfa 903b 2a06 3c3d
00000100: e22a 00be 7c19 063e 4c4e e9bd c81a 663d
00000110: a535 003d 65ac 64bd e14a 5dbd 4968 84bc
00000120: f73c b9bd 72f6 e93c 6cf0 7f3d 69dc c03c
00000130: 1ec8 6dbd 98fb 08bd db6b 06bd 5c03 7c3c
00000140: 1486 0c3e da06 66bd ce2b 9abc 6187 57be
00000150: 8f39 97bc 0c01 32bd 5c0f 76be c399 263c
00000160: 180c c7bd 4d47 22bc 3e85 cc3d ab33 9f3d
00000170: fa44 d1bd f127 53bd 9f80 f23d 1d3e ae3d
00000180: 3d95 6fbd 030c c93b a757 22be df19 50bd
00000190: a230 c33d 71e7 e1bd ec27 653e 4ae6 8abc
000001a0: 98e5 44be ad94 e2bc 9ff4 88bd d287 f6bc
000001b0: d885 91bd be53 823b 19f3 a93d af8a 84be
000001c0: b39c 013c 7743 1e3e 7b2a 4ebd 93d5 a13d
000001d0: 8cfd 9c3d 4b1b 1dbe 5d29 a4bd 8862 4c3c
000001e0: 86ce 663d db7f e539 f64c c5bc 4346 c13d
000001f0: 3217 04be 8edc babd 25e8 e9bd 66c1 cdbd
00000200: 3be7 d93b da1a e9bd d29f 49bd bcdd b53d
00000210: ee0c 62bc e27f 4c3d 06fa 5e3c 4bf1 8f3e
00000220: a099 a0bd ce4a 02be 8603 e2bc fd4e b7bd
00000230: 025d afbc 221d 0fbe a561 f8bd 81ed 44bd
00000240: 1ac1 aa3d 9e27 03be 29b0 ecbd 0da1 043d
00000250: 0e11 a23c 64b5 3b3d 8cd8 e03b ec4d 05bd
00000260: f6ae 063e 696c 133c 3d86 453c c978 6c3d
00000270: 9df3 0a39 ea34 40be 69c8 803d aec1 933d
00000280: 2584 5abd 15bc 423d 2c26 0a3c 4647 133e
00000290: b7f3 c23d ad23 ba3d 6420 583e 7c7a af3d
000002a0: bc05 1f3e 98dc c23b 395e 49bd dfd4 40bd
000002b0: 4ff4 183e 3939 15bd 7668 023d 40ee a43d
000002c0: 339d 603a e733 4cbd 2da6 333e bbba 313d
000002d0: 425c 10be f8cd c33d 0ca6 17bd 4954 673c
000002e0: 4469 aa3d 23bc b7bd b8e7 263e 7e10 5fbc
000002f0: d12e 593e 77c4 583d 4b9f 04be cbc4 bd3e
00000300: 65b8 1cbe 50d7 3fbe ceca 023d aaac 28be
00000310: 236a c63d cee7 11bd 1ef8 263e 352c 10bd
00000320: 0fed 273d abd3 6cbd 549f e13c 392f 44bd
00000330: 57ba bf3d 6fc7 613b 8bb9 d1bc a577 e83d
00000340: bc41 c0bc ea86 d13d 6321 98bd faf8 8dbd
00000350: c4cf 23bc 5a5f 713c 61bb a13c 31cd 23be
00000360: c429 6b3c c5d9 6b3d a7be e4bd 8283 933d
00000370: cea0 f2bc 9959 1fbd 92fa 413d e71c dcbc
00000380: 2258 903d 777c 223e 6970 31bd 0012 163d
00000390: 499b a23d 3ef9 e4bd b172 d9bc 0a6a 58bd
000003a0: 6af3 b93c 7afb 293d 5e0e 2d3d fe32 c03d
000003b0: d20c 13bd dc11 9f3b 7d61 773c 6a4f c1bd
000003c0: 2ef0 813d cb2a 853c 81f1 143e 7010 22be
000003d0: aed4 23bd 3824 4b3d fbe5 38be b07c 21be
000003e0: ef3c 47be 3c7d 40be 94fd 49bb d24e 9c3c
000003f0: 253f 23be f7e0 04be 79f8 073e 93a4 dabc

bias f4 [16]
-0.04692054 0.16688532 -0.16771494 0.15071853 0.014163122 -0.03362942 -0.1580189 -0.12778853
0.1255375 0.14806156 0.061424218 -0.11477673 -0.028497454 -0.05301218 -0.16978297 0.0016049991
00000000: c12f 40bd fce3 2a3e 77bd 2bbe f555 1a3e
00000010: 700c 683c 01bf 09bd b5cf 21be ffda 02be
00000020: e78c 003e 739d 173e f697 7b3d 1010 ebbd
00000030: 7e73 e9bc 4d23 59bd 96db 2dbe d55e d23a

weight f4 [2, 16]
0.19326912 -0.18979573 0.40561247 -0.24047264 -0.18339893 -0.23370972 0.060417946 0.19170716
-0.40147102 -0.3760467 -0.4251785 0.21640642 0.15703599 0.15916428 0.3802213 -0.21227948
-0.36197582 0.16037968 -0.3365544 0.27067375 0.28495127 0.12935285 -0.43414325 -0.10399179
0.22818993 0.0073027867 0.40261957 -0.0468736 -0.39727387 -0.43531084 -0.21986699 0.06161397
00000000: 57e8 453e d059 42be 70ac cf3e 763e 76be
00000010: eecc 3bbe 9a51 6fbe cf78 773d e24e 443e
00000020: 9c8d cdbe 3189 c0be ffb0 d9be a599 5d3e
00000030: 0bce 203e f6fb 223e 5eac c23e cb5f 59be
00000040: e554 b9be 923a 243e dc50 acbe c095 8a3e
00000050: 22e5 913e 1375 043e 0648 debe a6f9 d4bd
00000060: 9faa 693e 374c ef3b 2724 ce3e 88fe 3fbd
00000070: 7b67 cbbe 10e1 debe d024 61be ee5e 7c3d

bias f4 [2]
-0.29282108 0.29150715
00000000: a5ec 95be 6d40 953e
