mlpcnnsemi/model/cnn/64oneinput_batch1_Epoch=90_lr=0.0001.pth (torch, 25249 bytes, 29 tensors)

weight f4 [4, 1, 1]
0.68579227 0.6645101 0.6552182 -0.72537524
00000000: 1590 2f3f 551d 2a3f 61bc 273f 31b2 39bf

bias f4 [4]
0.6466297 0.6107118 -0.31736118 -0.42665634
00000000: 8689 253f 9c57 1c3f 2a7d a2be b372 dabe

weight f4 [4]
1.0242935 0.98277825 0.9863971 1.051559
00000000: 0d1c 833f 5b97 7b3f 8584 7c3f 7c99 863f

bias f4 [4]
-0.05527655 -0.08205122 -0.012421484 0.038740814
00000000: aa69 62bd 780a a8bd 7b83 4bbc b0ae 1e3d

running_mean f4 [4]
0.85452247 0.812475 -0.11879867 -0.6468812
00000000: fcc1 5a3f 5dfe 4f3f b84c f3bd 029a 25bf

running_var f4 [4]
0.2947868 0.2769682 0.26911607 0.32962012
00000000: 4cee 963e c7ce 8d3e 95c9 893e f8c3 a83e

weight f4 [16, 4, 1]
0.41008413 -0.4508537 -0.216695 0.518332 -0.050390817 0.34289908 -0.15942831 0.39510015
0.575855 -0.40601438 0.37627897 -0.42573908 0.2878619 0.14614627 0.57126045 -0.21201527
-0.07670048 0.011978587 0.23490678 0.10890093 -0.20513596 -0.3350443 -0.41019443 -0.16263732
-0.45344433 0.11342394 -0.5141713 0.44803908 -0.21223682 0.043598074 0.18876915 -0.27662066
-0.3125747 0.3715376 -0.30270982 -0.1722573 -0.45200127 -0.016458914 -0.28310367 -0.36498737
0.1959292 -0.20419681 0.15244445 0.088544644 0.10528907 -0.30844286 -0.25973493 -0.08616074
0.4970198 -0.25115207 0.20333566 -0.3899015 0.33451492 -0.12696417 0.278874 0.28036115
-0.2226629 0.41478923 0.03540917 0.19236961 0.06434175 0.12390289 -0.1064706 -0.50344455
00000000: 8cf6 d13e 4cd6 e6be 4be5 5dbe 68b1 043f
00000010: 9a66 4ebd 7890 af3e 2d41 23be 914a ca3e
00000020: 3c6b 133f 1ee1 cfbe a3a7 c03e 79fa d9be
00000030: a362 933e 5ea7 153e 203e 123f 881a 59be
00000040: 2415 9dbd d641 443c 678b 703e 7307 df3d
00000050: 290f 52be ed8a abbe 0105 d2be 668a 26be
00000060: db29 e8be d04a e83d bba0 03bf 6165 e53e
00000070: 9c54 59be e593 323d b34c 413e 39a1 8dbe
00000080: cb09 a0be 2d3a be3e c8fc 9abe 3864 30be
00000090: b66c e7be d8d4 86bc f7f2 90be a0df babe
000000a0: aaa1 483e f818 51be 661a 1c3e e556 b53d
000000b0: cca1 d73d 39ec 9dbe fafb 84be 0b75 b0bd
000000c0: 6179 fe3e 0197 80be 3937 503e 2ba1 c7be
000000d0: 8a45 ab3e e502 02be 93c8 8e3e 7f8b 8f3e
000000e0: be01 64be 415f d43e 3509 113d 8afc 443e
000000f0: 9cc5 833d ccc0 fd3d 420d dabd bee1 00bf

bias f4 [16]
-0.20635879 -0.15401565 -0.1441654 0.17798805 -0.102880284 0.26868725 -0.0300397 -0.12163182
0.21603267 0.5190263 -0.022466999 0.37022024 -0.33027336 -0.4577178 -0.4894122 -0.37926275
00000000: b84f 53be 47b6 1dbe 18a0 13be 8042 363e
00000010: e6b2 d2bd 6091 893e d115 f6bc 1b1a f9bd
00000020: ab37 5d3e e8de 043f b60c b8bc 828d bd3e
00000030: 9719 a9be fd59 eabe 3c94 fabe ba2e c2be

weight f4 [16]
1.079631 1.0069658 0.9636132 0.97471696 1.0339035 1.1883203 1.0176249 0.9449739
1.0542293 0.9668177 0.98545605 0.9343868 1.0123786 1.0460095 1.011316 0.9442583
00000000: 5931 8a3f 41e4 803f 5baf 763f 0d87 793f
00000010: f356 843f e11a 983f 8841 823f cfe9 713f
00000020: fcf0 863f 5d81 773f d946 7c3f f933 6f3f
00000030: 9f95 813f a4e3 853f cd72 813f e9ba 713f

bias f4 [16]
0.09937531 0.08340623 -0.12948026 -0.03193277 -0.11865576 0.0714773 0.05624324 0.044751894
-0.11713432 0.024507122 -0.034300815 0.1678792 -0.04447384 -0.06064146 0.051187325 0.00093496696
00000000: 4885 cb3d e3d0 aa3d 7996 04be f0cb 02bd
00000010: cb01 f3bd b162 923d 505f 663d c34d 373d
00000020: 1ee4 efbd 29c3 c83c 037f 0cbd 86e8 2b3e
00000030: 342a 36bd 2e63 78bd cda9 513d 9218 753a

running_mean f4 [16]
-0.103974566 -0.001233347 -0.12631764 0.37338102 -0.024668012 -0.026120406 -0.116784744 -0.20342182
0.091500044 0.207762 0.046798453 0.22713202 -0.32970044 -0.2396494 -0.3768617 -0.51733816
00000000: 9ef0 d4bd 42a8 a1ba 6959 01be cc2b bf3e
00000010: 9214 cabc 76fa d5bc d72c efbd cf4d 50be
00000020: 6064 bb3d 90bf 543e bcaf 3f3d 4c95 683e
00000030: 7fce a8be a766 75be 04f4 c0be 4670 04bf

running_var f4 [16]
0.07704076 0.012786688 0.30647284 0.8396186 0.019563053 0.6853761 0.6687165 0.0047415784
0.047077283 0.4197005 0.017001301 0.15471622 0.21044464 0.17523262 0.030958598 0.02391934
00000000: 8cc7 9d3d 427f 513c 02ea 9c3e 3ff1 563f
00000010: b242 a03c cf74 2f3f 0131 2b3f 3e5f 9b3b
00000020: 1cd4 403d fce2 d63e 5046 8b3c ee6d 1e3e
00000030: cd7e 573e 2e70 333e e39c fd3c 7ef2 c33c

weight f4 [8, 16, 2]
0.22162937 0.09798126 -0.0023259334 0.079627335 -0.116007425 -0.0669057 0.030671299 0.13110693
0.15036657 0.036480006 -0.19471797 0.14904965 0.06239622 0.0059526116 -0.17444278 -0.11237978
-0.23791587 -0.1708633 0.058600795 0.061459105 -0.025996655 -0.08687109 -0.117132984 -0.12881307
0.19618191 0.0936513 0.116307266 0.10767487 -0.032216486 -0.047352225 0.0037888517 -0.12472725
-0.2223494 -0.059595406 -0.17240416 0.20320693 -0.15437624 0.112488344 0.12294373 0.038194716
-0.1914364 -0.14509295 -0.22340494 0.19732724 -0.2286884 0.17280479 0.1730162 0.07313992
-0.20181191 0.016918195 -0.05211116 0.08765468 -0.09701736 0.048226073 -0.112726524 -0.00408579
-0.1974475 0.009775632 0.0948427 0.11955807 -0.026379248 -0.14451623 0.16123727 -0.052083742
0.008679243 -0.021279814 0.08482954 0.19767547 0.13774155 -0.15807799 0.036239017 0.08722457
0.056564916 0.13933952 0.29420534 0.18269902 0.021230502 0.04217598 -0.088259876 0.115709096
0.016906833 0.20591399 0.21343818 0.009433058 -0.14945628 0.17687677 0.30382243 0.0645341
-0.061533518 0.052458104 0.042995356 -0.054520514 -0.03575852 0.043518856 0.09263451 -0.14311151
0.03186242 -0.113764234 -0.15809608 -0.10972781 -0.06456468 0.16375639 0.024144802 0.12228226
-0.092405215 -0.034125116 0.015552116 -0.082363054 -0.004171208 -0.06511977 0.09018685 0.057769302
0.037485007 0.054820035 -0.043479342 -0.1726355 -0.1942135 0.19598962 0.05516938 0.06317592
-0.17544034 0.1187414 -0.06617461 0.13324656 0.103763655 -0.13480087 0.09054227 0.10080676
-0.14596774 0.06192528 -0.053007055 -0.1489836 -0.09445393 0.14006606 -0.0018353201 -0.04864272
-0.12203535 0.16821678 0.21246094 -0.018999437 0.12811401 0.08561146 -0.19716176 0.0656973
0.17212854 0.0070337285 0.15929098 -0.056397077 -0.07118389 -0.07056196 -0.040977463 0.039835878
0.06281932 0.09281845 -0.0041517103 -0.025984813 0.16950928 0.15786631 -0.04387878 -0.035026085
-0.16517687 0.17166907 -0.09721815 0.0750126 -0.0665832 0.0132808685 0.18711554 0.12951875
-0.041289642 0.12893213 -0.040107697 0.11447728 -0.105853565 -0.005359941 0.016382175 -0.032538444
0.016823096 0.031457763 0.0016259671 0.04815937 -0.06604296 0.035818115 -0.06561311 -0.033238128
-0.1258701 0.06966875 0.16180791 -0.029435102 -0.020514265 0.13670576 -0.15642369 -0.05228993
0.004258195 -0.21823354 -0.11614796 0.13422501 -0.035544388 0.13894051 0.09310977 -0.16315414
-0.074951485 0.1533977 0.04979648 0.11154845 0.12568437 0.0139097115 -0.05884519 -0.0657966
0.103208736 0.1765971 0.11339702 0.09444144 0.058141727 0.049060035 -0.09940892 0.068331376
-0.04386611 -0.16159724 -0.14647177 0.107186295 -0.055635437 0.066257775 0.010251486 0.08809362
0.1583975 -0.060537115 0.13717687 0.1310701 0.09465527 -0.12180505 -0.10509036 0.08716368
0.06434993 -0.15235208 0.015214357 0.07620431 0.13703173 0.060174584 0.034543984 -0.032964032
-0.15046062 0.17620625 -0.0036546264 -0.088897996 -0.07284344 0.00943466 -0.07628858 -0.08682939
0.16724014 0.06749545 -0.05761907 -0.114366665 -0.12775806 -0.17841467 -0.092500575 0.11003316
00000000: cff2 623e 66aa c83d b06e 18bb a813 a33d
00000010: 4d95 edbd db05 89bd 6042 fb3c e540 063e
00000020: b2f9 193e 0f6c 153d 2664 47be 79a0 183e
00000030: 2e93 7f3d 200e c33b 21a1 32be 5f27 e6bd
00000040: 38a0 73be caf6 2ebe 6307 703d 8bbc 7b3d
00000050: f0f6 d4bc 78e9 b1bd 6be3 efbd 93e7 03be
00000060: e9e3 483e 41cc bf3d 8132 ee3d a484 dc3d
00000070: 6ff5 03bd 68f4 41bd 624e 783b 0071 ffbd
00000080: 90af 63be 501a 74bd b78a 30be 7a15 503e
00000090: ce14 1ebe 4a60 e63d ecc9 fb3d 1072 1c3d
000000a0: e707 44be 3f93 14be 44c4 64be 2710 4a3e
000000b0: 4b2d 6abe bdf3 303e 292b 313e 62ca 953d
000000c0: c8a7 4ebe 0798 8a3c 8372 55bd 4c84 b33d
000000d0: 0ab1 c6bd b488 453d 2add e6bd 17e2 85bb
000000e0: ad2f 4abe f929 203c e43c c23d ddda f43d
000000f0: 4b19 d8bc 10fc 13be 621b 253e c355 55bd
00000100: 6233 0e3c 0153 aebc 1cbb ad3d 706b 4a3e
00000110: 1f0c 0d3e 32df 21be 5d6f 143d cca2 b23d
00000120: 9db0 673d 05af 0e3e 15a2 963e 7415 3b3e
00000130: 97eb ad3c b8c0 2c3d 98c1 b4bd e4f8 ec3d
00000140: 3380 8a3c 1edb 523e 8a8f 5a3e 1d8d 1a3c
00000150: 110b 19be 2f1f 353e 9d8e 9b3e 742a 843d
00000160: 920a 7cbd 4fde 563d e61b 303d e750 5fbd
00000170: 8777 12bd d440 323d 29b7 bd3d d38b 12be
00000180: 2b82 023d 39fd e8bd f0e3 21be f9b8 e0bd
00000190: 7d3a 84bd c1af 273e 52cb c53c 1f6f fa3d
000001a0: f23e bdbd c7c6 0bbd 4dce 7e3c f6ad a8bd
000001b0: a1ae 88bb 845d 85bd e2b3 b83d 819f 6c3d
000001c0: e189 193d f98a 603d 6517 32bd 5cc7 30be
000001d0: e7df 46be 81b1 483e 4af9 613d 6062 813d
000001e0: a2a6 33be b12e f33d 8e86 87bd c971 083e
000001f0: 0a82 d43d 3d09 0abe 3a6e b93d c673 ce3d
00000200: 9178 15be 5da5 7d3d ed1d 59bd 288f 18be
00000210: 1071 c1bd 7a6d 0f3e 208f f0ba 973d 47bd
00000220: abed f9bd 0541 2c3e 5c8f 593e b5a4 9bbc
00000230: 5230 033e 1055 af3d c6e4 49be 4e8c 863d
00000240: 7742 303e 317b e63b 2d1d 233e 9f00 67bd
00000250: dcc8 91bd ca82 90bd fcd7 27bd f22a 233d
00000260: 6aa7 803d 9917 be3d 120b 88bb 1ade d4bc
00000270: d793 2d3e b5a7 213e 3cba 33bd 8377 0fbd
00000280: 2024 29be 04ca 2f3e 4f1a c7bd 35a0 993d
00000290: c65c 88bd 0098 593c 379b 3f3e 90a0 043e
000002a0: 541f 29bd c906 043e f847 24bd 1073 ea3d
000002b0: c1c9 d8bd 72a2 afbb e933 863c 0847 05bd
000002c0: 97d0 893c dbd9 003d 671e d53a c242 453d
000002d0: 8841 87bd 04b6 123d 2b60 86bd b424 08bd
000002e0: 17e4 00be 7dae 8e3d f9b0 253e e221 f1bc
000002f0: 880d a8bc 98fc 0b3e 882d 20be f72d 56bd
00000300: 5488 8b3b 9d78 5fbe fbde edbd 4872 093e
00000310: fe96 11bd 6c46 0e3e 56b0 be3d e111 27be
00000320: 2a80 99bd 4914 1d3e 65f7 4b3d 8473 e43d
00000330: 67b3 003e 8fe5 633c a707 71bd 5ec0 86bd
00000340: 1a5f d33d dfd5 343e b23c e83d 846a c13d
00000350: 0526 6e3d 2df3 483d e796 cbbd 52f1 8b3d
00000360: f3ac 33bd bf79 25be b2fc 15be 7d84 db3d
00000370: fce1 63bd 28b2 873d d9f5 273c 6e6a b43d
00000380: f432 223e c4f5 77bd 1878 0c3e 3e37 063e
00000390: 9fda c13d ed74 f9bd 9d39 d7bd df82 b23d
000003a0: e5c9 833d 2f02 1cbe a345 793c 0111 9c3d
000003b0: 0c52 0c3e a079 763d fe7d 0d3d 4b05 07bd
000003c0: 5912 1abe 696f 343e 7582 6fbb 2710 b6bd
000003d0: f12e 95bd d593 1a3c 303d 9cbd 9bd3 b1bd
000003e0: 0041 2b3e 0e3b 8a3d f901 6cbd 1239 eabd
000003f0: 02d3 02be 56b2 36be f170 bdbd 1159 e13d

bias f4 [8]
-0.021350034 0.010086804 0.203264 -0.101003945 -0.13265136 0.13607714 0.17412783 0.13900407
00000000: 44e6 aebc 1f43 253c 7024 503e 28db cebd
00000010: c2d5 07be ce57 0b3e 914e 323e 1557 0e3e

weight f4 [8]
0.9844813 1.1663812 1.0487922 0.90505075 0.94587123 1.0359249 1.0040302 0.9510507
00000000: f706 7c3f fb4b 953f d33e 863f 68b1 673f
00000010: 9e24 723f 3099 843f 1084 803f 0f78 733f

bias f4 [8]
-0.023202054 0.0038769448 -0.040707596 -0.015679374 -0.20155561 -0.009977551 0.0013731301 -0.07133557
00000000: 3c12 bebc 5714 7e3b 02bd 26bd 0872 80bc
00000010: 9864 4ebe e278 23bc 9afa b33a 6218 92bd

running_mean f4 [8]
-0.021511136 -0.1214297 0.72699505 -0.092590325 -0.057993256 0.13326994 0.2283971 0.20290475
00000000: 1f38 b0bc 22b0 f8bd 591c 3a3f ff9f bdbd
00000010: 568a 6dbd ea77 083e eee0 693e 43c6 4f3e

running_var f4 [8]
0.15665598 0.15284042 0.19261983 0.23315595 0.06073971 0.13232811 0.07450636 0.053447347
00000000: 6d6a 203e 3382 1c3e 223e 453e 6fc0 6e3e
00000010: 34ca 783d 0581 073e ca96 983d 9beb 5a3d

weight f4 [4, 8, 2]
-0.1437464 -0.05280006 -0.06771877 -0.27077556 -0.15383133 -0.09527793 0.030805243 -0.07996208
0.033992473 0.26570067 -0.10388742 -0.117829785 -0.24569449 -0.19034389 -0.16146734 0.0888505
0.10429167 -0.07697164 0.11755267 -0.28282052 0.16193552 -0.018358001 -0.03882759 -0.13587238
-0.08727691 -0.073554315 -0.09925528 0.11090119 0.042014383 -0.029912813 0.112430334 0.1512344
-0.19113496 0.15836336 0.097657256 -0.0009189605 -0.06304272 -0.11455069 -0.009816661 0.1395252
0.08684285 0.07564274 0.09043467 -0.071956486 -0.05039985 -0.23519863 0.28445113 -0.11762149
-0.073969126 0.010862597 0.14487623 -0.21546958 0.13303588 0.16086458 -0.19372885 0.24267295
0.07087768 -0.13933568 0.1247036 -0.099087656 -0.15940906 -0.05573556 0.12381278 -0.0975936
00000000: 4232 13be e044 58bd 23b0 8abd 18a3 8abe
00000010: f685 1dbe 1321 c3bd 475b fc3c 29c3 a3bd
00000020: b13b 0b3d eb09 883e edc2 d4bd be50 f1bd
00000030: 5697 7bbe 82e9 42be b257 25be 40f7 b53d
00000040: df96 d53d 4fa3 9dbd 74bf f03d dacd 90be
00000050: 6dd2 253e 8563 96bc ae09 1fbd 2122 0bbe
00000060: 3dbe b2bd a5a3 96bd 5a46 cbbd 2a20 e33d
00000070: 4617 2c3d b70b f5bc e041 e63d 31dd 1a3e
00000080: e2b8 43be 012a 223e 8700 c83d 65e6 70ba
00000090: 8b1c 81bd 8d99 eabd 0fd6 20bc b2df 0e3e
000000a0: aada b13d 95ea 9a3d d035 b93d ec5d 93bd
000000b0: 1370 4ebd e9d7 70be 94a3 913e 89e3 f0bd
000000c0: 207d 97bd 09f9 313c 6f5a 143e 0fa4 5cbe
000000d0: 8f3a 083e afb9 243e db60 46be 427f 783e
000000e0: 5128 913d 03ae 0ebe 9a64 ff3d 78ee cabd
000000f0: 213c 23be f84a 64bd 8e91 fd3d 27df c7bd

bias f4 [4]
0.002930091 0.2475732 -0.12471757 0.04241026
00000000: c506 403b d483 7d3e ed6b ffbd 61b6 2d3d

weight f4 [4]
1.0462227 1.0133531 1.0443538 0.9675275
00000000: a0ea 853f 8eb5 813f 63ad 853f e2af 773f

bias f4 [4]
-0.044672422 -0.046951316 -0.07569274 0.12858327
00000000: 6efa 36bd 0650 40bd cc04 9bbd 55ab 033e

running_mean f4 [4]
-0.3322585 0.19364905 -0.07722792 0.0049309
00000000: c91d aabe f04b 463e ac29 9ebd 6393 a13b

running_var f4 [4]
0.42854345 0.077311344 0.04435332 0.058475442
00000000: 0c6a db3e 6955 9e3d d4ab 353d f283 6f3d

weight f4 [1, 4, 2]
0.32544023 -0.0120831495 0.23453109 0.26276755 0.188397 -0.024876883 -0.22345954 -0.23203266
00000000: 1aa0 a63e 67f8 45bc eb28 703e 7889 863e
00000010: 25eb 403e 9bca cbbc 94d2 64be f899 6dbe

weight f4 [16, 80]
-0.1918956 0.027749512 -0.043681573 0.17659582 -0.077378176 0.09826893 0.16129407 0.029982647
0.019613547 0.16626185 -0.17852427 -0.08972715 0.1945213 0.09460076 -0.044690195 0.08222542
-0.07678473 -0.19005403 0.113454975 0.046113145 -0.00059018494 0.014946374 -0.2058764 0.06448692
0.171172 -0.108700134 0.15114617 -0.117390916 0.1518043 -0.056305543 -0.03608428 0.24743345
-0.089545 -0.23664726 -0.15434606 -0.18268771 0.04995578 0.10035597 0.10527377 -0.076615095
0.0045546074 -0.016309362 -0.05046633 0.03717565 0.060956694 0.07920648 0.09842302 0.062064983
0.089962706 -0.006187124 -0.024770042 -0.028717656 -0.12503754 -0.08842846 -0.010381869 -0.21124987
0.063762896 0.113436714 -0.09767477 -0.03195399 0.09232776 -0.035585232 0.0066076876 0.03607884
-0.1296466 0.13100097 -0.10768311 0.057812344 0.03025139 -0.061727222 -0.055165738 -0.0142072905
-0.09726152 0.018676495 0.060790446 0.009500211 -0.055876903 -0.029763853 -0.028842444 0.021532185
0.12812161 -0.052497286 -0.024750618 -0.23407677 -0.0060807727 -0.048174903 -0.24363425 0.015252711
-0.10217739 -0.020058226 0.1013117 0.07665966 -0.108382076 -0.07116814 0.11500069 0.08946846
-0.061852053 0.011730178 -0.1552458 -0.052828632 0.09616689 -0.111996256 0.240813 -0.027576208
-0.20065829 -0.025408676 -0.071225084 -0.007904738 -0.07498328 -0.0037402883 0.09443603 -0.2813477
0.012928685 0.173592 -0.044459295 0.10910259 0.07529762 -0.16039023 -0.08442258 -0.0005620792
0.054365855 0.0068622213 -0.023806801 0.08880331 -0.1355931 -0.0892625 -0.11484356 -0.101622544
0.006905031 -0.11273091 -0.06506235 0.09127889 -0.0143198315 0.0428316 0.029042512 0.29576895
-0.07069069 -0.12662473 -0.03377362 -0.08178488 -0.02354958 -0.13405164 -0.1226436 -0.037542827
0.088453494 -0.12744309 -0.121075 0.031405758 0.021639224 0.05258364 0.008743958 -0.034035966
0.13902026 0.01952481 0.014630988 0.07263133 -0.0013994937 -0.1904902 0.059582926 0.06660337
-0.044129465 0.04391477 0.014716692 0.16773522 0.082877785 0.09594461 0.21470222 0.080739
0.16043566 0.016351534 -0.05035844 -0.04568086 0.15584703 -0.016387278 0.03548482 0.07647329
0.0045159897 -0.054990858 0.17254263 0.045744665 -0.14152975 0.097737215 -0.05367775 0.025170356
0.091937184 -0.09158608 0.16768593 -0.035471063 0.2161805 0.061045744 -0.14061172 0.39347473
-0.15768534 -0.20610236 0.026455859 -0.19441757 0.09859849 -0.028368969 0.1676688 -0.021978611
0.043248903 -0.06392848 0.027647762 -0.041982017 0.10057222 0.0019381554 -0.02456727 0.11529193
-0.023323813 0.10162239 -0.058092 -0.07154266 -0.009093147 0.022126576 0.0047662416 -0.17414647
0.0070334547 0.057236716 -0.1051714 0.06465202 -0.027154116 -0.044185095 0.049119953 -0.0371949
0.06574235 0.1583517 -0.037436932 0.03790716 0.077886835 -0.118230686 -0.028111337 -0.051019616
0.015434671 0.031278588 0.04009759 0.079305276 -0.034036893 0.0081590405 0.018732654 -0.088469476
0.05439361 0.019715022 0.13886747 -0.1821963 -0.027931666 0.044334427 -0.18436451 -0.15290487
-0.19980891 -0.19857563 -0.002240358 0.017418366 -0.16620125 -0.15002756 0.12866364 -0.02282895
00000000: 4880 44be f252 e33c 73eb 32bd 89d5 343e
00000010: 7378 9ebd 3941 c93d 462a 253e 2b9e f53c
00000020: 97ac a03c 8c40 2a3e 11cf 36be dec2 b7bd
00000030: 9730 473e 0bbe c13d 110d 37bd cd65 a83d
00000040: 5041 9dbd 869d 42be 155b e83d 23e1 3c3d
00000050: a4b6 1aba a3e1 743c 43d1 52be b811 843d
00000060: b647 2f3e 2d9e debd 10c6 1a3e a66a f0bd
00000070: 9672 1b3e a4a0 66bd 1ccd 13bd 325f 7d3e
00000080: 5e63 b7bd a953 72be e50c 1ebe 7d12 3bbe
00000090: 6f9e 4c3d 6e87 cd3d c699 d73d 60e8 9cbd
000000a0: d13e 953b 369b 85bc c8b5 4ebd 7f45 183d
000000b0: baad 793d 0237 a23d 0292 c93d da37 7e3d
000000c0: 5e3e b83d 5cbd cabb 8bea cabc 4a41 ebbc
000000d0: d709 00be fb19 b5bd b718 2abc e351 58be
000000e0: 1f96 823d 8251 e83d b609 c8bd 30e2 02bd
000000f0: 5616 bd3d d2c1 11bd 4d85 d83b 68c7 133d
00000100: 14c2 04be 1e25 063e f688 dcbd a3cc 6c3d
00000110: c3d1 f73c afd5 7cbd 78f5 61bd b2c5 68bc
00000120: 0c31 c7bd 73ff 983c 67ff 783d c6a6 1b3c
00000130: 2edf 64bd 53d3 f3bc fd46 ecbc 4464 b03c
00000140: 5032 033e 6507 57bd cfc1 cabc d2b1 6fbe
00000150: 3841 c7bb 0c53 45bd 427b 79be 82e6 793c
00000160: 6142 d1bd 2651 a4bc 827c cf3d bdff 9c3d
00000170: 6cf7 ddbd 9ac0 91bd 7b85 eb3d 3d3b b73d
00000180: 9458 7dbd ef2f 403c c1f8 1ebe d662 58bd
00000190: 25f3 c43d 4b5e e5bd af97 763e 80e7 e1bc
000001a0: 5e79 4dbe db25 d0bc 75de 91bd e082 01bc
000001b0: d590 99bd a01f 75bb ad67 c13d ce0c 90be
000001c0: d6d2 533c 1ac2 313e f31a 36bd 2e71 df3d
000001d0: a335 9a3d 563d 24be bfe5 acbd 7f58 13ba
000001e0: bbae 5e3d 7cdc e03b 7b06 c3bc 83de b53d
000001f0: ebd8 0abe 42cf b6bd 1a33 ebbd 7b1f d0bd
00000200: 9943 e23b 77df e6bd 693f 85bd 6df0 ba3d
00000210: ba9d 6abc 3070 2f3d 90ea ed3c 076f 973e
00000220: 48c6 90bd eaa9 01be 3556 0abd d57e a7bd
00000230: 0ceb c0bc d544 09be 912c fbbd 82c6 19bd
00000240: 1b27 b53d 7180 02be 2bf6 f7bd 53a3 003d
00000250: be44 b13c f161 573d d142 0f3c 4c69 0bbd
00000260: 545b 0e3e 7ff2 9f3c d0b6 6f3c bcbf 943d
00000270: 376f b7ba dd0f 43be 3a0d 743d 5967 883d
00000280: 19c1 34bd f9df 333d 481e 713c c8c2 2b3e
00000290: d4bb a93d 9c7e c43d e6da 5b3e 7d5a a53d
000002a0: 3f49 243e a7f3 853c a744 4ebd da1b 3bbd
000002b0: 5d96 1f3e 9d3e 86bc 8858 113d 079e 9c3d
000002c0: defa 933b 183e 61bd 04af 303e c25e 3b3d
000002d0: 2ded 10be 732a c83d 33dd 5bbd 1032 ce3c
000002e0: 9049 bc3d 7c91 bbbd dcb5 2b3e 1b4a 11bd
000002f0: 6c5e 5d3e 1a0b 7a3d 85fc 0fbe 8575 c93e
00000300: 4478 21be 7f0c 53be f5b9 d83c 6615 47be
00000310: 01ee c93d 0a66 e8bc 5fb1 2b3e 7d0c b4bc
00000320: c325 313d efec 82bd 8f7d e23c 56f5 2bbd
00000330: cff8 cd3d b409 fe3a 4d41 c9bc 2d1e ec3d
00000340: 9511 bfbc 661f d03d e1f1 6dbd f584 92bd
00000350: 6cfb 14bc cb42 b53c 222e 9c3b 7453 32be
00000360: e578 e63b 0c71 6a3d 1a64 d7bd 4768 843d
00000370: 4f72 debc 6efb 34bd 0132 493d ae59 18bd
00000380: eda3 863d f326 223e 7857 19bd 8a44 1b3d
00000390: 2283 9f3d ee22 f2bd bf49 e6bc f2f9 50bd
000003a0: b4e1 7c3c fa1d 003d 5f3d 243d ce6a a23d
000003b0: 456a 0bbd 7fad 053c 3975 993c 7c2f b5bd
000003c0: d6cb 5e3d 6681 a13c 4633 0e3e ab91 3abe
000003d0: f3d0 e4bc 0498 353d 0dca 3cbe 1893 1cbe
000003e0: b59a 4cbe 6957 4bbe f8d2 12bb f6b0 8e3c
000003f0: a930 2abe d3a0 19be 67c0 033e c703 bbbc

bias f4 [16]
-0.065835014 0.18704888 -0.18732317 0.17002723 0.03395926 -0.013795384 -0.17688684 -0.14810292
0.14494462 0.16799401 0.08072381 -0.13415739 -0.04830941 -0.072306626 -0.18924607 0.021349013
00000000: 82d4 86bd be89 3f3e a5d1 3fbe 9e1b 2e3e
00000010: dd18 0b3d 0906 62bc d321 35be 4ba8 17be
00000020: 5d6c 143e 9f06 2c3e 8652 a53d 8e60 09be
00000030: 17e0 45bd 7f15 94bd b9c9 41be 20e4 ae3c

weight f4 [2, 16]
0.20697878 -0.20456983 0.4126907 -0.2512449 -0.19572282 -0.24154069 0.07517442 0.20150064
-0.41402197 -0.37802204 -0.4347036 0.2314601 0.172019 0.18739627 0.38971677 -0.21035011
-0.3756829 0.17515378 -0.34363252 0.28144413 0.29727408 0.1371838 -0.4488999 -0.11378582
0.24074237 0.009274314 0.41214454 -0.061925005 -0.41225648 -0.46354064 -0.22936043 0.059683863
00000000: 3ff2 533e c17a 51be 324c d33e 2ca3 80be
00000010: 906b 48be 7156 77be 0cf5 993d 2f56 4e3e
00000020: b0fa d3be 1b8c c1be 7891 debe e003 6d3e
00000030: c025 303e cfe4 3f3e f588 c73e 0566 57be
00000040: 8259 c0be 835b 333e 9af0 afbe 7219 903e
00000050: 4f34 983e e979 0c3e 35d6 e5be 8a08 e9bd
00000060: 2b85 763e 4bf3 173c 9c04 d33e 13a5 7dbd
00000070: 4813 d3be 3355 edbe 76dd 6abe 1177 743d

bias f4 [2]
-0.31199625 0.31068233
00000000: f9bd 9fbe c111 9f3e
