mlpcnnsemi/model/cnn/64oneinput_batch1_Epoch=94_lr=0.0001.pth (torch, 25249 bytes, 29 tensors)

weight f4 [4, 1, 1]
0	0x3f2feda7	0.68722004
1	0x3f29c818	0.66320944
2	0x3f2726e1	0.652937
3	0xbf3ad726	-0.7298454

bias f4 [4]
0	0x3f210834	0.6290314
1	0x3f1ee7e5	0.6207259
2	0xbea18b87	-0.31551763
3	0xbed6348e	-0.4183697

weight f4 [4]
0	0x3f832290	1.0244923
1	0x3f7b2085	0.98096496
2	0x3f7cb9cf	0.9872102
3	0x3f8710fc	1.0552058

bias f4 [4]
0	0xbd6451c3	-0.055742037
1	0xbdabd346	-0.083899066
2	0xbc17d85c	-0.009267893
3	0x3d37b98b	0.044854682

running_mean f4 [4]
0	0x3f55e90d	0.8355873
1	0x3f51f8a2	0.8202001
2	0xbdf48997	-0.11940306
3	0xbf234782	-0.6378099

running_var f4 [4]
0	0x3e96fe75	0.2949101
1	0x3e8c9e6c	0.27464616
2	0x3e884bd4	0.26620352
3	0x3eaa57dd	0.3327016

weight f4 [16, 4, 1]
0	0x3ed1c83b	0.40973076
1	0xbee6f5d0	-0.45109415
2	0xbe5e6cff	-0.21721266
3	0x3f04b1ac	0.51833606
4	0xbd57be65	-0.05267181
5	0x3eae6029	0.3405774
6	0xbe2590db	-0.16168539
7	0x3ecbf560	0.39835644
8	0x3f141631	0.5784636
9	0xbece5b83	-0.40304193
10	0x3ec1c300	0.37844086
11	0xbed91785	-0.42400756
12	0x3e932913	0.28742275
13	0x3e1445c6	0.14479741
14	0x3f12b22b	0.5730311
15	0xbe58f330	-0.21186519
16	0xbd9c5f96	-0.07635419
17	0x3c4e8cb9	0.012606793
18	0x3e705798	0.23470914
19	0x3de0f47f	0.10984134
20	0xbe554f72	-0.20831087
21	0xbeacc775	-0.33745924
22	0xbed37a48	-0.4130423
23	0xbe23e0b6	-0.16003689
24	0xbee8956d	-0.45426503
25	0x3de68e31	0.112575896
26	0xbf03cd55	-0.51485187
27	0x3ee51b2d	0.44747296
28	0xbe59fb92	-0.21287373
29	0x3d2f7f89	0.042846236
30	0x3e40b300	0.18818283
31	0xbe91c652	-0.2847162
32	0xbe9ed47c	-0.31021488
33	0x3ebfd2e7	0.37465593
34	0xbe9a27c6	-0.3010847
35	0xbe318fa1	-0.17339946
36	0xbeea85ab	-0.45805106
37	0xbcb25f02	-0.021773819
38	0xbe947690	-0.28996706
39	0xbeb7acf9	-0.35874155
40	0x3e457196	0.19281611
41	0xbe53f835	-0.20700152
42	0x3e188241	0.14893438
43	0x3dbe2fdf	0.092864744
44	0x3ddd4bf1	0.108055
45	0xbe9c3dec	-0.30515993
46	0xbe837235	-0.2567307
47	0xbdb7fbf5	-0.08983604
48	0x3efe822f	0.49708697
49	0xbe809306	-0.2511217
50	0x3e5045c2	0.2033911
51	0xbec7be0a	-0.39012176
52	0x3eaafeda	0.3339756
53	0xbe0180e0	-0.12646818
54	0x3e8df198	0.27723384
55	0x3e9052f9	0.28188303
56	0xbe605750	-0.21908307
57	0x3ed63bc3	0.4184247
58	0x3d1eddb9	0.03878567
59	0x3e41a04d	0.18908806
60	0x3d81456a	0.06312068
61	0x3dfb3b3d	0.12267158
62	0xbddc415b	-0.10754653
63	0xbf01847d	-0.50592786

bias f4 [16]
0	0xbe55b008	-0.20867932
1	0xbe23d7ab	-0.1600024
2	0xbe0788bf	-0.13235758
3	0x3e316964	0.1732536
4	0xbdc859a1	-0.0978272
5	0x3e8b738f	0.27236602
6	0xbc762e1d	-0.015025643
7	0xbdeae383	-0.11469176
8	0x3e59277b	0.21206467
9	0x3f025d0f	0.50923246
10	0xbba87e7e	-0.005142032
11	0x3eba1eec	0.36351717
12	0xbea41206	-0.32045
13	0xbeec8c88	-0.46200967
14	0xbefde87f	-0.49591443
15	0xbec0ea97	-0.37678978

weight f4 [16]
0	0x3f8a8456	1.0821636
1	0x3f81448b	1.0099043
2	0x3f748bbf	0.95525736
3	0x3f793e4d	0.9736069
4	0x3f83d259	1.0298568
5	0x3f992ef0	1.1967449
6	0x3f826a5a	1.0188706
7	0x3f71c8f3	0.9444725
8	0x3f87a7fa	1.0598137
9	0x3f771f20	0.9653187
10	0x3f7c66c5	0.98594314
11	0x3f708fe8	0.93969584
12	0x3f81d314	1.0142541
13	0x3f85b908	1.0447092
14	0x3f81614e	1.010782
15	0x3f71cb65	0.9445098

bias f4 [16]
0	0x3dd3bc2c	0.10338625
1	0x3dac5263	0.084141515
2	0xbe0c7ade	-0.13718745
3	0xbcfcf23d	-0.030877227
4	0xbdf6a385	-0.120429076
5	0x3d97ea2f	0.07417714
6	0x3d66fa63	0.05639113
7	0x3d3a78ce	0.045525365
8	0xbdf54fa4	-0.11978081
9	0x3cacc250	0.02108875
10	0xbd11e6c8	-0.03562048
11	0x3e37f1f3	0.1796339
12	0xbd38c867	-0.045112994
13	0xbd8a193a	-0.06743093
14	0x3d50174f	0.05080348
15	0x3b0b1e10	0.0021227635

running_mean f4 [16]
0	0xbdd34619	-0.103161044
1	0xbbc635c1	-0.0060488884
2	0xbde9ac5d	-0.11409829
3	0x3ebcefbb	0.3690165
4	0xbc908460	-0.017641246
5	0xbcd5f994	-0.026119985
6	0xbdce7b35	-0.100820936
7	0xbe4e7f81	-0.20165826
8	0x3db2be43	0.08727696
9	0x3e446f59	0.19183101
10	0x3d833718	0.06406993
11	0x3e61a5f6	0.22035965
12	0xbea4bcc6	-0.32175273
13	0xbe7734f9	-0.24141301
14	0xbec2bd43	-0.3803502
15	0xbf052a42	-0.52017605

running_var f4 [16]
0	0x3d9996a4	0.074994355
1	0x3c233892	0.009962218
2	0x3ea26557	0.3171794
3	0x3f5adc02	0.85491955
4	0x3ca4eb3f	0.020131705
5	0x3f350751	0.7071429
6	0x3f2e9d7a	0.6820904
7	0x3b80b66e	0.0039279973
8	0x3d381a19	0.044946764
9	0x3ee4dc08	0.4469912
10	0x3c72f375	0.0148285525
11	0x3e1ae4d6	0.15126356
12	0x3e5a0063	0.2128921
13	0x3e3573cc	0.17719954
14	0x3d0c4538	0.0342457
15	0x3ca69b20	0.020337641

weight f4 [8, 16, 2]
0	0x3e63227a	0.2218112
1	0x3dc6b87f	0.097031586
2	0xbb46a1bb	-0.0030308801
3	0x3db3a538	0.08771747
4	0xbdec52cd	-0.115392305
5	0xbd853920	-0.06505036
6	0x3cffff43	0.031249648
7	0x3e082a71	0.1329744
8	0x3e1a3b83	0.15061764
9	0x3d201cce	0.03908997
10	0xbe4923ea	-0.19642606
11	0x3e19f432	0.1503456
12	0x3d7fa9c0	0.062417746
13	0x3bc80e23	0.006105201
14	0xbe3139df	-0.17307232
15	0xbde5abe9	-0.1121443
16	0xbe76b643	-0.24092965
17	0xbe2c26ab	-0.16811626
18	0x3d62faa7	0.055414822
19	0x3d82a6d5	0.06379477
20	0xbcd189cc	-0.025578402
21	0xbdacf489	-0.08445079
22	0xbdf4823c	-0.11938903
23	0xbe0209a4	-0.1269899
24	0x3e496d97	0.19670711
25	0x3dc34a4a	0.09535654
26	0x3deeeb6b	0.11665996
27	0x3de1b176	0.11020176
28	0xbd034491	-0.032047812
29	0xbd36c740	-0.044623613
30	0x3b983818	0.004645359
31	0xbdfe6b74	-0.12422839
32	0xbe656dfa	-0.22405234
33	0xbd66cc58	-0.05634722
34	0xbe32c1ae	-0.17456695
35	0x3e4c9fc6	0.19982824
36	0xbe190488	-0.14943135
37	0x3de59ea0	0.11211896
38	0x3e0300e5	0.1279331
39	0x3d1c170f	0.038107928
40	0xbe3fbaf7	-0.18723665
41	0xbe14e99b	-0.14542238
42	0xbe6bd719	-0.23031272
43	0x3e4bb2dc	0.19892448
44	0xbe72ab5e	-0.23698184
45	0x3e306ad8	0.17228258
46	0x3e3903d7	0.18067871
47	0x3d94e268	0.07269746
48	0xbe55d931	-0.20883633
49	0x3c92fbc0	0.01794231
50	0xbd73b4e9	-0.0594987
51	0x3db56480	0.088570595
52	0xbdbe3741	-0.092878826
53	0x3d45ee4a	0.048322953
54	0xbdf5be20	-0.11999154
55	0xbb9781e1	-0.004623637
56	0xbe44dbcb	-0.1922447
57	0x3c1c4006	0.009536749
58	0x3dca47ac	0.098769516
59	0x3df4882c	0.11940035
60	0xbcb60ee3	-0.022223895
61	0xbe1465f2	-0.14492014
62	0x3e2bb829	0.1676947
63	0xbd56d139	-0.052445624
64	0x3c630364	0.013855789
65	0xbc91591c	-0.017742686
66	0x3da5b59b	0.08091279
67	0x3e4d7f48	0.20068085
68	0x3e07a648	0.13247025
69	0xbe241d05	-0.16026695
70	0x3cfd710c	0.030937694
71	0x3dae5dca	0.085139826
72	0x3d542052	0.051788636
73	0x3e0e2005	0.13879402
74	0x3e9afaa9	0.30269364
75	0x3e3da28d	0.1851904
76	0x3cdd8dd1	0.027045162
77	0x3d381c41	0.04494882
78	0xbdc20efc	-0.09475514
79	0x3de57a85	0.11205009
80	0x3ca9a97c	0.0207107
81	0x3e53c5d7	0.20680939
82	0x3e61419e	0.21997687
83	0x3c2cf799	0.010557079
84	0xbe1e17e3	-0.154388
85	0x3e34105f	0.1758437
86	0x3e9fd697	0.31218407
87	0x3d8a6014	0.06756607
88	0xbd8907ab	-0.06690916
89	0x3d4d266c	0.05008547
90	0x3d1c19b8	0.038110465
91	0xbd627da8	-0.055295616
92	0xbd25996d	-0.04042952
93	0x3d32317d	0.043504227
94	0x3db10105	0.086427726
95	0xbe14f015	-0.14544709
96	0x3cffcafe	0.031224724
97	0xbdf2ce17	-0.11855715
98	0xbe1f984d	-0.15585442
99	0xbdd94618	-0.106090724
100	0xbd8927d8	-0.06697053
101	0x3e28e44b	0.16493337
102	0x3cb1f28f	0.021722106
103	0x3dfba733	0.1228775
104	0xbdbef597	-0.09324186
105	0xbd063d7f	-0.03277349
106	0x3c918a3e	0.017766114
107	0xbdabec3c	-0.083946675
108	0xbbe2b80d	-0.006918913
109	0xbd8a7a80	-0.06761646
110	0x3db895ad	0.090129234
111	0x3d674bc3	0.056468736
112	0x3d0789ab	0.033090275
113	0x3d6d026e	0.057863645
114	0xbd28dd37	-0.041226592
115	0xbe2d7ab0	-0.16941333
116	0xbe4816a7	-0.19539891
117	0x3e495b12	0.19663647
118	0x3d737486	0.059437297
119	0x3d85b5fa	0.0652885
120	0xbe358c9e	-0.17729422
121	0x3df556ef	0.11979472
122	0xbd898245	-0.067143
123	0x3e09892e	0.13431236
124	0x3dd2f7d3	0.10301175
125	0xbe0908a2	-0.133822
126	0x3db673a7	0.08908778
127	0x3dd22f22	0.10262896
128	0xbe1596e6	-0.14608344
129	0x3d8065e6	0.062694356
130	0xbd640341	-0.055667166
131	0xbe1d24fc	-0.1534614
132	0xbdbd3b27	-0.09239798
133	0x3e0e9771	0.13924958
134	0x3a102926	0.00054992957
135	0xbd491f5f	-0.049102183
136	0xbdf744c9	-0.120736666
137	0x3e2bd736	0.16781315
138	0x3e5a24db	0.21303122
139	0xbc89e64e	-0.01683345
140	0x3e01fa7a	0.12693205
141	0x3db026fd	0.086011864
142	0xbe4b71ad	-0.19867583
143	0x3d86b72c	0.06577906
144	0x3e31a43e	0.1734781
145	0x3bfb9cc6	0.007678601
146	0x3e230bbe	0.15922448
147	0xbd665c78	-0.05624053
148	0xbd8eb977	-0.06968968
149	0xbd90c9fa	-0.07069774
150	0xbd292c1a	-0.041301824
151	0x3d26adc0	0.040693045
152	0x3d846ea8	0.064664185
153	0x3dbc61fa	0.09198375
154	0xbb318059	-0.0027084558
155	0xbcd6f615	-0.026240388
156	0x3e2e6b60	0.17033148
157	0x3e20e79d	0.15713353
158	0xbd30cd5b	-0.043164592
159	0xbd120165	-0.03564586
160	0xbe2cf2d3	-0.16889505
161	0x3e31ee9b	0.17376177
162	0xbdcead3e	-0.10091637
163	0x3d8dd478	0.06925291
164	0xbd8c1915	-0.068407215
165	0x3c60b852	0.01371582
166	0x3e3dd49b	0.18538134
167	0x3e04ca14	0.12967712
168	0xbd312add	-0.04325377
169	0x3e051da3	0.12999587
170	0xbd1f15c6	-0.038839124
171	0x3de67ebd	0.11254642
172	0xbdd89a2d	-0.10576282
173	0xbbac7b54	-0.0052637253
174	0x3c95448d	0.018221164
175	0xbcfe348f	-0.031030921
176	0x3ca4607e	0.020065542
177	0x3cc2f721	0.02379948
178	0x391dc665	0.00015046594
179	0x3d29a8c3	0.04142071
180	0xbd8b08a1	-0.06788755
181	0x3d17e25f	0.03708112
182	0xbd884344	-0.06653455
183	0xbd11de25	-0.035612244
184	0xbe02e271	-0.12781693
185	0x3d8fe148	0.07025391
186	0x3e239dfd	0.15978236
187	0xbce88f04	-0.028388508
188	0xbcb84dbd	-0.022498006
189	0x3e0db8ad	0.1383998
190	0xbe1ee39b	-0.15516512
191	0xbd5237f0	-0.051322877
192	0x3b73372f	0.003711175
193	0xbe6050db	-0.21905844
194	0xbdf7a5a2	-0.12092139
195	0x3e0834ec	0.13301438
196	0xbd17f26e	-0.037096433
197	0x3e0d809e	0.13818595
198	0x3dbad05d	0.091217734
199	0xbe27e093	-0.16394262
200	0xbd9f6c84	-0.077843696
201	0x3e1b8b70	0.1518991
202	0x3d3d8717	0.04627141
203	0x3de8c3f9	0.11365504
204	0x3e01e8da	0.12686482
205	0x3c884e0a	0.016638774
206	0xbd726735	-0.059180457
207	0xbd8667e6	-0.06562786
208	0x3dcc11e5	0.099643506
209	0x3e38c931	0.18045498
210	0x3ddbe7ca	0.1073757
211	0x3dc481ed	0.09595094
212	0x3d6424da	0.055699207
213	0x3d43efa7	0.047835972
214	0xbdd580ae	-0.10424934
215	0x3d8e6125	0.069521226
216	0xbd39f575	-0.0454001
217	0xbe269816	-0.16268954
218	0xbe18ac40	-0.14909458
219	0x3dd8eb35	0.10591737
220	0xbd6f9463	-0.058491122
221	0x3d84de36	0.06487696
222	0x3c08257c	0.008309718
223	0x3db339e6	0.087512776
224	0x3e244bca	0.16044536
225	0xbd75533e	-0.05989384
226	0x3e0dca8d	0.13846798
227	0x3e0a4ae7	0.13505135
228	0x3dc1d2d1	0.09464038
229	0xbdf6162c	-0.12015948
230	0xbdd78e1a	-0.105251506
231	0x3db7addc	0.08968708
232	0x3d82a532	0.06379165
233	0xbe195dbd	-0.14977165
234	0x3c560908	0.013063677
235	0x3d9e67c9	0.07734639
236	0x3e0c3ece	0.13695833
237	0x3d778243	0.06042696
238	0x3d15a6c8	0.036536008
239	0xbce9afaa	-0.028526146
240	0xbe219c32	-0.1578224
241	0x3e3749db	0.17899267
242	0xbc264d4d	-0.010150266
243	0xbdb6efdd	-0.08932469
244	0xbd95f523	-0.07322147
245	0x3c5932c7	0.013256735
246	0xbda27c8a	-0.0793391
247	0xbdb409be	-0.08790921
248	0x3e2b6adf	0.16739987
249	0x3d8e1024	0.06936672
250	0xbd6e619e	-0.058198564
251	0xbde49246	-0.11160712
252	0xbe036004	-0.12829596
253	0xbe336e16	-0.17522463
254	0xbdba6f97	-0.09103315
255	0x3de71c94	0.11284748

bias f4 [8]
0	0xbc845eae	-0.016158428
1	0x3ca28feb	0.019844016
2	0x3e471263	0.19440608
3	0xbdbc79fc	-0.09202954
4	0xbe091aa1	-0.13389064
5	0x3e00926d	0.12555857
6	0x3e472ba6	0.19450244
7	0x3e16c5dc	0.14723915

weight f4 [8]
0	0x3f7c426b	0.98538846
1	0x3f952d8e	1.1654527
2	0x3f868ab5	1.051108
3	0x3f6886c9	0.90830666
4	0x3f70ffb8	0.94140196
5	0x3f842aae	1.0325525
6	0x3f808763	1.0041317
7	0x3f740b64	0.9532988

bias f4 [8]
0	0xbce1302a	-0.027488787
1	0x3b825778	0.0039777122
2	0xbd3222b6	-0.043490134
3	0xbc530b80	-0.01288116
4	0xbe5600f3	-0.208988
5	0xbc00113c	-0.007816609
6	0x3bb6dd1d	0.005580558
7	0xbd946411	-0.07245649

running_mean f4 [8]
0	0xbc1cdce7	-0.009574152
1	0xbdeb7935	-0.11497728
2	0x3f3a512d	0.72780114
3	0xbda0ec64	-0.07857588
4	0xbd6e73ae	-0.05821579
5	0x3deaedf8	0.1147117
6	0x3e75bc78	0.23997676
7	0x3e65857d	0.22414203

running_var f4 [8]
0	0x3e298c4e	0.16557428
1	0x3e06af75	0.13152869
2	0x3e2d9378	0.16950786
3	0x3e75b769	0.23995747
4	0x3d8190bd	0.06326435
5	0x3e22655c	0.15858978
6	0x3d8de471	0.06928337
7	0x3d62c804	0.05536653

weight f4 [4, 8, 2]
0	0xbe163ac0	-0.14670849
1	0xbd6018ed	-0.05471127
2	0xbd8e87cf	-0.06959497
3	0xbe88303e	-0.26599306
4	0xbe2086b9	-0.15676393
5	0xbdcc7981	-0.099841125
6	0x3ce4188a	0.027843732
7	0xbda9a886	-0.082840964
8	0x3d0e0210	0.034669936
9	0x3e89866c	0.26860368
10	0xbdc4256c	-0.0957745
11	0xbde59183	-0.11209395
12	0xbe7da833	-0.24771194
13	0xbe3f4312	-0.18677929
14	0xbe2696c3	-0.16268449
15	0x3db24487	0.08704477
16	0x3dd874b8	0.10569137
17	0xbd9d5a6f	-0.076832645
18	0x3dee963d	0.116497494
19	0xbe9281f9	-0.28614786
20	0x3e29f38d	0.16596813
21	0xbc91af68	-0.017783836
22	0xbd1836fe	-0.03716182
23	0xbe0ac4fa	-0.13551703
24	0xbdaef346	-0.085424945
25	0xbd865445	-0.06559042
26	0xbdc87a2d	-0.09788928
27	0x3de25965	0.11052207
28	0x3d376642	0.044775255
29	0xbcfced24	-0.030874796
30	0x3ddf6109	0.1090718
31	0x3e1d2b95	0.15348656
32	0xbe44f3a6	-0.1923357
33	0x3e208e48	0.15679276
34	0x3dc13c0a	0.0943528
35	0xb992d913	-0.00028009023
36	0xbd8291bc	-0.06375453
37	0xbdecc507	-0.115610175
38	0xbc1cac58	-0.009562574
39	0x3e0ed66d	0.13948984
40	0x3db89618	0.09013003
41	0x3d9ffeb3	0.07812252
42	0x3db90bc0	0.09035444
43	0xbd937994	-0.072009236
44	0xbd5b31bf	-0.05351424
45	0xbe6f81dc	-0.23389381
46	0x3e93ad0b	0.2884296
47	0xbdfb2ead	-0.12264762
48	0xbd9cbef1	-0.07653607
49	0x3c04f878	0.00811588
50	0x3e14cb70	0.1453073
51	0xbe5ed04c	-0.21759146
52	0x3e063d23	0.1310926
53	0x3e253d6e	0.16136715
54	0xbe4817cb	-0.19540326
55	0x3e7ba159	0.24573268
56	0x3d8c583a	0.068527654
57	0xbe0bcc52	-0.13652161
58	0x3dfbf4b8	0.12302536
59	0xbdcdef18	-0.10055369
60	0xbe233d80	-0.15941429
61	0xbd59c74a	-0.053168572
62	0x3dffc0fe	0.12487982
63	0xbdc10593	-0.09424891

bias f4 [4]
0	0x3c55ef60	0.01305756
1	0x3e79bb85	0.2438794
2	0xbdf5ad43	-0.11995938
3	0x3d3bb6b4	0.045828536

weight f4 [4]
0	0x3f8612b5	1.0474459
1	0x3f81642d	1.0108696
2	0x3f85e542	1.0460589
3	0x3f77f8e4	0.9686415

bias f4 [4]
0	0xbd434999	-0.04767761
1	0xbd50e32c	-0.050997898
2	0xbd90ebcf	-0.07076227
3	0x3e07271a	0.1319851

running_mean f4 [4]
0	0xbea7b5b6	-0.32755822
1	0x3e39d6eb	0.18148391
2	0xbd97dd30	-0.07415235
3	0x3b0434dd	0.002017311

running_var f4 [4]
0	0x3ee2a2ac	0.44264734
1	0x3dbfc882	0.09364416
2	0x3d3131f3	0.043260526
3	0x3d77159a	0.060323335

weight f4 [1, 4, 2]
0	0x3ea783a2	0.32717615
1	0xbc4f72b5	-0.012661626
2	0x3e70cc73	0.23515491
3	0x3e83c18b	0.257336
4	0x3e426e6e	0.18987438
5	0xbcd86251	-0.026414068
6	0xbe6822de	-0.22669551
7	0xbe6aaff5	-0.22918685

weight f4 [16, 80]
0	0xbe44ad62	-0.19206765
1	0x3ccc3907	0.024929537
2	0xbd36e2b6	-0.044649802
3	0x3e3386ff	0.17531966
4	0xbd9d0775	-0.07667438
5	0x3dcb7267	0.0993393
6	0x3e297618	0.16548955
7	0x3d0003bb	0.031253558
8	0x3ca66786	0.020313036
9	0x3e2c1e95	0.16808541
10	0xbe37365f	-0.17891835
11	0xbdb66c69	-0.08907396
12	0x3e47283e	0.19448945
13	0x3dc730aa	0.09726079
14	0xbd39cf4c	-0.04536371
15	0x3da92e35	0.082607664
16	0xbd9e1198	-0.077181995
17	0xbe4219a3	-0.18955092
18	0x3de17be1	0.11009956
19	0x3d3ee72c	0.04660718
20	0xb9cec34f	-0.00039436898
21	0x3c68ea43	0.014216009
22	0xbe5553df	-0.20832776
23	0x3d8495f6	0.06473915
24	0x3e2fe940	0.17178822
25	0xbde332a4	-0.11093643
26	0x3e1af403	0.15132146
27	0xbdf41bc0	-0.119193554
28	0x3e1cbc3d	0.15306182
29	0xbd672428	-0.056430966
30	0xbd210fd6	-0.039321743
31	0x3e7c662d	0.24648352
32	0xbdba06cf	-0.0908333
33	0xbe74454d	-0.23854561
34	0xbe223d67	-0.15843736
35	0xbe408f1d	-0.18804593
36	0x3d450506	0.048100494
37	0x3dcd7e2c	0.10033831
38	0x3dd5f4af	0.1044706
39	0xbd9f8252	-0.077885285
40	0x3a99bfbc	0.0011730115
41	0xbc9dc90d	-0.019260908
42	0xbd47ecc5	-0.048809785
43	0x3d1c56ac	0.038168594
44	0x3d820cc5	0.06350092
45	0x3da399dd	0.079883315
46	0x3dc76a18	0.09737033
47	0x3d75ee96	0.060041986
48	0x3db873e0	0.090064764
49	0xbb6b1e35	-0.003587616
50	0xbcc4c3ad	-0.024019087
51	0xbceb7d19	-0.028746175
52	0xbdfc367d	-0.1231508
53	0xbdb0561a	-0.086101726
54	0xbc53db88	-0.012930758
55	0xbe5b411d	-0.21411557
56	0x3d800702	0.06251337
57	0x3de98845	0.114029445
58	0xbdc53039	-0.09628338
59	0xbd03151b	-0.03200255
60	0x3dbd63e4	0.09247568
61	0xbd0cdee6	-0.03439226
62	0x3be7c942	0.0070735523
63	0x3d1088e1	0.035286788
64	0xbe076d05	-0.13225181
65	0x3e0472d4	0.12934428
66	0xbde11d01	-0.1099186
67	0x3d703548	0.058644563
68	0x3cf544b7	0.029939992
69	0xbd7f3923	-0.06231035
70	0xbd67eba9	-0.056621227
71	0xbc6b8b80	-0.014376521
72	0xbdc207c4	-0.094741374
73	0x3ca25592	0.019816194
74	0x3d7fde0b	0.062467616
75	0x3bce2fb8	0.0062923096
76	0xbd5750e9	-0.052567396
77	0xbcf0297f	-0.029316662
78	0xbce176d8	-0.02752249
79	0x3cb77db1	0.022398802
80	0x3e0375c5	0.12837894
81	0xbd4b8f3a	-0.04969714
82	0xbcc2cfab	-0.023780664
83	0xbe6e7859	-0.23288096
84	0xbbdc01b8	-0.006714072
85	0xbd4970e7	-0.049179938
86	0xbe7db334	-0.24775392
87	0x3c661d76	0.01404511
88	0xbdd28ea6	-0.10281114
89	0xbcb25ff4	-0.02177427
90	0x3dd074f3	0.10178556
91	0x3d9bf67a	0.07615371
92	0xbddd9d73	-0.10821047
93	0xbd96fbaf	-0.073722236
94	0x3ded2779	0.115797944
95	0x3db6a35f	0.08917879
96	0xbd7b3b5c	-0.061335906
97	0x3c3a73d6	0.0113801565
98	0xbe1b6140	-0.15173817
99	0xbd59ce54	-0.053175285
100	0x3dc4d4e1	0.09610916
101	0xbde38ca1	-0.11110807
102	0x3e793241	0.24335577
103	0xbce2c4f3	-0.027681803
104	0xbe4dfc5e	-0.20115802
105	0xbcbc7fb7	-0.023010118
106	0xbd9206b2	-0.07130183
107	0xbbc606dd	-0.0060432986
108	0xbd9be12e	-0.07611309
109	0xbb64fc8d	-0.003494057
110	0x3dc859bb	0.0978274
111	0xbe8f8698	-0.28032374
112	0x3c6a529d	0.014301923
113	0x3e33d609	0.17562117
114	0xbd25263e	-0.040319674
115	0x3deaacd3	0.11458745
116	0x3d9e4630	0.07728231
117	0xbe241e73	-0.1602724
118	0xbdaae801	-0.083450325
119	0x3a55b9e8	0.00081530074
120	0x3d6d0304	0.057864204
121	0x3c2273ed	0.009915334
122	0xbccf42f3	-0.025300479
123	0x3db4300d	0.087982275
124	0xbe0d3587	-0.1378995
125	0xbdb7ffda	-0.08984347
126	0xbde8db91	-0.11370004
127	0xbdcbe6e7	-0.099561505
128	0x3be201e2	0.006897197
129	0xbdebe77f	-0.11518764
130	0xbd8673c6	-0.06565051
131	0x3dbb2874	0.09138575
132	0xbc83a813	-0.016071355
133	0x3d26475c	0.040595397
134	0x3d01e942	0.031716593
135	0x3e98fc1a	0.29879838
136	0xbd8dd7ed	-0.0692595
137	0xbe0229e3	-0.12711291
138	0xbd100434	-0.03516026
139	0xbda7518c	-0.08169851
140	0xbcc1b3cf	-0.02364531
141	0xbe0a43ad	-0.13502379
142	0xbdfbb082	-0.122895256
143	0xbd15ae83	-0.03654338
144	0x3dbade22	0.091244
145	0xbe009e1f	-0.12560318
146	0xbdf30510	-0.118662
147	0x3cfbb1b2	0.03072438
148	0x3cb514d8	0.022104666
149	0x3d5abfaf	0.05340546
150	0x3c28752b	0.010281841
151	0xbd0a9310	-0.033831656
152	0x3e0be5c1	0.13661863
153	0x3c97a582	0.018511537
154	0x3c56805a	0.013092125
155	0x3d9ba87e	0.07600497
156	0xbb98e79b	-0.0046662814
157	0xbe436351	-0.19080855
158	0x3d6f1718	0.058371633
159	0x3d86a6f6	0.06574814
160	0xbd359e4d	-0.04434042
161	0x3d283671	0.041067544
162	0x3c619cca	0.013770292
163	0x3e2a90a6	0.16656741
164	0x3dab2854	0.08357301
165	0x3dc6a712	0.09699835
166	0x3e6014a1	0.2188287
167	0x3da7e6f3	0.08198347
168	0x3e24fd60	0.1611228
169	0x3c94293f	0.018086074
170	0xbd4ffdb3	-0.050779056
171	0xbd38aaed	-0.045084883
172	0x3e1f7fc3	0.15576081
173	0xbc617e8a	-0.013763079
174	0x3d0e4850	0.03473693
175	0x3d9d5629	0.07682449
176	0x3b855ec2	0.004070134
177	0xbd5f75af	-0.05455559
178	0x3e2d2b8b	0.16911142
179	0x3d3d1840	0.046165705
180	0xbe10c842	-0.14138892
181	0x3dc6815c	0.09692642
182	0xbd660843	-0.056160223
183	0x3ccfdd82	0.025374178
184	0x3dbd6c48	0.09249169
185	0xbdc05a64	-0.09392241
186	0x3e2bd6d0	0.16781163
187	0xbd189aa5	-0.037256856
188	0x3e5e9f99	0.21740569
189	0x3d795a0b	0.060876887
190	0xbe13667d	-0.14394565
191	0x3ec8f367	0.392482
192	0xbe22d4f0	-0.15901542
193	0xbe55114b	-0.20807378
194	0x3cb72916	0.022358458
195	0xbe4ca361	-0.19984199
196	0x3dc5f99b	0.09666749
197	0xbce8bd68	-0.028410628
198	0x3e2ac9ab	0.16678493
199	0xbcbebb02	-0.023282532
200	0x3d2309d0	0.03980428
201	0xbd8914fa	-0.06693454
202	0x3cef0925	0.029179165
203	0xbd282d72	-0.041058965
204	0x3dd2db38	0.10295719
205	0x3b296242	0.002584592
206	0xbcd20601	-0.025637629
207	0x3de7ec21	0.11324335
208	0xbcbeb76e	-0.023280825
209	0x3dd54f80	0.10415554
210	0xbd6b4f15	-0.057448465
211	0xbd92a38f	-0.071601026
212	0xbbee2d88	-0.0072686113
213	0x3cc7bdb5	0.024382452
214	0x3b0c49f9	0.0021406396
215	0xbe35635b	-0.17713682
216	0x3bbac21f	0.0056994106
217	0x3d6cc4d5	0.0578049
218	0xbdd474ea	-0.10373862
219	0x3d8468b6	0.064652845
220	0xbcdd64fb	-0.02702569
221	0xbd308197	-0.043092337
222	0x3d4aa3ad	0.0494725
223	0xbd1c3278	-0.03813407
224	0x3d811fbb	0.0630488
225	0x3e2055cc	0.15657729
226	0xbd22fe59	-0.039793346
227	0x3d1e55b9	0.03865597
228	0x3d9ebd5c	0.07750961
229	0xbdf3a391	-0.11896432
230	0xbcf2b647	-0.029627932
231	0xbd51ab3b	-0.05118869
232	0x3c92a825	0.017902443
233	0x3d04930a	0.03236679
234	0x3d2acc31	0.04169864
235	0x3d9b9c4f	0.07598173
236	0xbcfc00a2	-0.03076202
237	0x3c0cc6cd	0.00859232
238	0x3ca3c70c	0.019992374
239	0xbdb35b2c	-0.08757624
240	0x3d5f7fbd	0.05456518
241	0x3cb87793	0.022517955
242	0x3e0f1d13	0.13975935
243	0xbe3952ec	-0.18098038
244	0xbcea5804	-0.028606422
245	0x3d313022	0.043258794
246	0xbe41206f	-0.18860029
247	0xbe1dd1fe	-0.15412137
248	0xbe4d588b	-0.20053308
249	0xbe4d2213	-0.2003253
250	0xbaf10e55	-0.0018391112
251	0x3c89336a	0.016748149
252	0xbe2a2914	-0.16617233
253	0xbe1c6085	-0.15271194
254	0x3e047c25	0.12937982
255	0xbcbdfaf1	-0.023190947

bias f4 [16]
0	0xbd8e5756	-0.06950252
1	0x3e437aba	0.19089785
2	0xbe43aac8	-0.19108117
3	0x3e31e24b	0.1737148
4	0x3d1ab34f	0.03776866
5	0xbc23361a	-0.009961629
6	0xbe38e470	-0.18055892
7	0xbe1b9d05	-0.15196617
8	0x3e18421f	0.14868973
9	0x3e2fefe1	0.1718135
10	0x3dacefef	0.08444201
11	0xbe0d37a9	-0.13790764
12	0xbd55836d	-0.05212729
13	0xbd9baece	-0.07601701
14	0xbe45a02d	-0.19299383
15	0x3cce380d	0.025173211

weight f4 [2, 16]
0	0x3e540897	0.20706402
1	0xbe51ed88	-0.20500767
2	0x3ed2eb53	0.41195163
3	0xbe823196	-0.25428456
4	0xbe484967	-0.19559251
5	0xbe739fa2	-0.23791364
6	0x3d9b9b71	0.075980075
7	0x3e4e9325	0.20173319
8	0xbed64b1d	-0.41854182
9	0xbec04d10	-0.37558794
10	0xbedfe2ef	-0.43727824
11	0x3e6e8f9f	0.23296975
12	0x3e2eef47	0.17083465
13	0x3e401989	0.18759741
14	0x3ec7c5aa	0.39017993
15	0xbe52f007	-0.20599376
16	0xbec06467	-0.375766
17	0x3e33ce49	0.1755916
18	0xbeaf8fbb	-0.34289345
19	0x3e91a7e0	0.2844839
20	0x3e982366	0.29714507
21	0x3e08c31c	0.13355678
22	0xbee63fb5	-0.4497048
23	0xbde98271	-0.11401833
24	0x3e7b260f	0.24526237
25	0x3be021f6	0.006839986
26	0x3ed45613	0.4147192
27	0xbd81e9fe	-0.063434586
28	0xbed2780a	-0.41107208
29	0xbeed6f9a	-0.46374208
30	0xbe6b56f6	-0.22982392
31	0x3d629ee3	0.055327307

bias f4 [2]
0	0xbea1a2d5	-0.31569543
1	0x3ea0f69d	0.3143815
