mlpcnnsemi/model/cnn/64twoinput_batch1_Epoch=45_lr=0.0001.pth (torch, 24731 bytes, 35 tensors)

weight f4 [8, 1, 1]
00000000: b774 12bf 22bc c13e d0c0 db3d 5c48 1b3f
00000010: 8fe8 4b3f 78aa 5abe 3e77 833f 45e2 1abf
-0.5720934 0.37838846 0.107301354 0.60657287 0.7965173 -0.21354091 1.0270765 -0.6050151

bias f4 [8]
00000000: 30f2 423d 5de4 663f ab89 663f bcc6 57bf
00000010: 9119 2c3f f68d c7bd c9b2 d63e 69ae 36bf
0.04759425 0.90192205 0.90053815 -0.8428762 0.6722651 -0.09743874 0.41933277 -0.7135988

weight f4 [8]
00000000: cdd8 833f bf0f 7b3f 2223 813f 59b8 7f3f
00000010: 225a 7e3f dc39 7d3f 0d13 803f 5a89 7d3f
1.0300537 0.980709 1.0088847 0.9989067 0.9935628 0.9891641 1.0005814 0.99037707

bias f4 [8]
00000000: f5d9 353d 74f9 993c 5096 9cbd 5b69 c9bd
00000010: deab fa3b 24d7 bb3d 3c62 27bd 2ff1 65bd
0.044397313 0.018795706 -0.07645857 -0.09834548 0.0076498827 0.09171894 -0.040865168 -0.056138214

running_mean f4 [8]
00000000: 3079 273d fa09 683f 01d5 663f 66f1 55bf
00000010: fe7e 2e3f 279a ccbd 42e5 dc3e 4c83 38bf
0.040887058 0.90640223 0.9016877 -0.8357147 0.68162525 -0.0999034 0.4314366 -0.72075343

running_var f4 [8]
00000000: c435 ba39 40e7 2239 7b52 5137 974f d139
00000010: ee9f 343a c897 4f38 b727 963a 6172 d039
0.00035516743 0.00015535671 1.2476575e-05 0.00039922885 0.00068902865 4.9494003e-05 0.0011455928 0.0003975807

weight f4 [16, 8, 1]
00000000: f5b3 8fbd d008 56be 3484 383d b8d9 89be
00000010: 00e6 9e3d 8f1d 52be 3cb6 853c 6a7f f4bc
00000020: f60d ff3d 6a75 6ebe ad32 253c 7e74 dbbd
00000030: 3b14 3c3d 36c2 3cbd f937 673e 7b3d 10be
00000040: ec85 16be acdd d43d d608 71be 1449 2bbe
00000050: 804e 51be 9994 85bc 9b4b c33e 3a58 da3e
00000060: 5186 a7be 8b9e 99be dcbc 963e f1c0 123e
00000070: e9a0 263d 859d 06bd a20f 60bd 93a0 623e
00000080: 8875 a1bd c6ed 02bd 9142 8abe 1cda ac3e
00000090: 53f8 e03d 45be 8b3e ffe6 47be c735 e43e
000000a0: 1295 553e 18c7 89bd 6d9b 42bd 6c29 99be
000000b0: e00a 5f3e 1573 66be 4330 e73b 12df 793c
000000c0: 9f77 adbe 281b a83e 1074 213b 9da6 78be
000000d0: d5bd 27be 05f5 8bbe 38ba 33be 30f8 7f3d
000000e0: b4f4 cabd 188f 8cbc 07f5 5abe c52a 9dbe
000000f0: 392b 1f3e e4e6 67be a03c a63e 4bab b93e
00000100: dc1d eebd 698a 16be 6101 ccbd 026d 943d
00000110: 65c0 ad3e b4cf 453e dee1 5b3c 92e0 3fbe
00000120: 82a1 40be 6c59 7a3e ea99 9b3e 8e01 34be
00000130: 5137 3b3e 01fd 0bbe dbab 73be 91f1 1cbe
00000140: 1847 c5bd 2e1f 73be 0e8f 9e3d 6689 b5be
00000150: 804f 483e ca4f 183e db09 a0be 950c 18be
00000160: 7e08 a03e d5a3 b53d 0e14 703e 95d0 90be
00000170: 7d02 5e3e fbf8 bd3d 21cb 9c3d 8ce2 b0bd
00000180: 2516 ac3d a7b4 903e 9ea4 9f3e 830e 213d
00000190: 1261 ae3d 6c70 843e eb31 cc3e 3c87 363e
000001a0: e0ac 38bb a5a6 b03e eefd 933e 3adb f8bd
000001b0: 60c3 c73e d0d0 ab3d 9c74 33be beea 9dbe
000001c0: 5287 153e 7e3a ea3d 96a8 75bd c1a1 f5bd
000001d0: d5f6 263e 30b7 a1be c123 8cbe cded 80be
000001e0: 3f55 86be 0b64 bdbe ba2e d13e 48d7 06be
000001f0: 4f4a bebd b232 c53d 94af a9be d49d 99bc
-0.07016746 -0.20901799 0.045047954 -0.2692392 0.07758713 -0.20519088 0.016322248 -0.029845912
0.12453835 -0.23286977 0.010082883 -0.107155785 0.04591773 -0.04608365 0.22579946 -0.14085953
-0.14699525 0.10393843 -0.23538527 -0.16727096 -0.20440102 -0.016306208 0.3814362 0.42645437
-0.32719663 -0.3000377 0.29440963 0.14331414 0.0406808 -0.032865066 -0.05470241 0.22131567
-0.078837454 -0.03196504 -0.2700391 0.33760154 0.10984864 0.27293602 -0.19521712 0.4457228
0.20857647 -0.06727427 -0.047511507 -0.29914415 0.21781492 -0.22504838 0.007055314 0.015250938
-0.33880326 0.3283322 0.002463583 -0.24282308 -0.16381009 -0.27335373 -0.17551506 0.06249255
-0.09909955 -0.017158076 -0.21382533 -0.30696693 0.15543832 -0.22646672 0.32468128 0.362635
-0.11626789 -0.14701237 -0.099612005 0.07247354 0.33935848 0.19317514 0.01342055 -0.1873801
-0.1881161 0.24448174 0.30390865 -0.17578718 0.1828282 -0.13670732 -0.23796026 -0.15326525
-0.09632701 -0.23742363 0.07742129 -0.3545639 0.19561577 0.14874187 -0.3125752 -0.1484855
0.3125648 0.08869139 0.2344515 -0.28284135 0.21680637 0.09276005 0.07655931 -0.086369604
0.08402661 0.28262827 0.3118028 0.03932048 0.085146084 0.2586702 0.39881834 0.17825025
-0.0028179213 0.3450214 0.2890467 -0.12151189 0.39016247 0.08389437 -0.17524952 -0.30843157
0.14602402 0.11436938 -0.05997523 -0.11993743 0.16305096 -0.31585073 -0.27371028 -0.25181428
-0.26236913 -0.3699039 0.40855962 -0.13168061 -0.09291517 0.0962881 -0.33141768 -0.018752016

bias f4 [16]
00000000: d369 923e 8281 dabc 5760 f33d b435 85be
00000010: 42c3 9a3e ef71 de3b c16b 0ebd d317 623e
00000020: 718e 0bbe 8794 483d 3158 8a3e 60c3 373e
00000030: f848 94be 5a5c 0c3e e7d7 84be 3583 64be
0.28596362 -0.026673082 0.1188361 -0.26017535 0.30227095 0.0067884843 -0.03477073 0.220794
-0.13628556 0.04896977 0.2702041 0.17945623 -0.2896192 0.13707104 -0.2594597 -0.22315677

weight f4 [16]
00000000: 47fa 813f ecc5 853f a65a 833f 3713 6b3f
00000010: 6a97 793f 9671 813f e9c2 873f ef95 843f
00000020: f19e 803f 4422 863f a963 743f 3eae 803f
00000030: 3a4f 893f b079 6e3f 2e43 8b3f cd13 913f
1.0154504 1.0451026 1.0262039 0.91826195 0.97496665 1.0112789 1.0606357 1.0358256
1.0048505 1.0479207 0.9546457 1.0053174 1.0727303 0.9315443 1.0879877 1.1334168

bias f4 [16]
00000000: f610 963c 1906 9dbd 395b 773b 0ab6 08bd
00000010: 469e a7bd a25a 493d 1a39 f6bd e054 5f3d
00000020: b4be 7f3d 3f8a 523c c4be 86bd 59b9 8abc
00000030: b994 523d b2ff 57bd 70cf 1c3d 5bbc 913c
0.018318634 -0.07667179 0.0037743582 -0.03337673 -0.08184485 0.0491587 -0.1202261 0.054524302
0.062437728 0.012850343 -0.065793544 -0.016934084 0.051411364 -0.052734084 0.038283765 0.01779001

running_mean f4 [16]
00000000: a982 fb3d eb3f 3dbd 5ecf 163e 25d2 9fbe
00000010: 02c0 e63e 4ab0 f8bc b021 81be 0b93 543e
00000020: 51bd ccbd 5265 7bbc 96d8 e23d 7f4b b13e
00000030: 9598 af3d 5849 833e 304e c9be 6138 d8be
0.12280781 -0.046203535 0.14727542 -0.31215015 0.45068365 -0.030357499 -0.25221014 0.20759217
-0.09997047 -0.015343981 0.11076467 0.3462791 0.085740246 0.25641894 -0.39317465 -0.42230514

running_var f4 [16]
00000000: 5e6c a83d a80f fa3a 8f6b a63b 318d a33b
00000010: bc23 153c 147e bf3c f650 3b3d c0a0 223a
00000020: cdf4 1c3d ac9c 8e3d 8cab a83e 30bb 573d
00000030: 19e5 4f3f d5f4 b83e c0b1 963c 4ab8 943e
0.082237944 0.0019078152 0.00507874 0.0049911966 0.009102758 0.023375548 0.045731507 0.0006203763
0.038319398 0.069634765 0.3294338 0.05266875 0.8120895 0.36124292 0.018395305 0.2904685

weight f4 [8, 1, 3]
00000000: 15a0 b93e 2c15 0dbf 9328 cabe a6cf 04bf
00000010: 1701 cb3e e4b6 1bbe 712b 8abe 324d 223e
00000020: 30ac ef3e 8961 3d3e a218 cbbe 297d 923e
00000030: c96c 693e 1620 3a3e a9fa eb3e ee57 aabe
00000040: 3c0f 653d 4981 dc3e e9e9 00bf 48b9 c2be
00000050: 45d2 43be 04e9 883d e1d7 c5be 81cc 753e
0.36254945 -0.5511043 -0.3948408 -0.51879346 0.3964927 -0.15206486 -0.26986268 0.1584976
0.46811056 0.18494238 -0.3966723 0.28611115 0.22795404 0.18176302 0.46089676 -0.3327021
0.05592273 0.43067387 -0.5035692 -0.38031983 -0.1912318 0.06685069 -0.38641265 0.24003793

bias f4 [8]
00000000: 3d69 273d 4f0b 0cbd 9cf6 b13e c1a4 083f
00000010: c1df 9b3e 187c fd3e 2b2c edbe e4eb eebd
0.040871847 -0.034190472 0.3475846 0.53376395 0.30444148 0.4950874 -0.4632276 -0.11666086

weight f4 [8]
00000000: d1d1 793f b576 733f 7aa4 773f 4c19 813f
00000010: f2b6 7a3f d1ca 863f ad25 823f d8d3 833f
0.9758578 0.9510301 0.96735346 1.0085845 0.979354 1.0530645 1.0167748 1.0299025

bias f4 [8]
00000000: c1fe ab3d 56ea a3bc 075d 7d3d b114 a7bd
00000010: 5bdd e63c 8c6a 97bd 9e43 243d 74d5 5e3d
0.083982 -0.020009201 0.061856296 -0.081582434 0.028181722 -0.07393369 0.040103547 0.054402784

running_mean f4 [8]
00000000: 50a1 203d 720c 0abd 0264 b23e 2786 083f
00000010: c99f 9c3e 0dad fd3e 5f3e eebe e67a f0bd
0.03921634 -0.033703275 0.34841925 0.533297 0.30590656 0.4954609 -0.4653196 -0.11742191

running_var f4 [8]
00000000: c079 7c3a 292d 0a3a 9697 d839 6c88 ac39
00000010: ebfb 2e3a 9404 ad39 5e55 8c3a dfc0 9139
0.0009631179 0.00052710116 0.0004131167 0.0003290804 0.0006675112 0.00033000542 0.0010706594 0.00027800255

weight f4 [16, 8, 3]
00000000: 1e58 b4bd c28d 673e 3526 703d 1fa8 13be
00000010: 7641 9b3b b900 3c3e e666 31bd a5cd 41be
00000020: ad93 45bd cc80 3d3e bfd9 253e 62cb 313e
00000030: e0ef b9bd b73e d43d 0743 e13d de1e f9bb
00000040: ad58 733d debe 473e 52c2 79bd ee89 c53d
00000050: 30c5 453d f151 c1bc eb25 513d 3b3d 59bd
00000060: da40 063e e007 c3bb 2de9 2b3e 66a6 aebd
00000070: a95a 2b3e 67c1 3f3c 139f 063e 07ed 373e
00000080: bc4d 9ebc e064 ab3d 4027 f7bd 067d c43d
00000090: a715 2f3d 11e6 8f3d 2a17 9bbd 0499 1a3e
000000a0: b25b 36be 6d20 cc3d 6709 5a3e 1b41 11bd
000000b0: b695 d6bd e55d 09be e367 803e 26c9 19ba
000000c0: 6190 8b3d cd88 1eba fb1f 433d 373e 383e
000000d0: 84cb 563e 8668 30ba b68c b9bd dbe8 a93d
000000e0: b986 2ebe 0ffa 8c3e 50a6 2c3e 43ba 46be
000000f0: a7b1 293d 7c10 42be 2cdd 113e 3123 8e3d
00000100: 8989 0f3d e31f cdbd 5b4a 6a3c 9bb2 903d
00000110: 8080 d4bb e926 983d 9c6c feb8 0ff9 ab3d
00000120: fe0f a2bd c56c 253e a48a ef3d 0b59 8bbd
00000130: 0424 093d d9e4 163e 9b6c 7abc 1251 553e
00000140: e717 b33d a7db c9bd c093 d83d 9e5f c23d
00000150: d706 e8bd 73aa 7ebd cb7a bfbd 2537 353d
00000160: 4d07 c0bc e7cb 13be 02a9 b23c 7e10 96bd
00000170: 2074 513e 133b 63bd 4ca1 b3bd e7bf 9bbd
00000180: 028d da3d 8c6d 493e c467 973c ae32 a13c
00000190: 88ed 41be 183f aabd c760 92bd a7a6 d73c
000001a0: 432a 913d 3b51 98bd 2db2 a4bc 982a 033e
000001b0: 43f4 af3d 0877 423d c9e6 b9bd f100 373e
000001c0: be25 6fbe b511 453e 4836 57be ebca dc3d
000001d0: 27cc 4ebe 79ae 20bd 8eae 263e 17a2 003e
000001e0: a835 043e 6447 6dbd bd5a 273c 226c 39be
000001f0: cf56 c8bd 198c e23d 3acd 8f3d 9943 2c3e
00000200: fd78 583d 2a60 433e 170b 38be ed14 253c
00000210: 2044 f7bc 1108 0a3c 32e6 4a3d df12 63be
00000220: a9fa 1c3d b4dc 3abe a43f 9abd 1dc4 e13d
00000230: b75e 0b3e 6d11 f0bd b576 d8bc e814 a03d
00000240: dc27 c23d 34a6 48be 1bbc 20bb 144b 51bd
00000250: 5e49 023e 595a 8a3d 34d9 2d3e d346 843d
00000260: 075e cebd f141 09be ad06 1a3e a67f b7bd
00000270: 34c3 8dbd 54b7 7f3d 810e 30bd d418 433d
00000280: a625 5abe 11e9 a43d 794d e13d 6cee 2b3e
00000290: 42e4 80be ed23 e7bd 8764 9f3d 8878 ee3d
000002a0: 6dbd abbc 0417 ec3d 562a be3d 3126 a73d
000002b0: c642 efbd 22f4 8a3d 2e5b bd3c 55f9 7cbe
000002c0: 9c8f d13b 718b 483e 2922 36bd 2d0c d13b
000002d0: 553a febd 1be9 5cbc bf5a a23d 3a33 e3bd
000002e0: 08df 21bd f295 fbbd 4a60 1ebe d1ef 683d
000002f0: 5f94 1cbe a654 f63c 4143 2bbd fe2e 46be
00000300: 7ebf 083e c7af 423e 939e 6abe 84a4 8e3d
00000310: ffa6 37be 4ca6 163e 347e c53d 90d5 34be
00000320: af0f c63d 11fa bd3d d66e 4d3e d268 833d
00000330: 7434 25be 6622 25be 76d6 1dbd 7e7e fabb
00000340: cab1 433d 7a80 85bd b2c5 0cbe 9950 a5bd
00000350: 486d 253e c8f1 563e 727a 42bd 73cc 04be
00000360: 1cbf 2dbe 8f39 eb3c 4ac1 15be 15ba 3b3e
00000370: 1011 af3d f125 6fbe 9ec4 1b3e 8ff3 0a3e
00000380: 4c84 01be 8a37 c53d e1bf a13d 5dd9 9ebb
00000390: f802 3abd 346b 28be 215c 873e d44b 04bd
000003a0: d199 5e3d 037a 363e 4d28 183e 36a5 493d
000003b0: 7f70 a63b d8ae 3fbe 4cf6 f23c 47c0 c23c
000003c0: 2d12 25be 95f2 58bd 1da5 49bd d626 e13b
000003d0: a9ca 83be bb63 993d f08e b0bb da25 b8bc
000003e0: 8e44 223e 0d71 203d 5253 5bba 79cf 96bd
000003f0: eb30 74bc 622f a9bd a8c4 39be 2fee c8bd
-0.088058695 0.2261267 0.058630187 -0.14419602 0.004738028 0.1835965 -0.043311022 -0.18926103
-0.048236538 0.18506163 0.16196345 0.1736274 -0.09078956 0.103635244 0.109991126 -0.0076025566
0.05941074 0.19506404 -0.060976334 0.096454486 0.048283756 -0.023598643 0.051061552 -0.05303691
0.13110676 -0.0059518665 0.16788168 -0.08527832 0.16733803 0.011703826 0.1314662 0.17961513
-0.019324176 0.0836885 -0.12068033 0.09594159 0.04274526 0.070263036 -0.075727776 0.15097433
-0.17808416 0.09967122 0.21292649 -0.03546248 -0.10477774 -0.13414724 0.2507926 -0.000586646
0.068146475 -0.00060476066 0.04763792 0.17992483 0.20976073 -0.00067294424 -0.090600416 0.08296367
-0.1704358 0.2753453 0.16860318 -0.1940699 0.041429188 -0.18951601 0.14244527 0.06940306
0.035043273 -0.100158475 0.014299954 0.07065316 -0.006485045 0.074292965 -0.00012131894 0.083971135
-0.079132065 0.16154774 0.116963655 -0.06804093 0.033481613 0.14735736 -0.015284683 0.20831707
0.087447934 -0.098563485 0.10575056 0.09490894 -0.113294296 -0.06217427 -0.09349593 0.044242043
-0.023440981 -0.14433251 0.021809105 -0.073273644 0.20454454 -0.05547626 -0.08770999 -0.07604962
0.10671426 0.19670695 0.018482096 0.019677486 -0.18938267 -0.083128154 -0.07147365 0.026324583
0.07088139 -0.074373685 -0.020104492 0.12809217 0.08591511 0.0474768 -0.09077222 0.17871453
-0.23354241 0.19245036 -0.210168 0.10780891 -0.20195065 -0.03922889 0.16277525 0.12561832
0.12911093 -0.05792941 0.010214505 -0.18107656 -0.097821824 0.11061878 0.07021566 0.16822661
0.05284976 0.19079652 -0.1797298 0.01007579 -0.030183852 0.008424775 0.049535938 -0.22175168
0.038324986 -0.18248254 -0.0753167 0.11023734 0.1361035 -0.11722074 -0.026423791 0.078164876
0.09480259 -0.19594651 -0.0024526182 -0.05109699 0.127233 0.06755514 0.16977388 0.06458821
-0.10076528 -0.13404061 0.15041609 -0.08959894 -0.06921998 0.062430695 -0.042982582 0.0476311
-0.21303424 0.080522664 0.11001105 0.1679017 -0.25174147 -0.11286149 0.07782846 0.11644083
-0.020964349 0.115278274 0.09285419 0.08161581 -0.11682658 0.06784846 0.023114767 -0.24704488
0.0063952934 0.19584443 -0.04446617 0.0063796253 -0.1241347 -0.013483311 0.07927465 -0.11093755
-0.03951934 -0.12284459 -0.15466419 0.05686933 -0.15290974 0.03006966 -0.041812185 -0.19353864
0.13354298 0.19012366 -0.22912054 0.069649726 -0.17934798 0.14711875 0.09643212 -0.17659593
0.0967096 0.09276212 0.20061812 0.06416477 -0.1613329 -0.16126403 -0.038534604 -0.0076444736
0.047776975 -0.065186456 -0.1374729 -0.080720134 0.16154969 0.2099067 -0.047480054 -0.12968616
-0.16967434 0.02871397 -0.14624515 0.18332703 0.08548176 -0.23354317 0.15211722 0.13569473
-0.12648124 0.09629734 0.07897926 -0.004847689 -0.045412987 -0.16447145 0.26437476 -0.032298878
0.05434591 0.17819981 0.14859124 0.049229823 0.0050793285 -0.18719041 0.02965846 0.023773326
-0.16120215 -0.05296572 -0.04922973 0.0068710847 -0.25740555 0.07489725 -0.005388133 -0.022478987
0.15846464 0.039170314 -0.00083666027 -0.07363791 -0.014904241 -0.08260991 -0.18141425 -0.09811055

bias f4 [16]
00000000: e501 473e 298a 8b3d e0f6 4e3d 4f99 11be
00000010: 11e8 123e f96c cb3d 4df9 813c 9535 753d
00000020: bd74 27be 77e2 8d3d af0a 443d e6ec 24be
00000030: 6880 d1bd 4667 1b3d 77bd b8bd b240 1d3e
0.19434316 0.06813461 0.050528407 -0.14218639 0.14346339 0.09932894 0.015865946 0.059865553
-0.16353126 0.0692796 0.04786175 -0.16105995 -0.1022957 0.037940286 -0.090205126 0.1535671

weight f4 [16]
00000000: 3703 793f 87ee 7a3f 0ee8 843f 6c24 873f
00000010: e28a 7e3f 06fd 7c3f 1c92 803f 9061 763f
00000020: 2370 6d3f 2e96 703f 1a1b 703f dd8e 6d3f
00000030: 11da 7a3f 703b 883f f1fd 7f3f 4ab6 6c3f
0.9727053 0.98020214 1.0383317 1.055799 0.9943067 0.98823583 1.0044589 0.9624262
0.9274923 0.93979156 0.93791354 0.9279612 0.9798899 1.0643139 0.9999686 0.9246565

bias f4 [16]
00000000: 2c74 76bc cce8 b3bd 658a 62bd 189d df3c
00000010: 4bb5 36bb ddc2 6fbd b938 0dbd 3b2c 5abd
00000020: 6ff1 f7bc 5516 1e3d 1106 56bd 5775 32bd
00000030: a9b0 283d 18dc 5cbd 5d2f fb3c 2115 4bbd
-0.015042346 -0.08784637 -0.055307765 0.027296588 -0.0027879055 -0.058535445 -0.034477923 -0.053264838
-0.030266492 0.038595516 -0.05225188 -0.043568935 0.0411841 -0.053920835 0.030662233 -0.049580697

running_mean f4 [16]
00000000: bd9a 033f dc3e f03e 9e50 a83e d7f1 58bd
00000010: d2b0 833e 9d31 f13d a084 1a3d 26f4 43be
00000020: 727c 12be 88d7 4f3e 1fa9 85be e785 28be
00000030: e2cd d3bd a284 2d3e 9ee9 0b3d 5335 453e
0.51407987 0.46922958 0.32874006 -0.05296501 0.2572084 0.11777041 0.037724137 -0.19136104
-0.14305285 0.20297062 -0.26105592 -0.1645733 -0.103420034 0.16945127 0.03415834 0.19258623

running_var f4 [16]
00000000: a0f5 f33d 3abe 8d3d f5f3 b23d b6ef 873d
00000010: e607 223e b590 c43d 619b 543d 0534 b13d
00000020: 08f6 4f3e 9b8c 083e 859a d13d fae6 e63d
00000030: b1ae bb3d 8fc1 973d 35c3 ca3d dcf0 1d3e
0.119120836 0.069210485 0.08737937 0.06637518 0.15823326 0.09597913 0.051905993 0.086525
0.20308697 0.13334887 0.102345504 0.11274524 0.09164179 0.07409965 0.09900514 0.15423912

weight f4 [8, 16, 3]
00000000: d14a 603d bfc3 a6bd 618b cabd ea94 d3bc
00000010: 794a e63c db3d fe3d 52a9 f2bc 6667 6a3c
00000020: 5a2a 0d3e 8b18 04bd b92f aa3d eb4b d8bc
00000030: 5801 ea3c 1250 213d 688c f33d bd02 28bd
00000040: 0c40 103e d372 cb3c 35d6 00bd 02ea babd
00000050: 07bc 3bbe 5c4f 3b3c 7ec3 52bd f157 ab3d
00000060: 36e7 c1bd c109 2d3d 7dfe d7bd fb55 acbd
00000070: 72fc 083e f3ba f93d a1bc 47bc 34b9 95bd
00000080: b2b1 143e bf0f 633d 46b3 c7bd 67a7 dabc
00000090: 501a eebd 39f2 95bc 66bc d2bd dec0 d1bd
000000a0: 49d8 0e3d ba4f 353d 3f61 023e 0410 80bc
000000b0: f00c b83d aec8 d83d 5d8b d6bc 4c97 54bd
000000c0: 5568 0c3d a0f1 a13c 4b4b 473d b405 283d
000000d0: 61e1 8ebc 917c 263e b984 093e e56b dabd
000000e0: f146 09be 01da 853d 2527 db3d 088d 4fbd
000000f0: ee4d cb3d 9638 9e3d 07bb 003d eb75 ba3a
00000100: 986d a13d 590b 28bb bf73 f03b f742 a93d
00000110: 51c7 d23d 9f48 f3bd ab35 b33d f4af 983c
00000120: 1176 c2bd 82fe 3bbd 87f5 233e 21d8 52bc
00000130: 811a 6ebd b045 ae3d 74d6 a43d 3369 f23d
00000140: cb03 36bc 7e6f 163e e996 e0bd 6bb3 ad3d
00000150: 9be1 30be 953b 61bd 4c33 023e 6e79 6a3d
00000160: a256 16bc 7f32 92bd e697 1b3d 7091 803d
00000170: 3d98 443c 37db bfbd 54bd 5a3d 92b9 823c
00000180: a172 783d cd5d 06bc ed01 093e da3d e83c
00000190: 1889 15be 8a9a 49be e515 4b3d f256 133d
000001a0: 0055 5c3d 0a4a 2f3c 59ca b83c 6e5c 5fbb
000001b0: 3d26 58bd 7627 8fbd 28c6 59bd 194d 1cbe
000001c0: a3db 7f3d 4e37 f93c dda5 53bb 7b49 30bd
000001d0: 1294 b3bd 29b1 b13d 7fb1 b8bd c7df 043e
000001e0: 44fc 56bc cc86 d6bd d121 f2bd 10a6 6cbc
000001f0: b538 1dbe 7443 483d 0765 3d3d bf0b 8b3b
00000200: 340c d93d 2a95 98bd f34c 063e dbd4 2bbd
00000210: 75bb 10bc bafb bcbc 0c85 0ebe b5e7 86bc
00000220: 472f a53d 1866 513c da67 a3bd e053 0fbc
00000230: ee4a 6e3e 90e0 0cbe f5b7 c4bd 98bd 55bd
00000240: 7102 023c 3696 423c 32f4 f4bc 0634 1fbe
00000250: 157f 12be d887 46be 1b0c 0e3d 8c2b 673d
00000260: f52a 983d 277c 903d 5900 663d d266 57bd
00000270: 87cb 87bd 816f 5bbd 1641 833c c909 5ebd
00000280: 263f 2fbe 41bb 213e 8971 453d b462 39be
00000290: 44d7 9a3d 4d08 21bd c881 95bc d12f f1bd
000002a0: 8563 46bd 67d0 b33d 751f b3bd 7731 103c
000002b0: 267c 85bd 8411 b5bc 2353 08bd ae0c 7abd
000002c0: ea44 4fbe b026 2fbe 266f d8bc 035f a73d
000002d0: ee9a fcbc a1ba 023d d73c 393e 3666 be3d
000002e0: ab0f 9dbd 6e47 c9bd 60b0 61bd ffac 05be
000002f0: c24b a13b 44f7 0cbe 1821 85bc a5f8 b3bd
00000300: 94c0 8ebd a7d6 af3d cbf7 c8bd df80 bb3d
00000310: e0c5 54bd db74 a13d 0903 0cbe 2ffb ab3c
00000320: 0091 95bc 5dd0 3e3d e030 33bd 992a 5cbd
00000330: 37dd a8bd dc62 6a3d c447 c1bd 5d42 05be
00000340: 0771 e03d 85ae 623d 0ca7 6fbd cc09 8fbd
00000350: 3530 493c c0ec 5b3d f026 fb3c 2e39 5fbe
00000360: 80aa b03d efa7 a2bc 72be ed3c 53d7 fdbd
00000370: e0ae fa3d dbc7 f9bd c696 433d f54d 20bc
00000380: 0f5d 04bd 8faf f1bd 4d8a 023e 1874 4d3d
00000390: 41e6 2cbd b382 9f3d da63 37bd 1b1a c0bd
000003a0: 0e06 703d 7a8a dc3d b214 783d 2d47 3bbe
000003b0: f5b9 fcbd a9f4 cc3d 04aa 893c 9fbb 51bc
000003c0: c799 7fbd 6143 1e3e 3935 31be 7763 d5bd
000003d0: 707b 10bd f249 823d 7cd5 1bbc 4ad5 0d3e
000003e0: af81 03be d5c7 803d a3fc 123a 92a2 263c
000003f0: 34f3 d13a a3dd 9ebc f770 b33d deb1 e2bd
0.05475885 -0.08142804 -0.09889866 -0.025827844 0.028111683 0.12414142 -0.029621754 0.014306879
0.13785687 -0.03224997 0.083098836 -0.026403388 0.028565094 0.039383 0.11892015 -0.041018236
0.14086932 0.024835026 -0.031454284 -0.09126665 -0.18333445 0.011432495 -0.051455967 0.08366383
-0.09467928 0.04224563 -0.10546587 -0.08414837 0.1337755 0.12193861 -0.012190969 -0.07310715
0.1452091 0.05543494 -0.097509906 -0.026691152 -0.116261125 -0.018303977 -0.102898404 -0.102418646
0.034874234 0.044265486 0.12732409 -0.015632637 0.08986843 0.105851516 -0.0261895 -0.0519021
0.034279186 0.019768536 0.04865579 0.041021064 -0.017441453 0.16258456 0.13429536 -0.106651105
-0.13405968 0.065357216 0.107008256 -0.050671607 0.09926973 0.07725637 0.031428363 0.0014225816
0.078822315 -0.002564153 0.0073380168 0.08264726 0.10291923 -0.11879086 0.08750471 0.018638588
-0.09495176 -0.045897014 0.1601163 -0.012868912 -0.058130745 0.085093856 0.08048716 0.118364714
-0.011109303 0.14690968 -0.10966284 0.08481487 -0.17273562 -0.054988462 0.1271488 0.05724471
-0.009175928 -0.071385376 0.03798666 0.0627774 0.011999187 -0.09367984 0.053403214 0.015957627
0.060656194 -0.008201075 0.13379641 0.028349806 -0.14603078 -0.19687858 0.049581427 0.03597159
0.053792 0.010698805 0.022557424 -0.0034082192 -0.052770842 -0.069899485 -0.053167492 -0.15263785
0.06246532 0.03042188 -0.0032294907 -0.043038826 -0.087684765 0.08676369 -0.0901823 0.1297599
-0.013121668 -0.10474929 -0.11822856 -0.014443889 -0.15353663 0.048892453 0.046238925 0.0042433436
0.10598031 -0.07450326 0.13115291 -0.04195104 -0.008833756 -0.023069251 -0.13917941 -0.016467908
0.08065658 0.012780689 -0.079787925 -0.008748025 0.23270771 -0.13757539 -0.096053995 -0.052182764
0.007935152 0.011876633 -0.029901598 -0.15547189 -0.1430629 -0.19387758 0.034679513 0.056438014
0.074300684 0.0705493 0.056152675 -0.05258829 -0.06630617 -0.053573135 0.016022246 -0.05420855
-0.17113933 0.15794088 0.04820398 -0.18104059 0.0756059 -0.039314557 -0.018250361 -0.117766984
-0.048434753 0.08779984 -0.08746234 0.008800856 -0.0651782 -0.022103079 -0.03328241 -0.06104725
-0.20241132 -0.17104602 -0.026420187 0.08172419 -0.030835595 0.031916264 0.18089615 0.09296839
-0.07669004 -0.09828077 -0.055099845 -0.13054274 0.004922361 -0.137662 -0.016251132 -0.087876596
-0.06970325 0.085858636 -0.09812888 0.091554396 -0.05194652 0.078836165 -0.13673033 0.020993797
-0.018257618 0.04658543 -0.043747783 -0.05375156 -0.082453184 0.057223186 -0.09437516 -0.13013597
0.10959058 0.055342216 -0.058508918 -0.069842905 0.01227956 0.05369258 0.030658215 -0.21799156
0.0862627 -0.019855468 0.029021475 -0.123945855 0.12240386 -0.121963225 0.04775121 -0.009784211
-0.03231531 -0.11801063 0.1274807 0.050159544 -0.042211775 0.07788601 -0.04477296 -0.09379979
0.058599524 0.107686 0.06056661 -0.1828887 -0.12340156 0.10007603 0.016804703 -0.01280108
-0.062402513 0.1545539 -0.17305459 -0.10419362 -0.03527397 0.0636176 -0.009511348 0.13850895
-0.12842439 0.06288115 0.0005607104 0.010170596 0.0016017915 -0.019392794 0.08761781 -0.11069082

bias f4 [8]
00000000: cbff 763d 142f 093e 1a79 fe3c 4b83 143e
00000010: 6489 dfbd 42e1 683b 673b 4bbd 7214 103e
0.060302537 0.13396865 0.031063605 0.1450321 -0.10914877 0.0035534655 -0.049617197 0.140703

weight f4 [8]
00000000: 9319 803f 5f47 7b3f e3c6 883f aa4b 803f
00000010: a69d 803f d002 763f 960c 853f e872 793f
1.0007805 0.9815578 1.0685695 1.0023091 1.004811 0.9609804 1.0394466 0.9744096

bias f4 [8]
00000000: 8a7a 8ebd a20c 3abd 139b 1b3d 99ee fb3c
00000010: ed06 96bc 4025 d4bd 30b7 b0bd 6982 043e
-0.06956966 -0.045422204 0.037989687 0.03075342 -0.01831385 -0.103586674 -0.0862869 0.12940373

running_mean f4 [8]
00000000: a353 293e db21 be3e b624 d3bd 04b8 51be
00000010: 74f3 9ebe 2db3 1fbe e449 0ebd c9c3 08be
0.16535811 0.37135205 -0.103097364 -0.20480353 -0.31045115 -0.15595694 -0.034738436 -0.13355936

running_var f4 [8]
00000000: 27fc eb3d 3d73 b23d 9f20 053e 2f5a 5b3d
00000010: 8613 a03d f04c 023e 38d9 7b3d a8aa 5b3d
0.115227036 0.08713386 0.13000725 0.053552803 0.07816224 0.12724662 0.061486453 0.053629547

weight f4 [1, 8, 3]
00000000: 7333 163e 15da 18be 747d 1e3e 1500 49bd
00000010: 1b6e d3bd a9ed 763d 483d c3bc f861 6abc
00000020: 22e1 4abe 33fb c2bc 64c9 0abd 537d 383e
00000030: 73c3 c2bd 8f87 3d3e 3329 47be 7e16 57bd
00000040: a227 283e 3a7d eabd ace8 de3c e145 1d3e
00000050: e63e 03bd afa5 073d 9e05 08be 4318 f8bd
0.14668064 -0.14926942 0.15477544 -0.049072344 -0.10323735 0.060285244 -0.023832932 -0.014305584
-0.19812444 -0.023801422 -0.033883467 0.18016557 -0.09509935 0.18508743 -0.1944931 -0.052511685
0.16421369 -0.11449666 0.027210556 0.15358688 -0.032042406 0.033116993 -0.13283393 -0.121140026

weight f4 [10, 25]
00000000: 5045 123d 1958 1cbe 244b 56be b25b 2b3e
00000010: 5ef5 2fbe d08e 5bbc 3cbf 9f3c 8599 333d
00000020: b563 053d f0da 733e 018b c53e 3144 09bd
00000030: e195 6bbc 5f20 febd 6e3c 343b b497 2f3d
00000040: c98a 283e b280 0cbe 7f72 a8bd a7de 46bd
00000050: 3e07 b9bd 742b 66be 7a98 4bbe 4ec5 dabd
00000060: 628f 883e b7e3 473d 5c76 aa3c 86bf 8fbb
00000070: 8570 8bbe f275 a93e 716c 64bc c312 6cbd
00000080: 91f7 833c 0065 10bd e195 57be 6cb5 9fbe
00000090: 70ae b83b bd57 0b3e 16cf 8f3e 90a3 7f3d
000000a0: 0df3 943d 4489 e1bd 0ddc be3d 7372 92bb
000000b0: 5458 27bd 2c2b e23d d7d1 e03c 159a 953d
000000c0: ab8b 4a3e c9f8 d8bd 0736 173d 3eb7 063e
000000d0: 1dbc b33d 1e14 82be 9fc7 653a 7c3b 95be
000000e0: 4c6a 243d f677 6abe 585a 9fbd 3a98 e6bd
000000f0: 2150 25be 4057 deba b3f9 1bbe 55ff 5a3e
00000100: 417d 4c3d 3bb8 75be 254b 44be 36e9 15be
00000110: 86cd 3cbe 6e29 0f3e d4e9 e43d 1a8b ca3b
00000120: c6bd acbd c705 9cbd 055e acbd 3534 58be
00000130: b5b7 573e 3fb2 79bd 4c7b d43c f739 0a3e
00000140: 3dad b0bd c7c3 d33c 5fc1 9abe 6bb3 5ebe
00000150: 125a e4bb f6e5 1dbe 813b 3b3e 32a1 6e3c
00000160: 495e 913d 9b3e 83be 7db8 7ebe 6eba be3d
00000170: 6c56 18be 487e bf3d 67ef 783d 2fd1 043e
00000180: d420 823e b69c 2b3e d6f6 653e a979 4ebd
00000190: a289 4abc 4a3c 5e3e 215d 463e ecf7 1bbe
000001a0: 1d24 8a3e 2b8b 89be 1d68 babd f3f8 aabe
000001b0: ec58 90be 8efb 9abe b458 0abe 9527 fd3d
000001c0: 5fa5 97bd c2d9 303e 2126 77be 4a30 39be
000001d0: fb4b 10bd a99b a9bd 75db fdbd ec14 2d3e
000001e0: 3c48 4f3e c454 1e3e cb79 dfbd bf78 823e
000001f0: b12d 3ebc a655 f3bd 6227 523e 0df9 753e
00000200: aaf2 dbbd a9a5 1c3e 84b4 473c c1fa 823e
00000210: b9fc 743c a62e 83be 20e4 92bd d40d f7ba
00000220: 0b51 023e b195 4b3e 39e8 013e b1a9 3cbe
00000230: e4e8 c63d aef5 0abe d0a5 84bd 97ac 87bd
00000240: 9556 02bd 4c9c 8f3d 6626 243e b769 ac3d
00000250: 7408 febc f318 8abe 70a8 65be 69c5 f53d
00000260: 0ca9 5b3e dc43 aabd 8bcc 803e 0cb6 833d
00000270: 3d52 14bd dfb5 babe aa5a de3c 4506 98bd
00000280: f587 51be f894 fb3d 0321 1b3e feba e93d
00000290: 3be7 563d 74fb 573d c31c 12be 47af cc3d
000002a0: 8055 82bd fb87 cf3d 65bc 35be 70f7 793e
000002b0: 5ced 483e 5291 6fbd 040b 5fbe c6c4 78be
000002c0: f143 4d3e f419 5e3e f14c 47be 65f2 603e
000002d0: ffa9 0cbe e9ee 8c3d b7e4 aebe e8a4 6abd
000002e0: b35b 4bbe 8d6e adbc e03b 5d3e bd91 a93d
000002f0: 1098 ed3d 836f 6f3d 10c9 a03d 3166 10be
00000300: aa24 373e e29a d53c 5acd abbd 7df6 cabd
00000310: 4e4b 06be 277a 823e a4b4 583e acdc 4fbe
00000320: 60a8 32bd 6992 2f3e 0bd7 2dbd 1263 e9bd
00000330: 3bb3 9e3e 630b 54be ed9f 293e 2a38 3dbe
00000340: d400 62be e210 65be af57 89be 7bfd 523e
00000350: 69cc 453e e2bb 953e a94a a8bc 0c0e 33be
00000360: e785 11be a385 41be 3976 c7bb 0f91 613e
00000370: f44f 363e 5ca9 803e cfa2 14bd a3bd 8c3c
00000380: 0111 803a f462 ad3d 06db b2bd c708 94be
00000390: 71e1 533e 68e3 4b3d 77c2 833d 1580 5dbe
000003a0: c5fe 493c eec3 413d 30e6 84bd 9bc2 003d
000003b0: aeaa 8dbd 57d0 3d3e eadf 7cbe f9c5 bfbd
000003c0: 1da0 643e 82e3 85bd ccd5 bdbc 031d 293e
000003d0: 672c 2cbe 1d62 85bd cf8a 7bbe 6b85 50be
000003e0: 5a0b 61bc a289 36bd
0.035710633 -0.15267982 -0.20927101 0.16734198 -0.17183444 -0.013400748 0.019500367 0.04384758
0.03256579 0.23813987 0.38582614 -0.033512298 -0.014378996 -0.12408518 0.002750184 0.042869285
0.16459192 -0.13720968 -0.082249634 -0.04855218 -0.090345845 -0.22477514 -0.19882384 -0.10682164
0.26671892 0.04880115 0.020808391 -0.004386845 -0.27234283 0.33097798 -0.01394187 -0.05763508
0.01610926 -0.03525257 -0.21053268 -0.311931 0.005636029 0.13607688 0.28087682 0.062411845
0.07272921 -0.110125095 0.09319315 -0.00446921 -0.04085572 0.11043391 0.02744381 0.073047794
0.19779842 -0.10594327 0.03691676 0.13155839 0.08776114 -0.25405973 0.00087654026 -0.29146945
0.040140435 -0.22897324 -0.077809036 -0.11259504 -0.16143848 -0.0016963258 -0.15231971 0.21386464
0.04992414 -0.2399606 -0.1916929 -0.14639744 -0.18437776 0.13980648 0.11177412 0.006181133
-0.08434634 -0.076182894 -0.0841637 -0.21113665 0.21066172 -0.060961004 0.025937699 0.13498674
-0.086267926 0.02585019 -0.30225655 -0.2174813 -0.006968745 -0.15419754 0.18284418 0.014564799
0.070980616 -0.25633702 -0.24875064 0.093129024 -0.14876717 0.09350258 0.060775187 0.12970422
0.2541567 0.16758999 0.22457442 -0.050408993 -0.012361916 0.21702686 0.19371463 -0.15231293
0.26980677 -0.2686399 -0.09101889 -0.33393058 -0.28192842 -0.30270046 -0.135104 0.12361065
-0.07404589 0.17270568 -0.24135639 -0.18084827 -0.03522871 -0.08281643 -0.12395374 0.16902512
0.20242399 0.15462023 -0.10911902 0.25482747 -0.011607573 -0.118815705 0.20522836 0.24020787
-0.10739644 0.1529757 0.012189034 0.25581935 0.014952832 -0.25621527 -0.07172418 -0.0018848726
0.12726228 0.19881321 0.12686242 -0.18424107 0.09712389 -0.13570282 -0.06476939 -0.06624716
-0.031820852 0.07012233 0.16030273 0.08418601 -0.03100989 -0.2697216 -0.22427535 0.120005436
0.21451205 -0.083137244 0.25156054 0.06431207 -0.03621124 -0.36466882 0.027142841 -0.07423071
-0.2046202 0.12284273 0.15149312 0.11412619 0.052466612 0.05273004 -0.14268784 0.09994369
-0.06363964 0.10133358 -0.17747648 0.24410796 0.19621795 -0.058488198 -0.21781546 -0.24293813
0.20045449 0.21689588 -0.19462945 0.21967466 -0.13736723 0.06881506 -0.3415887 -0.057286173
-0.19859199 -0.021170879 0.21604872 0.082797505 0.11601269 0.058455955 0.0785085 -0.14101483
0.1788508 0.02607483 -0.08388777 -0.09910295 -0.13114664 0.2548382 0.21162659 -0.20299023
-0.043617606 0.17145695 -0.04244141 -0.11395849 0.30996117 -0.20707469 0.16564913 -0.18478456
-0.22070628 -0.22369722 -0.2682471 0.20604508 0.19316258 0.29244906 -0.020543413 -0.17485827
-0.14211236 -0.18898635 -0.0060870913 0.22027992 0.17803937 0.2512921 -0.03628808 0.01718027
0.0009770693 0.084661394 -0.08733182 -0.28912947 0.20691468 0.04977742 0.064335756 -0.2163089
0.012328808 0.047305994 -0.06489217 0.03143559 -0.0691732 0.18536507 -0.24694791 -0.09363932
0.22326703 -0.06537534 -0.023173235 0.16514973 -0.16813813 -0.06512854 -0.2456467 -0.20363395
-0.013735617 -0.04456485

bias f4 [10]
00000000: da8a 61bc dc4a a8bc 097d a5bd e250 f13d
00000010: e560 9c3d b5e4 63be 9f29 7dbe a2e9 903d
00000020: 04b4 02be 3aae aabd
-0.013766015 -0.020543508 -0.08080489 0.11783005 0.07635669 -0.22255214 -0.24722908 0.07075812
-0.12763983 -0.08334012

weight f4 [2, 10]
00000000: a4e4 f1be e151 0dbd 0ba4 983e f914 c03e
00000010: 59f3 173f 8168 4b3e ca45 b53e 3323 f83e
00000020: 2a57 1f3f 591d a9bd cda3 bc3e dc99 81be
00000030: b630 2b3c 829f d3bd b45c cdbe f080 8bbe
00000040: 74fd f1be 62aa 27bc 04b7 653b a7b2 2a3d
-0.4724475 -0.034501914 0.29812655 0.37516 0.59355694 0.19864084 0.35404807 0.48464355
0.62242377 -0.08257551 0.3684372 -0.25312698 0.010448625 -0.10333158 -0.4010979 -0.2724681
-0.47263682 -0.0102334935 0.0035051713 0.041674282

bias f4 [2]
00000000: c7a2 92bd 6d24 0abe
-0.071599536 -0.13490458
