mlpcnnsemi/model/cnn/64twoinput_batch1_Epoch=90_lr=0.0001.pth (torch, 24731 bytes, 35 tensors)

weight f4 [8, 1, 1]
0	0xbf17ccfe	-0.5929717
1	0x3eb19a6a	0.3468812
2	0x3ddb76b4	0.10716
3	0x3f173e9d	0.59079915
4	0x3f51a583	0.81893176
5	0xbe785d34	-0.24254304
6	0x3f864218	1.048892
7	0xbf15eeb0	-0.58567333

bias f4 [8]
0	0x3dac5fa1	0.08416677
1	0x3f612af2	0.87956154
2	0x3f6a7837	0.91589683
3	0xbf537722	-0.8260366
4	0x3f25f3ef	0.6482534
5	0xbdc5b5c2	-0.09653808
6	0x3ee05d13	0.4382101
7	0xbf3fd191	-0.7492915

weight f4 [8]
0	0x3f85d289	1.0454875
1	0x3f787a04	0.9706118
2	0x3f81c260	1.0137444
3	0x3f7fea83	0.9996721
4	0x3f7dcb7c	0.9913862
5	0x3f805768	1.0026674
6	0x3f802a92	1.0012991
7	0x3f7d7f7e	0.9902266

bias f4 [8]
0	0x3d248258	0.040163368
1	0x3c7c721c	0.015408065
2	0xbdc81d5c	-0.09771225
3	0xbdd5215b	-0.10406753
4	0x3c56d6bc	0.01311272
5	0x3dc739d2	0.09727825
6	0xbd20837b	-0.03918789
7	0xbd50bd5a	-0.05096183

running_mean f4 [8]
0	0x3d9e2371	0.07721604
1	0x3f6238b1	0.88367754
2	0x3f6ab9bb	0.9168965
3	0xbf51a49d	-0.81891805
4	0x3f28684b	0.6578414
5	0xbdcb1cde	-0.09917615
6	0x3ee69acf	0.45039985
7	0xbf419d86	-0.75630987

running_var f4 [8]
0	0x39ee31e1	0.0004543206
1	0x39231941	0.00015554299
2	0x3779e083	1.489383e-05
3	0x39ecbc52	0.00045153737
4	0x3a6346c1	0.0008669906
5	0x389f6fd6	7.602542e-05
6	0x3aba69b9	0.0014222182
7	0x39e89e85	0.00044368595

weight f4 [16, 8, 1]
0	0xbd954ca6	-0.0729001
1	0xbe532dc2	-0.20622924
2	0x3cf30cf1	0.029669257
3	0xbe8fb9d3	-0.2807146
4	0x3da46f54	0.08029047
5	0xbe548928	-0.20755446
6	0x3bfa4e24	0.0076387096
7	0xbca51949	-0.020153658
8	0x3e02e861	0.12783958
9	0xbe7af227	-0.24506436
10	0x3c285806	0.010274893
11	0xbdccd439	-0.10001416
12	0x3d01e1b0	0.031709373
13	0xbd2ed234	-0.042680934
14	0x3e6bd0de	0.23028895
15	0xbe13fa9f	-0.14451073
16	0xbe055aec	-0.13022965
17	0x3dd68b13	0.10475745
18	0xbe70eb0a	-0.2352716
19	0xbe2e5951	-0.17026259
20	0xbe5089c1	-0.20365049
21	0xbbc98963	-0.006150411
22	0x3ec3068c	0.38090932
23	0x3ee4c99f	0.44685075
24	0xbeb59a02	-0.3546906
25	0xbe9b43e4	-0.30325234
26	0x3e938b8f	0.28817412
27	0x3e12159b	0.14266054
28	0x3d178ece	0.037001424
29	0xbd583137	-0.05278131
30	0xbd6d6565	-0.057958025
31	0x3e4f678a	0.20254341
32	0xbd71501e	-0.058914296
33	0xbcd9e849	-0.02660002
34	0xbe8eadd9	-0.2786701
35	0x3ead3c17	0.33834907
36	0x3ded9277	0.116002016
37	0x3e4d21fb	0.20032494
38	0xbe42dc84	-0.19029433
39	0x3f09e928	0.53871393
40	0x3e4679a2	0.19382337
41	0xbdb6c864	-0.0892494
42	0xbdb6730d	-0.08908663
43	0xbeb21c7d	-0.3478736
44	0x3e497420	0.19673204
45	0xbe6ff987	-0.23435031
46	0xbd078454	-0.033085182
47	0x3aedb118	0.0018134443
48	0xbeb54fe2	-0.35412508
49	0x3ea4192b	0.32050452
50	0xb8cbf2d6	-9.725026e-05
51	0xbe799b9a	-0.24375764
52	0xbe2ee0e6	-0.1707798
53	0xbe8e1656	-0.27751416
54	0xbe38f3d2	-0.1806176
55	0x3d0a0643	0.033697378
56	0xbdb8b44a	-0.090187624
57	0xbc70965f	-0.014684289
58	0xbe5de046	-0.21667585
59	0xbe9d0cae	-0.30673736
60	0x3e218f2c	0.15777272
61	0xbe7adfa5	-0.24499376
62	0x3ea785bb	0.32719216
63	0x3ebc604e	0.36792225
64	0xbdfbcdd7	-0.1229512
65	0xbdfe2a4b	-0.124104105
66	0xbdc2d80a	-0.095138624
67	0x3da31e12	0.0796472
68	0x3eb7a664	0.35869133
69	0x3e3fd796	0.18734583
70	0x3cb2bd83	0.021818882
71	0xbe44f9ec	-0.19235963
72	0xbe3c412d	-0.18384238
73	0x3e7daf56	0.24773917
74	0x3e9aba6b	0.3022035
75	0xbe3b82fc	-0.18311685
76	0x3e3dc9dc	0.18534034
77	0xbe0ea743	-0.13930993
78	0xbe783186	-0.24237642
79	0xbe0953d9	-0.13410892
80	0xbdf4b7cb	-0.11949118
81	0xbe4ec57d	-0.20192523
82	0x3ce19fea	0.027542073
83	0xbec9c07d	-0.3940467
84	0x3e6940c3	0.22778611
85	0x3df6161a	0.12015934
86	0xbe9739fb	-0.29536423
87	0xbe2b4932	-0.1672714
88	0x3ea07fab	0.31347403
89	0x3dc7f55a	0.09763594
90	0x3e717fd8	0.23583925
91	0xbe8c30c4	-0.27380955
92	0x3e67d6cd	0.22640534
93	0x3dbe0187	0.09277635
94	0x3db13aa0	0.0865376
95	0xbdae4a1b	-0.08510228
96	0x3e01daaf	0.12681077
97	0x3e766030	0.2406013
98	0x3e8c25b7	0.27372524
99	0x3b9a026c	0.0046999957
100	0x3d31d9c1	0.043420557
101	0x3e9b9282	0.30385214
102	0x3eb6c48a	0.35696822
103	0x3e614978	0.22000682
104	0x3acd6f76	0.0015673477
105	0x3eb5eb99	0.3553131
106	0x3e99f2e8	0.30068135
107	0xbdddb418	-0.10825366
108	0x3ecd23f5	0.40066496
109	0x3db84198	0.08996886
110	0xbe2b9e77	-0.16759668
111	0xbe9c179e	-0.30486768
112	0x3e133754	0.14376575
113	0x3de62a8f	0.11238586
114	0xbd835fcc	-0.06414756
115	0xbe030f09	-0.12798704
116	0x3e248a1f	0.16068314
117	0xbea5b2dd	-0.32363024
118	0xbe8e7858	-0.2782619
119	0xbe79625b	-0.24353926
120	0xbe8af19e	-0.27137464
121	0xbebaba95	-0.36470476
122	0x3eeb4d7d	0.45957556
123	0xbd9fc09d	-0.0780041
124	0xbdb556ab	-0.08854421
125	0x3db98627	0.09058791
126	0xbe999e54	-0.30003607
127	0xbcf9ddb4	-0.030501224

bias f4 [16]
0	0x3e7bbccf	0.24583744
1	0xbd41a5fb	-0.047277432
2	0x3e206b52	0.1566594
3	0xbe7f483b	-0.24929897
4	0x3e93f178	0.28895164
5	0xbc34df8b	-0.011039625
6	0x3b3ae929	0.0028520322
7	0x3e84e7a8	0.2595799
8	0xbe1ae3f7	-0.15126024
9	0x3d63e0d9	0.055634353
10	0x3e86d9b7	0.26337978
11	0x3e157e46	0.1459895
12	0xbe863f7d	-0.26220313
13	0x3df39ff2	0.118957415
14	0xbe59869c	-0.21242756
15	0xbe8a1bc0	-0.26974297

weight f4 [16]
0	0x3f8b605b	1.088878
1	0x3f89bd78	1.0760946
2	0x3f826930	1.0188351
3	0x3f635f7e	0.88817585
4	0x3f7a9857	0.978887
5	0x3f827431	1.0191709
6	0x3f917b53	1.136576
7	0x3f847d44	1.0350728
8	0x3f7a80d8	0.9785285
9	0x3f851198	1.0395994
10	0x3f772c58	0.9655204
11	0x3f82b347	1.0210961
12	0x3f8a03a3	1.078236
13	0x3f6efae7	0.93351597
14	0x3f8692aa	1.0513508
15	0x3f97f885	1.1872717

bias f4 [16]
0	0x3ce17d90	0.027525693
1	0xbd8a6d16	-0.06759088
2	0x3bf01996	0.007327269
3	0xbd92dd1a	-0.07171078
4	0xbdf78f4e	-0.1208788
5	0x3d2dd202	0.042436607
6	0xbe033589	-0.12813391
7	0x3d903dde	0.0704305
8	0x3d6d9504	0.05800344
9	0xb9fd05b1	-0.0004826016
10	0xbd8245cd	-0.0636097
11	0xbbc79589	-0.006090824
12	0x3c3a28b1	0.011362241
13	0xbd6fd89c	-0.058556184
14	0x3bec2ff2	0.007207864
15	0x3caab188	0.020836607

running_mean f4 [16]
0	0x3d9a4faa	0.07534726
1	0xbd8cdd67	-0.06878167
2	0x3e48ef02	0.19622424
3	0xbea4e1f7	-0.32203647
4	0x3ee43ff5	0.44580045
5	0xbdc723ec	-0.097236484
6	0xbe72acfe	-0.23698804
7	0x3e792414	0.24330169
8	0xbdd0408a	-0.1016856
9	0xbc18e04b	-0.009330819
10	0x3dba95db	0.09110614
11	0x3ea5e716	0.32402867
12	0x3ddb03b2	0.10694064
13	0x3e8151c1	0.25257686
14	0xbeb6b927	-0.35688135
15	0xbee30422	-0.4433909

running_var f4 [16]
0	0x3dc2f74a	0.09519823
1	0x3b412494	0.0029471265
2	0x3bdf6a09	0.0068180603
3	0x3baa0a07	0.0051891836
4	0x3c0380fa	0.008026356
5	0x3db55216	0.08853547
6	0x3d5eabe8	0.05436316
7	0x3a73980a	0.000929237
8	0x3d82976f	0.0637654
9	0x3d86fcc6	0.065911815
10	0x3ea1b825	0.31585804
11	0x3d9224dd	0.07135937
12	0x3f0738d3	0.5282108
13	0x3ed5a8ea	0.41730434
14	0x3cbd818a	0.023133058
15	0x3e291fea	0.1651608

weight f4 [8, 1, 3]
0	0x3ebabf56	0.36474103
1	0xbf0c23e0	-0.5474224
2	0xbecc3945	-0.39887443
3	0xbf0343b5	-0.5127519
4	0x3ed0aafd	0.40755454
5	0xbe12dd7a	-0.14342299
6	0xbe6a4fc1	-0.22881986
7	0x3e16b350	0.1471684
8	0x3f05b0ce	0.5222291
9	0x3e415c0a	0.18882766
10	0xbecb002f	-0.39648578
11	0x3e9213a8	0.28530622
12	0x3e7dce2a	0.24785677
13	0x3e352a18	0.17691839
14	0x3ee5974c	0.44841993
15	0xbeaaf4ca	-0.33389884
16	0x3d70a346	0.05874946
17	0x3edc6b1a	0.43050462
18	0xbf009ebb	-0.50242203
19	0xbec51714	-0.3849417
20	0xbe46c63a	-0.19411555
21	0x3d8f06b9	0.06983704
22	0xbecd8849	-0.4014304
23	0x3e6ee659	0.23330058

bias f4 [8]
0	0x3c9e05a1	0.019289793
1	0xbd80bf71	-0.062865146
2	0x3ec08fe7	0.3760979
3	0x3f06cb48	0.5265393
4	0x3e9cd949	0.30634525
5	0x3ef7e960	0.48420238
6	0xbed4ed76	-0.41587418
7	0xbdab0a94	-0.08351627

weight f4 [8]
0	0x3f811437	1.0084294
1	0x3f71d433	0.94464415
2	0x3f6fe212	0.9370433
3	0x3f816855	1.0109965
4	0x3f7b08c3	0.98060244
5	0x3f8690e8	1.0512972
6	0x3f80287c	1.0012355
7	0x3f877ae1	1.0584375

bias f4 [8]
0	0x3d9aad51	0.07552589
1	0xbc966001	-0.018356325
2	0x3dd826de	0.10554288
3	0xbda57436	-0.08078806
4	0x3d015e5f	0.03158414
5	0xbd801851	-0.06254638
6	0x3daec8dd	0.085344054
7	0x3d43b25d	0.047777522

running_mean f4 [8]
0	0x3c9dae0f	0.019248037
1	0xbd7e72e1	-0.062121276
2	0x3ec09dee	0.3762049
3	0x3f06a19b	0.5259034
4	0x3e9cab11	0.30599263
5	0x3ef7d096	0.48401326
6	0xbed4c287	-0.41554663
7	0xbdaca271	-0.08429421

running_var f4 [8]
0	0x3a844b78	0.0010093292
1	0x3a12c4e9	0.00055988
2	0x3a113237	0.00055387936
3	0x39b7ccf9	0.00035057197
4	0x3a3f1942	0.00072898355
5	0x39d81658	0.00041215378
6	0x3a9b8d1e	0.0011867618
7	0x39a39305	0.0003119932

weight f4 [16, 8, 3]
0	0xbdb475ce	-0.08811532
1	0x3e7e32b0	0.24824023
2	0x3d4949f2	0.049142785
3	0xbde83ed1	-0.11340106
4	0xbc88d796	-0.016704362
5	0x3e471498	0.1944145
6	0xbd824de7	-0.06362515
7	0xbe4825e0	-0.19545698
8	0xbd370fb6	-0.044692717
9	0x3e5685b2	0.20949438
10	0x3e18bdf2	0.14916208
11	0x3e3a5919	0.1819805
12	0xbdaef5c9	-0.085429735
13	0x3de603c2	0.112311855
14	0x3dd2cc77	0.10292905
15	0xbcb409ab	-0.021977266
16	0x3d765d9a	0.06014786
17	0x3e545412	0.20735195
18	0xbdd67a3e	-0.104725346
19	0x3d5bd5f8	0.053670853
20	0x3cae1d2b	0.021254143
21	0xbb81d2fb	-0.0039619184
22	0x3d5f581c	0.054527387
23	0xbce0a961	-0.027424516
24	0x3e02a6d1	0.12758948
25	0xbcbd0aae	-0.023076382
26	0x3e30aac9	0.1725265
27	0xbdaec2d9	-0.08533258
28	0x3e2aa7be	0.16665551
29	0x3d991b47	0.07475906
30	0x3e076c7a	0.13224974
31	0x3e3e703d	0.18597503
32	0xbc0b7e9c	-0.008514073
33	0x3d938c82	0.07204534
34	0xbdc7eb1d	-0.09761641
35	0x3dbeed7f	0.093226425
36	0x3d61274a	0.05496911
37	0x3d8d98b8	0.069138944
38	0xbdd19da6	-0.10235147
39	0x3e1a0983	0.15042691
40	0xbe3331dc	-0.17499489
41	0x3ddce862	0.10786511
42	0x3e59e9cc	0.21280593
43	0xbd714a88	-0.05890897
44	0xbdf601bf	-0.12012052
45	0xbe0bcdeb	-0.1365277
46	0x3e894bf2	0.26815754
47	0x3ca41a48	0.020032063
48	0x3d7d5dd1	0.06185705
49	0xbc708d33	-0.014682102
50	0x3cb8044a	0.022462983
51	0x3e432fbe	0.19061181
52	0x3e679ca7	0.22618352
53	0xbc82bc0c	-0.015958808
54	0xbdac07f6	-0.08399956
55	0x3d9269ab	0.07149061
56	0xbe3ff804	-0.18746954
57	0x3e8c95f2	0.2745815
58	0x3e2d5611	0.16927363
59	0xbe658576	-0.22414193
60	0x3d513c4f	0.051082905
61	0xbe5a6f50	-0.21331525
62	0x3de6b008	0.11264044
63	0x3d3e6fea	0.04649345
64	0x3ce553a2	0.02799398
65	0xbdeeeda0	-0.11666417
66	0x3cd3c396	0.025850099
67	0x3d9e5560	0.07731128
68	0xbc9d190f	-0.019176988
69	0x3d7ad969	0.061242495
70	0x3babf4dd	0.005247696
71	0x3da8be6d	0.08239446
72	0xbd8c8c25	-0.06862668
73	0x3e243161	0.16034462
74	0x3e1307e7	0.14358483
75	0xbdd415ac	-0.10355696
76	0x3cd2d26e	0.025735106
77	0x3e08bb4e	0.13352701
78	0xbd30b674	-0.04314275
79	0x3e58d1a3	0.2117372
80	0x3dd133a7	0.1021493
81	0xbdf5330c	-0.11972627
82	0x3dc5dbd1	0.09661067
83	0x3dca1f2f	0.09869229
84	0xbe0c09c0	-0.13675594
85	0xbdb4915e	-0.08816789
86	0xbdbb8db6	-0.091578886
87	0x3d39c5a7	0.04535451
88	0xbbc71554	-0.0060755406
89	0xbe19ec1a	-0.15031472
90	0x3d0a8499	0.03381786
91	0xbd1647e2	-0.036689647
92	0x3e542e48	0.2072078
93	0xbd4a5563	-0.049397837
94	0xbda3667a	-0.0797853
95	0xbda3eb2a	-0.08003838
96	0x3d9de12f	0.07708966
97	0x3e69e9bd	0.2284307
98	0x3c20f1a6	0.0098232385
99	0x3b324f3d	0.0027207874
100	0xbe409045	-0.18805034
101	0xbd8bc95e	-0.06825517
102	0xbd84f120	-0.064913034
103	0x3cdda202	0.02705479
104	0x3d9a5b97	0.075370006
105	0xbd993c0e	-0.07482158
106	0xbc844035	-0.016143898
107	0x3e2aba66	0.16672668
108	0x3dc0f540	0.09421778
109	0x3c91a015	0.017776528
110	0xbdc76a76	-0.09737103
111	0x3e2dcea9	0.16973366
112	0xbe5f6912	-0.21817425
113	0x3e4443f3	0.19166546
114	0xbe424e72	-0.18975237
115	0x3d9d0f05	0.076688804
116	0xbe697d06	-0.22801599
117	0xbd3e9c0d	-0.04653554
118	0x3e24ba58	0.1608671
119	0x3e1e2ca6	0.1544672
120	0x3e183bdb	0.14866583
121	0xbd5548e5	-0.05207147
122	0xbc8120ce	-0.015762713
123	0xbe10b262	-0.14130548
124	0xbdceeeb5	-0.101041235
125	0x3dc78617	0.097423725
126	0x3dc14159	0.09436292
127	0x3e36b215	0.1784137
128	0x3c853e44	0.016265042
129	0x3e37e9ee	0.17960331
130	0xbe4f6634	-0.20253831
131	0x3ce0604f	0.027389674
132	0xbb9b72d5	-0.0047439137
133	0x3cd0f888	0.025509134
134	0x3d79bde6	0.060972117
135	0xbe77dc93	-0.24205236
136	0x3d59d24c	0.05317907
137	0xbe6648b6	-0.22488675
138	0xbd8e4fe7	-0.06948834
139	0x3e082577	0.13295542
140	0x3de6d61e	0.11271308
141	0xbdd528eb	-0.10408195
142	0xbc9ad9da	-0.018902708
143	0x3d9cc988	0.076556265
144	0x3dcc86be	0.099866375
145	0xbe726869	-0.23672642
146	0x3d2f563b	0.042806845
147	0xbd71ccd0	-0.059033215
148	0x3dcd8ca2	0.10036589
149	0x3dab96f8	0.083784044
150	0x3e167e5b	0.14696638
151	0x3d817960	0.063219786
152	0xbda9b64c	-0.082867235
153	0xbe0ce937	-0.1376084
154	0x3e1f40ec	0.1555211
155	0xbdde679e	-0.10859607
156	0xbda7cee0	-0.08193755
157	0x3d9e1416	0.07718675
158	0xbd0229b9	-0.03177807
159	0x3d0141ca	0.031556882
160	0xbe60ef37	-0.21966253
161	0x3d904e73	0.07046213
162	0x3dd4c102	0.10388376
163	0x3e2d3a3c	0.16916746
164	0xbe89f5f0	-0.26945448
165	0xbde4c30e	-0.11170016
166	0x3dd72f89	0.105071135
167	0x3ded4e86	0.11587243
168	0xbd3970bd	-0.04527353
169	0x3e071b91	0.1319411
170	0x3dd89c60	0.10576701
171	0x3dd5dc78	0.10442442
172	0xbdaf336a	-0.08554728
173	0x3d539033	0.05165119
174	0x3ce45259	0.027871298
175	0xbe78a345	-0.24281032
176	0x3c771d47	0.015082664
177	0x3e49a808	0.19693005
178	0xbd6fbe96	-0.058531366
179	0xbc9dc1e3	-0.019257491
180	0xbe1af639	-0.15132989
181	0xbcec861d	-0.028872544
182	0x3db5bb71	0.08873642
183	0xbdcea84f	-0.10090696
184	0xbbed6d97	-0.00724573
185	0xbddc30e0	-0.1075151
186	0xbe24b028	-0.16082823
187	0x3da64b6e	0.08119856
188	0xbe10c1ec	-0.14136475
189	0x3d3b2f8a	0.045699634
190	0xbd06163b	-0.032736044
191	0xbe7487e8	-0.23879969
192	0x3e036655	0.12832005
193	0x3e3a6f40	0.18206501
194	0xbe6205cd	-0.22072525
195	0x3d97bd94	0.07409206
196	0xbe60ea52	-0.21964386
197	0x3dc9bfe9	0.09851057
198	0x3dcc1d12	0.09966482
199	0xbe577851	-0.21041991
200	0x3dba2f68	0.09091073
201	0x3dbf81d5	0.09350935
202	0x3e4b949b	0.19880907
203	0x3ce7d8d9	0.028301643
204	0xbe4ddf8c	-0.20104808
205	0xbe15615d	-0.14587922
206	0xbdab688d	-0.08369551
207	0x3cbe71e6	0.02324767
208	0x3d0abe40	0.033872843
209	0xbd916408	-0.070991576
210	0xbde804e0	-0.11329055
211	0xbd881eb0	-0.06646478
212	0x3e282cbd	0.16423316
213	0x3e660485	0.22462662
214	0xbd7af6f4	-0.06127067
215	0xbe0d9f8e	-0.13830397
216	0xbe20e9f3	-0.15714245
217	0x3d17543f	0.036945578
218	0xbe312222	-0.17298177
219	0x3e4bcfa7	0.19903432
220	0x3dd0e804	0.102005035
221	0xbe4c77be	-0.19967553
222	0x3e18532c	0.14875478
223	0x3e1ad1b8	0.15119064
224	0xbdf54f5f	-0.119780295
225	0x3dadca52	0.08485855
226	0x3d806323	0.06268909
227	0x3c8d1adf	0.017224727
228	0xbd8f72df	-0.07004332
229	0xbe1100a4	-0.141604
230	0x3e8fca2b	0.2808393
231	0xbd394639	-0.045232985
232	0x3d7986ad	0.060919452
233	0x3e48a9db	0.19596045
234	0x3e22aa11	0.15885188
235	0x3daae6a3	0.08344772
236	0x3beac472	0.0071645314
237	0xbe45b215	-0.19306214
238	0x3c19a451	0.009377555
239	0x3cd8cc64	0.026464649
240	0xbe38139b	-0.17976229
241	0xbdaef4ce	-0.085427865
242	0xbce2bfe0	-0.027679384
243	0xbd267a8c	-0.040644214
244	0xbe9648bf	-0.29352376
245	0x3d91810c	0.07104692
246	0x3bb39683	0.005480589
247	0xbccc74ea	-0.024958093
248	0x3e022424	0.12709099
249	0xbbdfb74d	-0.006827271
250	0x3c93083f	0.017948268
251	0xbd745def	-0.059659895
252	0x3c13c7c3	0.009019795
253	0xbd597c1c	-0.053096876
254	0xbe2adf93	-0.1668685
255	0xbdb59ed1	-0.088681825

bias f4 [16]
0	0x3e57d0cb	0.21075742
1	0x3df09a9e	0.11748241
2	0x3d368802	0.0445633
3	0xbdf72146	-0.12066893
4	0x3dd1706a	0.102265194
5	0x3dc06c3c	0.09395644
6	0x3d88a0f2	0.06671323
7	0x3dcbaf56	0.09945552
8	0xbe23bc31	-0.15989758
9	0x3d97809f	0.073975794
10	0x3d30cba8	0.04316297
11	0xbe2950c6	-0.16534719
12	0xbd889d86	-0.0667067
13	0x3d0a10e1	0.033707503
14	0xbdb826a8	-0.08991748
15	0x3e08746d	0.13325663

weight f4 [16]
0	0x3f707c63	0.939398
1	0x3f797a75	0.9745248
2	0x3f89cb30	1.0765133
3	0x3f8a50e0	1.0805931
4	0x3f796ed6	0.9743475
5	0x3f7b16bf	0.9808158
6	0x3f7d226a	0.98880637
7	0x3f72b6ab	0.9480998
8	0x3f6ef493	0.9334194
9	0x3f734f20	0.9504261
10	0x3f6df22d	0.92947656
11	0x3f696930	0.9117613
12	0x3f79b3c3	0.9753992
13	0x3f891ab3	1.0711273
14	0x3f837690	1.0270557
15	0x3f624c2e	0.8839749

bias f4 [16]
0	0xbdfbe41f	-0.1229937
1	0xbdcac67b	-0.099011384
2	0xbd360bd0	-0.04444486
3	0x3d02f390	0.03197056
4	0xbc62a844	-0.013834063
5	0xbdac532c	-0.08414301
6	0xbd937163	-0.07199361
7	0xbcc6efe1	-0.024284305
8	0xbcf1682d	-0.02946862
9	0x3d90a91f	0.07063507
10	0xbdca1b57	-0.09868496
11	0xbc327742	-0.010892691
12	0x39b39615	0.0003425336
13	0xbd8abc42	-0.067741886
14	0x3cebfcff	0.028807161
15	0xbd3eb633	-0.046560477

running_mean f4 [16]
0	0x3f02f41a	0.5115372
1	0x3f0c5c21	0.5482808
2	0x3e86d791	0.2633634
3	0xbcc266f6	-0.023730736
4	0x3e5589ca	0.20853344
5	0x3e11e232	0.14246443
6	0x3d9fd926	0.0780509
7	0xbe0c987c	-0.13730043
8	0xbe54d972	-0.20786074
9	0x3e828ec2	0.2549954
10	0xbe92e6b9	-0.28691652
11	0xbdab9ef8	-0.0837993
12	0xbe15897c	-0.14603227
13	0x3e12982c	0.14315861
14	0x3d164a15	0.036691744
15	0x3d6621f1	0.056184713

running_var f4 [16]
0	0x3de3a5c6	0.11115603
1	0x3d8660e1	0.06561447
2	0x3dbd9f95	0.092589535
3	0x3d9fc618	0.07801455
4	0x3e23a164	0.15979534
5	0x3dc4cb28	0.096090615
6	0x3d667aa2	0.056269296
7	0x3da53049	0.0806585
8	0x3e66c706	0.22536859
9	0x3e16fa66	0.14743957
10	0x3dd82801	0.10554505
11	0x3dca310e	0.09872638
12	0x3dc2c791	0.095107205
13	0x3d8f6e91	0.07003511
14	0x3da1188d	0.07866011
15	0x3e067ac4	0.13132769

weight f4 [8, 16, 3]
0	0x3d3c0779	0.045905564
1	0xbdd8f58b	-0.105937086
2	0xbdd9a042	-0.1062627
3	0xbc2737e3	-0.0102061955
4	0x3cc2541d	0.023721749
5	0x3e0ba742	0.13638023
6	0xbd533de6	-0.051572703
7	0x3ce23068	0.027610973
8	0x3e166a38	0.14688957
9	0xbd8b9c7d	-0.06816957
10	0x3da8cec0	0.082425594
11	0xbc818b80	-0.01581359
12	0x3c9236b9	0.01784836
13	0x3d8c1319	0.0683958
14	0x3db13899	0.08653373
15	0xb82e20d0	-4.151539e-05
16	0x3e19e414	0.15028411
17	0x3cd27ea9	0.025695162
18	0xbd6096a8	-0.054831177
19	0xbdbadd28	-0.091242135
20	0xbe43ecd3	-0.1913331
21	0x3d06b715	0.032889444
22	0xbcd3cda1	-0.025854887
23	0x3dbdc344	0.092657596
24	0xbdc04827	-0.09388762
25	0x3cf4cf01	0.029883863
26	0xbdf4f0b6	-0.119599745
27	0xbdcc6552	-0.09980263
28	0x3e04193c	0.12900251
29	0x3dfeb5b5	0.124370016
30	0x3cbfba88	0.023404375
31	0xbd2b3767	-0.041800883
32	0x3e3ac2fd	0.18238445
33	0x3d79ea82	0.06101466
34	0xbdabb2ea	-0.083837345
35	0xbd1bf66a	-0.038076796
36	0xbe103cd7	-0.14085709
37	0xbcdcdaee	-0.026959863
38	0xbe02945b	-0.12751906
39	0xbde93446	-0.113869235
40	0x3d48a105	0.048981685
41	0x3d820754	0.06349054
42	0x3e011d30	0.1260879
43	0xbc054dd3	-0.0081362305
44	0x3dae70ca	0.085176066
45	0x3e19b3be	0.15009972
46	0xbcc5f1d9	-0.024163174
47	0xbcca04db	-0.024660518
48	0x3d1a4181	0.037660126
49	0x3b999ffd	0.0046882615
50	0x3d2b78e0	0.041863322
51	0xbc4ef398	-0.012631319
52	0x3bb4f334	0.005522156
53	0x3e44f298	0.19233167
54	0x3e283f2e	0.16430351
55	0xbda6630c	-0.081243604
56	0xbe09600d	-0.13415547
57	0x3d26514d	0.04060488
58	0x3e0a7846	0.13522443
59	0xbce486e1	-0.027896347
60	0x3df76a70	0.12080848
61	0x3d95b4ec	0.07309899
62	0x3d70dc81	0.05880404
63	0xbbc8adc9	-0.0061242324
64	0x3dca1e5c	0.09869072
65	0xbc846bef	-0.016164748
66	0xbb7dc212	-0.0038720411
67	0x3d90f02f	0.070770614
68	0x3e0e2bef	0.13883947
69	0xbdc754c0	-0.09732962
70	0x3dabe9fa	0.08394237
71	0x3cc8aebb	0.02449738
72	0xbdf537eb	-0.11973556
73	0xbd2d94a0	-0.042378068
74	0x3e28378e	0.16427442
75	0xbc86adb4	-0.01644025
76	0xbd179ca1	-0.037014607
77	0x3dbb070e	0.09132205
78	0x3d5aabfd	0.053386677
79	0x3df915ad	0.121623375
80	0xbc03a0a2	-0.008033903
81	0x3e0961e0	0.13416243
82	0xbdd9cc04	-0.10634616
83	0x3e06c974	0.13162786
84	0xbe4b1ee8	-0.19836009
85	0xbd7a5a96	-0.061121546
86	0x3de4e36b	0.11176189
87	0x3d862cdc	0.06551525
88	0xbaac1ef6	-0.0013131786
89	0xbd8b9b68	-0.06816751
90	0x3ce41538	0.02784215
91	0x3d252bbe	0.04032492
92	0x3d43bc09	0.047786746
93	0xbdec75cf	-0.11545908
94	0x3cf0c009	0.029388444
95	0x3d250239	0.040285323
96	0x3d967a4b	0.07347544
97	0xbd07e9e3	-0.033182036
98	0x3e187adf	0.14890622
99	0x3a73c787	0.0009299446
100	0xbe0ef56c	-0.13960809
101	0xbe2d58c5	-0.16928394
102	0x3dacf2bd	0.08444736
103	0x3d02f2c5	0.031969804
104	0x3d8c5eb0	0.06853998
105	0x3b77a3f4	0.0037786933
106	0x3cd6597b	0.026165714
107	0xbc7d939f	-0.01547709
108	0xbd949f2f	-0.07256924
109	0xbd90c758	-0.07069272
110	0xbd46b1fd	-0.048509587
111	0xbe15d66b	-0.14632575
112	0x3cf4a909	0.029865758
113	0x3dd2a8b9	0.102860875
114	0xbb60b047	-0.0034284757
115	0xbd262d2f	-0.040570434
116	0xbdb4a25d	-0.08820031
117	0x3da5be84	0.080929786
118	0xbdb84fbe	-0.089995846
119	0x3e1a7f1b	0.1508755
120	0xbc443f65	-0.011978005
121	0xbdc3c2f1	-0.095586665
122	0xbe0761dd	-0.13220926
123	0x3b484fde	0.0030565183
124	0xbe278577	-0.16359507
125	0x3d6db4db	0.058033805
126	0x3d324a57	0.043527927
127	0x3cd35e44	0.025801785
128	0x3dbcaf8c	0.092131704
129	0xbd93a01b	-0.07208272
130	0x3e1a0a58	0.15043008
131	0xbc94711d	-0.018120343
132	0xbcbb6a75	-0.022877911
133	0xbc7e4127	-0.015518463
134	0xbe0e9ea3	-0.13927703
135	0xbcf2915e	-0.029610332
136	0x3dcfc291	0.101445325
137	0x3c7f2f30	0.015575215
138	0xbd9723bb	-0.07379862
139	0x3bec3203	0.0072081103
140	0x3e78d641	0.24300481
141	0xbe0eb1e2	-0.13935044
142	0xbde9935a	-0.11405058
143	0xbd806d98	-0.06270903
144	0x3c6f9e4a	0.014625141
145	0xbc22c54a	-0.009934733
146	0xbbf2a691	-0.00740511
147	0xbe4eacd4	-0.20183116
148	0xbe1ebbc5	-0.15501316
149	0xbe4da06a	-0.20080724
150	0x3d3b6871	0.0457539
151	0x3d859f45	0.06524519
152	0x3db3cb83	0.08779051
153	0x3dafacbc	0.08577868
154	0x3d8913ca	0.066932276
155	0xbd6ad7f6	-0.057334863
156	0xbd603139	-0.054734442
157	0xbd208bec	-0.03919594
158	0x3c6e732f	0.014553829
159	0xbda0544c	-0.07828578
160	0xbe2634a4	-0.16231018
161	0x3e288cf8	0.16460025
162	0x3d67bcfc	0.056576714
163	0xbe50bbb2	-0.203841
164	0x3dae14ab	0.08500036
165	0xbd477ec2	-0.04870487
166	0x3c9e39ae	0.019314613
167	0xbdf86fab	-0.12130674
168	0xbd6d5fcc	-0.057952687
169	0x3dbac48d	0.0911952
170	0xbdae4b35	-0.08510438
171	0x3c27d4e7	0.010243631
172	0xbd84385c	-0.06456062
173	0xbd200f6f	-0.03907722
174	0xbd59ce02	-0.05317498
175	0xbd657f6d	-0.056029726
176	0xbe769ab5	-0.24082454
177	0xbe3774a8	-0.17915595
178	0xbd5beb18	-0.053691
179	0x3daec260	0.08533168
180	0xbd2af1af	-0.041734394
181	0x3cf78134	0.030212976
182	0x3e293fcc	0.16528243
183	0x3dac5aea	0.08415778
184	0xbd857193	-0.06515803
185	0xbdb30499	-0.08741111
186	0xbd6d1973	-0.0578856
187	0xbe472fba	-0.194518
188	0x3b98d145	0.0046636187
189	0xbe172c08	-0.1476289
190	0xbcc2b1ae	-0.023766365
191	0xbd5c22c5	-0.053744096
192	0xbd8da78a	-0.06916721
193	0x3dd6ed48	0.104944766
194	0xbda22590	-0.07917321
195	0x3dfc05a8	0.12305766
196	0xbd2f4ecf	-0.042799767
197	0x3dc1974d	0.094526865
198	0xbe00f2bb	-0.12592594
199	0xbc72a5d3	-0.014810043
200	0xbd2fbf3d	-0.04290699
201	0x3d36d18c	0.044633433
202	0xbcf9ee8d	-0.030509258
203	0xbd9712de	-0.073766455
204	0xbdb82505	-0.08991436
205	0x3c7b3403	0.015332225
206	0xbdb3e2c8	-0.087834895
207	0xbe02bd6b	-0.1276757
208	0x3da90bab	0.082541786
209	0x3ce685c7	0.028139962
210	0xbd3abab7	-0.04558822
211	0xbe010036	-0.12597737
212	0xba6e919f	-0.0009100679
213	0x3d356225	0.04428305
214	0x3c656e16	0.014003297
215	0xbe740426	-0.23829708
216	0x3dab964a	0.08378275
217	0xbc61c3c1	-0.0137795815
218	0x3ce09bef	0.027418105
219	0xbe0675e1	-0.13130905
220	0x3e16ed4b	0.14738958
221	0xbdecc5fd	-0.11561201
222	0x3d1fa07a	0.0389714
223	0xbbf4cf22	-0.007470981
224	0xbd49d689	-0.049276862
225	0xbdf735af	-0.12070786
226	0x3e03ba01	0.12863924
227	0x3d4a9ac1	0.04946399
228	0xbd78e9a0	-0.060769677
229	0x3dafc494	0.08582416
230	0xbd49d86f	-0.049278673
231	0xbda78979	-0.08180518
232	0x3d9f52f7	0.07779496
233	0x3e0b0814	0.135773
234	0x3d8aa0ed	0.067689754
235	0xbe3ec801	-0.18630983
236	0xbdf0b282	-0.11752798
237	0x3dd3e6f6	0.10346787
238	0x3bde30e0	0.0067807287
239	0xbc2fbc36	-0.010726025
240	0xbda884a2	-0.08228423
241	0x3e1e8774	0.15481359
242	0xbe38714e	-0.18011972
243	0xbdcd2226	-0.10016279
244	0xbd2437eb	-0.04009239
245	0x3dafb743	0.08579876
246	0x3bca7577	0.0061785537
247	0x3e245f83	0.1605206
248	0xbe099e4b	-0.1343929
249	0x3db04b6c	0.086081356
250	0x3c0e719c	0.008694079
251	0x3c910f3f	0.017707465
252	0xbc88a792	-0.016681466
253	0xbc541d6d	-0.012946469
254	0x3dd53355	0.104101814
255	0xbe0dfe82	-0.13866618

bias f4 [8]
0	0x3d25f2ba	0.040514685
1	0x3d99d331	0.07510985
2	0x3d59d5ff	0.0531826
3	0x3e1eb5ca	0.15499035
4	0xbdf3dcfc	-0.11907384
5	0x3c781487	0.015141613
6	0xbd476001	-0.04867554
7	0x3e309621	0.1724477

weight f4 [8]
0	0x3f82694d	1.0188385
1	0x3f7b0003	0.9804689
2	0x3f87b201	1.0601197
3	0x3f8192e5	1.0122954
4	0x3f804884	1.002213
5	0x3f759619	0.95932156
6	0x3f8616c2	1.0475695
7	0x3f743170	0.95387936

bias f4 [8]
0	0xbdfaeb96	-0.12251966
1	0xbc4f71ab	-0.012661378
2	0x3cd94665	0.026522825
3	0x3d3007ed	0.04297631
4	0x3c7e62ed	0.015526515
5	0xbe056ca4	-0.13029724
6	0xbd9553b0	-0.07291353
7	0x3e55ee9f	0.20891808

running_mean f4 [8]
0	0x3e2b847d	0.16749759
1	0x3ead3d1f	0.33835694
2	0xbd14bf7c	-0.036315426
3	0xbe596b2a	-0.21232286
4	0xbeb323c4	-0.34988225
5	0xbdfebe62	-0.124386564
6	0xbc8c6190	-0.017136365
7	0xbdc5221b	-0.09625646

running_var f4 [8]
0	0x3e292f18	0.16521871
1	0x3dfea8c9	0.12434537
2	0x3de5c335	0.112188734
3	0x3d8a09c6	0.067401454
4	0x3dd7e8b7	0.10542434
5	0x3e012084	0.1261006
6	0x3d88eb78	0.06685537
7	0x3d5e11a4	0.054216042

weight f4 [1, 8, 3]
0	0x3e00bb43	0.12571435
1	0xbe36d01b	-0.17852823
2	0x3e3e77c7	0.18600379
3	0xbd37a39e	-0.044833772
4	0xbde931fa	-0.113864854
5	0x3d70a4f2	0.058751054
6	0xbc9b2a64	-0.018941112
7	0xbcb32506	-0.02186824
8	0xbe4734b5	-0.194537
9	0xbd2dd4cc	-0.042439267
10	0xbd65e12a	-0.056122936
11	0x3e40556a	0.18782583
12	0xbda41324	-0.08011463
13	0x3e3062f9	0.17225255
14	0xbe622a01	-0.22086336
15	0xbd6a346a	-0.057178892
16	0x3e2f15a6	0.17098102
17	0xbde29c00	-0.11064911
18	0x3cb17d16	0.021666091
19	0x3e2e0613	0.16994505
20	0xbcdda2a9	-0.027055101
21	0x3cc015cb	0.023447892
22	0xbe057a71	-0.13034989
23	0xbe06a102	-0.13147357

weight f4 [10, 25]
0	0x3d22f652	0.03978569
1	0xbe3e81de	-0.18604228
2	0xbe6409ef	-0.22269414
3	0x3e29d069	0.16583408
4	0xbe30246d	-0.17201395
5	0x388dbbe1	6.758399e-05
6	0x3b3ee375	0.0029127274
7	0x3d45ee1f	0.048322793
8	0x3d082538	0.03323862
9	0x3e9a9925	0.30194965
10	0x3eced2d2	0.40395218
11	0xbc4f0e99	-0.012637758
12	0xba784802	-0.0009471179
13	0xbdf7a37f	-0.12091731
14	0x3b9a7100	0.0047131777
15	0x3d276015	0.040863115
16	0x3e334013	0.17504911
17	0xbddaf2d5	-0.10690848
18	0xbe05a6dc	-0.13051933
19	0xbd732989	-0.059365783
20	0xbdebc897	-0.11512869
21	0xbe82f777	-0.25579426
22	0xbe74935c	-0.23884338
23	0xbe0e38ed	-0.13888903
24	0x3e966ced	0.2937998
25	0x3d31ea77	0.043436494
26	0x3d5a13dd	0.0532416
27	0x3c03e92e	0.0080512
28	0xbe8afe72	-0.2714725
29	0x3ea8d07f	0.3297157
30	0xbce9aea6	-0.028525662
31	0xbd2d39e9	-0.042291556
32	0x3c2a73bb	0.010403569
33	0xbd18327f	-0.03715753
34	0xbe8d15ed	-0.2755579
35	0xbea99026	-0.3311779
36	0xbc861d57	-0.016371412
37	0x3df84a16	0.12123506
38	0x3e8d65a4	0.27616608
39	0x3d717c74	0.05895658
40	0x3d963fcc	0.07336387
41	0xbdf9b98b	-0.12193593
42	0x3d7c6ac5	0.06162526
43	0x3d2effae	0.042724304
44	0xbcfeeb4c	-0.031118058
45	0x3e096fd4	0.13421565
46	0x3d6d0ef5	0.057875592
47	0x3de6a01f	0.112610094
48	0x3e6a00d7	0.22851883
49	0xbe08ff47	-0.1337863
50	0x3d0e5c45	0.034755964
51	0x3e2af433	0.16694717
52	0x3dd37c8e	0.10326491
53	0xbe8051f6	-0.2506253
54	0x3b608e43	0.0034264482
55	0xbe9ad2aa	-0.3023885
56	0x3d725a28	0.05916801
57	0xbe6c5104	-0.2307778
58	0xbd9b88eb	-0.075944744
59	0xbe321d64	-0.17394024
60	0xbe3564f5	-0.17714293
61	0xbca22e7c	-0.019797556
62	0xbe2700bd	-0.16308875
63	0x3e5a4c76	0.2131823
64	0x3d4ebeda	0.05047498
65	0xbe7107f0	-0.23538184
66	0xbe4c2aa0	-0.19938135
67	0xbe32676f	-0.1742227
68	0xbe08c767	-0.13357316
69	0x3e1c5b08	0.152691
70	0x3e0e1917	0.13876759
71	0x3d20a114	0.039216116
72	0xbd2d41c1	-0.042299036
73	0xbd2dac3b	-0.04240058
74	0xbde0a7fe	-0.10969542
75	0xbe5c701e	-0.21527144
76	0x3e79a79c	0.24380344
77	0xbd420ed9	-0.04737744
78	0x3cde8454	0.027162708
79	0x3e0a348f	0.13496612
80	0xbdcc8fa4	-0.09988335
81	0x3d2d1413	0.042255472
82	0xbe9d1896	-0.3068282
83	0xbe5f86d6	-0.2182878
84	0xbd913d0b	-0.07091721
85	0xbe307a68	-0.17234194
86	0x3e25c504	0.16188437
87	0x3a76c4d7	0.00094134867
88	0x3d8af3de	0.06784795
89	0xbe84384b	-0.25824198
90	0xbe7ca732	-0.24673155
91	0x3da8eb26	0.08247976
92	0xbe376dd1	-0.17912985
93	0x3e1117e2	0.14169267
94	0x3d928749	0.0715471
95	0x3e1df6b8	0.15426147
96	0x3e91b2ec	0.2845682
97	0x3e547390	0.20747209
98	0x3e83321a	0.25624162
99	0xbda03c93	-0.078240536
100	0xbc849e92	-0.016188893
101	0x3e8057f3	0.250671
102	0x3e547e01	0.20751192
103	0xbe1a4e1d	-0.1506886
104	0x3e8a5bf6	0.27023286
105	0xbe90311c	-0.28162467
106	0xbd979043	-0.074005626
107	0xbeacfff0	-0.33789015
108	0xbe90744a	-0.28213722
109	0xbebb5555	-0.3658854
110	0xbe1c7c35	-0.15281756
111	0x3dd388e0	0.10328841
112	0xbdb22aee	-0.086995944
113	0x3e2e33bc	0.17011923
114	0xbe78998b	-0.24277322
115	0xbe36a5a0	-0.17836618
116	0xbd39910f	-0.045304354
117	0xbde68bc7	-0.11257129
118	0xbd9a2540	-0.07526636
119	0x3e3881a7	0.18018208
120	0x3e69040c	0.2275545
121	0x3e3e1ba4	0.18565232
122	0xbd8c876b	-0.068617664
123	0x3e92df12	0.28685814
124	0xbd1ee8a8	-0.038796097
125	0xbdfa2305	-0.12213711
126	0x3e749aea	0.2388722
127	0x3e820fac	0.25402582
128	0xbdd7b711	-0.10532964
129	0x3e1d665d	0.1537108
130	0xba844c45	-0.0010093531
131	0x3e8b9b37	0.27266857
132	0x3c30ed26	0.010798728
133	0xbe8353db	-0.25649914
134	0xbe0abbb1	-0.13548161
135	0xbca23564	-0.01980085
136	0x3dda74d1	0.10666812
137	0x3e3e1086	0.1856099
138	0x3dfdf8f3	0.12400999
139	0xbe3e4b6e	-0.18583462
140	0x3dcbb6b5	0.09946958
141	0xbe15231f	-0.14564179
142	0xbdc2269d	-0.09480021
143	0xbc9028ec	-0.017597638
144	0xbca7e13d	-0.020493144
145	0x3dc3200c	0.09527597
146	0x3e44b0f5	0.19208129
147	0x3dff9a3d	0.124805905
148	0x3adcc261	0.0016842597
149	0xbe979ef5	-0.29613462
150	0xbe69072d	-0.22756644
151	0x3e1d7754	0.15377551
152	0x3e69e728	0.22842085
153	0xbda6350d	-0.081155874
154	0x3e81222d	0.25221387
155	0x3d5203ef	0.051273283
156	0xbc9c231c	-0.01905971
157	0xbebcb8f2	-0.36859852
158	0x3cdca7b9	0.026935445
159	0xbe0ce798	-0.13760221
160	0xbe6399e0	-0.22226667
161	0x3dd1d298	0.10245246
162	0x3e0dd34d	0.13850136
163	0x3de43eb8	0.11144775
164	0x3d51089b	0.051033597
165	0x3d628823	0.05530561
166	0xbe1c3823	-0.1525579
167	0x3d8fb8f1	0.07017697
168	0xbc725430	-0.01479058
169	0x3de69fa1	0.112609155
170	0xbe1bdf4a	-0.15221897
171	0x3e8d13ef	0.2755427
172	0x3e7238db	0.23654501
173	0xbcd47b6a	-0.025937755
174	0xbe7a674b	-0.24453466
175	0xbe7c59b6	-0.24643597
176	0x3e6f8504	0.23390585
177	0x3e6be5a9	0.23036827
178	0xbe456638	-0.19277275
179	0x3e615c79	0.22007932
180	0xbe1a43d8	-0.15064943
181	0x3daf06c4	0.08546212
182	0xbeb10d1f	-0.34580323
183	0xbd6d04a1	-0.057865743
184	0xbe86568e	-0.2623791
185	0xbd2087c0	-0.03919196
186	0x3e4807a1	0.1953416
187	0x3d8e451e	0.06946777
188	0x3de6f2c0	0.1127677
189	0x3d67eea8	0.056624085
190	0x3da58e8d	0.0808383
191	0xbe1af3fb	-0.15132134
192	0x3e183d34	0.14867097
193	0x3d98a727	0.07453757
194	0xbd953e7c	-0.072873086
195	0xbd97ebe0	-0.074180365
196	0xbdcbb278	-0.099461496
197	0x3e97101a	0.29504472
198	0x3e795bfc	0.24351496
199	0xbe6b492a	-0.22977129
200	0xbd432a9e	-0.047648065
201	0x3e51c1a5	0.20484026
202	0xbceaf967	-0.028683377
203	0xbde6672f	-0.112501495
204	0x3e9ec660	0.31010723
205	0xbe61a893	-0.22036962
206	0x3e3ac052	0.18237427
207	0xbe41957a	-0.18904677
208	0xbe628251	-0.22120024
209	0xbe931855	-0.287295
210	0xbe927f9f	-0.28612992
211	0x3e3dc7b9	0.1853322
212	0x3e382009	0.1798097
213	0x3e943932	0.28949887
214	0xbcb6ec51	-0.022329481
215	0xbe30d58b	-0.1726896
216	0xbe1c0d8f	-0.15239547
217	0xbe6054c6	-0.21907339
218	0x3d2dbedc	0.042418346
219	0x3e6cacc5	0.23112781
220	0x3e4fd104	0.20294577
221	0x3e90678b	0.28203997
222	0x3b83b4f6	0.004019375
223	0x3d4a1648	0.049337655
224	0xbcd8f3f7	-0.026483519
225	0x3dbc194a	0.09184511
226	0xbdf088be	-0.117448315
227	0xbe991c0f	-0.2990422
228	0x3e54d26e	0.20783398
229	0x3d5787ae	0.05261963
230	0x3da68ebc	0.08132693
231	0xbe6aa014	-0.22912627
232	0x3ca93fea	0.02066036
233	0x3d52612c	0.0513622
234	0x3b1c48a1	0.0023847
235	0x3d58b827	0.052909996
236	0xbd3586b3	-0.044317912
237	0x3e4eecd6	0.20207533
238	0xbe75a677	-0.23989283
239	0xbdb4a6e5	-0.08820895
240	0x3e65cb6e	0.22440884
241	0xbd5139ed	-0.051080633
242	0x3c2c15ee	0.010503275
243	0x3df6add1	0.120448716
244	0xbe340e9c	-0.17583698
245	0xbdb1df12	-0.086851254
246	0xbe8b80e2	-0.27246767
247	0xbe767089	-0.24066366
248	0xbd31e3dc	-0.043430194
249	0xbc65ebff	-0.014033317

bias f4 [10]
0	0x3d40087b	0.046883088
1	0xbda98c3d	-0.082787015
2	0xbe0db21f	-0.13837479
3	0x3d691513	0.056904864
4	0x3c84f619	0.01623063
5	0xbe90b724	-0.28264725
6	0xbe9d42f1	-0.30715135
7	0x3c2a8811	0.010408417
8	0xbe40accf	-0.18815921
9	0xbc955c20	-0.018232405

weight f4 [2, 10]
0	0xbf1639d0	-0.58681965
1	0x3c89c08b	0.016815444
2	0x3ea1d374	0.31606638
3	0x3ee6642f	0.4499831
4	0x3f283263	0.65701884
5	0x3e97843c	0.29593074
6	0x3edd511e	0.4322595
7	0x3f0942fc	0.53617835
8	0x3f351854	0.70740247
9	0xbdcced60	-0.10006213
10	0x3ef7322b	0.48280463
11	0xbe9be03f	-0.30444524
12	0xbbf57998	-0.0074913017
13	0xbe366eba	-0.17815676
14	0xbeeddafa	-0.46456128
15	0xbebd5063	-0.36975393
16	0xbf0d04bf	-0.55085367
17	0xbd7d0067	-0.06176796
18	0xbda6dfda	-0.08148165
19	0x3d725171	0.0591597

bias f4 [2]
0	0xbe06abb2	-0.13151434
1	0xbd9993f5	-0.07498924
