mlpcnnsemi/model/cnn/64twoinput_batch1_Epoch=63_lr=0.0001.pth (torch, 24731 bytes, 35 tensors)

weight f4 [8, 1, 1]
000000 18 a7 13 bf a6 06 b9 3e 12 27 dd 3d b0 c8 19 3f
       -0.5767684 0.36137885 0.10798468 0.6007185
000010 63 09 4e 3f 2d 29 66 be ba a8 84 3f 97 2f 19 bf
       0.80483073 -0.22476645 1.0363991 -0.5983824

bias f4 [8]
000000 f6 91 39 3d f4 1c 64 3f 71 8a 6c 3f 80 2b 54 bf
       0.045305215 0.8910668 0.92398745 -0.82878876
000010 8d 5a 2e 3f 42 16 e3 bd 89 38 df 3e 7d ed 36 bf
       0.6810692 -0.1108823 0.4359782 -0.7145613

weight f4 [8]
000000 40 b5 84 3f 82 4f 79 3f a0 70 81 3f 4d ce 7f 3f
       1.0367813 0.97386944 1.0112495 0.99924165
000010 f8 15 7e 3f 93 bc 7e 3f 4b 2e 80 3f 7f 14 7d 3f
       0.9925227 0.9950649 1.0014127 0.988594

bias f4 [8]
000000 2d f8 1e 3d 6a 85 8b 3c e6 83 a5 bd 8d f1 cf bd
       0.038810898 0.01703139 -0.08081798 -0.10153494
000010 f2 2e 4f 3c 48 08 bf 3d 75 ee 1c bd eb 35 6d bd
       0.01264547 0.093277514 -0.038313348 -0.05791275

running_mean f4 [8]
000000 3c f9 1d 3d f9 4c 65 3f 2b d4 6c 3f cd 5c 52 bf
       0.038567767 0.89570576 0.9251124 -0.8217285
000010 f8 cb 30 3f 86 8d e8 bd a9 6c e5 3e e0 d2 38 bf
       0.6906123 -0.113551185 0.44809464 -0.7219677

running_var f4 [8]
000000 00 49 ce 39 0f d9 21 39 b9 9d 67 37 1d bf df 39
       0.0003934577 0.00015435017 1.3805396e-05 0.00042676265
000010 5c c4 48 3a 3c 6c 7a 38 72 73 a6 3a 31 f9 dd 39
       0.00076586544 5.9705446e-05 0.00126992 0.00042338067

weight f4 [16, 8, 1]
000000 b6 49 93 bd b4 af 52 be cf 2e 22 3d ce d8 8b be
       -0.071917936 -0.20574838 0.03959542 -0.27313846
000010 a2 25 a5 3d 51 bf 54 be 59 3b 6e 3c 5f 1e d4 bc
       0.080638185 -0.20776106 0.014540517 -0.025893388
000020 fd 7b 00 3e 28 d7 6f be cf 7f 62 3c fe a3 d3 bd
       0.12547298 -0.2342192 0.013824417 -0.103340134
000030 3a cc 35 3d aa fe 39 bd cf 0d 6b 3e a0 bb 12 be
       0.04438422 -0.045408882 0.22954486 -0.14329386
000040 b2 aa 13 be 35 de d9 3d 5f 8b 70 be c7 6b 2b be
       -0.14420584 0.10638086 -0.23490666 -0.16740333
000050 a3 da 4e be 7a c1 83 bc 4f f6 c3 3e 96 f6 dc 3e
       -0.20200591 -0.016083468 0.38273856 0.4315688
000060 bc 47 ac be 03 2f 9a be a2 80 95 3e 67 df 12 3e
       -0.3364848 -0.30113992 0.29199702 0.14343034
000070 f2 bc 20 3d 61 f9 21 bd fe a7 64 bd c6 ea 5d 3e
       0.039242692 -0.039544467 -0.055824272 0.2167159
000080 b1 93 85 bd 6f 14 02 bd 89 cf 8c be 4a e6 ab 3e
       -0.065223105 -0.03175777 -0.27502087 0.33574134
000090 c1 dd e1 3d 8b 8b 7b 3e 42 03 48 be 0b 88 fc 3e
       0.11028624 0.2456495 -0.19532493 0.49322543
0000a0 8b c1 51 3e 15 23 9e bd ca ee 8d bd 03 45 a5 be
       0.20483987 -0.07721535 -0.06930311 -0.32279214
0000b0 34 da 54 3e 51 70 68 be b7 f6 37 bc de 14 4b 3c
       0.20786363 -0.22699095 -0.011228255 0.012395112
0000c0 dd 64 b0 be 67 a3 a5 3e 4a cf b3 39 a1 69 7a be
       -0.34451953 0.3235123 0.00034295983 -0.24454357
0000d0 11 49 2c be 79 58 8c be 5b 48 37 be 92 f0 4d 3d
       -0.16824748 -0.2741125 -0.17898695 0.050278254
0000e0 c0 19 c3 bd d9 fa 82 bc 7b d8 5b be d1 03 9d be
       -0.09526396 -0.015988754 -0.214693 -0.30666974
0000f0 2c 54 20 3e d5 54 6f be aa de a6 3e 07 c1 ba 3e
       0.15657109 -0.23372205 0.32591754 0.36475393
000100 47 07 f5 bd 3d e6 0d be 72 7e c7 bd df 10 9a 3d
       -0.11964279 -0.1385736 -0.097409144 0.07522749
000110 16 4c b1 3e 1e a0 42 3e ec db 87 3c 64 c8 42 be
       0.3462836 0.19006392 0.01658436 -0.19021755
000120 12 93 3d be 98 9c 7c 3e 96 ab 9a 3e ec 39 38 be
       -0.18513134 0.24669111 0.30209035 -0.17990845
000130 ca ea 3c 3e 72 07 0e be 05 98 75 be 9b 82 10 be
       0.1844894 -0.13870028 -0.23983772 -0.14112322
000140 55 8e dc bd 11 18 61 be b9 59 54 3d 33 35 c0 be
       -0.10769335 -0.21981837 0.05184338 -0.37540588
000150 e9 1e 58 3e 79 9b 0a 3e 4a 7c 9c be 8c 54 22 be
       0.21105541 0.1353587 -0.30563575 -0.15852565
000160 59 97 a0 3e 82 9b bc 3d 43 a2 6f 3e 3e ed 8e be
       0.3136547 0.09209348 0.23401742 -0.27915376
000170 bf de 61 3e b1 f6 bf 3d 4d b4 a4 3d 78 93 ae bd
       0.22057627 0.093732245 0.08042202 -0.08524221
000180 b2 b8 e0 3d 8d e7 83 3e d8 11 93 3e 19 26 88 3c
       0.10972728 0.25762597 0.2872455 0.016619729
000190 e3 55 77 3d ae df 91 3e 2f 46 bf 3e a2 97 50 3e
       0.060384642 0.28490967 0.37358233 0.20370343
0001a0 bf 7a 60 3b dc 0b b6 3e a4 5f 98 3e ac c9 e5 bd
       0.003425285 0.35555923 0.29760468 -0.112201065
0001b0 88 06 cd 3e 86 67 b9 3d e6 c7 2b be 8c ac 9a be
       0.40044045 0.09052949 -0.16775474 -0.30209768
0001c0 b4 8a 15 3e 50 48 e7 3d 87 1a 81 bd b3 8f fe bd
       0.14603692 0.112930894 -0.06303888 -0.12429752
0001d0 5c 3f 25 3e 66 f7 a2 be ff 98 8d be f7 19 7c be
       0.16137451 -0.31829375 -0.2765579 -0.2461928
0001e0 4c 65 87 be db d7 bc be 1d f9 df 3e 9d ef d4 bd
       -0.2644447 -0.36883435 0.43744746 -0.10397265
0001f0 d0 14 bc bd 90 6d c4 3d 78 cf a2 be a2 f3 b1 bc
       -0.09183657 0.0959121 -0.3179891 -0.021722618

bias f4 [16]
000000 10 d6 92 3e 6d 97 8f bc 5b 02 19 3e 09 35 82 be
       0.28678942 -0.01752826 0.14942305 -0.25431088
000010 9d 1f 9a 3e a4 30 4e 3b 53 97 e6 bc a4 60 7a 3e
       0.30102244 0.0031462098 -0.028148329 0.24450928
000020 84 00 1c be 04 30 83 3d 8f 45 89 3e 6d e6 3d 3e
       -0.15234572 0.06405643 0.26810881 0.18544932
000030 83 48 8a be df c6 df 3d c9 28 6a be b0 a1 73 be
       -0.27008447 0.109266035 -0.22867121 -0.23792148

weight f4 [16]
000000 f8 76 86 3f f7 bd 88 3f 1d 6b 82 3f ed 3a 67 3f
       1.0505056 1.0682973 1.0188938 0.9032429
000010 b7 e0 79 3f 03 32 82 3f 90 3c 8b 3f 05 3a 84 3f
       0.9760851 1.0171512 1.0877857 1.0330206
000020 b2 2e 7e 3f 45 a3 85 3f 03 48 77 3f d3 16 82 3f
       0.9929 1.0440451 0.96594256 1.0163215
000030 1e cf 89 3f 05 80 6f 3f ef 65 88 3f 79 e1 94 3f
       1.0766332 0.9355472 1.0656108 1.1631309

bias f4 [16]
000000 bc 52 b2 3c e4 13 7d bd ed 4e 55 bb 34 4a 4b bd
       0.021767966 -0.061786547 -0.0032548264 -0.049631312
000010 f9 1a ce bd db cc 37 3d 93 5e fe bd 84 54 85 3d
       -0.100637384 0.0448731 -0.12420382 0.06510261
000020 f1 49 7d 3d 8a 6c 9a 3b 8e 2a 74 bd e8 59 50 bc
       0.061838094 0.004712646 -0.059610896 -0.012716748
000030 e9 d2 f8 3c 08 f6 6e bd ee 8d d6 3c 83 fc fe 3c
       0.030374007 -0.058340102 0.026190724 0.031126266

running_mean f4 [16]
000000 fd b0 f8 3d 10 73 0c bd 93 f7 35 3e 8f 9b 9f be
       0.12143133 -0.03428942 0.17770223 -0.3117337
000010 86 e2 e7 3e 95 52 69 bd 14 a3 83 be 04 f7 68 3e
       0.4529001 -0.056963522 -0.25710356 0.22750479
000020 09 13 e2 bd 42 ce e6 3a b4 00 d1 3d bf 28 b7 3e
       -0.11038787 0.0017609077 0.10205212 0.35773274
000030 92 08 cf 3d 14 dd 7b 3e 79 40 bc be 11 72 d7 be
       0.101090565 0.24596053 -0.3676794 -0.42079213

running_var f4 [16]
000000 08 a1 a9 3d a7 fe 9d 3a 8f d7 a4 3b 32 82 b1 3b
       0.082826674 0.0012054042 0.0050305794 0.005417132
000010 dd cb 16 3c df a9 4d 3d fe fe 4f 3d 96 42 3d 3a
       0.009203878 0.05021083 0.05078029 0.00072197
000020 95 da 3f 3d a2 46 8b 3d e5 7a a7 3e 2b 0f 73 3d
       0.046839315 0.068005815 0.3271095 0.059340637
000030 6d d4 21 3f 73 49 d2 3e 5f 78 ad 3c 56 0f 65 3e
       0.6321476 0.41071662 0.021175561 0.22369131

weight f4 [8, 1, 3]
000000 3f 13 bb 3e 91 fa 0a bf bb 3f cd be e9 b0 04 bf
       0.3653812 -0.54288584 -0.40087685 -0.51832443
000010 f6 25 cc 3e 53 69 18 be fe 72 84 be 14 85 20 3e
       0.39872712 -0.14883928 -0.25868982 0.15675765
000020 c6 32 f7 3e e0 84 3e 3e 02 66 c9 be e4 76 94 3e
       0.48280925 0.18605375 -0.39335638 0.28996956
000030 08 16 6e 3e d2 8f 35 3e 04 25 eb 3e 98 00 aa be
       0.23250592 0.17730644 0.45926678 -0.33203578
000040 50 72 73 3d 5a e4 dc 3e 28 04 02 bf 04 c5 bf be
       0.05943519 0.43142968 -0.5078759 -0.37454998
000050 75 5a 47 be 5e b6 82 3d 23 09 cc be ef 01 6e 3e
       -0.194681 0.0638244 -0.3985072 0.23242925

bias f4 [8]
000000 97 6b b0 3c 29 55 77 bd 6c 84 b8 3e d2 3b 06 3f
       0.021535678 -0.06038395 0.3603853 0.5243503
000010 55 01 a1 3e 1a af 02 3f 72 c3 e5 be 65 1f bb bd
       0.3144633 0.51048434 -0.44875675 -0.091368474

weight f4 [8]
000000 53 29 7c 3f 15 ba 71 3f d7 9d 74 3f 31 e3 81 3f
       0.98500556 0.94424564 0.95553344 1.0147458
000010 d9 9b 79 3f 41 34 87 3f bf 38 81 3f 74 2d 85 3f
       0.9750343 1.0562822 1.0095443 1.0404496

bias f4 [8]
000000 cf e3 a4 3d 38 81 94 bc 6d 42 a5 3d 91 96 a3 bd
       0.080512635 -0.018128023 0.0806931 -0.07987703
000010 be 34 15 3d eb 5e a7 bd e3 57 a2 3d 4c 4a 55 3d
       0.036427252 -0.08172401 0.07926919 0.05207281

running_mean f4 [8]
000000 3b 78 bc 3c 46 f5 76 bd 7a e2 b7 3e 86 71 06 3f
       0.02300655 -0.060292505 0.35914975 0.52516973
000010 6e 2d a0 3e 2f a8 02 3f 2f ad e4 be f8 06 ba bd
       0.3128466 0.5103788 -0.4466338 -0.090833604

running_var f4 [8]
000000 db e7 6a 3a e9 f9 08 3a cf ba ea 39 a1 22 ae 39
       0.0008960941 0.0005225228 0.0004477114 0.00033213667
000010 56 2d 18 3a a7 27 c6 39 fe 2b 77 3a 9f 45 99 39
       0.00058050954 0.00037795046 0.00094288576 0.00029234306

weight f4 [16, 8, 3]
000000 7f ae c2 bd 7b 1c 75 3e 46 1e 63 3d 3b 26 f2 bd
       -0.09505939 0.23936646 0.055448793 -0.11823698
000010 74 8a 47 ba 5a 4c 3f 3e 15 34 47 bd d5 6b 41 be
       -0.00076118787 0.1868147 -0.048633654 -0.18888791
000020 d9 90 3e bd 7a ee 49 3e db 9e 25 3e ae 69 36 3e
       -0.046524856 0.19719878 0.1617388 0.17813751
000030 cf 45 ad bd 5a 92 eb 3d b1 ff d0 3d 8b ad 50 bc
       -0.084605806 0.11502524 0.10205019 -0.012736688
000040 ec 86 77 3d b6 80 4e 3e 4a b6 ac bd ca d4 93 3d
       0.060431406 0.20166287 -0.084332064 0.07218321
000050 19 dd 12 3d 74 88 67 bc 4f 19 52 3d 7a 97 22 bd
       0.035855386 -0.014131654 0.051293667 -0.03969524
000060 0c 6c 06 3e e1 c6 62 bc f8 be 23 3e f8 62 b4 bd
       0.13127154 -0.013841362 0.15990818 -0.08807939
000070 70 ea 2a 3e be 4c 46 3d 70 d1 0d 3e 36 2a 3b 3e
       0.16690993 0.04841303 0.13849425 0.18277821
000080 b7 17 4c bc 99 ca a8 3d 00 cb e0 bd ea ad bc 3d
       -0.012456826 0.082417674 -0.10976219 0.09212859
000090 d4 e4 66 3d 25 da 89 3d 43 d6 b4 bd d3 ac 19 3e
       0.05637057 0.06731061 -0.0882993 0.15007333
0000a0 46 a3 37 be 86 1c d8 3d a9 98 53 3e c6 88 5a bd
       -0.17933378 0.105523154 0.20663704 -0.053353094
0000b0 80 45 e6 bd d6 fd 0c be 17 af 84 3e 07 14 5f 3b
       -0.11243725 -0.13768706 0.25914833 0.0034039037
0000c0 b7 5e 7f 3d 04 80 41 b7 79 9e ee 3c dc df 35 3e
       0.062346186 -1.1533502e-05 0.0291283 0.17761177
0000d0 05 40 61 3e 9b 7b a3 bc 3e 3d b9 bd e7 6f 9b 3d
       0.21997078 -0.0199564 -0.09044884 0.07589703
0000e0 ce 20 33 be 0c fd 8a 3e ad 41 31 3e 32 eb 5a be
       -0.17492983 0.27146184 0.1731021 -0.21378782
0000f0 54 8b 44 3d a7 af 4b be e5 93 0a 3e 04 37 6d 3d
       0.047984436 -0.19891225 0.1353298 0.057913795
000100 f0 f9 08 3d d3 f5 d3 bd d6 32 cf 3c d3 f5 8f 3d
       0.033441484 -0.103496216 0.025292795 0.07029309
000110 42 08 28 bc 42 0b 8e 3d 85 8d 89 3b 98 3d af 3d
       -0.010255875 0.06935741 0.0041977786 0.0855667
000120 9d cb 8f bd 6b 50 1d 3e ea bf 0b 3e 52 a2 a7 bd
       -0.07021258 0.15362708 0.13647428 -0.08185257
000130 7a 37 b5 3c cd ea 0c 3e 9a 21 ec bc c5 f9 57 3e
       0.02212118 0.13761444 -0.028824616 0.21091373
000140 fb 26 bf 3d 55 55 e1 bd af a1 d4 3d 63 fd c0 3d
       0.09333607 -0.11002604 0.10382401 0.0942333
000150 f4 dc f4 bd 80 5b 9c bd b1 cd c4 bd 72 85 20 3d
       -0.11956206 -0.0763464 -0.09609545 0.039189763
000160 35 1f 68 bc d2 85 15 be dd 26 df 3c 19 c9 73 bd
       -0.014167597 -0.1460183 0.027240211 -0.059517954
000170 8f 4d 59 3e d9 db 45 bd 52 db a9 bd 50 9f a2 bd
       0.21220993 -0.048305366 -0.08293785 -0.07940543
000180 6b dc b1 3d 78 2b 59 3e 0b 76 24 3c 82 4b 0d 3a
       0.086846195 0.21207988 0.010037909 0.00053899747
000190 00 51 46 be c4 1a 9c bd c7 bd 86 bd 00 94 e3 3c
       -0.19366837 -0.07622293 -0.06579166 0.027780533
0001a0 c9 52 91 3d 32 85 a0 bd d1 7e a8 bc 68 47 13 3e
       0.07095868 -0.07837905 -0.020568283 0.14382708
0001b0 e5 b6 bf 3d 20 cf 2d 3d ef d4 b9 bd 3a 38 37 3e
       0.09361056 0.042433858 -0.09073817 0.17892542
0001c0 05 09 6b be 77 13 48 3e a9 78 4b be ec 18 d2 3d
       -0.2295266 0.19538675 -0.19870247 0.1025866
0001d0 29 d3 52 be 75 f9 4c bd b2 0f 22 3e 7f 77 0c 3e
       -0.20588364 -0.05004259 0.158263 0.13717459
0001e0 a6 e5 07 3e 18 e7 3d bd 57 cd dd 3a 50 e2 30 be
       0.13271198 -0.046362966 0.0016922158 -0.17273831
0001f0 7f 07 ce bd 43 f0 dd 3d 1e 82 99 3d 42 20 30 3e
       -0.100600235 0.10836842 0.07495521 0.17199805
000200 5a 5b 10 3d 1b b3 41 3e 89 59 48 be 0d c7 96 3c
       0.03524337 0.1891598 -0.19565405 0.018405462
000210 8d 4c 13 bd 3e ce 23 3c 6b 9d 51 3d 15 2c 69 be
       -0.035961676 0.009997902 0.051175516 -0.22770722
000220 4d 59 37 3d 32 f6 53 be f2 a7 82 bd ce a7 e5 3d
       0.0447629 -0.20699385 -0.06379689 0.11213647
000230 57 10 01 3e 6e 80 d5 bd 63 45 d9 bc 3c c9 a0 3d
       0.1260389 -0.10424887 -0.026522344 0.078508824
000240 e3 01 ca 3d a5 79 5b be 7a a4 a8 3c ac 78 6c bd
       0.09863641 -0.21433122 0.020586241 -0.05773227
000250 9b 4a df 3d ba 5c 90 3d 57 56 25 3e f8 40 82 3d
       0.10902902 0.07048936 0.16146217 0.06360048
000260 4d 64 cc bd 5d 88 04 be a6 f4 1b 3e b8 00 d5 bd
       -0.09980068 -0.12942643 0.15230045 -0.10400528
000270 2a 4f 86 bd 91 37 8f 3d 61 cf 33 bd b2 6a 29 3d
       -0.06558068 0.0699302 -0.043898944 0.04136152
000280 93 a6 5e be 1b 56 97 3d d4 d2 ea 3d b8 9e 2d 3e
       -0.2174323 0.0738947 0.114659935 0.16955078
000290 3b 18 83 be 54 e5 e7 bd 26 65 bd 3d f0 4c ea 3d
       -0.25604424 -0.11323038 0.09247808 0.11440456
0002a0 08 07 03 bd d8 70 02 3e 7f 02 b9 3d 8b 4d c1 3d
       -0.031989127 0.12738359 0.09033679 0.09438618
0002b0 5a d4 e1 bd ee e0 8b 3d 8e 4c d7 3c 34 2f 82 be
       -0.11026831 0.06830011 0.026281621 -0.25426638
0002c0 32 c3 83 3c 58 80 47 3e 92 aa 57 bd cf 55 0a bc
       0.016084287 0.19482553 -0.052652903 -0.00844331
0002d0 6a fd 08 be 81 35 71 bc 62 ce a8 3d b0 e2 d1 bd
       -0.1337792 -0.014722229 0.082424894 -0.10248315
0002e0 cb 81 19 bd 94 4f e0 bd c2 ac 22 be df 7e 87 3d
       -0.037477296 -0.10952678 -0.15886214 0.066159956
0002f0 f8 60 15 be c5 cf 0a 3d 50 b1 21 bd cf 46 61 be
       -0.14587772 0.03388955 -0.03947574 -0.21999668
000300 93 5c 07 3e 65 e7 36 3e 30 67 64 be 6c 8c 99 3d
       0.13218908 0.17861708 -0.22304988 0.074974865
000310 6c 73 41 be a8 7a 05 3e db a7 c3 3d 94 73 3d be
       -0.18891686 0.13035071 0.095535 -0.18501121
000320 c6 be b2 3d e8 17 c6 3d 56 d6 4c 3e a4 66 6b 3d
       0.087277934 0.096725285 0.20003638 0.057470933
000330 02 a9 38 be 51 6a 23 be 12 2b 79 bd dd 77 f1 3a
       -0.18033221 -0.15958525 -0.06083209 0.0018422563
000340 56 64 51 3d d2 10 94 bd b9 d3 0d be 34 b9 95 bd
       0.05112108 -0.07229771 -0.13850297 -0.07310715
000350 56 23 25 3e 7b d0 60 3e cf e8 55 bd a6 9a 04 be
       0.16126761 0.21954529 -0.052223977 -0.12949619
000360 e1 e1 29 be 05 b5 f4 3c 14 5b 29 be f1 38 3c 3e
       -0.16590072 0.029871473 -0.1653865 0.18381096
000370 d1 56 b6 3d c6 02 67 be ca 0d 1a 3e 4e 76 14 3e
       0.08903278 -0.22559652 0.15044323 0.14498255
000380 3b 3a f3 bd 0d 99 b3 3d c1 8b 91 3d 66 17 1b 3b
       -0.11876341 0.087694265 0.07106734 0.002366507
000390 a8 5a 5c bd 1c 18 11 be 1d 2a 8d 3e 6f 07 18 bd
       -0.053797394 -0.14169353 0.27571192 -0.037116464
0003a0 bf 62 6a 3d 8d a0 3f 3e 4c be 20 3e 65 c8 95 3d
       0.057223078 0.18713589 0.15697592 0.07313613
0003b0 18 0b be ba 37 a7 41 be 60 f5 8f 3c 29 ac b2 3c
       -0.0014499156 -0.18911444 0.017573059 0.021810608
0003c0 7e 59 31 be 6f 5d 88 bd 35 cd 35 bd 27 3e 66 bc
       -0.17319295 -0.06658446 -0.044385154 -0.014052904
0003d0 46 80 8b be 6a b4 b3 3d e3 2a 3a 3b 0a 79 bd bc
       -0.27246302 0.087746456 0.002840691 -0.023129005
0003e0 ab a4 14 3e dc 0b 82 3c 1f 6d 0f 3c 74 c4 8a bd
       0.14515941 0.015874796 0.008754044 -0.06775752
0003f0 8a 62 fe 3b f0 bb 73 bd 33 81 2c be e7 be c4 bd
       0.0077632116 -0.059505403 -0.1684616 -0.09606724

bias f4 [16]
000000 87 03 40 3e b3 99 80 3d d8 2a 61 3d e2 fa 0d be
       0.18751346 0.06279316 0.0549725 -0.13865235
000010 30 d1 f5 3d 93 c2 da 3d ce e6 c6 3c 51 ab a4 3d
       0.1200279 0.10681643 0.024279978 0.080404885
000020 ec 00 32 be b2 d5 90 3d 09 65 71 3d 27 bf 20 be
       -0.17383164 0.07072009 0.058934245 -0.15697919
000030 31 0a a8 bd 5e fc 23 3d 2d a5 a6 bd 26 c6 11 3e
       -0.08205069 0.040035598 -0.081369735 0.14235744

weight f4 [16]
000000 0c bc 75 3f 0d 46 78 3f 47 0e 88 3f 09 4b 89 3f
       0.9599006 0.9698189 1.0629357 1.0726024
000010 10 81 7c 3f 76 9f 7a 3f b0 43 7e 3f 39 c5 74 3f
       0.98634434 0.9789957 0.9932203 0.9561344
000020 ba 9d 6d 3f 0c a2 72 3f c9 03 6d 3f 51 4e 6a 3f
       0.92818797 0.94778514 0.925839 0.9152575
000030 2c 23 7b 3f 8d a1 88 3f a6 7b 82 3f 84 23 68 3f
       0.98100543 1.0674301 1.0193985 0.9067919

bias f4 [16]
000000 2f 42 95 bd 47 c8 c7 bd fd 7b 44 bd b1 91 c0 3c
       -0.07288014 -0.09754997 -0.047969807 0.023506971
000010 94 b0 a7 bb 5c 24 97 bd 46 c9 40 bd 47 8e 15 bd
       -0.0051174853 -0.07379982 -0.04706695 -0.03651264
000020 c1 07 22 bd 1b f2 6a 3d 4a 42 9e bd 1d 54 ef bc
       -0.039558176 0.057359796 -0.077274874 -0.029214913
000030 52 4b da 3c 9a 14 56 bd 3b c1 10 3d 9e c3 61 bd
       0.026647244 -0.05226574 0.03534053 -0.055118196

running_mean f4 [16]
000000 57 ae 01 3f e9 07 f1 3e 81 1c a0 3e dc 59 44 bd
       0.50656646 0.47076347 0.31271747 -0.04793726
000010 a5 9e 60 3e 59 d4 0a 3e 51 5f 36 3d 14 e2 2e be
       0.21935518 0.13557567 0.044524495 -0.1707843
000020 ba 46 3e be 0a be 61 3e 44 63 82 be 09 b1 00 be
       -0.18581668 0.2204515 -0.2546636 -0.12567534
000030 9f 15 04 be ac 3f 25 3e 25 d1 49 3d 2c a7 f4 3d
       -0.12898873 0.1613757 0.04927172 0.11945948

running_var f4 [16]
000000 26 e9 f8 3d ec 07 8d 3d 23 2e b5 3d c5 46 8f 3d
       0.121538445 0.068862766 0.088466905 0.0699592
000010 2f c6 35 3e f9 ad cd 3d a9 9e 60 3d cc 4c bd 3d
       0.17751382 0.10042948 0.05483881 0.092431635
000020 12 9b 4d 3e a4 68 07 3e 82 9f e2 3d 71 60 d3 3d
       0.20078686 0.13223511 0.1106558 0.10321129
000030 6b 13 d2 3d 80 3c 97 3d 7b f5 bb 3d fb 34 1d 3e
       0.1025761 0.07384586 0.09177681 0.15352242

weight f4 [8, 16, 3]
000000 fd 63 39 3d 64 c3 c1 bd 1d 7a cc bd 9a 7a 44 bc
       0.045261372 -0.09461096 -0.09984229 -0.011992121
000010 b5 11 02 3d 5e eb 02 3e 44 35 33 bd 27 cb c7 3c
       0.031755168 0.12785098 -0.04375197 0.024388863
000020 2d ba 12 3e f6 7f 58 bd 30 b9 b1 3d 58 92 8c bc
       0.14328833 -0.052856408 0.086779 -0.017159626
000030 08 c2 08 3d 32 d7 6a 3d 94 2a d8 3d d5 90 9c bc
       0.033388168 0.057334132 0.10554996 -0.01911203
000040 ee c1 14 3e 7e 92 f1 3c e6 aa 16 bd ef 53 a7 bd
       0.14527103 0.029488798 -0.036784075 -0.08170306
000050 a2 bf 46 be c0 38 84 3c bb c2 29 bd 5e 40 b5 3d
       -0.1940904 0.016140342 -0.041445475 0.08850168
000060 62 e2 c0 bd af 43 15 3d 7e fc e4 bd fd ad b4 bd
       -0.09418179 0.0364415 -0.111809716 -0.08822248
000070 47 32 03 3e b9 de f7 3d 5d db ef b9 b8 98 52 bd
       0.12812148 0.12103028 -0.0004574907 -0.051415175
000080 32 76 29 3e 18 a6 6b 3d 12 a3 af bd cf f9 e9 bc
       0.16548994 0.057531446 -0.08576025 -0.0285615
000090 82 e2 05 be a1 af b7 bc 7b a9 eb bd 64 ac e6 bd
       -0.13074687 -0.022422614 -0.11506935 -0.1126335
0000a0 77 d2 1e 3d bd 73 4f 3d d1 d7 01 3e 2b 05 01 bc
       0.038774934 0.050647486 0.12679984 -0.007874767
0000b0 06 50 ba 3d b7 ea ff 3d a6 03 c7 bc 55 f8 1b bd
       0.090972945 0.1249594 -0.024293732 -0.038078625
0000c0 09 33 19 3d 2d 73 6b 3c 72 73 31 3d 64 48 95 3c
       0.037402187 0.014370722 0.043322988 0.018222995
0000d0 6f a1 03 3b 96 5f 37 3e 54 0d 19 3e 45 ee cf bd
       0.0020085236 0.17907557 0.1494649 -0.10152868
0000e0 7d c4 0d be e4 e3 5e 3d 5a ee f2 3d e2 45 22 bd
       -0.13844486 0.054416552 0.11861868 -0.039617427
0000f0 37 a4 ec 3d b6 72 9e 3d e7 73 31 3d 2c 48 d5 ba
       0.11554759 0.07736723 0.043323424 -0.0016272119
000100 74 c0 b2 3d db 85 05 bc b8 8c 0b bb 06 c0 93 3d
       0.08728114 -0.008149589 -0.0021293592 0.0721436
000110 a0 99 02 3e 1b 4a d4 bd b0 3f a4 3d 90 db cf 3c
       0.12753916 -0.10365697 0.0801996 0.02537325
000120 88 9a d4 bd 7d 59 36 bd 92 9c 24 3e 5a ab 82 bc
       -0.10381037 -0.044518936 0.16075352 -0.015950847
000130 cf 6c 65 bd 36 a5 b2 3d be f1 8f 3d 34 5c ef 3d
       -0.05601197 0.08722918 0.070285305 0.11687508
000140 83 cd 29 bc 86 2e 10 3e fa ae db bd 3c aa d7 3d
       -0.010363939 0.14080247 -0.107267335 0.105305165
000150 0f c9 3d be 8b 02 72 bd 0c e7 f7 3d 63 9b 69 3d
       -0.18533729 -0.059084456 0.121046156 0.057032954
000160 e7 e3 d0 bb 6c b1 87 bd 77 e5 38 3d c3 09 6c 3d
       -0.0063748243 -0.066256374 0.04514071 0.057626497
000170 da 65 e3 3c 24 ec c2 bd a0 16 40 3d 8d 26 b0 3c
       0.027758528 -0.095176965 0.046896577 0.021502757
000180 34 5e a0 3d 67 4a b5 bc 04 4a 12 3e b4 f2 72 3c
       0.07830468 -0.022130204 0.14286047 0.014828373
000190 a0 5e 06 be a5 c7 41 be 7e 8e 77 3d c3 f4 fc 3c
       -0.13122034 -0.18923815 0.060438626 0.03087843
0001a0 c8 cf 74 3d 99 fb 03 3c 1d 55 d7 3c 11 dc bf bb
       0.05976847 0.008055591 0.026285702 -0.0058550914
0001b0 65 26 85 bd a5 d9 94 bd 8b 97 48 bd c4 59 0f be
       -0.06501464 -0.07268075 -0.048972648 -0.13999087
0001c0 36 76 3c 3d f3 ef 7e 3d ec 76 95 bb 2e 65 1f bd
       0.046011172 0.062240552 -0.0045612957 -0.03891485
0001d0 6b 9d b4 bd 08 31 ad 3d 8d 28 bd bd 72 ad 0f 3e
       -0.088190876 0.084566176 -0.0923625 0.14031008
0001e0 36 33 5e bc 90 6b ca bd ba 32 00 be cd c7 20 bc
       -0.013562014 -0.09883797 -0.1251935 -0.009813261
0001f0 5c 6b 20 be 07 79 48 3d 09 82 3d 3d 0d 6d 45 3c
       -0.15665954 0.048943546 0.04626659 0.0120499255
000200 2c 6d c1 3d a9 6f 96 bd 09 ea 11 3e 37 d5 ef bc
       0.09444651 -0.07345516 0.14249434 -0.029276473
000210 33 54 b1 bc 42 6f 8f bc d9 50 09 be 20 7e ba bc
       -0.021646595 -0.017509107 -0.13409747 -0.02276522
000220 86 c4 c0 3d c9 20 3a 3c df 8c 93 bd ef 69 9a bb
       0.09412484 0.011360356 -0.072046034 -0.0047123353
000230 c2 c7 76 3e b0 8b 10 be 22 96 e2 bd 89 9b 50 bd
       0.24099639 -0.14115787 -0.11063792 -0.05092958
000240 99 3f 3d 3c e1 af 9d bb 86 f5 e5 bc 2e 29 37 be
       0.011550807 -0.004812226 -0.028071176 -0.17886803
000250 33 8c 18 be 30 49 49 be e4 a0 5a 3d 3e 02 62 3d
       -0.14897232 -0.19656825 0.053376094 0.05517792
000260 fc 15 aa 3d fa 86 95 3d 4b af 7b 3d 19 36 6c bd
       0.083049744 0.07301135 0.06144647 -0.05766878
000270 ee 70 4d bd 75 60 61 bd 7e 1e 91 3c bc cf 87 bd
       -0.050156526 -0.05502363 0.017714735 -0.06631419
000280 cb 4d 24 be c7 9a 24 3e b8 a0 55 3d 44 83 44 be
       -0.160453 0.16074668 0.052155226 -0.19190699
000290 9d bc 9f 3d 2b ae 14 bd b7 87 04 3b c9 d6 f8 bd
       0.07799647 -0.036298912 0.0020222494 -0.12150342
0002a0 50 7c 4d bd 21 e0 be 3d f5 b0 bb bd 94 12 81 3c
       -0.05016738 0.09320093 -0.09164611 0.015755929
0002b0 87 2b 8f bd 1d e5 0b bd 85 4e 0a bd a7 59 6a bd
       -0.06990724 -0.034154046 -0.03376629 -0.057214405
0002c0 a3 6f 62 be b0 30 36 be 98 86 17 bd a5 0e a0 3d
       -0.22112899 -0.1779201 -0.036993593 0.07815293
0002d0 c4 ba 09 bd 70 02 fb 3c 0d d6 2f 3e 4b 5f bc 3d
       -0.03362538 0.03064081 0.17171498 0.09197863
0002e0 8d c6 9a bd 59 80 bd bd 76 f4 6a bd 43 8d 20 be
       -0.07557402 -0.09252996 -0.057362042 -0.15678887
0002f0 27 06 ba 3b ac 27 15 be 39 e1 85 bc 36 e0 9a bd
       0.005677003 -0.14565915 -0.016342746 -0.07562296
000300 a8 93 8d bd fd 3b cb 3d a2 79 bd bd 14 07 d0 3d
       -0.06912929 0.09923551 -0.09251715 0.101576
000310 33 4e 2d bd f3 20 a5 3d b7 8c ff bd 6a 53 3f 3c
       -0.042310905 0.08062925 -0.12478011 0.011677602
000320 eb 64 20 bd e1 77 28 3d 85 7e 27 bd 8e 01 70 bd
       -0.039158743 0.04112995 -0.040892143 -0.058595233
000330 77 76 af bd ad bb 2e 3d c0 88 b8 bd bf f1 07 be
       -0.08567517 0.04265945 -0.09010458 -0.13275813
000340 fc 8b c9 3d 02 7f 3a 3d e3 56 45 bd 7e 26 bd bd
       0.09841153 0.04553128 -0.048178565 -0.092358574
000350 3f 14 3c 3b 75 29 3e 3d 56 e3 d9 3c 75 18 68 be
       0.002869859 0.046426255 0.02659766 -0.2266558
000360 65 0b a8 3d b7 fc 61 bc e6 f1 f9 3c 4f 5b 03 be
       0.08205298 -0.013793162 0.030510854 -0.128278
000370 af 7f 0b 3e 28 3b f2 bd 16 03 13 3d ef e1 1d bc
       0.13622926 -0.118276894 0.035891615 -0.009636386
000380 6e 8c 26 bd cf 85 00 be 19 4f 03 3e 9d 2d 53 3d
       -0.040661268 -0.12551044 0.12823142 0.051557172
000390 a3 e0 45 bd ad 1a a3 3d 52 41 39 bd a0 d3 b5 bd
       -0.048309933 0.079640724 -0.04522831 -0.08878255
0003a0 b8 0a 84 3d bc 4b 00 3e 8b b6 86 3d 1e 78 3d be
       0.06447357 0.1252889 0.06577786 -0.18502852
0003b0 ac 6f f5 bd 4f de cd 3d 83 38 38 3c ac 3d 85 bc
       -0.1198419 0.100521676 0.011243942 -0.016264759
0003c0 d5 6e 9b bd e8 79 20 3e 46 37 2c be 5d 13 d3 bd
       -0.07589499 0.15671504 -0.1681796 -0.10306428
0003d0 f4 ba 37 bd 0b 24 8e 3d b9 85 f7 3a 99 0a 16 3e
       -0.044856027 0.069404684 0.0018884457 0.1465248
0003e0 cb 48 0b be 7c f1 9b 3d 05 d0 e9 3b 01 45 84 3c
       -0.13601987 0.07614419 0.0071353936 0.016146185
0003f0 50 59 8f 39 51 5c 31 bc 79 55 c9 3d 96 40 02 be
       0.00027341628 -0.010825233 0.09830756 -0.1271995

bias f4 [8]
000000 e4 e5 18 3d 2c fc d8 3d d1 57 14 3d 20 77 0a 3e
       0.037328616 0.10594973 0.03621656 0.13522005
000010 ca d4 de bd ac 49 dc 3b fd 6f 44 bd 63 39 06 3e
       -0.1088043 0.0067226496 -0.047958363 0.13107829

weight f4 [8]
000000 0e 61 81 3f 0b 75 7a 3f d0 42 88 3f 1c b7 80 3f
       1.0107744 0.97834843 1.064539 1.005588
000010 c8 ac 80 3f ad 57 76 3f 06 40 85 3f 2f c4 76 3f
       1.0052729 0.9622753 1.0410163 0.963931

bias f4 [8]
000000 cc e9 df bd 7e 75 09 bd 85 dc 7f 3c 77 9c 22 3d
       -0.10933265 -0.033559315 0.015616541 0.039699998
000010 77 e4 51 bc 6f 9d dd bd 99 7d a6 bd 9a ec 39 3e
       -0.012810818 -0.10821044 -0.081294246 0.18156663

running_mean f4 [8]
000000 bd 71 26 3e 0c 84 b7 3e d3 b8 9e bd b7 be 62 be
       0.16254325 0.3584293 -0.07750096 -0.22143064
000010 97 b4 a1 be 18 47 11 be eb 5d ca bc ee bd ef bd
       -0.31583092 -0.14187276 -0.024702987 -0.11706148

running_var f4 [8]
000000 89 0b 1a 3e 5e 6f cb 3d ba 7b ec 3d ef 7f 68 3d
       0.15043463 0.09933351 0.115470365 0.056762632
000010 f9 85 af 3d c5 93 fb 3d 3b db 80 3d ac 9d 6e 3d
       0.08570475 0.12284044 0.06291815 0.058255836

weight f4 [1, 8, 3]
000000 06 4b 10 3e 89 9c 22 be 63 57 32 3e 05 c5 4d bd
       0.14091119 -0.15880026 0.17416148 -0.05023672
000010 d1 7c d7 bd 39 13 65 3d 4b 8a d6 bc 96 4e 81 bc
       -0.10521854 0.055926535 -0.02618899 -0.015784543
000020 67 db 47 be ca 92 ef bc 2b c9 30 bd 9d 5c 3b 3e
       -0.19517289 -0.0292448 -0.0431606 0.18297048
000030 02 13 ba bd 97 8b 36 3e fd eb 57 be 7f 60 35 bd
       -0.09085657 0.17826687 -0.21086116 -0.04428148
000040 ea 25 2e 3e ae 35 ef bd c3 64 c9 3c 29 8a 22 3e
       0.1700665 -0.116801605 0.02458418 0.15873016
000050 eb 42 e6 bc c9 11 fa 3c c1 86 08 be 96 ba fd bd
       -0.02810808 0.030526059 -0.13332655 -0.12389104

weight f4 [10, 25]
000000 a4 8b 15 3d 65 b7 2d be 83 fc 5d be 14 ff 23 3e
       0.036510125 -0.1696449 -0.21678357 0.16015273
000010 8d 4b 2f be 86 0b fb bb f7 16 42 3c 43 b6 49 3d
       -0.17118664 -0.007661286 0.011846296 0.049246084
000020 fb c3 15 3d 5e cd 8d 3e 85 48 cb 3e 3c bc a2 bc
       0.036563855 0.27695745 0.39703766 -0.019865148
000030 de 52 34 bc 50 74 ff bd 01 79 04 3c e1 28 29 3d
       -0.011006085 -0.12473357 0.00808549 0.04129875
000040 91 1c 29 3e 9f 88 ed bd f5 32 cd bd 71 3f 61 bd
       0.16514803 -0.11598324 -0.10019485 -0.054992143
000050 70 f0 c9 bd 04 d8 74 be 91 b7 5b be 2f 24 f8 bd
       -0.09860313 -0.23910528 -0.21456744 -0.121162765
000060 10 65 8f 3e 84 35 42 3d 0c ce 18 3d 6c 7c 2f 3b
       0.28006792 0.047414318 0.037305877 0.0026777042
000070 89 e7 87 be 0d c7 a8 3e 27 19 a5 bc fa c6 4e bd
       -0.26543835 0.32964364 -0.020153595 -0.050482728
000080 93 8d 25 3c 94 11 23 bd 5f ea 7f be 9a b0 a5 be
       0.010104555 -0.039811686 -0.24991749 -0.323613
000090 ba 64 0b bc 55 57 07 3e f7 cb 8f 3e 8b 8f 67 3d
       -0.008507902 0.13216908 0.280853 0.056533378
0000a0 8f f1 96 3d 56 ef e3 bd 60 23 92 3d fb 67 54 3c
       0.073702924 -0.11129634 0.071356535 0.012964244
0000b0 06 54 0f bd 72 3a f2 3d 71 ce 29 3d 35 80 b5 3d
       -0.03499224 0.11827554 0.041456643 0.08862344
0000c0 12 ad 58 3e a1 28 f5 bd 29 7d 17 3d de e7 18 3e
       0.21159771 -0.1197064 0.036984596 0.149322
0000d0 58 28 c5 3d 75 0d 7c be 76 8e b1 3a a4 9c 97 be
       0.096268356 -0.24614508 0.0013546485 -0.29611695
0000e0 f0 0f 48 3d 58 c0 6e be a2 4c a5 bd 3c f3 19 be
       0.048843324 -0.23315561 -0.08071257 -0.15034193
0000f0 3b bd 2f be 89 e5 68 bc 56 54 1e be be ad 5c 3e
       -0.1716203 -0.014214882 -0.15461859 0.21550652
000100 e9 93 3a 3d 14 17 73 be f2 b1 43 be 6a 8a 2a be
       0.045551214 -0.23739272 -0.1911085 -0.16654363
000110 ec 3b 29 be 30 af 16 3e b4 d8 f7 3d c4 7e af 3c
       -0.16526765 0.14715266 0.1210188 0.021422751
000120 dc be 8a bd 60 a3 7a bd db 45 c6 bd f4 fe 58 be
       -0.06774685 -0.061190963 -0.096812926 -0.21191007
000130 b0 0f 69 3e 3f de 5a bd 72 77 07 3d 16 8a 09 3e
       0.2275989 -0.053434607 0.033072896 0.13431582
000140 38 ac bc bd fe a1 08 3d d1 92 9d be e5 da 62 be
       -0.092125356 0.033357613 -0.30776075 -0.22153814
000150 1d cc 3b bd be 64 29 be 5b 29 2d 3e 9a 2b 36 3c
       -0.045848954 -0.16542336 0.16910307 0.011118794
000160 cf b1 92 3d b7 f8 85 be 18 18 7d be 12 72 bd 3d
       0.071628205 -0.26166317 -0.24716222 0.09250273
000170 88 11 2e be 66 2b e4 3d b8 bd 89 3d 73 24 0d 3e
       -0.16998875 0.1114109 0.06725639 0.13783436
000180 83 53 89 3e 2a 9a 3b 3e cd 7b 74 3e 77 47 83 bd
       0.26821527 0.18320528 0.23875351 -0.06410115
000190 45 ab 54 bc 54 c5 6f 3e bc 3c 4e 3e 6e 87 14 be
       -0.012980287 0.23415118 0.20140356 -0.14504787
0001a0 1f eb 89 3e bf 64 8c be 0c 6a aa bd 83 9d ad be
       0.26937196 -0.27420613 -0.08321008 -0.33909234
0001b0 dd 43 92 be 96 b7 ae be 8c 98 15 be 38 aa e1 3d
       -0.285674 -0.3412444 -0.14608973 0.11018795
0001c0 b2 19 9e bd 38 c0 31 3e 53 5d 7c be cb 5e 37 be
       -0.07719745 0.17358482 -0.24644975 -0.17907254
0001d0 67 eb 11 bd d5 83 d4 bd c3 9d d8 bd 72 de 33 3e
       -0.035624888 -0.103767075 -0.10576966 0.17565325
0001e0 aa e9 57 3e b6 09 2d 3e 0f c0 be bd 69 d2 89 3e
       0.2108523 0.16898236 -0.09313976 0.26918343
0001f0 ca bd cc bc 2a 7c f4 bd ca a8 63 3e e5 d5 7d 3e
       -0.024992842 -0.11937745 0.22232357 0.24788626
000200 ed b2 cc bd 51 38 1c 3e 8f 89 d8 3b 27 f5 86 3e
       -0.09995065 0.15255858 0.006608195 0.2635891
000210 ac ba 1f 3c 4d 26 85 be 34 61 e2 bd c1 ec 55 bc
       0.009749096 -0.26005784 -0.11053696 -0.013056935
000220 7c 04 e9 3d 08 47 48 3e 9d b2 02 3e 25 e7 41 be
       0.113778085 0.19558346 0.12763448 -0.18935831
000230 f4 98 ca 3d ad 42 0b be 1b d2 af bd 11 ea 44 bd
       0.09892455 -0.13599654 -0.08584996 -0.048074786
000240 17 99 cd bc d2 f9 a0 3d 51 42 33 3e 16 2f cd 3d
       -0.025097413 0.078601494 0.17505766 0.100187466
000250 1d ae 86 bc 6e c1 90 be 29 29 66 be 05 6d 0c 3e
       -0.016440446 -0.28272575 -0.22476639 0.13713463
000260 64 96 63 3e 85 30 9b bd c4 8e 80 3e 0c 99 70 3d
       0.22225338 -0.07577614 0.25108922 0.058739707
000270 c8 0b e8 bc b4 59 bd be 92 fe be 3c 4c 0f e7 bd
       -0.02832593 -0.369825 0.023314748 -0.112822145
000280 91 d8 5c be b1 09 e0 3d 13 d8 17 3e 15 77 eb 3d
       -0.21566989 0.109393485 0.1482852 0.114973225
000290 05 e9 41 3d af 57 5f 3d 5e 69 12 be 53 c5 a1 3d
       0.047341365 0.05452698 -0.14298007 0.07898965
0002a0 6b 44 3a bd ff 2c dd 3d 0c 1a 2d be 56 6a 84 3e
       -0.045475405 0.10799598 -0.16904467 0.25862378
0002b0 c2 22 59 3e 7f 03 34 bd c7 8d 6c be 8a 64 79 be
       0.21204665 -0.043948647 -0.23100959 -0.24354759
0002c0 c3 ae 5e 3e eb c8 65 3e 07 d1 3f be 8c 5b 60 3e
       0.21746354 0.22439925 -0.18732081 0.21909922
0002d0 ea 83 12 be d4 a5 9c 3d f6 98 b1 be 13 fd 7a bd
       -0.14308134 0.07648817 -0.34687012 -0.061276507
0002e0 4b 0f 73 be 0f 6a 04 bd f6 4d 4f 3e 52 97 a2 3d
       -0.23736303 -0.032327708 0.20244583 0.07939018
0002f0 6b db ee 3d ed 94 59 3d bc 53 a4 3d 56 eb 10 be
       0.116629444 0.053120542 0.080237836 -0.14152274
000300 79 67 21 3e 67 51 34 3d d6 6e 9e bd 47 d8 b9 bd
       0.15762128 0.044022944 -0.07735984 -0.09074455
000310 c0 a7 ee bd cf 8b 8a 3e 1d 4f 67 3e 8a 71 5d be
       -0.116530895 0.2705979 0.22588773 -0.21625343
000320 46 9a 35 bd ca f1 40 3e 77 48 0e bd ad a0 da bd
       -0.04433658 0.18842235 -0.034737077 -0.10675178
000330 06 67 9e 3e bc d9 59 be ee 81 31 3e 8d ac 42 be
       0.30937976 -0.21274465 0.1733472 -0.19011135
000340 fe fb 65 be 59 5c 86 be 98 08 8f be d5 18 45 3e
       -0.22459409 -0.2624233 -0.27936244 0.19247754
000350 3f 72 42 3e e3 1a 96 3e e3 cd d2 bc ab 58 31 be
       0.18988894 0.29317388 -0.02573294 -0.1731898
000360 9e f8 11 be a0 0e 57 be 2e 39 45 3c 1f 3a 68 3e
       -0.14254996 -0.21001673 0.0120375585 0.22678421
000370 87 d1 3e 3e d2 f1 87 3e 5a 29 a7 bc 16 66 01 3d
       0.18634616 0.26551682 -0.02040546 0.031591497
000380 22 39 4d bc c9 d4 b1 3d 12 ce d2 bd 87 10 97 be
       -0.012525829 0.08683164 -0.10293211 -0.29504797
000390 da 6a 4d 3e 93 21 54 3d 1a ce 92 3d c6 c8 63 be
       0.20060292 0.05178983 0.07168217 -0.22244558
0003a0 5e 80 a0 3c b9 ea 57 3d e2 b5 c9 bc 83 63 34 3d
       0.01959246 0.052714083 -0.024622861 0.044040214
0003b0 55 b8 5c bd c0 a9 42 3e 15 f1 7b be 91 9a b1 bd
       -0.05388673 0.19010067 -0.24603684 -0.08672059
0003c0 a4 38 64 3e fa 96 81 bd ec a2 29 ba 37 59 18 3e
       0.22287232 -0.063276246 -0.00064711156 0.14877783
0003d0 97 4f 31 be 4d 80 93 bd 96 2b 84 be dc 2e 5f be
       -0.17315517 -0.07202206 -0.25814503 -0.21795219
0003e0 04 e8 dd bc 63 d5 f3 bc
       -0.027088173 -0.029764837

bias f4 [10]
000000 74 1b 31 3c ee c1 3b bd 1e 29 d5 bd b0 c1 be 3d
       0.010809768 -0.045839243 -0.10408233 0.09314287
000010 b3 1f 55 3d c6 d0 7c be 31 03 8b be 3b 8c 3d 3d
       0.052032184 -0.24689016 -0.27150872 0.046276312
000020 01 c8 1b be f0 11 69 bd
       -0.15213014 -0.056901872

weight f4 [2, 10]
000000 ce 67 05 bf 85 23 6d bc ed 05 9d 3e 36 de d1 3e
       -0.5211152 -0.014473801 0.30668584 0.40989846
000010 b2 fe 20 3f 80 24 79 3e 40 ec c5 3e fc 4e 01 3f
       0.62888634 0.2433033 0.38656807 0.50511146
000020 3f 2d 2a 3f 6b ea b2 bd d0 8e d5 3e 06 db 8b be
       0.6647529 -0.08736118 0.4171052 -0.2731554
000030 59 75 f7 3a 82 62 0d be 30 73 df be 6f 5e a2 be
       0.0018879577 -0.13807109 -0.4364257 -0.31712672
000040 e3 51 01 bf 02 85 fb bc 26 08 1f bd 82 4c 3e 3d
       -0.50515574 -0.030703072 -0.03882613 0.046459682

bias f4 [2]
000000 c8 50 c4 bd 36 9a e2 bd
       -0.0958572 -0.1106457
