mlpcnnsemi/model/cnn/64twoinput_batch1_Epoch=95_lr=0.0001.pth (torch, 24731 bytes, 35 tensors)

weight f4 [8, 1, 1]
-0.5976388 0.34507495 0.108312376 0.58946246 0.82043356 -0.246414 1.0501046 -0.5814699
00000000: dbfe 18bf aaad b03e e1d2 dd3d 03e7 163f
00000010: ef07 523f f453 7cbe d469 863f 36db 14bf

bias f4 [8]
0.08563504 0.897587 0.9176476 -0.82431924 0.64165395 -0.10071011 0.44667214 -0.7517882
00000000: 6d61 af3d 43c8 653f f4ea 6a3f 9606 53bf
00000010: 6f43 243f 1a41 cebd 36b2 e43e 3175 40bf

weight f4 [8]
1.0486468 0.97024024 1.0152323 0.9998411 0.99047774 1.0050377 1.0006113 0.9888067
00000000: 0f3a 863f aa61 783f 22f3 813f 96f5 7f3f
00000010: f38f 7d3f 13a5 803f 0814 803f 7022 7d3f

bias f4 [8]
0.040912963 0.015961016 -0.10365029 -0.10699166 0.011129605 0.09858157 -0.038654666 -0.05179035
00000000: 5a94 273d adc0 823c 9a46 d4bd 721e dbbd
00000010: f258 363c 22e5 c93d 5b54 1ebd 1e22 54bd

running_mean f4 [8]
0.07862147 0.9015327 0.9189534 -0.8174704 0.6513643 -0.10365214 0.459039 -0.75850147
00000000: 4b04 a13d d9ca 663f 8840 6b3f bd45 51bf
00000010: d0bf 263f 9347 d4bd 2907 eb3e 272d 42bf

running_var f4 [8]
0.00039086823 0.00013035645 1.2823467e-05 0.00038021445 0.00073647423 6.6433204e-05 0.0012066398 0.00037001245
00000000: 72ed cc39 4bb0 0839 5f24 5737 8557 c739
00000010: f30f 413a 0e52 8b38 1d28 9e3a 3bfe c139

weight f4 [16, 8, 1]
-0.07455874 -0.20490439 0.029551478 -0.2806861 0.08154115 -0.20888077 0.00767167 -0.020260785
0.12987016 -0.24897632 0.011746424 -0.09740674 0.02746502 -0.040422473 0.23006928 -0.14328538
-0.12851423 0.10474139 -0.23516712 -0.17066105 -0.20368041 -0.0052527688 0.38078392 0.44894156
-0.35788804 -0.30361617 0.28768992 0.14252128 0.036617402 -0.055406686 -0.05828267 0.19982474
-0.05903919 -0.02902121 -0.28292796 0.33550757 0.1137223 0.19336133 -0.19271243 0.5444634
0.19192933 -0.09267977 -0.09342238 -0.35380456 0.19348 -0.23510972 -0.039222274 0.00033064064
-0.35626367 0.3204604 0.0003245308 -0.24320458 -0.17072873 -0.27845484 -0.1804852 0.030781865
-0.090679586 -0.015021397 -0.21757585 -0.3073422 0.15741718 -0.24829343 0.32682315 0.3673483
-0.12493835 -0.123971686 -0.096999645 0.07855891 0.35861066 0.18540563 0.020911997 -0.19426514
-0.18110283 0.25066298 0.30503124 -0.18073459 0.1882347 -0.13665481 -0.2399715 -0.13070358
-0.119320005 -0.2023914 0.025826545 -0.3961677 0.2270188 0.12035655 -0.2963219 -0.16698316
0.31486598 0.09689831 0.23503596 -0.27439505 0.22569972 0.094097346 0.08592081 -0.08383173
0.13065 0.23674013 0.2705938 0.0016109013 0.03953175 0.30804428 0.35316917 0.22361876
0.00512474 0.35959128 0.30506355 -0.1037042 0.40488014 0.09375163 -0.16350852 -0.3012528
0.14249152 0.11241998 -0.063772745 -0.12818879 0.1606632 -0.32495168 -0.2783511 -0.24440053
-0.27259418 -0.36330137 0.46381903 -0.07294639 -0.08725419 0.08980703 -0.29665127 -0.032001246
00000000: 41b2 98bd 75d2 51be f115 f23c 17b6 8fbe
00000010: 0cff a63d d7e4 55be a262 fb3b f2f9 a5bc
00000020: affc 043e a6f3 7ebe 1374 403c 2f7d c7bd
00000030: 52fe e03c 0992 25bd 4897 6b3e 67b9 12be
00000040: 3c99 03be a782 d63d a6cf 70be c5c1 2ebe
00000050: 9991 50be 6b1f acbb 1cf6 c23e abdb e53e
00000060: 1a3d b7be 9473 9bbe 184c 933e 19f1 113e
00000070: 21fc 153d 1ff2 62bd cfb9 6ebd db9e 4c3e
00000080: 14d3 71bd e3bd edbc efdb 90be a6c7 ab3e
00000090: 3de7 e83d 8300 463e 6856 45be f461 0b3f
000000a0: 1f89 443e e4ce bdbd 3c54 bfbd df25 b5be
000000b0: 9f1f 463e 9ac0 70be 89a7 20bd d659 ad39
000000c0: 3168 b6be 6313 a43e c925 aa39 9f0a 79be
000000d0: 83d3 2ebe a291 8ebe 1dd1 38be 402a fc3c
000000e0: 38b6 b9bd 4e1c 76bc 34cc 5ebe f55b 9dbe
000000f0: f831 213e a240 7ebe 5d55 a73e 1415 bc3e
00000100: addf ffbd dee4 fdbd c0a7 c6bd 7ee3 a03d
00000110: d19b b73e f9da 3d3e a34f ab3c 71ed 46be
00000120: 0573 39be e656 803e 0e2d 9c3e 7d12 39be
00000130: 99c0 403e 3def 0bbe 17bb 75be 29d7 05be
00000140: 0c5e f4bd b13f 4fbe 3192 d33c 7ed6 cabe
00000150: 9e77 683e 7f7d f63d 81b7 97be a2fd 2abe
00000160: 1d36 a13e 9f72 c63d 44ad 703e 827d 8cbe
00000170: d41d 673e 1cb6 c03d 40f7 af3d f8af abbd
00000180: 1dc9 053e 016c 723e 458b 8a3e e124 d33a
00000190: 0bec 213d fbb7 9d3e 97d2 b43e 51fc 643e
000001a0: 6fed a73b 591c b83e 4a31 9c3e de62 d4bd
000001b0: 734c cf3e db00 c03d c76e 27be cf3d 9abe
000001c0: 4ce9 113e 723c e63d 499b 82bd ec43 03be
000001d0: e584 243e 1160 a6be 0984 8ebe 2244 7abe
000001e0: 7791 8bbe a302 babe b079 ed3e eb64 95bd
000001f0: 53b2 b2bd c0ec b73d ade2 97be bd13 03bd

bias f4 [16]
0.24536796 -0.056857347 0.15074375 -0.24099976 0.27855605 -0.025400672 0.0014389118 0.25922257
-0.14701319 0.07725133 0.2631055 0.14964077 -0.2691288 0.123305514 -0.21235909 -0.27311733
00000000: bd41 7b3e 40e3 68bd 925c 1a3e a4c8 76be
00000010: e69e 8e3e 1215 d0bc de99 bc3a d2b8 843e
00000020: a08a 16be f235 9e3d c4b5 863e 6e3b 193e
00000030: 40cb 89be 9a87 fc3d a974 59be 09d6 8bbe

weight f4 [16]
1.0911785 1.080707 1.01911 0.885381 0.97776395 1.0190905 1.1477553 1.0381575
0.9756653 1.0358856 0.96552896 1.0215 1.0772504 0.9329622 1.0522715 1.1932089
00000000: bdab 8b3f 9b54 8a3f 3272 823f 54a8 623f
00000010: bd4e 7a3f 8f71 823f a5e9 923f 58e2 843f
00000020: 33c5 793f e697 843f e82c 773f 83c0 823f
00000030: 57e3 893f 9cd6 6e3f d5b0 863f 12bb 983f

bias f4 [16]
0.027272604 -0.065030284 0.009572272 -0.07625173 -0.12526464 0.04104176 -0.12987718 0.07633903
0.058130346 -0.0044000824 -0.06477448 -0.00613255 0.006157889 -0.06211481 0.0048839203 0.022074757
00000000: cc6a df3c 992e 85bd 05d5 1c3c de29 9cbd
00000010: 6045 00be 681b 283d 86fe 04be a357 9c3d
00000020: 161a 6e3d 912e 90bb 7ca8 84bd 8ff3 c8bb
00000030: 1ec8 c93b 196c 7ebd 4b09 a03b 1fd6 b43c

running_mean f4 [16]
0.076261535 -0.077711284 0.19153489 -0.31701916 0.43147072 -0.1167124 -0.23741505 0.24149786
-0.10132053 0.01688922 0.09214679 0.32543963 0.09419632 0.26262635 -0.3562581 -0.443477
00000000: 022f 9c3d 1827 9fbd b921 443e 5650 a2be
00000010: bbe9 dc3e e906 efbd ee1c 73be 374b 773e
00000020: 2381 cfbd 435b 8a3c 75b7 bc3d 06a0 a63e
00000030: 00ea c03d f676 863e 7667 b6be 6b0f e3be

running_var f4 [16]
0.09416803 0.0033585164 0.006605781 0.0048619234 0.009855662 0.09980263 0.055992853 0.00096255913
0.061939336 0.068870984 0.32070684 0.06754449 0.49982497 0.43325555 0.02381459 0.15948637
00000000: 2bdb c03d 8e1a 5c3b 4f75 d83b c550 9f3b
00000010: a479 213c 5265 cc3d c358 653d 4054 7c3a
00000020: 1ab4 7d3d 3b0c 8d3d b033 a43e c454 8a3d
00000030: 0fe9 ff3e acd3 dd3e d116 c33c 6550 233e

weight f4 [8, 1, 3]
0.36496753 -0.5469119 -0.3991458 -0.5102106 0.4103509 -0.14219527 -0.22854869 0.14553262
0.52362263 0.18693031 -0.39565274 0.28843683 0.25608325 0.17530605 0.44251266 -0.3322586
0.059837647 0.43209672 -0.5002366 -0.38960573 -0.1928836 0.07504181 -0.40115777 0.23217171
00000000: 06dd ba3e 6b02 0cbf d75c ccbe 299d 02bf
00000010: 8319 d23e a39b 11be ab08 6abe 8106 153e
00000020: 220c 063f a96a 3f3e ff92 cabe fead 933e
00000030: 581d 833e 6e83 333e 0591 e23e cd1d aabe
00000040: 5218 753d c83b dd3e 810f 00bf 677a c7be
00000050: 4783 45be 85af 993d 8d64 cdbe 6cbe 6d3e

bias f4 [8]
0.021579044 -0.05182739 0.38104802 0.5381749 0.31179798 0.48086116 -0.40423763 -0.0776064
00000000: 89c6 b03c f548 54bd ba18 c33e d5c5 093f
00000010: fca3 9f3e 6f33 f63e 3cf8 cebe 1bf0 9ebd

weight f4 [8]
1.0169755 0.9487215 0.93140876 1.0151953 0.9811121 1.0474954 1.0009521 1.0534763
00000000: 412c 823f 6adf 723f ce70 6e3f ebf1 813f
00000010: 2a2a 7b3f 5414 863f 331f 803f 50d8 863f

bias f4 [8]
0.07713311 -0.010250729 0.11204796 -0.08449489 0.02378759 -0.064699195 0.08298406 0.033576503
00000000: f7f7 9d3d acf2 27bc 6779 e53d a80b adbd
00000010: 31de c23c 0381 84bd 8cf3 a93d 8487 093d

running_mean f4 [8]
0.022304941 -0.051979747 0.38045853 0.53846455 0.3111884 0.48054904 -0.40338087 -0.07723047
00000000: dab8 b63c b7e8 54bd 76cb c23e d0d8 093f
00000010: 1654 9f3e 860a f63e f087 cebe 022b 9ebd

running_var f4 [8]
0.0008579475 0.0005032875 0.0005053826 0.00032307062 0.00059547386 0.00039912542 0.000983493 0.00028396453
00000000: e2e7 603a 0def 033a a77b 043a ce61 a939
00000010: 9319 1c3a b541 d139 8de8 803a 13e1 9439

weight f4 [16, 8, 3]
-0.08992834 0.25356695 0.048719615 -0.11140703 -0.027643442 0.19374312 -0.064159006 -0.1924172
-0.049577747 0.21140149 0.15427807 0.17973474 -0.08379417 0.11410786 0.102490656 -0.0241268
0.06308383 0.20315805 -0.10785637 0.048562888 0.021586977 -0.002075069 0.061046124 -0.03062893
0.1298965 -0.024163488 0.17392887 -0.08507203 0.1699304 0.07692009 0.13146189 0.18513724
-0.006709475 0.07131355 -0.10218837 0.09484282 0.056367382 0.065046936 -0.107484624 0.15161072
-0.17409611 0.11008708 0.21181385 -0.056665406 -0.120988846 -0.13683452 0.2647929 0.024483396
0.056686662 -0.018857894 0.0197857 0.19495948 0.23207258 -0.01565252 -0.080981225 0.07382777
-0.18222873 0.277471 0.16586037 -0.22707847 0.05272077 -0.21183434 0.11403014 0.04587835
0.03001974 -0.11283056 0.028249534 0.07669365 -0.025021398 0.060798347 0.0020154675 0.07732899
-0.065652736 0.16412991 0.13893811 -0.10829059 0.025670588 0.13758652 -0.042262778 0.20960279
0.10357636 -0.11444029 0.09176884 0.09841173 -0.14196396 -0.092484795 -0.092951104 0.050270677
-0.008127698 -0.15053684 0.03955038 -0.036901496 0.2084884 -0.04320955 -0.08114041 -0.079699285
0.073532514 0.23162277 0.004481605 0.008186795 -0.18720026 -0.07290245 -0.062981054 0.03227618
0.07950957 -0.072952956 -0.020983512 0.1711607 0.09563288 0.020395806 -0.0948067 0.17094763
-0.21437967 0.19448487 -0.18912277 0.07234561 -0.23147471 -0.04549346 0.15537481 0.15588017
0.1543293 -0.052871 -0.016695779 -0.1450279 -0.106697425 0.09418952 0.09267236 0.17610404
0.011432353 0.1805639 -0.20281477 0.030592654 -0.0047585056 0.024302501 0.056225907 -0.24707441
0.052044503 -0.2256198 -0.060942713 0.13810787 0.111076854 -0.10007257 -0.015469522 0.078143924
0.10128572 -0.24696262 0.045934524 -0.05883086 0.09741086 0.08623387 0.14228359 0.06116357
-0.08107306 -0.13867539 0.15359262 -0.11375277 -0.085278295 0.07464517 -0.03291979 0.026382223
-0.22155209 0.06959879 0.104051486 0.16996706 -0.2705284 -0.108264126 0.10609094 0.110668555
-0.051675938 0.1347664 0.10438002 0.10553253 -0.07957813 0.049186952 0.03135659 -0.24399206
0.014760148 0.19414656 -0.061722863 -0.02515232 -0.15323025 -0.030887367 0.089432895 -0.09954654
-0.008811994 -0.10650694 -0.16796371 0.077777155 -0.14125513 0.04491583 -0.03285714 -0.24321504
0.13305555 0.1780809 -0.21794921 0.070151 -0.2143316 0.096612476 0.10010818 -0.2159423
0.09226759 0.098054335 0.20002972 0.022448784 -0.20069268 -0.14435805 -0.08758105 0.026175335
0.03246245 -0.07339221 -0.112051666 -0.06473888 0.16213876 0.22850858 -0.06285048 -0.13959113
-0.1572741 0.040985387 -0.17369373 0.1964864 0.10753809 -0.18890943 0.1465301 0.15502717
-0.11979961 0.08680791 0.068051815 0.021553736 -0.07092077 -0.13617161 0.28768077 -0.047519706
0.060770724 0.19623867 0.16575928 0.08504477 0.0056267213 -0.19053781 0.01199564 0.027146438
-0.1844946 -0.08524516 -0.023043156 -0.042694774 -0.30165198 0.06890452 0.01348111 -0.022909723
0.12177809 -0.0045000063 0.025962371 -0.053275023 0.015969645 -0.04555169 -0.16257003 -0.08351686
00000000: 592c b8bd 87d3 813e 388e 473d 5e29 e4bd
00000010: 8074 e2bc 9964 463e cc65 83bd 0409 45be
00000020: 0912 4bbd a279 583e 12fb 1d3e 620c 383e
00000030: 479c abbd 62b1 e93d 9fe6 d13d 91a5 c5bc
00000040: 1832 813d aa08 503e cde3 dcbd e1e9 463d
00000050: 2cd7 b03c e1fd 07bb 800b 7a3d 86e9 fabc
00000060: 9703 053e 82f2 c5bc 691a 323e 3f3a aebd
00000070: 3c02 2e3e 4888 9d3d f29d 063e 9e94 3d3e
00000080: 28db dbbb d70c 923d 2348 d1bd f43c c23d
00000090: 7ce1 663d 5437 853d e620 dcbd d73f 1b3e
000000a0: 4046 32be 5675 e13d bbe5 583e fc19 68bd
000000b0: 00c9 f7bd 591e 0cbe ef92 873e 6791 c83c
000000c0: 4630 683d df7b 9abc 9f15 a23c 75a3 473e
000000d0: 6fa4 6d3e b739 80bc 7cd9 a5bd 0433 973d
000000e0: 2b9a 3abe ae10 8e3e 4dd7 293e 4287 68be
000000f0: bcf1 573d 1aeb 58be a288 e93d f0ea 3b3d
00000100: f5eb f53c b513 e7bd 916b e73c 8f11 9d3d
00000110: adf9 ccbc b007 793d ef15 043b a95e 9e3d
00000120: f174 86bd ac11 283e cb45 0e3e 75c7 ddbd
00000130: 204b d23c 7be3 0c3e bc1b 2dbd 1da2 563e
00000140: d81f d43d ac5f eabd 4df1 bb3d 178c c93d
00000150: 005f 11be ab68 bdbd 265d bebd a0e8 4d3d
00000160: 092a 05bc 5426 1abe 94ff 213d 0626 17bd
00000170: fc7d 553e 7ffc 30bd f12c a6bd 6139 a3bd
00000180: 3798 963d 852e 6d3e 6dda 923b e821 063c
00000190: 6db1 3fbe e14d 95bd 36fc 80bd 0734 043d
000001a0: ead5 a23d 5c68 95bd 9de5 abbc c044 2f3e
000001b0: 2cdb c33d 1b15 a73c 042a c2bd e50c 2f3e
000001c0: 5886 5bbe 0b27 473e 66a9 41be ef29 943d
000001d0: b507 6dbe 5a57 3abd 931a 1f3e 0d9f 1f3e
000001e0: 8008 1e3e 438f 58bd 96c5 88bc 3282 14be
000001f0: 2e84 dabd 6fe6 c03d 02cb bd3d 9e54 343e
00000200: c44e 3b3c bee5 383e adae 4fbe 729d fa3c
00000210: 3ded 9bbb 0a16 c73c 234d 663d 1301 7dbe
00000220: 9e2c 553d e008 67be 119f 79bd 266c 0d3e
00000230: 437c e33d d9f2 ccbd e173 7dbc ec09 a03d
00000240: e36e cf3d c5e3 7cbe d725 3c3d a1f8 70bd
00000250: 587f c73d 629b b03d cab2 113e a786 7a3d
00000260: a209 a6bd ec00 0ebe 6247 1d3e 36f7 e8bd
00000270: 63a6 aebd 91df 983d e7d6 06bd 881f d83c
00000280: 8dde 62be cf89 8e3d f218 d53d d80b 2e3e
00000290: b382 8abe 95b9 ddbd 3546 d93d 32a6 e23d
000002a0: 26aa 53bd 3400 0a3e 31c5 d53d 7021 d83d
000002b0: dcf9 a2bd 4278 493d c56f 003d 0ed9 79be
000002c0: 8cd4 713c 5bce 463e 1dd1 7cbd 3d0c cebc
000002d0: 64e8 1cbe 8107 fdbc 9828 b73d 0edf cbbd
000002e0: 2f60 10bc 5020 dabd aefe 2bbe a149 9f3d
000002f0: 2fa5 10be a9f9 373d 3595 06bd 5d0d 79be
00000300: b73f 083e d75a 363e 142e 5fbe 54ab 8f3d
00000310: be79 5bbe c3dc c53d 8405 cd3d fa1f 5dbe
00000320: caf6 bc3d b6d0 c83d 97d4 4c3e 83e6 b73c
00000330: 6282 4dbe 99d2 13be b25d b3bd a86d d63c
00000340: 59f7 043d a84e 96bd 587b e5bd d195 84bd
00000350: b407 263e 27fe 693e c1b7 80bd faf0 0ebe
00000360: 760c 21be 4be0 273d c5dc 31be bb33 493e
00000370: ee3c dc3d 7971 41be fd0b 163e 71bf 1e3e
00000380: 7f59 f5bd 58c8 b13d c05e 8b3d 7691 b03c
00000390: e93e 91bd 9270 0bbe e54a 933e 06a4 42bd
000003a0: b9ea 783d caf2 483e cdbc 293e f42b ae3d
000003b0: 5c60 b83b 581c 43be 5c89 443c 3562 de3c
000003c0: 27ec 3cbe 0495 aebd 00c5 bcbc b7e0 2ebd
000003d0: 2172 9abe d01d 8d3d e0df 5c3c 2cad bbbc
000003e0: cb66 f93d ca74 93bb 0aaf d43c e936 5abd
000003f0: c6d2 823c 6994 3abd c278 26be e30a abbd

bias f4 [16]
0.21114016 0.12230444 0.035681475 -0.11715211 0.10673596 0.08675553 0.06687575 0.080123134
-0.15732679 0.066337384 0.04279737 -0.16183932 -0.07151435 0.043350857 -0.09292664 0.13707039
00000000: 2035 583e c07a fa3d bd26 123d 72ed efbd
00000010: 6298 da3d e2ac b13d 27f6 883d 9917 a43d
00000020: 461a 21be e5db 873d 4c4c 2f3d 35b9 25be
00000030: 1e76 92bd ab90 313d 5250 bebd 2e5c 0c3e

weight f4 [16]
0.93533677 0.97673804 1.0742446 1.0815989 0.97582257 0.97735626 0.98758256 0.9447244
0.9304742 0.9566584 0.9295203 0.9120939 0.97898436 1.0735782 1.0268213 0.880314
00000000: 3b72 6f3f 810b 7a3f d980 893f d571 8a3f
00000010: 82cf 793f 0534 7a3f 36d2 7c3f 75d9 713f
00000020: 8f33 6e3f 91e7 743f 0bf5 6d3f fc7e 693f
00000030: b89e 7a3f 036b 893f e16e 833f 425c 613f

bias f4 [16]
-0.1303238 -0.098315194 -0.037346877 0.030438175 -0.012840337 -0.08626346 -0.072495684 -0.023389377
-0.03098146 0.076284446 -0.09874851 -0.007048784 0.0015591788 -0.075404696 0.026277576 -0.047777332
00000000: 9a73 05be 7a59 c9bd 0af9 18bd 7b59 f93c
00000010: 4760 52bc e6aa b0bd 9e78 94bd 149b bfbc
00000020: d5cc fdbc 053b 9c3d a93c cabd 7cf9 e6bb
00000030: 5c5d cc3a c76d 9abd 1244 d73c 2ab2 43bd

running_mean f4 [16]
0.5079377 0.5515672 0.25314432 -0.016781596 0.22069034 0.12278762 0.07119921 -0.15716013
-0.19616057 0.26425624 -0.27031517 -0.062823765 -0.14558236 0.13692026 0.03780364 0.059814047
00000000: 3508 023f 8233 0d3f 229c 813e 8f79 89bc
00000010: a6fc 613e 1378 fb3d e4d0 913d 96ee 20be
00000020: 51de 48be 984c 873e c066 8abe bfa9 80bd
00000030: 8b13 15be d334 0c3e fdd7 1a3d 93ff 743d

running_var f4 [16]
0.12747498 0.07509706 0.09593999 0.07932857 0.174324 0.09787174 0.0648974 0.0878866
0.22706836 0.15099214 0.123251446 0.08485961 0.10358131 0.07069532 0.08553742 0.1575709
00000000: cd88 023e 7dcc 993d 2f7c c43d 0477 a23d
00000010: fe81 323e fb70 c83d eee8 843d e4fd b33d
00000020: 9c84 683e af9d 1a3e 416b fc3d e0ca ad3d
00000030: 7022 d43d b5c8 903d 3e2e af3d 445a 213e

weight f4 [8, 16, 3]
0.04661469 -0.104898244 -0.101044536 -0.010420884 0.026309023 0.14023906 -0.05130941 0.026603602
0.14497733 -0.07064228 0.08407037 -0.016129442 0.014682083 0.06699392 0.08880899 -0.0004024909
0.15539062 0.023229606 -0.05597596 -0.09442916 -0.19502729 0.03621341 -0.025703935 0.092720225
-0.09562337 0.030158028 -0.11666461 -0.10065325 0.12819211 0.124861695 0.02232431 -0.038600024
0.18722934 0.0629015 -0.08180357 -0.03787258 -0.14205144 -0.024328116 -0.12932654 -0.11561595
0.050536785 0.06743752 0.12450767 -0.0060176863 0.08690922 0.14768113 -0.023647087 -0.023914106
0.03894801 0.0050884113 0.045956194 -0.015977621 0.005294881 0.19075637 0.1654925 -0.08135888
-0.13783978 0.039510537 0.13893221 -0.025071025 0.12312246 0.07244882 0.06299057 -0.0047855093
0.099084355 -0.023050323 -0.016193531 0.06805223 0.14073035 -0.09660876 0.087337844 0.024847338
-0.119885586 -0.037439547 0.1687356 -0.01908123 -0.03154933 0.09337426 0.048543125 0.12318416
-0.008224743 0.13103293 -0.10287197 0.13560499 -0.19746889 -0.05907605 0.11360496 0.07207308
-0.00085610565 -0.06597224 0.022864947 0.035855897 0.049433544 -0.11167219 0.028817473 0.045551684
0.07658523 -0.02659614 0.14901699 -0.0038068055 -0.14421424 -0.16809984 0.08324578 0.030721623
0.064717576 0.005403187 0.02353697 -0.017778832 -0.07225162 -0.07073999 -0.04838003 -0.1510451
0.029008025 0.10491745 -0.0046988963 -0.03917586 -0.089164734 0.07989434 -0.09189556 0.15300727
-0.012041633 -0.09342547 -0.13495462 0.0032844027 -0.16586879 0.061154768 0.04545909 0.035078496
0.09410681 -0.072397016 0.1528187 -0.018685602 -0.0196604 -0.014000274 -0.13989592 -0.029966038
0.10320821 0.0121094305 -0.06916083 0.004967513 0.24155569 -0.13719653 -0.11094519 -0.06363188
0.017691221 -0.012046811 -0.0003905881 -0.20349067 -0.15653123 -0.20127825 0.044098314 0.06763281
0.09109188 0.08700881 0.06833429 -0.054246105 -0.051398937 -0.038212016 0.01592114 -0.08215737
-0.16253825 0.16199583 0.055293545 -0.20860499 0.08844834 -0.052083857 0.021528523 -0.117683664
-0.059048805 0.09239502 -0.0813766 0.008760578 -0.059623018 -0.042878013 -0.0527759 -0.05553273
-0.23475467 -0.17982712 -0.052000526 0.08902906 -0.043914434 0.03178902 0.16508056 0.08439428
-0.06279119 -0.08916296 -0.058726497 -0.20251073 0.005278303 -0.15139247 -0.027870372 -0.053815227
-0.06327547 0.10660195 -0.08110681 0.124068156 -0.04382605 0.097212255 -0.12482014 -0.01761507
-0.041893296 0.042020895 -0.028740874 -0.07535578 -0.086589105 0.012399016 -0.09147325 -0.12579805
0.07392579 0.029457022 -0.049975745 -0.12824981 -0.0018701663 0.04528034 0.017165324 -0.24112687
0.08374294 -0.014310918 0.026545184 -0.13558623 0.147396 -0.11518212 0.032768585 -0.011858329
-0.053353224 -0.12124172 0.12746851 0.050729513 -0.0674106 0.08276876 -0.048929032 -0.080629796
0.07563595 0.1352239 0.06865629 -0.19104546 -0.118989386 0.10578355 0.004968529 -0.012092855
-0.08819615 0.15265167 -0.18495162 -0.10554029 -0.041958887 0.08830882 0.009758814 0.16370928
-0.13223337 0.08524875 0.0063520647 0.021116327 -0.018483106 -0.008672116 0.10714343 -0.13912478
00000000: 0cef 3e3d e4d4 d6bd 70f0 cebd 5bbc 2abc
00000010: 0586 d73c d49a 0f3e d129 52bd ccef d93c
00000020: f074 143e e6ac 90bd 162d ac3d e421 84bc
00000030: 1f8d 703c 1c34 893d 7de1 b53d 6a05 d3b9
00000040: b81e 1f3e 044c be3c 0c47 65bd 1364 c1bd
00000050: 3cb5 47be 8354 143d 0f91 d2bc 1ae4 bd3d
00000060: 2fd6 c3bd f80d f73c dbed eebd 4b23 cebd
00000070: cb44 033e 7db7 ff3d 79e1 b63c 0f1b 1ebd
00000080: 0cb9 3f3e 80d2 803d a188 a7bd 4720 1bbd
00000090: ef75 11be c24b c7bc 2d6e 04be 0ec8 ecbd
000000a0: a9ff 4e3d af1c 8a3d e1fd fe3d 0330 c5bb
000000b0: 76fd b13d b939 173e 89b7 c1bc 84e7 c3bc
000000c0: f387 1f3d b0bc a63b 903c 3c3d 80e3 82bc
000000d0: ae80 ad3b a355 433e de76 293e 7c9f a6bd
000000e0: df25 0dbe cdd5 213d 3f44 0e3e c061 cdbc
000000f0: a127 fc3d 0c60 943d 3301 813d c3cf 9cbb
00000100: bdec ca3d 08d4 bcbc 4ca8 84bc f85e 8b3d
00000110: 9e1b 103e d0da c5bd 2fde b23d a58c cb3c
00000120: 9386 f5bd 365a 19bd 06c9 2c3e 3d50 9cbc
00000130: df39 01bd 013b bf3d 28d5 463d fa47 fc3d
00000140: 13c1 06bc 7f2d 063e 8aae d2bd 09dc 0a3e
00000150: 4935 4abe baf9 71bd b8a9 e83d 0d9b 933d
00000160: 476c 60ba 741c 87bd 454f bb3c a2dd 123d
00000170: d47a 4a3d 64b4 e4bd 9f12 ec3c 6794 3a3d
00000180: b8d8 9c3d 26e0 d9bc e997 183e 997b 79bb
00000190: e6ac 13be 5d22 2cbe c37c aa3d eaab fb3c
000001a0: a68a 843d 380d b13b 9bd0 c03c eaa4 91bc
000001b0: a8f8 93bd 21e0 90bd 232a 46bd 91ab 1abe
000001c0: 3da2 ed3c f6de d63d 33f9 99bb de76 20bd
000001d0: 009c b6bd a59f a33d bd33 bcbd f0ad 1c3e
000001e0: 454a 45bc da55 bfbd 8b31 0abe 223f 573b
000001f0: 82d9 29be 6c7d 7a3d 5033 3a3d 78ae 0f3d
00000200: 12bb c03d e344 94bd 817c 1c3e 8c12 99bc
00000210: d90e a1bc 6861 65bc e040 0fbe 567b f5bc
00000220: d35e d33d a266 463c 31a4 8dbd 85c6 a23b
00000230: 605a 773e 3f7d 0cbe 3b37 e3bd 6e51 82bd
00000240: 2eed 903c fd5f 45bc d9c7 ccb9 dc5f 50be
00000250: b949 20be e31b 4ebe 6fa0 343d 1283 8a3d
00000260: 618e ba3d ad31 b23d d9f2 8b3d 2a31 5ebd
00000270: b187 52bd 3484 1cbd 0d6d 823c 2042 a8bd
00000280: 6d70 26be 3ce2 253e 7c7b 623d 8c9c 55be
00000290: 6724 b53d e255 55bd 965c b03c 2204 f1bd
000002a0: 29dd 71bd 9a39 bd3d c6a8 a6bd 8788 0f3c
000002b0: 4437 74bd dba0 2fbd 8b2b 58bd 4a76 63bd
000002c0: 8763 70be 9a24 38be 81fe 54bd de54 b63d
000002d0: 9fdf 33bd 3435 023d e10a 293e e9d6 ac3d
000002e0: ab98 80bd 129b b6bd 328b 70bd f95e 4fbe
000002f0: 9df5 ac3b a106 1bbe 6850 e4bc 5b6d 5cbd
00000300: 9296 81bd 2052 da3d 541b a6bd 7217 fe3d
00000310: f282 33bd 3817 c73d b4a1 ffbd 7b4d 90bc
00000320: 4e98 2bbd 1a1e 2c3d fb71 ebbc 2254 9abd
00000330: a155 b1bd 3e25 4b3c 5456 bbbd 34d1 00be
00000340: 6866 973d da4f f13c 5eb3 4cbd eb53 03be
00000350: 5e20 f5ba e177 393d 4b9e 8c3c f6e9 76be
00000360: 6b81 ab3d 5778 6abc 4975 d93c 1ed7 0abe
00000370: faee 163e 9ae4 ebbd 5a38 063d 7049 42bc
00000380: e988 5abd 944d f8bd 1b87 023e c0c9 4f3d
00000390: 920e 8abd ab82 a93d cf69 48bd 3c21 a5bd
000003a0: 05e7 9a3d 2278 0a3e ab9b 8c3d 6ca1 43be
000003b0: b5b0 f3bd 0ca5 d83d 0bcf a23b 1c21 46bc
000003c0: 2fa0 b4bd b850 1c3e f563 3dbe 8225 d8bd
000003d0: 15dd 2bbd 41db b43d 6fe3 1f3c 68a3 273e
000003e0: 2f68 07be e696 ae3d fb24 d03b 26fc ac3c
000003f0: e269 97bc 7e15 0ebc 046e db3d ba76 0ebe

bias f4 [8]
0.05229654 0.07697886 0.040935535 0.16308989 -0.10972232 0.0072974213 -0.042717304 0.17074773
00000000: e634 563d 18a7 9d3d 05ac 273d 0901 273e
00000010: 19b6 e0bd 351f ef3b 57f8 2ebd 7ed8 2e3e

weight f4 [8]
1.0200438 0.97897655 1.0594586 1.012063 1.0018151 0.96065515 1.0491779 0.95196855
00000000: cc90 823f 359e 7a3f 579c 873f 488b 813f
00000010: 7a3b 803f 7fed 753f 764b 863f 36b4 733f

bias f4 [8]
-0.123330384 -0.010060843 0.022108387 0.04346642 0.015670415 -0.13607705 -0.07012734 0.21950735
00000000: a494 fcbd 3cd6 24bc a61c b53c d809 323d
00000010: 3e5f 803c c857 0bbe ec9e 8fbd 89c6 603e

running_mean f4 [8]
0.19186324 0.36438197 -0.05099285 -0.19828375 -0.36132604 -0.13532881 -0.014756224 -0.1046616
00000000: cc77 443e 4690 ba3e e1dd 50bd e50a 4bbe
00000010: baff b8be a393 0abe 17c4 71bc d258 d6bd

running_var f4 [8]
0.15431048 0.11494526 0.10165271 0.070771806 0.09826053 0.12525342 0.06879079 0.05352968
00000000: 9103 1e3e 6c68 eb3d 4c2f d03d cff0 903d
00000010: d13c c93d 6f42 003e 30e2 8c3d f041 5b3d

weight f4 [1, 8, 3]
0.124111705 -0.18043114 0.18783042 -0.04420708 -0.1139802 0.058956064 -0.016883198 -0.021680418
-0.19478066 -0.047803912 -0.0585615 0.18608741 -0.078126535 0.17262492 -0.22078054 -0.057877284
0.17216241 -0.11239714 0.021562787 0.1722733 -0.026841542 0.022532266 -0.1304079 -0.13323988
00000000: 472e fe3d f1c2 38be 9e56 403e 7c12 35bd
00000010: 736e e9bd ea7b 713d a24e 8abc 229b b1bc
00000020: 9574 47be 09ce 43bd 2fde 6fbd b38d 3e3e
00000030: ce00 a0bd 96c4 303e 4b14 62be bb10 6dbd
00000040: 584b 303e 7930 e6bd 71a4 b03c 6968 303e
00000050: cbe2 dbbc 9695 b83c a689 05be 0970 08be

weight f4 [10, 25]
0.043034233 -0.18437792 -0.21928552 0.1615845 -0.17394042 0.004197867 0.0013049645 0.047327813
0.032109473 0.30282608 0.40569374 -0.014609454 -0.00060197915 -0.12051248 0.00266146 0.037930965
0.17585467 -0.10319584 -0.1320204 -0.060378768 -0.11768639 -0.2638028 -0.2445615 -0.14379267
0.29330212 0.040056657 0.051479347 0.0045270743 -0.26729256 0.33152306 -0.032764945 -0.04077898
0.011333345 -0.03608864 -0.276588 -0.3330298 -0.014481822 0.12073921 0.27563536 0.060898855
0.07616929 -0.12283425 0.057809643 0.044057522 -0.030174952 0.13663448 0.06587432 0.1182508
0.23331246 -0.13330412 0.031693954 0.16540194 0.100060046 -0.24613276 0.0056249374 -0.30626208
0.06102173 -0.22955884 -0.07461393 -0.17458747 -0.17870376 -0.017582925 -0.1632131 0.21294971
0.052760705 -0.23224741 -0.19993094 -0.17775995 -0.13189359 0.1539047 0.14150298 0.047358513
-0.036330637 -0.03729621 -0.10911752 -0.2184983 0.24212405 -0.050779153 0.031416204 0.1368476
-0.10404028 0.04386372 -0.3058432 -0.21721205 -0.07180877 -0.1741426 0.16386616 0.00057376776
0.06742677 -0.2562025 -0.24382667 0.08169042 -0.1828329 0.14323945 0.07255511 0.15681392
0.29252508 0.21321988 0.26110098 -0.077824816 -0.019423222 0.24899839 0.20412284 -0.14643012
0.27215612 -0.28574246 -0.0723628 -0.3368642 -0.2810181 -0.36675128 -0.15457569 0.10530558
-0.087335944 0.16972074 -0.24070084 -0.17542002 -0.046052273 -0.11627045 -0.073723644 0.18121846
0.23011018 0.19363482 -0.06284538 0.29173848 -0.038339682 -0.1253071 0.23723069 0.25065282
-0.10099823 0.15569502 -0.0051378985 0.27429998 0.011804737 -0.25532907 -0.13629393 -0.021514188
0.10866138 0.18531547 0.12363253 -0.18374701 0.10242434 -0.14642292 -0.098522 -0.01606368
-0.019464267 0.097858906 0.20015556 0.13062097 0.0066757044 -0.2955686 -0.23073806 0.1521966
0.22509672 -0.07681651 0.25418675 0.04718915 -0.017381981 -0.3675636 0.028109424 -0.13837259
-0.22395918 0.10449326 0.13822795 0.111122355 0.053134624 0.058299813 -0.1533144 0.06651081
-0.013196449 0.11365255 -0.14960214 0.28360367 0.24233459 -0.02096682 -0.24400133 -0.24962555
0.23225735 0.22698018 -0.18844806 0.22201484 -0.15477891 0.08710348 -0.3447751 -0.05673056
-0.26320243 -0.04093104 0.19733931 0.06913858 0.11239787 0.05868639 0.083757415 -0.15208484
0.14498307 0.07605603 -0.07182808 -0.07160945 -0.0913464 0.30081546 0.24840824 -0.2292176
-0.050896388 0.20317265 -0.032067418 -0.108256534 0.31200275 -0.22451451 0.18397914 -0.18806103
-0.2200956 -0.2881891 -0.28791332 0.18732119 0.17943217 0.28907382 -0.020298628 -0.16977598
-0.1531915 -0.2228116 0.043936886 0.23210819 0.20547092 0.28999516 0.00977933 0.05423994
-0.026047856 0.09532271 -0.115496986 -0.29526797 0.20383945 0.051050205 0.08586326 -0.23031051
0.020003928 0.05063896 0.0037306699 0.055061642 -0.045885988 0.20278993 -0.23911957 -0.08976316
0.22195181 -0.049807556 0.014500847 0.11933953 -0.17650071 -0.08913773 -0.2801737 -0.24599999
-0.048109815 -0.014242245
00000000: aa44 303d 91cd 3cbe 628c 60be 6876 253e
00000010: 701d 32be 438e 893b 580b ab3a cfda 413d
00000020: 3985 033d 050c 9b3e 17b7 cf3e 7e5c 6fbc
00000030: 23ce 1dba 3fcf f6bd e46b 2e3b 805d 1b3d
00000040: 3f13 343e 5758 d3bd 5b30 07be ba4f 77bd
00000050: 9005 f1bd 2911 87be 546e 7abe 633e 13be
00000060: b22b 963e 7312 243d 02dc 523d da57 943b
00000070: 92da 88be 64bd a93e 8934 06bd dc07 27bd
00000080: 7faf 393c afd1 13bd f19c 8dbe e282 aabe
00000090: 2a45 6dbc 1e46 f73d 1420 8d3e 1471 793d
000000a0: a5fe 9b3d 8690 fbbd cec9 6c3d a975 343d
000000b0: 7631 f7bc e9e9 0b3e 1ee9 863d 7a2d f23d
000000c0: 76e9 6e3e e080 08be 85d1 013d 205f 293e
000000d0: 48ec cc3d 3a0a 7cbe 6551 b83b 62ce 9cbe
000000e0: ecf1 793d 7911 6bbe 30cf 98bd 0fc7 32be
000000f0: 1efe 36be 110a 90bc 5621 27be 7d0f 5a3e
00000100: 9c1b 583d 44d2 6dbe b2ba 4cbe b406 36be
00000110: 1d0f 07be 3299 1d3e 28e6 103e 00fb 413d
00000120: 6fcf 14bd e9c3 18bd 0279 dfbd 05be 5fbe
00000130: 5eef 773e cdfd 4fbd 47ae 003d c721 0c3e
00000140: 1213 d5bd 72aa 333d 7b97 9cbe d66c 5ebe
00000150: 7a10 93bd 7052 32be 88cc 273e e768 163a
00000160: 0c17 8a3d f92c 83be b3ad 79be 4f4d a73d
00000170: 8c38 3bbe 5dad 123e c697 943d d493 203e
00000180: d9c5 953e 5056 5a3e 07af 853e 9e62 9fbd
00000190: 731d 9fbc 6ff9 7e3e 9405 513e c7f1 15be
000001a0: 0c58 8b3e d64c 92be f332 94bd 7779 acbe
000001b0: 9be1 8fbe d3c6 bbbe 1749 1ebe 74aa d73d
000001c0: 30dd b2bd 46cb 2d3e 487a 76be 4ea1 33be
000001d0: 4fa1 3cbd 341f eebd 6cfc 96bd 5591 393e
000001e0: 01a2 6b3e 3548 463e 14b5 80bd bf5e 953e
000001f0: 120a 1dbd 8150 00be 9aec 723e 9155 803e
00000200: 29d8 cebd 846e 1f3e d15b a8bb 0c71 8c3e
00000210: a868 413c 7eba 82be a390 0bbe 863e b0bc
00000220: dc89 de3d 57c3 3d3e 0d33 fd3d 2d28 3cbe
00000230: dac3 d13d e4ef 15be e7c5 c9bd fb97 83bc
00000240: 8773 9fbc 406a c83d 94f5 4c3e 81c1 053e
00000250: debf da3b c454 97be 9946 6cbe 6dd9 1b3e
00000260: c17f 663e f951 9dbd c424 823e 6949 413d
00000270: a864 8ebc 4c31 bcbe bc45 e63c 8bb1 0dbe
00000280: 8e55 65be 9000 d63d a18b 0d3e 1e94 e33d
00000290: b1a3 593d c9cb 6e3d 73fe 1cbe d236 883d
000002a0: eb35 58bc abc2 e83d 4e31 19be 8034 913e
000002b0: 8f26 783e 9cc2 abbc 7cdb 79be d79d 7fbe
000002c0: dfd4 6d3e 7e6d 683e 87f8 40be dc57 633e
000002d0: 5d7e 1ebe 4f63 b23d 5d86 b0be 4e5e 68bd
000002e0: 78c2 86be 4ea7 27bd 5113 4a3e 8798 8d3d
000002f0: db30 e63d 2461 703d 0289 ab3d 21bc 1bbe
00000300: 7176 143e 44c3 9b3d 9a1a 93bd faa7 92bd
00000310: d213 bbbd 7c04 9a3e bb5e 7e3e 05b8 6abe
00000320: bb78 50bd 7e0c 503e 2059 03bd 9ab5 ddbd
00000330: d3be 9f3e 22e7 65be 0765 3c3e 1293 40be
00000340: be60 61be 868d 93be 6069 93be 20d1 3f3e
00000350: 11bd 373e 7c01 943e 4f49 a6bc c1d9 2dbe
00000360: 3cde 1cbe b928 64be 2af7 333d c5ad 6d3e
00000370: f866 523e 3f7a 943e 7c39 203c b32a 5e3d
00000380: 5062 d5bc 8e38 c33d af89 ecbd 5d2d 97be
00000390: 4abb 503e 051a 513d 14d9 af3d 85d6 6bbe
000003a0: 47df a33c cc6a 4f3d 417e 743b 5188 613d
000003b0: f2f2 3bbd 2aa8 4f3e c3db 74be bfd5 b7bd
000003c0: 5647 633e 0203 4cbd f694 6d3c 4968 f43d
000003d0: 9abc 34be d88d b6bd ed72 8fbe 6ce7 7bbe
000003e0: cc0e 45bd 4e58 69bc

bias f4 [10]
0.053482037 -0.089533746 -0.14469095 0.050271355 0.009650207 -0.28918055 -0.31366426 0.0038596569
-0.19478412 -0.011155574
00000000: fb0f 5b3d 785d b7bd dd29 14be 56e9 4d3d
00000010: e71b 1e3c 790f 94be 9a98 a0be 4cf2 7c3b
00000020: 7d75 47be dec5 36bc

weight f4 [2, 10]
-0.5950036 0.020814551 0.31481457 0.4634136 0.66092634 0.3034633 0.44332263 0.5384342
0.72019637 -0.10334143 0.49098742 -0.30844522 -0.0062397374 -0.19158648 -0.46846685 -0.3772865
-0.5619155 -0.06402318 -0.0942753 0.06243895
00000000: 2852 18bf 4783 aa3c 602f a13e 8c44 ed3e
00000010: 7832 293f 8b5f 9b3e 2ffb e23e d3d6 093f
00000020: ca5e 383f aca4 d3bd b462 fb3e 88ec 9dbe
00000030: b676 ccbb 3f2f 44be e3da efbe b22b c1be
00000040: b2d9 0fbf 961e 83bd 6913 c1bd fcbf 7f3d

bias f4 [2]
-0.13805178 -0.06845174
00000000: 725d 0dbe 6d30 8cbd
