mlpcnnsemi/model/cnn/82oneinput_batch1_Epoch=31_lr=0.0001.pth (torch, 25249 bytes, 29 tensors)

weight f4 [4, 1, 1]
0	0x3ee96cc6	0.455908
1	0x3ee74840	0.4517231
2	0x3d5f158f	0.05446392
3	0xbda3c2d2	-0.079961434

bias f4 [4]
0	0xbde49350	-0.1116091
1	0xbd869502	-0.0657139
2	0xbf7bf45a	-0.98419726
3	0xbf327620	-0.69711494

weight f4 [4]
0	0x3f7df20f	0.9919748
1	0x3f8053b8	1.0025549
2	0x3f7c64f7	0.9859156
3	0x3f83c162	1.0293391

bias f4 [4]
0	0x3d156fb8	0.036483496
1	0xbd6f3abc	-0.058405623
2	0xbca16aef	-0.01970431
3	0x3d29cac6	0.041453145

running_mean f4 [4]
0	0x3d01f378	0.03172633
1	0x3d9bbb17	0.07604044
2	0xbf778be2	-0.9669782
3	0xbf38e3ca	-0.7222258

running_var f4 [4]
0	0x3e107acb	0.14109342
1	0x3e0db2a0	0.13837671
2	0x3b03cfcf	0.0020112877
3	0x3b8da550	0.0043226853

weight f4 [16, 4, 1]
0	0x3ccebf01	0.025237562
1	0x3eac8f17	0.3370292
2	0xbe9ddfd0	-0.30834818
3	0x3db3acff	0.08773231
4	0xbe66654f	-0.22499584
5	0xbc0f1adc	-0.008734431
6	0x3e0b5a84	0.13608748
7	0x3d80694d	0.062700845
8	0x3efbfa37	0.49214336
9	0xbe1633b1	-0.14668156
10	0xbeff67a4	-0.4988376
11	0xbeec19e6	-0.4611351
12	0xbe7e3892	-0.24826267
13	0x3e3926b0	0.18081164
14	0xbcf2a299	-0.029618548
15	0xbee3a626	-0.444627
16	0xbe519969	-0.20468678
17	0xbe8383e8	-0.25686574
18	0x3e892d5a	0.26792413
19	0x3e59d41c	0.2127232
20	0xbe27ab03	-0.1637383
21	0x3ea2f68a	0.3182872
22	0x3efd074c	0.4941963
23	0x3e528e1d	0.20562024
24	0x3ec5d134	0.38636172
25	0xbe0ad012	-0.13555935
26	0xbee6b085	-0.4505655
27	0xbea115fc	-0.31462085
28	0xbeabd789	-0.33562878
29	0xbe807d1f	-0.2509546
30	0xbefe50a1	-0.4967089
31	0x3eb709d8	0.35749698
32	0xbf0356b8	-0.513042
33	0x3ea47157	0.3211772
34	0x3ed89a21	0.4230509
35	0x3e7dbbf9	0.24778737
36	0xbe934f4c	-0.28771436
37	0xbe09e07b	-0.13464539
38	0x3e867e24	0.26268113
39	0x3e4d88d7	0.20071732
40	0x3ed37c64	0.4130584
41	0x3e807d10	0.25095415
42	0x3eb1cf38	0.34728408
43	0x3e39f5e2	0.18160203
44	0xbe0bcfeb	-0.13653533
45	0x3ddf1357	0.10892361
46	0xbe8cc339	-0.27492693
47	0x3ea900ac	0.33008325
48	0xbe4239dc	-0.18967384
49	0x3ee1e7e7	0.4412224
50	0x3f0e9de0	0.5570965
51	0x3d73e632	0.059545703
52	0xbeb97d59	-0.36228445
53	0x3de9f79c	0.11424181
54	0xbda1b1ef	-0.07895266
55	0x3e368675	0.17824729
56	0xbec8f25a	-0.392474
57	0x3ddb6b75	0.10713855
58	0xbe959508	-0.29215264
59	0xbec4be3d	-0.3842639
60	0x3de41d60	0.11138415
61	0xbd8cd3a2	-0.06876303
62	0x3e9b63b4	0.30349505
63	0x3e9d55f9	0.30729654

bias f4 [16]
0	0x3d052641	0.032507185
1	0x3e2c283a	0.1681222
2	0x3eddb273	0.43300208
3	0x3d2f2a51	0.042764965
4	0xbceda47c	-0.029009096
5	0x3ebbc3a5	0.36672702
6	0x3eed0744	0.46294606
7	0xbe05b9d2	-0.13059166
8	0xbe37710a	-0.17914215
9	0x3dac0f43	0.084013484
10	0x3eff6724	0.49883378
11	0xbef9a6b1	-0.48759988
12	0x3e5d6654	0.21621066
13	0x3eb1bab2	0.3471275
14	0xbc7e731f	-0.015530377
15	0xbea18905	-0.3154985

weight f4 [16]
0	0x3f795763	0.97398967
1	0x3f85f70b	1.0466017
2	0x3f7b368e	0.9813012
3	0x3f7d2205	0.98880035
4	0x3f7e4d59	0.99336773
5	0x3f7a6639	0.9781223
6	0x3f80b915	1.0056483
7	0x3f773c52	0.96576416
8	0x3f80f060	1.0073357
9	0x3f719da0	0.9438114
10	0x3f81bd32	1.0135863
11	0x3f827833	1.0192932
12	0x3f830beb	1.0238012
13	0x3f8541c5	1.0410696
14	0x3f83a79d	1.0285527
15	0x3f7fa87c	0.9986646

bias f4 [16]
0	0xbd43d2d1	-0.047808472
1	0x3d4fe4c4	0.050755277
2	0x3d17e889	0.037086997
3	0xbccc1709	-0.024913328
4	0xbca4dbf6	-0.020124417
5	0x3ba8eaaa	0.0051549273
6	0x3ccb898d	0.024845863
7	0x3d1fc175	0.039002854
8	0x3c745dd3	0.014914948
9	0xbdab7e9d	-0.08373759
10	0x3c3fdeaa	0.011710802
11	0x3d97ca5f	0.07411646
12	0x3ddfbee9	0.10925085
13	0x3d29c080	0.041443348
14	0x3da8885b	0.08229133
15	0xbc88723d	-0.016656036

running_mean f4 [16]
0	0x3d960024	0.073242456
1	0x3e22613a	0.15857401
2	0x3e835127	0.25647852
3	0xbe0149d7	-0.12625824
4	0xbc7ff818	-0.015623115
5	0x3f194041	0.5986367
6	0x3ea26f07	0.31725332
7	0xbe9e4946	-0.30915278
8	0xbd4adefb	-0.049529057
9	0x3dcda3ce	0.10041009
10	0x3f540193	0.828149
11	0xbeee8ff0	-0.4659419
12	0x3ee35876	0.44403428
13	0x3e9f61f6	0.31129426
14	0xbe96a58f	-0.29423186
15	0xbe015bee	-0.12632725

running_var f4 [16]
0	0x3b0c2ae1	0.0021387863
1	0x3c1e73c7	0.009671158
2	0x3c639dc0	0.013892591
3	0x3bd41097	0.006471704
4	0x3d2580d5	0.040406067
5	0x3e9f3740	0.3109684
6	0x3cbec2e3	0.023286289
7	0x3f81cf7a	1.0141442
8	0x3d07f572	0.03319306
9	0x3cf00c15	0.029302636
10	0x3f4bf63e	0.7967261
11	0x3dc08963	0.094012044
12	0x3f021a5b	0.50821465
13	0x3dcc01ad	0.09961257
14	0x3e72eb40	0.23722553
15	0x3da57301	0.08078576

weight f4 [8, 16, 2]
0	0xbd8dadcd	-0.069179155
1	0xbd511c7d	-0.05105256
2	0xbe6e8bc9	-0.23295511
3	0xbd9856f9	-0.07438464
4	0x3d7501f0	0.0598163
5	0xbca569fa	-0.020192135
6	0x3e09108a	0.13385215
7	0x3d8cb543	0.068705104
8	0xbe461dd5	-0.19347318
9	0x3d5f10ab	0.054459255
10	0x3dc9c10f	0.09851276
11	0x3e114b11	0.14188792
12	0xbd57e199	-0.05270538
13	0xbe162b08	-0.14664853
14	0x3d402362	0.046908744
15	0x3d85c762	0.0653217
16	0xbde8ecc6	-0.11373286
17	0x3cdb8a49	0.026799338
18	0xbd267603	-0.04063989
19	0xbdff2f8e	-0.12460242
20	0xb942f00d	-0.00018590708
21	0xbce4e3a8	-0.027940586
22	0x3dae8d41	0.08523036
23	0xbd3cacce	-0.046063237
24	0xbc8a35ed	-0.016871417
25	0x3e346be4	0.17619282
26	0xbe3435c9	-0.17598642
27	0xbd9d0987	-0.07667833
28	0xbe1c8b69	-0.15287556
29	0xbdbd507d	-0.092438675
30	0x3c9719cf	0.018444924
31	0x3d81ccec	0.06337914
32	0x3d73fdd4	0.05956824
33	0x3dddfef3	0.10839643
34	0xbdfdeb10	-0.1239835
35	0xbd4dc004	-0.05023195
36	0x3d312ecc	0.04325752
37	0xbd4c86f5	-0.049933393
38	0x3e2e9c88	0.170519
39	0x3e024876	0.12722954
40	0xbbe98d9d	-0.0071274773
41	0x3e37d405	0.17951973
42	0x3e0b356f	0.13594602
43	0x3df32c03	0.11873629
44	0xbd8444a3	-0.06458404
45	0xbc8fa7b1	-0.017536016
46	0x3e0992cf	0.1343491
47	0x3b6f211a	0.0036488236
48	0xbca94d4d	-0.020666743
49	0x3dcb0184	0.099123985
50	0xbe1eea18	-0.15518987
51	0xbbad0893	-0.005280563
52	0xbe2d2c23	-0.16911368
53	0x3e177ad1	0.14792944
54	0x3dd0d05e	0.10195993
55	0xbdbf71c8	-0.09347874
56	0xbe34723f	-0.17621706
57	0x3cc5fac0	0.024167418
58	0x3d237ef4	0.039915994
59	0x3d8470c6	0.06466822
60	0x3dce6cd5	0.10079352
61	0x3e7b05ab	0.24513881
62	0xbd0e31a8	-0.034715325
63	0x3ddba2e6	0.1072443
64	0xbdd1ec50	-0.10250151
65	0xbd19c961	-0.037545566
66	0xbe6de8cd	-0.23233338
67	0x3ba9517b	0.005167184
68	0x3db90ea6	0.09035997
69	0xbdfd5567	-0.12369805
70	0xbd702580	-0.058629513
71	0x3d9d5cad	0.07683692
72	0xbdb8d736	-0.09025423
73	0xbcdec06c	-0.027191363
74	0x3dd72271	0.10504616
75	0x3dc14ec5	0.09438852
76	0x3d32042e	0.043461017
77	0x3d859747	0.065229945
78	0xbe4089b9	-0.18802537
79	0x3d41a628	0.0472776
80	0x3da54b59	0.08071012
81	0x3e34e064	0.17663723
82	0x3db64c8b	0.08901318
83	0x3dd1a1d7	0.102359466
84	0xbd98e016	-0.07464616
85	0x3d858159	0.06518812
86	0xbe239c2b	-0.15977542
87	0x3dc3056a	0.09522517
88	0x3d5a716f	0.053330835
89	0xbdf6373f	-0.12022256
90	0xbd613272	-0.05497975
91	0x3dfa5ac5	0.12224344
92	0xbe3d00c3	-0.18457322
93	0x3e12291b	0.14273493
94	0xbdf6dfac	-0.12054381
95	0xbcd6a204	-0.026200302
96	0xbe1197a4	-0.14218003
97	0x3bceeb97	0.0063147056
98	0xbe12396f	-0.14279722
99	0xbdd32bc3	-0.10311081
100	0x3ce7614a	0.028244633
101	0x3dd87d6c	0.10570797
102	0x3dea4006	0.11437993
103	0x3e3b7588	0.18306553
104	0x3e474a1b	0.19461863
105	0xbda4b855	-0.08042971
106	0x3dec6813	0.11543288
107	0x3da8870e	0.08228885
108	0x3ca216af	0.019786207
109	0x3e4f0e81	0.20220377
110	0x3d38b872	0.045097776
111	0x3ca2f955	0.019894281
112	0xbcaa259e	-0.02076989
113	0x3df6bae1	0.12047363
114	0xbddba4a0	-0.10724759
115	0xbd6fa695	-0.058508474
116	0x3c935dfb	0.01798915
117	0x3be0d8d6	0.0068617864
118	0x3d8f4f7e	0.06997584
119	0xbdc4859a	-0.09595795
120	0x3d2a9d0a	0.04165367
121	0xbcd95ecf	-0.026534466
122	0x3d98ec7f	0.07466983
123	0x3aa9455a	0.0012914345
124	0xbe106c59	-0.14103831
125	0x3d4d862d	0.050176788
126	0xbbc27165	-0.005933928
127	0x3dfdc6b5	0.12391416
128	0xbd2adcbb	-0.04171441
129	0xbda3866a	-0.07984622
130	0xbcac8b8c	-0.021062635
131	0x3df4d21c	0.11954138
132	0xbd246d43	-0.040143263
133	0xbd30d9f1	-0.043176595
134	0xbd5c2df5	-0.053754766
135	0xbd8bb45a	-0.06821509
136	0x3d90e951	0.070757516
137	0xbdc8632e	-0.09784542
138	0xbcd0b3d8	-0.025476381
139	0x3b3ad9cb	0.0028511162
140	0x3e2e7176	0.1703547
141	0x3d7a8d10	0.061169684
142	0x3ce05124	0.02738244
143	0x3d58bf4e	0.052916817
144	0x3c6ab734	0.014325906
145	0x3daed021	0.08535791
146	0xbd12bf53	-0.035826992
147	0x3e23f73d	0.16012283
148	0x3e230ea0	0.15923548
149	0xbdddd55d	-0.108317114
150	0xbda545f4	-0.08069983
151	0x3e1ae23d	0.15125366
152	0x3e3d55a5	0.18489702
153	0xbdc3f908	-0.09568983
154	0xbe37cfc5	-0.17950352
155	0xbdf60edf	-0.12014555
156	0x3dcb0e67	0.099148564
157	0xbe53481e	-0.2063298
158	0xbde9eea5	-0.11422471
159	0xbd33b8a6	-0.043877266
160	0xbe1ee546	-0.15517148
161	0xbde17bb9	-0.11009926
162	0xbdbb1bcd	-0.09136162
163	0xbc331fdf	-0.010932892
164	0xbdc6faa3	-0.09715774
165	0x3d8a1ed1	0.06744159
166	0xbd8895b9	-0.06669182
167	0xbdb4c000	-0.088256836
168	0xbd531319	-0.051531885
169	0x3d0f8204	0.035036102
170	0x3d6cb66f	0.05779117
171	0xbd154457	-0.036442127
172	0x3d8f69af	0.070025794
173	0x3e230553	0.1592
174	0xbb96678c	-0.0045899805
175	0x3e083e4e	0.13305017
176	0x3b8c83ba	0.004288164
177	0xbdf33860	-0.11875987
178	0xbe4680f5	-0.1938513
179	0x3d86a6b6	0.06574766
180	0xbdec71dc	-0.115451545
181	0x3d1c5a46	0.03817203
182	0xbe11145c	-0.14167923
183	0xbe3049f2	-0.17215708
184	0x3e17ef2f	0.14837335
185	0xbd276430	-0.04086703
186	0x3d3b6ceb	0.04575817
187	0x3cbdc0d5	0.023163239
188	0xbdc4b224	-0.0960429
189	0x3c1b1a41	0.009466709
190	0xbe27f687	-0.16402636
191	0xbddaee58	-0.10689992
192	0xbc9153ce	-0.017740157
193	0x3dec7699	0.11546058
194	0xbde42003	-0.11138918
195	0xbdc873f4	-0.09787741
196	0x3c555081	0.013019682
197	0x3be0a559	0.0068556485
198	0xbd341d90	-0.043973505
199	0xbe40b628	-0.18819487
200	0xbaadee55	-0.0013269881
201	0xbcea15a8	-0.02857478
202	0xbce91605	-0.028452883
203	0x3e13d768	0.1443764
204	0xbd5fb705	-0.0546179
205	0xbdfcbee9	-0.12341101
206	0x3d2816b6	0.041037284
207	0xbd070e28	-0.032972485
208	0x3e435791	0.19076373
209	0xbcb8f61f	-0.022578297
210	0xbd15e37b	-0.036593895
211	0x3d1b4fa2	0.03791774
212	0xbe01778c	-0.1264326
213	0x3e3f3a2c	0.18674535
214	0x3dec9d75	0.1155347
215	0x3c280272	0.010254489
216	0xbd8438c5	-0.064561404
217	0x3e433515	0.19063218
218	0xbc48ef22	-0.012264045
219	0xbca6afc8	-0.02034749
220	0x3e8deec2	0.2772122
221	0x3d6174c2	0.05504299
222	0xbba940a6	-0.0051651774
223	0xbc551004	-0.013004307
224	0x3db65780	0.08903408
225	0x3e185cd7	0.14879166
226	0x3d462f2f	0.04838484
227	0xbaadbca1	-0.0013255068
228	0x3cf6a4d9	0.030107902
229	0xbe44d576	-0.19222054
230	0xbd99b31f	-0.07504868
231	0xbe172511	-0.14760233
232	0xbe1dd1e1	-0.15412094
233	0x3df2af96	0.118498966
234	0xbb428313	-0.0029680177
235	0x3d2160ec	0.039399073
236	0x3e010f94	0.12603599
237	0x3dcdef5b	0.10055419
238	0xbe2ddb1c	-0.16978115
239	0x3beb6895	0.007184098
240	0x3ca8b2cc	0.02059307
241	0x3d621f65	0.05520572
242	0xbd5fde47	-0.05465534
243	0xbe2947a8	-0.16531241
244	0xbd8d8b30	-0.069113135
245	0xbddab1b0	-0.106784225
246	0x3d9a1876	0.07524197
247	0xbc84af53	-0.016196882
248	0xbde9e3b0	-0.11420381
249	0xbda9dade	-0.08293699
250	0xbddf174c	-0.108931154
251	0xbdf85cec	-0.121270984
252	0x3e563ee1	0.20922424
253	0xbd382c9d	-0.04496442
254	0xbe5e6677	-0.21718775
255	0xbda950db	-0.08267375

bias f4 [8]
0	0x3e021299	0.12702407
1	0xbe1dc89e	-0.1540856
2	0xbd4bb7de	-0.049735896
3	0x3de5705d	0.11203072
4	0xbd339a23	-0.043848168
5	0xbc84bb9f	-0.016202746
6	0x3ddad294	0.10684696
7	0xbbeeb861	-0.0072851633

weight f4 [8]
0	0x3f7e87e3	0.99426097
1	0x3f7a1749	0.9769178
2	0x3f85127f	1.039627
3	0x3f7cb94e	0.9872025
4	0x3f75e8d5	0.960584
5	0x3f874307	1.056733
6	0x3f7cb6e5	0.98716575
7	0x3f8d8554	1.1056314

bias f4 [8]
0	0xbd78768d	-0.060659934
1	0x3b823345	0.003973397
2	0x3bfb5864	0.007670449
3	0x3d2895a1	0.041158322
4	0xbdc5b8b1	-0.09654368
5	0x3d4b8124	0.049683705
6	0xbc16c960	-0.009203285
7	0x3d4c7cd9	0.04992375

running_mean f4 [8]
0	0xbd5f1bf9	-0.054470036
1	0x3dda03d5	0.10645262
2	0xbe066923	-0.13126044
3	0x3e82b9a1	0.2553225
4	0xbda2309b	-0.07919427
5	0xbe8a79c5	-0.27046028
6	0x3e43a485	0.19105728
7	0xbe7517e0	-0.23934889

running_var f4 [8]
0	0x3e05e8d7	0.13077103
1	0x3e2fdfb8	0.17175186
2	0x3ce4e2f6	0.027940255
3	0x3e0bb201	0.13642122
4	0x3d101e2c	0.035185024
5	0x3e6ba2ae	0.23011276
6	0x3e887169	0.26649025
7	0x3df17f53	0.11791863

weight f4 [4, 8, 2]
0	0xbb6ab9b9	-0.0035816266
1	0x3e3d22e0	0.18470335
2	0x3e2c8c74	0.16850454
3	0xbd6b4b6c	-0.057444975
4	0x3c2b4810	0.010454193
5	0x3dc76ca7	0.09737521
6	0xbe22cd7e	-0.15898702
7	0xbe0484fb	-0.12941353
8	0xbe93864d	-0.288134
9	0x3d5532cf	0.052050408
10	0xbdda772d	-0.10667262
11	0x3e995581	0.29948047
12	0xbe00429d	-0.12525411
13	0x3df36019	0.118835635
14	0x3d9a8592	0.07545008
15	0x3e0b3cb0	0.13597369
16	0x3dfdc2ea	0.123906925
17	0xbd9015f8	-0.0703544
18	0x3deee4d4	0.11664739
19	0xbcadc548	-0.021212235
20	0xbe427188	-0.18988621
21	0x3e325209	0.17414106
22	0xbd18d17a	-0.037309147
23	0x3d8023ca	0.06256826
24	0xbe5c0108	-0.21484768
25	0x3e24dbe8	0.16099513
26	0x3d01eaa2	0.031717904
27	0xbe588cfe	-0.21147534
28	0x3dd5616b	0.10418972
29	0xbe39cc86	-0.18144426
30	0xbe7cdb48	-0.24693024
31	0xbe24539c	-0.1604752
32	0x3e33d1e3	0.17560534
33	0xbe6b0b04	-0.22953421
34	0x3e85e57f	0.26151654
35	0x3e1c1f27	0.15246259
36	0x3caf184f	0.021373896
37	0x3e31b07f	0.17352484
38	0x3e6c1ec3	0.2305861
39	0xbe44a97a	-0.19205275
40	0xbd8a02b2	-0.06738795
41	0xbd858ed2	-0.065213814
42	0xbc7ddc20	-0.015494376
43	0x3daa1464	0.083046705
44	0xbd472693	-0.04862077
45	0x3d91f31a	0.07126446
46	0x3c451ad5	0.012030323
47	0x3e659903	0.2242165
48	0xbcbd984d	-0.023143912
49	0xbe198a50	-0.14994168
50	0x3e2d0264	0.16895443
51	0xbda6ece9	-0.08150656
52	0x3d1f15d5	0.03883918
53	0x3d7b004d	0.061279584
54	0x3d4eed45	0.050519247
55	0x3e129024	0.14312798
56	0xbc868d24	-0.016424723
57	0xbd3ffbc1	-0.04687095
58	0x3d842f37	0.06454318
59	0x3eb0849a	0.34476167
60	0xbe10eae4	-0.14152104
61	0xbe5ad3b4	-0.21369821
62	0x3cca0079	0.024658429
63	0xbdc3450e	-0.095346555

bias f4 [4]
0	0xbe42c766	-0.19021377
1	0x3e85ec1e	0.26156706
2	0x3c61b76e	0.013776643
3	0xbd556756	-0.052100502

weight f4 [4]
0	0x3f6f799f	0.93544954
1	0x3f820d9a	1.0160401
2	0x3f83c392	1.0294058
3	0x3f862497	1.0479916

bias f4 [4]
0	0xbe0bb112	-0.13641766
1	0xbe040cd8	-0.12895525
2	0xbd86d4a5	-0.065835275
3	0x3d877a67	0.06615143

running_mean f4 [4]
0	0xbdcea7d1	-0.10090602
1	0x3de3a42f	0.111153
2	0x3e87c632	0.265184
3	0x3be8a858	0.0071001463

running_var f4 [4]
0	0x3d3cb33f	0.04606938
1	0x3dc3c739	0.09559483
2	0x3e8cba91	0.2748609
3	0x3d834cad	0.06411109

weight f4 [1, 4, 2]
0	0x3e84d74b	0.25945505
1	0xbe044699	-0.12917556
2	0xbc64a926	-0.013956344
3	0x3e89b47a	0.26895505
4	0xbdc84f73	-0.09780779
5	0xbe4c2013	-0.1993411
6	0x3dab1460	0.083534956
7	0xbde09b53	-0.10967126

weight f4 [16, 80]
0	0x3c6bc3db	0.014389957
1	0x3d533d04	0.05157186
2	0x3d341215	0.043962557
3	0x3d62385b	0.055229526
4	0x3d6d4c23	0.057933938
5	0xbe128385	-0.14307983
6	0x3d897f59	0.06713743
7	0xbe7af4c1	-0.24507429
8	0x3c64d39d	0.013966468
9	0xbdb23572	-0.087016
10	0xbda8f0e8	-0.08249074
11	0x3d966e7b	0.07345291
12	0xbd5e88a2	-0.054329522
13	0xbcae49fd	-0.021275515
14	0x3e274339	0.16334237
15	0x3c46801a	0.012115503
16	0x3d31cf00	0.0434103
17	0xbd3f0abf	-0.046641108
18	0x3b8eea71	0.0043614437
19	0x3e7e5b7e	0.24839589
20	0xbca423de	-0.020036634
21	0x3de62f54	0.11239496
22	0x3dac2ed5	0.0840737
23	0xbdb5f9c3	-0.08885529
24	0xbb546fab	-0.0032415192
25	0x3d8cb9ff	0.068714134
26	0xbe4eefeb	-0.20208709
27	0x3ddeb828	0.10874969
28	0xbe055830	-0.13021922
29	0x3e1d5f96	0.15368494
30	0x3cdb3de3	0.026762908
31	0xbe12ed81	-0.14348413
32	0x3d7a01cb	0.061036866
33	0x3d2bf914	0.041985586
34	0x3df2db8f	0.11858284
35	0x3e83b153	0.25721225
36	0x3d383a4b	0.044977468
37	0x3d1db85b	0.038505893
38	0xbe2d8d75	-0.16948493
39	0x3de09af8	0.10967058
40	0x3c2f4e85	0.010699873
41	0x3d83bd87	0.06432634
42	0x3dda811a	0.106691554
43	0x3e20ca55	0.15702184
44	0xbccf280b	-0.025287649
45	0xbd30e625	-0.043188233
46	0x3de9153c	0.11381003
47	0x3d112965	0.035439868
48	0x3cf1c1a2	0.029511277
49	0xbd518a4d	-0.051157285
50	0x3d93d718	0.0721876
51	0xbd3be34d	-0.045871068
52	0xbca633d7	-0.020288391
53	0xbe29b476	-0.16572747
54	0xbca6ab87	-0.020345462
55	0x3e0e5939	0.13901223
56	0x3e12eaac	0.14347333
57	0xbd87225a	-0.06598349
58	0xbd22427e	-0.039614193
59	0x3dd9cc5a	0.1063468
60	0xbda12710	-0.07868779
61	0x3d7d0847	0.061775472
62	0xbc944f71	-0.018104287
63	0xbd58a639	-0.052892897
64	0xbc24a28d	-0.010048521
65	0xbc7b8d4b	-0.015353511
66	0xbd0d9634	-0.034567073
67	0xbd81307c	-0.06308076
68	0x3d269940	0.040673494
69	0xbdf72b8c	-0.12068853
70	0xbd091597	-0.033467855
71	0xbdade8b3	-0.084916495
72	0x3d995281	0.074864395
73	0x3d21a13f	0.039460417
74	0xbd40351f	-0.04692566
75	0xbd9a57f3	-0.07536306
76	0x3dcb89eb	0.09938415
77	0xbcd38f5c	-0.025825195
78	0xbd11c8ea	-0.035591997
79	0xbdbbf653	-0.09177842
80	0xbbc84926	-0.0061122356
81	0x3bf6bb17	0.007529627
82	0x3d36ed1e	0.044659726
83	0xbe060ce3	-0.13090853
84	0xbdb1f24d	-0.08688793
85	0x3e3da70c	0.18520755
86	0xbd4e8c5e	-0.050426833
87	0x3db93c5a	0.09044714
88	0x3e03f43f	0.12886141
89	0x3dfabdb9	0.12243218
90	0x3d497750	0.04918605
91	0xbc9d64db	-0.01921313
92	0x3dc7668c	0.09736356
93	0xbc2c00df	-0.010498255
94	0xbd101ff9	-0.03518674
95	0xbe0d0751	-0.13772322
96	0xbdba7e38	-0.091061056
97	0xbd1f656d	-0.038915087
98	0xbccf9eae	-0.025344219
99	0xbd8550c2	-0.06509544
100	0xbc95d2f4	-0.018289067
101	0x3d3d32bd	0.046190966
102	0xbcb3914a	-0.021919865
103	0x3dd9e562	0.106394544
104	0xbda12c63	-0.07869794
105	0xbc3f47d5	-0.011674841
106	0x3e68daf6	0.22739777
107	0xbd968a8f	-0.07350647
108	0x3dda35c3	0.106547855
109	0xbc2cb076	-0.010540118
110	0xbd481473	-0.048847627
111	0x3da24338	0.07922977
112	0xbe137452	-0.14399841
113	0xbe0e81ce	-0.13916704
114	0x3d41fe2a	0.04736153
115	0xbe848de2	-0.25889498
116	0xbb9853e7	-0.004648674
117	0x3d0c10cb	0.034195703
118	0x3dbc9630	0.092083335
119	0xbc52c3ae	-0.0128640365
120	0xbe572317	-0.2100948
121	0x3d463c45	0.04839732
122	0x3b2c1e41	0.002626315
123	0xbe04ce01	-0.12969209
124	0xbdef86ef	-0.116956584
125	0x3d3ca19b	0.046052556
126	0xbc570f23	-0.0131261675
127	0x3db82dbd	0.08993099
128	0x3d03f527	0.032216217
129	0x3d6bc120	0.057557225
130	0x3da38503	0.07984354
131	0x3c96c5d9	0.018404888
132	0xbdb82785	-0.08991913
133	0x3d664766	0.056220435
134	0xbce976cc	-0.02849903
135	0xbd4a5891	-0.04940087
136	0xbd6c560c	-0.05769925
137	0x3d536fae	0.051620178
138	0xbd598fa5	-0.053115506
139	0x3d8c0223	0.06836345
140	0xbd0e9fdd	-0.034820426
141	0xbc542870	-0.012949094
142	0xbd322755	-0.04349454
143	0x3a184361	0.000580838
144	0xbdaa3369	-0.08310587
145	0xbda45ecc	-0.080258936
146	0xbc3a36ac	-0.011365574
147	0x3d6c5ef7	0.057707753
148	0x3cb3f7f7	0.021968825
149	0x3daf576b	0.085615955
150	0x3d1d03c4	0.03833367
151	0x3d32ff4a	0.043700494
152	0x3d922adb	0.0713708
153	0xbcbeed7f	-0.023306606
154	0xbd04afb7	-0.032394137
155	0x3d23424b	0.039858144
156	0x3de6b8e9	0.112657376
157	0xbd5015a1	-0.050801877
158	0x3d1d0c39	0.038341735
159	0x3c681f01	0.014167548
160	0x3cafbb3a	0.021451581
161	0x3ca2db39	0.019879924
162	0x3d04c89d	0.032417882
163	0xbd8f9961	-0.070116766
164	0x3cc7b316	0.024377387
165	0x3e4a5434	0.19758683
166	0x3de121e7	0.109927945
167	0x3e475220	0.19464922
168	0x3cd26e1e	0.025687274
169	0xbd3fa75c	-0.046790466
170	0x3cb603fa	0.022218693
171	0x3cba4993	0.022740161
172	0x3c0e6a4a	0.0086923335
173	0xbba7d54f	-0.005121864
174	0x3cbe77e0	0.02325052
175	0xbd06b730	-0.032889545
176	0x3ce5d743	0.028056746
177	0xbe17ce42	-0.14824775
178	0xbd944af9	-0.072408624
179	0xbe4066fb	-0.18789284
180	0xbd0842d0	-0.033266842
181	0x3d9450d8	0.07241982
182	0xbe1e9c5f	-0.15489338
183	0x3e0bff2d	0.1367156
184	0xbdd43eaf	-0.103635184
185	0xbdcc4698	-0.09974402
186	0x3e4b95ae	0.19881317
187	0xbc23b32d	-0.009991449
188	0xbd4eb47d	-0.050465096
189	0xbe6a849a	-0.22902146
190	0xbe32dbea	-0.17466703
191	0x3d6658f5	0.05623718
192	0xbe263506	-0.16231164
193	0xbdba50d2	-0.090974465
194	0xbd1152db	-0.035479408
195	0xbdeb4485	-0.114876784
196	0xbd609214	-0.05482681
197	0x3dcba148	0.09942871
198	0xbcebd812	-0.028789554
199	0x3d07d6e3	0.033163916
200	0x3b73856e	0.0037158388
201	0x3d4d68d5	0.050148804
202	0x3d29df8a	0.04147295
203	0xbddd01e9	-0.1079138
204	0xbda9ce78	-0.08291334
205	0xbd919f83	-0.071105026
206	0x3d3b36ef	0.045706686
207	0xbc937f11	-0.018004926
208	0xbd862846	-0.0655065
209	0x3c9f474b	0.019443175
210	0xbdd57ba8	-0.10423976
211	0x3d6a1eac	0.057158157
212	0x3d3dec74	0.046368077
213	0x3e0f2d36	0.1398209
214	0xbd3364b8	-0.043797225
215	0x3cbfd04b	0.023414752
216	0xbdc7b43c	-0.09751174
217	0x3da28ab5	0.079366125
218	0x3c620066	0.01379404
219	0x3d805b41	0.06267405
220	0x3c4dfd6c	0.0125726275
221	0x3c1675f6	0.0091833975
222	0x3cc0b750	0.02352491
223	0xbdcd5b9d	-0.100272395
224	0x3d97b7a8	0.074080765
225	0x3b8251ad	0.0039770217
226	0xbd4810da	-0.048844196
227	0xbe00a408	-0.12562573
228	0x3e0abf8a	0.13549629
229	0xbd4e961e	-0.05043613
230	0xbdd29b21	-0.10283495
231	0xbbfaa060	-0.0076485127
232	0x3c0fccd7	0.008776865
233	0xbdd62e27	-0.104580216
234	0x3d3a687c	0.0455098
235	0x3dd52ff0	0.10409534
236	0xbd4b5b94	-0.049647883
237	0x3e14d59b	0.14534609
238	0x3dd0b53a	0.10190816
239	0x3da1afb5	0.078948416
240	0xbc103075	-0.008800616
241	0x3df40619	0.119152255
242	0x3c2579bb	0.010099824
243	0xbce8f70b	-0.028438112
244	0xbd4a987b	-0.049461823
245	0xbd0020fd	-0.03128146
246	0xbda99fd8	-0.08282441
247	0xbe31c12f	-0.1735885
248	0xbc418d33	-0.01181345
249	0x3d489050	0.048965752
250	0x3cb876ca	0.02251758
251	0x3d523f1e	0.051329724
252	0x3bb9032f	0.0056461315
253	0x3dfae115	0.12249962
254	0xbd150622	-0.0363828
255	0x3ddc43a7	0.10755091

bias f4 [16]
0	0xbd0e9944	-0.034814134
1	0xbd914ab9	-0.0709433
2	0xbd67693a	-0.056496836
3	0xbd29710e	-0.041367583
4	0xbc881f3f	-0.016616462
5	0x3c47a83c	0.012186106
6	0xbda13cdf	-0.07872938
7	0xbd98c273	-0.07458963
8	0xbc9be1ef	-0.019028632
9	0xbde7dfa4	-0.11321953
10	0xbd8e6a36	-0.06953852
11	0x3d8c27e8	0.06843549
12	0xbd35b98d	-0.04436641
13	0x3c9e1d3c	0.01930105
14	0xbdcf528d	-0.10123167
15	0xbdb6c594	-0.08924404

weight f4 [2, 16]
0	0x3e18bca7	0.14915715
1	0xbe6514f1	-0.2237127
2	0x3d571736	0.05251237
3	0xbda06760	-0.07832217
4	0xbda0226e	-0.07819067
5	0x3cd545b4	0.026034214
6	0xbea77a5c	-0.3271054
7	0x3eb22157	0.3479106
8	0x3eab93cb	0.33511195
9	0x3eac498f	0.3364987
10	0x3de177d0	0.110091805
11	0x3ea3d56d	0.31998768
12	0xbe8bbf2e	-0.27294296
13	0x3e2cb145	0.16864498
14	0xbdc1de96	-0.09466283
15	0x3e93afc5	0.2884504
16	0xbe424080	-0.18969917
17	0x3e719d44	0.23595148
18	0x3e772505	0.24135216
19	0xbe53083c	-0.2060861
20	0x3e94f433	0.2909256
21	0xbe8b8d34	-0.27256167
22	0xbdc853fd	-0.097816445
23	0xbc088426	-0.008332288
24	0xbe4816d2	-0.19539955
25	0xbd914b36	-0.070944235
26	0x3e981caf	0.29709384
27	0x3d6ccde8	0.057813555
28	0x3e61a60e	0.22036001
29	0xbdf97398	-0.12180251
30	0xbe05f601	-0.13082124
31	0xbd6eaca4	-0.05827011

bias f4 [2]
0	0x3e2bf804	0.16793829
1	0x3c8e1e93	0.017348563
