mlpcnnsemi/model/cnn/82oneinput_batch1_Epoch=69_lr=0.0001.pth (torch, 25249 bytes, 29 tensors)

weight f4 [4, 1, 1]
000000 54 16 cf 3e 6f 52 e5 3e 27 97 dd 3d ee 17 ed bd
       0.40446723 0.44789454 0.10819846 -0.1157683

bias f4 [4]
000000 87 4d f2 bd d8 39 97 bd 8e 51 73 bf 35 11 32 bf
       -0.118311934 -0.0738408 -0.9504632 -0.69557506

weight f4 [4]
000000 39 73 7c 3f 83 66 81 3f d7 26 7b 3f b3 60 85 3f
       0.98613316 1.0109409 0.9810614 1.0420135

bias f4 [4]
000000 85 37 17 3d c3 b3 d7 bd 91 12 04 bd e3 c1 4c 3d
       0.036918182 -0.10532334 -0.03224427 0.049989592

running_mean f4 [4]
000000 9d 4b 74 3c 8f 0a 97 3d a6 3c 6a bf df d0 3b bf
       0.014910606 0.07375061 -0.9149879 -0.73365587

running_var f4 [4]
000000 bd 96 cd 3d 35 9c fc 3d d8 39 eb 3b d6 f6 06 3c
       0.10038517 0.123344816 0.0071785264 0.008237561

weight f4 [16, 4, 1]
000000 82 07 f6 3c 3a 16 b0 3e 6a 61 9a be 62 23 df 3d
       0.030032877 0.34391958 -0.30152446 0.108954206
000010 c0 bf 76 be 94 90 a8 bc 96 59 fd 3d 1d c5 6b 3d
       -0.24096584 -0.020576753 0.12370603 0.05756103
000020 e1 a7 fb 3e 32 e5 19 be 9c 0a 00 bf a8 b7 ed be
       0.4915152 -0.15028837 -0.5001619 -0.4642918
000030 eb ee 78 be 19 bf 3f 3e ef 70 bd bc 16 a4 eb be
       -0.2430989 0.18725242 -0.02312514 -0.46023625
000040 23 85 5f be 65 51 8c be 8e 64 81 3e d2 36 4e 3e
       -0.21828131 -0.2740585 0.2527203 0.201381
000050 42 f4 18 be 98 0d ad 3e 4f 56 02 3f 0b d5 44 3e
       -0.14936927 0.33799434 0.50912946 0.19221894
000060 c3 29 c5 3e e1 5a 0d be 32 3b e7 be 58 7a a4 be
       0.38508424 -0.13804199 -0.4516235 -0.3212459
000070 62 64 af be 7b d8 92 be 7f b2 06 bf 1a 5c aa 3e
       -0.34256274 -0.28680786 -0.52616113 0.33273393
000080 67 ad 03 bf 72 6f a4 3e aa 3f d8 3e af b5 80 3e
       -0.51436466 0.32116276 0.42236072 0.25138614
000090 c4 32 81 be 9c 5b d9 bd 57 06 97 3e 2a 36 7d 3e
       -0.25234044 -0.10613176 0.29497024 0.24727693
0000a0 45 0e c0 3e 92 f2 8a 3e fb 3e a4 3e 78 8c 5b 3e
       0.37510887 0.2713819 0.320793 0.21440303
0000b0 0c 00 1b be b1 72 d4 3d df a1 91 be 3d 11 a4 3e
       -0.15136737 0.10373438 -0.2844381 0.32044402
0000c0 31 c4 28 be 10 0a 07 3f 77 9b 15 3f 9a 07 06 3d
       -0.16481091 0.5274973 0.58440346 0.032722093
0000d0 6b 32 cc be f0 98 b9 3d ef d9 f5 bd 55 d3 0e 3e
       -0.39882216 0.09062374 -0.12004458 0.13947804
0000e0 d9 e4 c2 be 7e 8b 1f 3e 9a 91 86 be b6 31 cc be
       -0.38065222 0.15580556 -0.2628296 -0.39881676
0000f0 cc 4a 08 3e f4 28 6a bd 63 9b a4 3e 46 c9 94 3e
       0.13309783 -0.057167962 0.321498 0.2905981

bias f4 [16]
000000 8d d7 37 3d fa 67 47 3e 12 e3 ec 3e a3 04 2f 3d
       0.0448833 0.19473258 0.4626699 0.04272903
000010 c4 3e 1e bd 3b 15 d2 3e 6d 70 e9 3e ba 7b 0d be
       -0.038634077 0.41031823 0.45593587 -0.13816729
000020 11 72 5a be 0d 33 29 3e 12 5f 02 3f 7a bc 06 bf
       -0.21332575 0.1652338 0.50926316 -0.5263134
000030 7b 0c 85 3e c0 7f a2 3e 45 ee b9 bc a3 e5 b3 be
       0.25986084 0.3173809 -0.022696624 -0.35136136

weight f4 [16]
000000 66 17 76 3f 04 86 87 3f e2 36 78 3f 48 52 81 3f
       0.96129453 1.0587773 0.96958745 1.0103235
000010 01 bb 80 3f d8 09 78 3f ad 79 88 3f c6 bc 7f 3f
       1.0057069 0.9689002 1.0662133 0.9989742
000020 6e 14 7e 3f 7f aa 70 3f 91 37 7a 3f 7d 64 82 3f
       0.99249923 0.94010156 0.9774104 1.0186917
000030 0d 30 7e 3f e4 dc 88 3f d4 e9 8a 3f 4b 88 7e 3f
       0.9929207 1.069241 1.0852609 0.99426717

bias f4 [16]
000000 5a 43 2c bd 00 c4 79 3d d3 81 b8 3c 7d 82 5b bd
       -0.04205642 0.060977936 0.022522843 -0.05359124
000010 9f 2a ca bb db e4 9f bc 57 a9 b4 3d 2b d9 8d 3d
       -0.0061696316 -0.019518306 0.088213615 0.06926187
000020 e0 ca 5c 3d ee 7b e6 bd 8e 91 f0 bc a3 0a cc 3d
       0.053904414 -0.112541065 -0.02936628 0.09962966
000030 aa 26 00 3e ae 89 81 3d 55 e5 d3 3d ce 39 88 3b
       0.12514749 0.063250884 0.10346476 0.0041572815

running_mean f4 [16]
000000 6e 88 c6 3d 88 33 31 3e ec 4f 8f 3e 73 94 09 be
       0.09693991 0.17304814 0.27990663 -0.13435535
000010 f4 f9 1a bd 3c ad 26 3f 30 a8 9c 3e 73 1d ad be
       -0.03783603 0.65108085 0.30597067 -0.3381153
000020 50 e3 aa bd 97 00 67 3e e6 b9 56 3f 35 39 03 bf
       -0.08344138 0.22558819 0.8387741 -0.51259166
000030 28 37 03 3f 9b e8 77 3e 7b 4d 94 be 6c 86 18 be
       0.51256037 0.24209826 -0.28965363 -0.14895028

running_var f4 [16]
000000 af 19 87 3b 74 be 8f 3c 61 2c 8f 3c 8e 82 d8 3b
       0.004122935 0.01754687 0.017477216 0.00660736
000010 fe 05 6d 3d c0 68 b5 3e 65 e8 cc 3c e6 21 8f 3f
       0.057867043 0.3543148 0.025013158 1.118222
000020 ae b2 06 3d 94 cd 20 3c 3e e1 33 3f 6c ab e0 3d
       0.032885246 0.009814639 0.7026557 0.10970196
000030 27 3d 30 3f fb cc 21 3e 58 33 22 3e 00 2c d9 3d
       0.6884331 0.1580085 0.15839899 0.106040955

weight f4 [8, 16, 2]
000000 03 b5 8d bd 47 ca 0b bd 6b d2 86 be 58 bc 47 bc
       -0.06919291 -0.034128454 -0.2633241 -0.012190901
000010 5a 42 a0 3d 36 48 1e 3c 8e ad 1c 3e 05 6d 81 3d
       0.078251556 0.009660771 0.15300581 0.06319622
000020 05 bd 52 be 1a 97 d2 3d 0f 32 c0 3d 68 96 1b 3e
       -0.20579918 0.102827266 0.09384548 0.15194094
000030 db a4 01 bd 7a d4 2a be 86 47 a5 bc a4 f2 ee 3d
       -0.03165136 -0.16682616 -0.020175707 0.11667374
000040 ba 01 e5 bd 99 01 03 3d 4f ac 65 bd aa d4 c2 bd
       -0.1118197 0.031983946 -0.05607253 -0.09513219
000050 8c 3f ac bb db 28 88 bc ed 2c 85 3d 73 79 0a 3c
       -0.005256599 -0.016621044 0.065027095 0.008451807
000060 90 28 8f bc 7e 74 40 3e ad d8 55 be 9d 7d 7f bc
       -0.017475396 0.18794438 -0.20883437 -0.015593913
000070 6a fc 39 be 96 e9 e4 bd 20 11 7a 3c 41 43 90 3d
       -0.18162695 -0.111773655 0.015262872 0.07044078
000080 07 3a 94 3d 79 e2 39 3d 83 11 aa bd bc 64 1a bd
       0.0723763 0.045381997 -0.08304121 -0.037693724
000090 3d 22 37 3d 75 52 4f bd e1 b9 3c 3e 66 b9 42 3e
       0.044710387 -0.050615747 0.18430282 0.19016036
0000a0 fe 46 91 bb 1d 29 3d 3e 67 c4 23 3e ec 99 fc 3d
       -0.0044335118 0.18472715 0.1599289 0.12334046
0000b0 96 6a 96 bd 41 ac e8 bd 58 1b 1f 3e cc c2 11 3b
       -0.073445484 -0.1136098 0.15537775 0.0022241352
0000c0 d0 e5 5d bc 69 01 96 3d c9 f6 32 be 65 72 a7 3c
       -0.013543561 0.07324488 -0.17476954 0.02044029
0000d0 bc 49 11 be ae c0 1d 3e 4f de fb 3d bc 11 a7 bd
       -0.14188284 0.15405533 0.122982614 -0.081576794
0000e0 a5 32 1c be 97 ff dc 3c 7f 54 aa 3d c2 12 92 3d
       -0.15253694 0.026977343 0.083168976 0.07132484
0000f0 08 d6 d0 3d cc d7 7b 3e 22 ea ad bc 72 f2 de 3d
       0.10197073 0.24594039 -0.021229807 0.108860865
000100 ec ad f9 bd ac d4 fd bc 87 26 91 be 2e 25 ce 39
       -0.12191376 -0.030985199 -0.28349707 0.00039319083
000110 19 81 ab 3d 6c 9b 07 be 85 3a 9d bd 51 4a 28 3d
       0.08374233 -0.13242882 -0.07677177 0.0410865
000120 f5 d4 c7 bd 0e 06 00 bd b2 bf da 3d d7 73 c5 3d
       -0.09757415 -0.031255774 0.10681094 0.09641235
000130 46 c8 3f 3c ae af 9d 3d f8 35 93 be f6 3c 22 3d
       0.011705464 0.07699524 -0.28752112 0.039608918
000140 c0 3f 92 3d 1b bd 32 3e 14 9e c6 3d 54 dc d8 3d
       0.071410656 0.1745495 0.0969812 0.10588899
000150 91 fd 96 bd 1d d9 89 3d 9e 0b 36 be 73 6f c3 3d
       -0.07372583 0.06730864 -0.17777869 0.095427416
000160 c9 6a 54 3d 37 e3 f6 bd 21 4a f7 bd f4 fb ed 3d
       0.05185965 -0.120550565 -0.12074686 0.11620322
000170 5c 3c 5a be d9 75 08 3e 2c 55 f9 bd 08 51 f0 bc
       -0.21312088 0.13326205 -0.12174448 -0.029335514
000180 58 5d 18 be 84 f2 06 3d d6 6f 02 be c5 20 ef bd
       -0.14879358 0.032946125 -0.12737975 -0.11676172
000190 48 e5 31 3d 83 80 de 3d 6c c9 df 3d 1f 25 12 3e
       0.04343155 0.108643554 0.1092709 0.14271973
0001a0 55 aa 5b 3e f5 1e b2 bd 54 3a df 3d 0b b1 c1 3d
       0.21451695 -0.08697311 0.10899797 0.094575964
0001b0 09 be 28 3c 59 73 85 3e e9 e7 bd 3d 0d f6 fb 3c
       0.010299214 0.26064566 0.09272749 0.030756975
0001c0 2f cf c7 bc 90 e9 0d 3e 7b 0b 9f bd 8c 97 87 bd
       -0.024390785 0.13858628 -0.077658616 -0.06620702
0001d0 02 91 25 3c 01 99 75 3c 68 38 b0 3d 3d d0 df bd
       0.010105373 0.014990092 0.08604509 -0.1092839
0001e0 c1 8d 04 3d e0 af d7 bc ce 3d c0 3d ba c2 39 bc
       0.03236175 -0.02632898 0.09386788 -0.01133793
0001f0 21 80 a1 bd 3a 52 0b 3e bc 34 2e bc 43 44 10 3e
       -0.07885767 0.13605586 -0.01063269 0.1408854
000200 b3 19 c5 bc ef 9e a8 bd fd 3c 19 bd d0 b8 b4 3d
       -0.024060106 -0.08233439 -0.03741168 0.08824313
000210 9a e0 d8 bc bb 99 37 bb 03 c2 6a bd 09 e5 2e bd
       -0.026474286 -0.0028015214 -0.05731393 -0.042698894
000220 39 ce 55 3d 66 80 e0 bd f4 62 fd bc 18 bf 4e 3b
       0.052198622 -0.1096199 -0.030930974 0.0031547006
000230 05 a7 76 3e 35 11 b0 3d ff d5 b4 3c b4 f3 0c 3d
       0.2408715 0.08597032 0.022074698 0.0344121
000240 25 c1 cc 3c 30 18 a0 3d 3d 85 ae bd ae c0 1f 3e
       0.024994442 0.078171134 -0.08521507 0.15600845
000250 b9 4d 1a 3e 6c 9f e0 bd 4c 30 c7 bd a6 c7 06 3e
       0.15068711 -0.10967907 -0.09726009 0.13162097
000260 eb 13 31 3e de f5 d1 bd 56 0f 4e be 91 a3 19 be
       0.17292754 -0.102519736 -0.20123038 -0.15003802
000270 1b ab 1d 3e e2 83 68 be cd d2 f3 bd d1 9d 4c bd
       0.15397303 -0.2270656 -0.119054414 -0.049955193
000280 a6 4f 19 be fa 0a c0 bd 64 25 a2 bd 17 df 19 bd
       -0.1497179 -0.093770936 -0.07917288 -0.03756627
000290 49 26 e1 bd a4 42 1d 3d 6f ed 91 bd 6a 8c 0c be
       -0.109936304 0.03839363 -0.07125365 -0.13725439
0002a0 97 0b 91 bd 61 d2 f5 3c fe ff 7c 3d c9 76 19 bd
       -0.07082289 0.030007543 0.06176757 -0.037466798
0002b0 ac d4 d0 3d b3 36 0c 3e c5 31 ea 3c f6 7a c9 3d
       0.10196814 0.13692741 0.028588185 0.09837906
0002c0 44 f2 0d 3b 53 86 15 be 18 77 63 be 0a 10 5a 3d
       0.0021659294 -0.14602022 -0.222134 0.053237952
0002d0 bd cb df bd 47 06 46 3d 0e d6 1f be 71 70 3a be
       -0.10927532 0.04834583 -0.15608999 -0.18206955
0002e0 6b af 1a 3e 8e 78 65 3a d8 85 7b 3d 95 a6 d1 ba
       0.15105979 0.0008753621 0.06140694 -0.001599508
0002f0 af 15 06 bd e8 d9 6a bd 3e 66 23 be c0 60 e8 bd
       -0.032735523 -0.057336718 -0.15956971 -0.113465786
000300 df f3 54 bc 4d 63 b4 3d 5c 6d 1b be c1 14 fc bd
       -0.0129975965 0.088080026 -0.15178436 -0.12308646
000310 54 82 8d bb 49 89 eb 3c 71 72 57 bd 5b e2 85 be
       -0.004318515 0.028751986 -0.052599374 -0.26149258
000320 87 8e 3c bd 6e 3f 93 bd 63 ac ed bc c8 3f ca 3d
       -0.046034362 -0.07189833 -0.029012864 0.098754466
000330 ee e3 13 bd 3d 0a fa bb d5 e0 bc bc 79 ee 51 bd
       -0.036106043 -0.007630615 -0.023056427 -0.051252816
000340 0c 5d 4e 3e 2a f7 8d bd fd 07 ae bd 43 e3 bb bc
       0.20152682 -0.069319084 -0.084976174 -0.022935515
000350 b1 03 03 be b2 f3 1a 3e c4 a7 9d 3d bf d8 e9 bc
       -0.12794377 0.15132025 0.076980144 -0.028545735
000360 53 ab 83 bd ee 45 29 3e 5e 49 63 bd 2e 3b 2e bd
       -0.06429162 0.16530582 -0.05548989 -0.042536907
000370 c4 33 82 3e 5b c7 ba 3d 47 f8 55 bb fe 62 6a bd
       0.2543012 0.09120055 -0.0032649206 -0.057223313
000380 97 f0 13 3e 9d 94 1d 3e eb 36 8a 3d 06 12 eb 3b
       0.14447246 0.15388723 0.06748756 0.0071737794
000390 4a 95 29 3d 3e 87 57 be 1f 9a 82 bd 98 06 26 be
       0.04140214 -0.21047685 -0.063770525 -0.16213453
0003a0 28 99 1a be 6d 90 0a 3e b2 30 81 3c 27 d2 13 3d
       -0.15097487 0.13531657 0.01577029 0.03608909
0003b0 1a 8d 13 3e e9 50 c1 3d 0f 0e 30 be 4d 7f 73 3c
       0.14409295 0.094392605 -0.17192863 0.014861894
0003c0 1e 05 a0 3d 2c d1 65 3d e7 f0 13 bd 11 ec 01 be
       0.07813476 0.056107685 -0.036118414 -0.12687708
0003d0 3b f4 6b bd 1a f6 e2 bd 40 05 ad 3d 2b 37 68 3b
       -0.057605963 -0.110820964 0.08448267 0.0035433273
0003e0 d8 fa d0 bd a1 56 b3 bd 60 68 ba bd 27 17 df bd
       -0.10204095 -0.087567575 -0.09101939 -0.10893088
0003f0 f3 b7 8a 3e 42 5d 8b bd 2e 9a 34 be ac 71 b5 bd
       0.27093467 -0.06804897 -0.1763694 -0.08859572

bias f4 [8]
000000 31 39 f4 3d 10 12 09 be 40 b6 de bd 6d d6 1a 3e
       0.11924971 -0.13385797 -0.10874605 0.1512086
000010 5b 86 7e 3c 18 d5 24 3d a5 39 b9 3d 9d 19 ce 3c
       0.0155349625 0.040242285 0.09044198 0.025158698

weight f4 [8]
000000 e8 d2 80 3f 6e e7 76 3f 5e a5 81 3f 09 a2 76 3f
       1.0064363 0.96446884 1.0128591 0.96340996
000010 74 07 79 3f 45 f3 8b 3f cb 9e 7f 3f 39 58 8e 3f
       0.97277 1.0933615 0.99851674 1.1120673

bias f4 [8]
000000 18 6b 26 be 8b 7b 14 3d ea 48 eb bc cb ec 02 bd
       -0.1625179 0.036250632 -0.028721292 -0.031964105
000010 78 a8 20 be ae 79 6d 3d 1f a4 f4 bc 5f 25 aa 3b
       -0.15689266 0.05797737 -0.029863415 0.0051924433

running_mean f4 [8]
000000 58 1b a7 bc 3a 8f 69 3e fa 68 9a be 33 4e dd 3e
       -0.02039878 0.22808543 -0.30158216 0.43223724
000010 aa 90 45 bd 48 3a 8f be be 08 e8 bc d2 bc 06 be
       -0.048233666 -0.27974153 -0.028324481 -0.13157967

running_var f4 [8]
000000 81 ed 4a 3e 68 0f 44 3e b5 ba 24 3d 64 8b 4c 3e
       0.19817163 0.19146502 0.04021712 0.19975048
000010 bb 57 39 3d 75 f6 40 3e e9 e2 10 3e 3b b3 54 3d
       0.045249682 0.18844016 0.1414906 0.05192874

weight f4 [4, 8, 2]
000000 5e 71 94 3b fb 79 3c 3e 50 98 30 3e 2b 5c 7d bd
       0.004530116 0.18405907 0.17245603 -0.061855476
000010 46 aa 6b 3c ac 24 ce 3d 0c 9a 13 be 7a ef 00 be
       0.014383858 0.10065588 -0.14414233 -0.12591353
000020 57 c1 a2 be 8f 47 a9 bc e7 ce 85 bd b9 3b 9d 3e
       -0.31788132 -0.020664005 -0.06533604 0.30709627
000030 54 44 10 be 73 6d f8 3d 4f 3b f2 3d 6f 91 13 3e
       -0.14088565 0.12130251 0.118277185 0.14410947
000040 fa f3 18 3e f4 7d fe bd a9 e2 0d 3e 29 fb 15 3d
       0.1493682 -0.124263674 0.13855995 0.036616478
000050 85 10 34 be d1 44 47 3e f9 9b 10 3c 1a 9f f2 3c
       -0.17584427 0.19459845 0.008826249 0.029616881
000060 c3 4f 77 be 8f a1 24 3e b0 8b fe 3d 4a 81 fb bd
       -0.2415152 0.16077255 0.12428987 -0.12280519
000070 f7 1d f3 3d 15 e1 4f be 36 46 4d be 44 7c d5 bd
       0.1187095 -0.20300706 -0.20046315 -0.104240924
000080 07 11 84 3e a7 9d 2f be 53 12 5c 3e eb f3 1b 3e
       0.2579424 -0.17149983 0.21491365 0.15229766
000090 6b 85 1b 3d d1 d6 0b 3e 85 2a 66 3e 7d 03 5e be
       0.037969034 0.13656165 0.22477157 -0.21681018
0000a0 b8 f0 67 bd 13 9d a0 bd dd 8a 82 bd 5c fe c6 3c
       -0.05662605 -0.078424595 -0.06374142 0.02429121
0000b0 04 25 b1 bd df 79 c3 3d 9e ff 3a bd 0a f4 8e 3e
       -0.08649638 0.095447294 -0.04565393 0.27920562
0000c0 a5 1a 2f bd c9 b1 30 be 29 0b 40 3e 2c 68 1b bd
       -0.04275002 -0.1725532 0.18754257 -0.037941143
0000d0 03 40 21 3d 94 7b 3a 3d 47 b4 30 bc 94 1b 05 3e
       0.039367687 0.04552801 -0.010785169 0.12998801
0000e0 63 5c 6f bd 75 cc 18 3d e8 15 ef 3c 9c 38 ef 3e
       -0.058437716 0.03730436 0.02918525 0.46722877
0000f0 84 6c d2 bd e1 ae 48 be 19 42 9c bc 38 41 0f be
       -0.10274604 -0.19597961 -0.019074487 -0.13989723

bias f4 [4]
000000 5a be 24 be e8 38 8b 3e 30 e4 95 bc 8e e2 05 bd
       -0.16088238 0.27191854 -0.018297285 -0.032686763

weight f4 [4]
000000 8b 21 6b 3f c4 46 81 3f 5f 7d 84 3f 4c bd 8c 3f
       0.9184806 1.0099721 1.035076 1.0995269

bias f4 [4]
000000 27 8e 2c be e6 0b 17 be c8 ff 5b bd b4 f3 17 bc
       -0.16851102 -0.14750633 -0.05371073 -0.009274412

running_mean f4 [4]
000000 08 1c e3 bc 4e 3d 3b 3e 2d 2d 6d 3e ad 90 55 b9
       -0.027723327 0.18285105 0.23161764 -0.00020367159

running_var f4 [4]
000000 00 8d 62 3d 52 d7 ef 3d 49 56 90 3e ab a3 88 3d
       0.05531025 0.11710991 0.2819083 0.06671842

weight f4 [1, 4, 2]
000000 36 18 76 3e 98 b8 1a be 0d e9 08 bd 28 84 87 3e
       0.24032673 -0.1510948 -0.03342538 0.26468015
000010 09 4c 83 bd ec 23 6c be a8 a9 de 3d 83 c1 12 be
       -0.06410987 -0.23060578 0.10872203 -0.14331631

weight f4 [16, 80]
000000 dd 71 09 3d 90 da 8e 3d 8e e6 4d 3c ca 3d 82 3d
       0.033555854 0.06975281 0.012567176 0.063594416
000010 9f 30 9b 3d 89 70 3d be f0 a7 00 3d 77 61 85 be
       0.07577633 -0.1849996 0.031410158 -0.26050922
000020 2b f0 6a bc 00 de d5 bd dc 35 a9 bd bc 26 b6 3d
       -0.014339487 -0.10442734 -0.08262226 0.08894107
000030 7d e3 59 bd f9 03 b6 bc 9e 45 2d 3e e3 3e 2a 3d
       -0.053195465 -0.022218691 0.16921088 0.04156388
000040 70 fa 55 3d 8d 01 4b bd 94 cb 2f 3d 8f b6 82 3e
       0.05224079 -0.049562026 0.042918757 0.25529906
000050 80 f0 82 bc 39 af f7 3d 0d 0e 00 3e 6e ae 01 be
       -0.01598382 0.12093968 0.1250536 -0.12664196
000060 10 84 1b 3d ae c5 9e 3d 5e bc 68 be 02 79 fc 3d
       0.03796774 0.07752548 -0.22728106 0.12327768
000070 d7 74 e9 bd bf a3 41 3e 20 d1 4f 3d 95 81 09 be
       -0.113992386 0.1891012 0.050736547 -0.13428338
000080 ef f4 a5 3d bc bc 1e 3d ee f9 ef 3d 70 a4 82 3e
       0.08103358 0.03875421 0.11717592 0.2551608
000090 1f e6 51 3d a2 e7 87 3c d1 fe 3e be 71 b3 dd 3d
       0.05124485 0.016589943 -0.18651892 0.10825241
0000a0 15 1f c5 3c 3a 06 a9 3d 48 2b a2 3d 98 f9 2d 3e
       0.024062673 0.08253141 0.079184115 0.16989744
0000b0 ef f2 f1 3b b0 cb 32 bd 9d 1e f7 3d a3 3b 2c 3c
       0.0073836963 -0.043651283 0.12066386 0.010512265
0000c0 00 72 e8 bb 14 41 ef bc 40 56 ea 3d f3 79 54 bd
       -0.007093668 -0.029205836 0.11442232 -0.051874112
0000d0 57 cd c6 3b 72 38 3c be c8 6a 2a bd 70 45 18 3e
       0.006066959 -0.18380907 -0.04160574 0.14870238
0000e0 5a d2 1a 3e bc 0e 3b bd 3f e3 76 bd 7e 23 e1 3d
       0.15119305 -0.04566835 -0.060275313 0.10993098
0000f0 74 92 b2 bd d3 e6 84 3d 3a 16 22 bd 14 c6 26 bd
       -0.0871934 0.06489339 -0.03957198 -0.040716246
000100 71 1a 13 bd 7e 87 fd bb de 08 6f bd ef f3 79 bd
       -0.03591389 -0.007737099 -0.058358066 -0.06102365
000110 c1 35 3c 3c b3 2a 3f be 93 de 29 bd 34 13 c3 bd
       0.011487425 -0.18668632 -0.04147203 -0.09525147
000120 40 a4 85 3d df f6 aa 3c fc 04 83 bd 02 79 08 be
       0.06525469 0.02086967 -0.06397435 -0.13327411
000130 9e 4d cb 3d 3c ee a7 bc 8a 86 8a bd 16 f3 b5 bd
       0.09926914 -0.020499341 -0.067639425 -0.088842556
000140 40 5b d2 bc 28 4a 2e bc d0 a8 9a 3d 67 85 0e be
       -0.025678277 -0.010637797 0.0755173 -0.13918076
000150 1a 35 d7 bd 7b 92 68 3e 44 2e 77 bc f0 79 d9 3d
       -0.10508175 0.22712128 -0.015086714 0.10618961
000160 5e 1a 21 3e 78 5d 0f 3e 63 7f 47 3d 74 20 0e bd
       0.15732715 0.14000499 0.04870547 -0.03469892
000170 ea 99 c4 3d 2e b9 24 bc 96 fb 29 bd 62 6c 2b be
       0.09599669 -0.010053916 -0.041499697 -0.16740564
000180 10 f2 cc bd 25 bf 14 bd dd c8 82 bd 5b d2 94 bd
       -0.10007107 -0.036315102 -0.06385968 -0.072666846
000190 82 19 b7 bc c9 85 16 3d b4 0b 82 bd 6b ef 13 3e
       -0.02235103 0.03674868 -0.063498884 0.144468
0001a0 2d 23 f6 bd 15 f8 a9 bc 30 19 81 3e 9c 22 b5 bd
       -0.12018428 -0.020748178 0.2521453 -0.08844492
0001b0 65 c3 b8 3d a9 c1 3d bd 29 a8 96 bd 4c 7c 8e 3d
       0.090216435 -0.046327267 -0.07356293 0.069573015
0001c0 12 04 28 be a8 76 0b be ba 52 46 3d ca 78 83 be
       -0.16407803 -0.13619483 0.048418738 -0.25678092
0001d0 49 55 33 bc 24 34 64 3d b2 70 de 3d af 38 38 bc
       -0.010945627 0.055713788 0.10861339 -0.011243983
0001e0 c3 7f 64 be 01 56 f7 3c 7e de f1 3c d1 57 12 be
       -0.22314362 0.030192377 0.029525038 -0.14291312
0001f0 36 ed 18 be 9c 04 3e 3d 05 85 a9 bc 4b a3 ea 3d
       -0.14934239 0.046391115 -0.020693311 0.11456927
000200 31 b6 8d 3d 2e 1c 12 3d 46 86 18 3d 2d 8f c6 3c
       0.06919516 0.035671405 0.037237428 0.024238193
000210 5d 2a ee bd 41 66 98 3d cd 9f fd bb 87 a5 74 bd
       -0.11629174 0.074413784 -0.007739997 -0.05972817
000220 62 2b 86 bd 70 01 fb 3c 42 af 04 bd 88 28 83 3d
       -0.06551243 0.030640334 -0.0323937 0.06404215
000230 f4 48 d5 bc 4b 6c 87 bc 4b 35 b8 bc da 32 3e bc
       -0.026035763 -0.01653113 -0.02248635 -0.011608804
000240 61 dd 69 bd 12 87 b3 bd aa c6 45 3c 2b 6f 63 3d
       -0.05709589 -0.08765997 0.012071291 0.05552594
000250 f0 d8 50 3d 6a 64 1b 3e e0 51 3c 3d 5e c0 5c 3d
       0.050988138 0.15175024 0.04597652 0.053894393
000260 9b 12 a4 3d bf 3f a3 bb 26 d4 7a bc c2 85 c7 3d
       0.08011361 -0.0049819644 -0.015309369 0.09742309
000270 bf 2e e5 3d c9 e4 65 bd 32 54 90 3d ac 75 3b 3c
       0.11190557 -0.05612639 0.07047309 0.011441629
000280 65 ef c2 3a 70 5c 78 3a 7b b5 81 3d 70 a1 9f bd
       0.001487237 0.00094742235 0.06333443 -0.07794464
000290 7f 6b ca 3b 9a 9b 75 3e be d1 14 3e d2 15 57 3e
       0.0061773653 0.23985139 0.14533135 0.21004418
0002a0 57 f0 5b 3d 51 a9 ee bc 8b ab b5 3c 9e 92 d8 3b
       0.053696003 -0.02913347 0.022176525 0.006609275
0002b0 3b 86 fd 3b 37 eb 8b bb 58 33 89 3c fc d0 7f bd
       0.007736949 -0.004269983 0.016748115 -0.062455162
0002c0 fc 3c 9d 3c fc b8 14 be dd 2f e4 bd ac 1f 48 be
       0.019194119 -0.14523691 -0.11141942 -0.19543332
0002d0 7b 3e 1b bd e7 b8 82 3d 8a c7 48 be 01 be 32 3e
       -0.037901383 0.063829236 -0.19607368 0.17455293
0002e0 f8 7f 14 be 49 a9 de bd 69 cb 64 3e 07 34 c2 bc
       -0.14501941 -0.10872132 0.2234322 -0.02370645
0002f0 69 98 88 bd a1 48 87 be 53 89 4b be 7e ca 3e 3d
       -0.06669695 -0.264226 -0.19876604 0.04657983
000300 de 93 3a be 0a 4b b3 bd 96 ba 0b bd 27 f5 e6 bd
       -0.1822047 -0.08754547 -0.03411349 -0.11277228
000310 27 eb 7b bd 37 05 f8 3d bb cc 4a bc 60 db 0d 3d
       -0.061503556 0.1211037 -0.012377913 0.03463304
000320 fd 41 1d bc 7c b7 03 3d b7 d2 8d 3d f2 dc f8 bd
       -0.009598252 0.032157406 0.06924956 -0.12151517
000330 0c aa ea bd c3 60 8f bd eb 9d 1d 3d 02 78 ce 3b
       -0.11458215 -0.07000878 0.03848068 0.006300927
000340 3c f8 e9 bc 6a 56 17 bb f9 5d 16 be a7 6f 80 3d
       -0.02856075 -0.0023092278 -0.14684285 0.06271296
000350 e0 c4 a0 3c bc 8e 21 3e ec 1d b6 bc 8f b2 52 3c
       0.019625127 0.15777105 -0.022231065 0.0128599545
000360 80 b5 d7 bd ec f1 6e 3d 61 64 0d 3d d6 ca 6e 3d
       -0.10532665 0.058336183 0.034519557 0.05829891
000370 e0 13 aa 3c 8b 89 b9 3b 5b a5 37 3d 26 d6 e5 bd
       0.02076143 0.0056621484 0.04483543 -0.11222486
000380 78 f9 ca 3d fb 52 78 bb bc 9c d0 bc e3 54 02 be
       0.09910864 -0.0037891257 -0.025465362 -0.12727694
000390 d0 2e 28 3e 5b ca 88 3c d7 a8 c0 bd 5b 10 21 3b
       0.16424108 0.016698053 -0.09407204 0.00245764
0003a0 11 c6 95 3c 12 45 af bd 5f 8c 80 3d 0e 3c 25 3e
       0.018282922 -0.08558096 0.06276774 0.1613619
0003b0 8b 31 4d bd b3 da 0e 3e 0c 1b 08 3e 15 c1 9a 3d
       -0.050096076 0.13950615 0.13291568 0.07556359
0003c0 52 55 2b 3c 16 6f 0b 3e a9 0a af bc 4f e3 b1 bc
       0.010457354 0.13616595 -0.021367388 -0.021714834
0003d0 64 dd 04 bd 3e 8f 96 bd 19 44 f2 bd 6d f9 41 be
       -0.032437697 -0.0735154 -0.11829395 -0.18942805
0003e0 a6 31 2c bd e4 6c f8 3c 9f 84 b1 3c 96 48 89 3d
       -0.042039536 0.03032536 0.021669684 0.06703298
0003f0 dd 77 ac 3b 96 f1 f6 3d 7d 7d f8 bc bb e4 0b 3e
       0.0052633123 0.120577976 -0.030333275 0.13661472

bias f4 [16]
000000 89 21 3e bd a7 bf 74 bd bc d4 38 bd bc 61 60 bd
       -0.0464187 -0.059753086 -0.045124754 -0.054780707
000010 c8 dc a4 bb 2d 7c 81 b9 eb ac 86 bd 50 70 b0 bd
       -0.005031202 -0.00024697316 -0.0657595 -0.08615172
000020 a4 92 f4 bc 34 a3 fe bd 08 bc 64 bd 7f a3 64 3d
       -0.02985508 -0.12433472 -0.055843383 0.055819985
000030 3b 37 05 bd fd 9e 0a 3c cf c1 ec bd 6c 53 cf bd
       -0.032523375 0.008460757 -0.115604036 -0.10123333

weight f4 [2, 16]
000000 53 64 16 3e 3f 1b 7a be 1f df 09 3d 9a 8b 88 bd
       0.14686708 -0.24424456 0.03366005 -0.06667252
000010 4a 2c ab bd a9 ab 3a 3d 0b 40 a5 be 46 7e bd 3e
       -0.08358057 0.045573864 -0.32275423 0.370104
000020 7a 71 ba 3e ac ec b0 3e 42 d2 de 3d 54 83 b3 3e
       0.364147 0.34555566 0.10879947 0.35061133
000030 24 5a 97 be ba 66 5d 3e 38 46 d1 bd 61 1a 97 3e
       -0.2956096 0.21621218 -0.10218471 0.29512313
000040 26 e8 3f be 6e 51 83 3e 67 39 85 3e 36 f6 5e be
       -0.18740901 0.25648063 0.26020357 -0.2177361
000050 d8 b6 97 3e 79 8e 95 be 8d 3a d1 bd 75 14 fa bc
       0.29631686 -0.2921026 -0.10216246 -0.030527333
000060 7d d2 65 be 43 db a3 bd 97 c6 98 3e eb b9 de 3c
       -0.22443576 -0.08000805 0.29839012 0.027188262
000070 1d dc 78 3e 2b 6f 2d be b4 83 fc bd 01 02 85 bd
       0.24302717 -0.16936938 -0.12329808 -0.06494523

bias f4 [2]
000000 ca cd 20 3e e0 6b e7 3c
       0.15703502 0.028249681
