mlpcnnsemi/model/cnn/82oneinput_batch1_Epoch=86_lr=0.0001.pth (torch, 25249 bytes, 29 tensors)

weight f4 [4, 1, 1]
000000 44 e4 c9 3e 67 d7 e3 3e 92 33 01 3e d9 05 06 be
       0.39431965 0.44500276 0.12617329 -0.13088168

bias f4 [4]
000000 97 a7 03 be 99 8f fc bd c4 dd 76 bf 6f fc 39 bf
       -0.12856899 -0.123320766 -0.9643214 -0.7265081

weight f4 [4]
000000 c0 14 7c 3f 7f aa 81 3f 73 c7 7a 3f 6e ad 86 3f
       0.9846916 1.0130156 0.97960585 1.0521677

bias f4 [4]
000000 8e 7d 37 3d ab b3 cd bd 84 f5 e9 bc 2c 06 49 3d
       0.044797473 -0.100440346 -0.028559454 0.04907815

running_mean f4 [4]
000000 91 4e 34 bb a2 f0 9b 3c d6 8d 6c bf 51 af 44 bf
       -0.002751265 0.019035641 -0.92403924 -0.7683001

running_var f4 [4]
000000 45 53 c8 3d 4a cc fe 3d 7e d6 23 3c 0d 43 30 3c
       0.097815074 0.12441309 0.009999869 0.010758174

weight f4 [16, 4, 1]
000000 4e a0 02 3d 52 a3 b1 3e b5 fe 98 be b0 2e eb 3d
       0.03189116 0.34694916 -0.29881826 0.11483514
000010 d2 30 75 be db d4 95 bc c0 cd fc 3d 0f e2 87 3d
       -0.23944405 -0.018289974 0.12343931 0.06634914
000020 05 80 fb 3e 87 ce 19 be 65 01 00 bf dc c4 f0 be
       0.4912111 -0.1502019 -0.5000213 -0.47025192
000030 18 32 79 be 3e 0f 3f 3e 18 f1 bd bc 95 29 ef be
       -0.24335515 0.18658158 -0.023186252 -0.46711412
000040 d0 2b 62 be ae 64 8e be 48 3e 7e 3e 40 17 4e 3e
       -0.22087026 -0.27811188 0.24828446 0.20126057
000050 e5 47 0d be dc e9 b6 3e b9 99 05 3f 89 57 36 3e
       -0.13796957 0.35725296 0.5218769 0.1780683
000060 00 69 c3 3e ea 84 0f be 20 ae e8 be 15 ed a5 be
       0.38166046 -0.14015546 -0.45445347 -0.32407442
000070 60 64 ae be ca 84 8f be b2 35 07 bf 9a a9 ab 3e
       -0.34060955 -0.28030998 -0.5281631 0.33527833
000080 06 2f 05 bf 68 b0 a1 3e b8 7e d5 3e 98 01 84 3e
       -0.5202488 0.315799 0.4169824 0.25782466
000090 84 60 7e be ff 21 cf bd 87 59 99 3e 80 2b 84 3e
       -0.24841505 -0.10113906 0.29951116 0.25814438
0000a0 d9 c7 b7 3e 18 7c 8a 3e f3 0f 9d 3e 92 a5 6b 3e
       0.3589466 0.270478 0.3067623 0.23012379
0000b0 df c8 1e be 29 3c d9 3d 6c 7c 91 be 5e b4 a3 3e
       -0.15506314 0.10607178 -0.2841524 0.31973547
0000c0 16 94 2c be 05 0e 10 3f c6 2a 15 3f 48 dd ed 3c
       -0.16853365 0.5627139 0.5826839 0.02903618
0000d0 34 37 d2 be 1d af 84 3d f3 75 18 be 40 07 02 3e
       -0.41057742 0.06478713 -0.14888744 0.12698078
0000e0 79 04 c8 be ee 43 21 3e 06 7a 89 be 9c 3e c7 be
       -0.39065912 0.1574857 -0.2685091 -0.38914955
0000f0 e7 75 05 3e e1 8b 7d bd 0f c3 a2 3e 13 18 97 3e
       0.13033257 -0.061900977 0.31789443 0.29510555

bias f4 [16]
000000 9c ee 64 3d bf 83 31 3e 29 0a f2 3e 96 db 42 3c
       0.055891618 0.17335413 0.47273377 0.011893174
000010 0f 6a 17 bd a8 5c e1 3e da 1f f9 3e 1e 32 17 be
       -0.03696638 0.44016004 0.48657113 -0.14765212
000020 dd 0b 5c be 19 c6 39 3e fc 6d 02 3f 4c 4a 07 bf
       -0.214889 0.18141975 0.5094907 -0.52847743
000030 44 94 80 3e 86 ac af 3e 72 e6 f0 bc 6a 73 b6 be
       0.25113118 0.34311312 -0.02940676 -0.3563493

weight f4 [16]
000000 31 c9 74 3f 3c 95 88 3f 57 3d 77 3f f9 f6 81 3f
       0.95619494 1.0670543 0.9657797 1.0153495
000010 6c ea 80 3f 9d b1 75 3f 20 8c 8a 3f 74 e2 82 3f
       1.007154 0.9597414 1.0824013 1.0225358
000020 b2 c1 7b 3f 47 d5 73 3f d9 90 78 3f 28 65 82 3f
       0.9834243 0.9524731 0.9709602 1.018712
000030 96 be 7c 3f 2c e6 89 3f d2 e1 8c 3f fe 6e 7e 3f
       0.9872831 1.0773368 1.1006415 0.9938811

bias f4 [16]
000000 ca d9 15 bd 4f 39 5f 3d c8 e3 37 3d 38 ab 5d bd
       -0.036584653 0.054498013 0.044894964 -0.054118365
000010 6a d4 89 3b a5 6b 0c bd 21 48 ca 3d d1 6a 75 3d
       0.00420623 -0.034282345 0.09877039 0.05991632
000020 5c 82 16 3d 92 b7 bd bd 4c d9 38 bd 3d 98 d5 3d
       0.036745414 -0.09263529 -0.045129105 0.10429428
000030 ef 3b f5 3d b3 26 a0 3d 95 a3 e0 3d db ce 25 bb
       0.11974322 0.07819881 0.10968701 -0.0025300297

running_mean f4 [16]
000000 3b 98 e5 3d 02 bf 1e 3e 50 6b 94 3e 06 a5 2a be
       0.11210676 0.15502551 0.28988123 -0.16664514
000010 6c 84 20 bd 38 64 2f 3f 4a 80 ab 3e 57 9e af be
       -0.039188787 0.68512297 0.33496314 -0.3430049
000020 c4 98 b5 bd 61 d2 7d 3e be 37 55 3f 9c e4 03 bf
       -0.08867028 0.24787284 0.8328818 -0.51520705
000030 10 d6 01 3f 75 c8 7c 3e b6 fc 96 be a0 15 21 be
       0.5071726 0.24685843 -0.29489678 -0.15730906

running_var f4 [16]
000000 34 40 a2 3b a0 e9 8d 3c f8 8e 90 3c 9a 59 d9 3b
       0.0049515013 0.017323315 0.017646298 0.006632996
000010 eb 36 81 3d 18 9e d0 3e 78 1a e1 3c 9f f1 8e 3f
       0.06309303 0.40745616 0.027478442 1.1167487
000020 29 93 eb 3c 36 f2 08 3c b3 a0 29 3f b8 bc e1 3d
       0.028756695 0.008358529 0.6626083 0.11022323
000030 72 d0 3d 3f 01 e5 55 3e c0 f0 2f 3e 32 b5 cd 3d
       0.7414619 0.2088814 0.17181683 0.10044326

weight f4 [8, 16, 2]
000000 fd 4d 87 bd dd 67 14 bd 83 b1 89 be 03 d5 10 3c
       -0.06606672 -0.036231864 -0.26893243 0.008839848
000010 8a 7c 95 3d 0c 48 8a 3c a0 2e 1e 3e f1 7d 96 3d
       0.072991446 0.016880058 0.15447474 0.0734824
000020 02 ea 65 be c1 b6 fa 3d 7a 91 ca 3d bd bd 1f 3e
       -0.22452548 0.12241889 0.09891029 0.15599723
000030 da c7 e4 bc 2c be 48 be 29 a1 13 bd fd 31 09 3e
       -0.027927328 -0.19603795 -0.036042366 0.13397975
000040 ce 5f d8 bd 9e 8e f5 3c 26 2c ae bd 1f 78 97 bd
       -0.10565148 0.029975232 -0.085045144 -0.07395958
000050 47 57 89 b9 4d d6 47 bc 65 e4 3f 3d 8b c3 ea 3c
       -0.00026195703 -0.012197089 0.046848673 0.028657695
000060 21 42 32 bc 03 3c 45 3e 2c 01 5b be 7e 84 7f 3b
       -0.010880024 0.19261174 -0.21387166 0.0038988884
000070 c6 e5 35 be 1c bc ea bd a3 07 a7 3c 9b e2 97 3d
       -0.17763433 -0.1146166 0.020389384 0.074162684
000080 33 e4 86 3d 5c 1b 05 3d 9a 94 a6 bd dc 64 14 bd
       0.06586494 0.032496795 -0.08133812 -0.036229
000090 f0 5f 59 3d 56 a5 37 bd 01 a9 3d 3e 75 fd 50 3e
       0.05307001 -0.04483541 0.18521501 0.20409186
0000a0 6b 38 a8 bb 40 b2 42 3e f7 7b 23 3e d5 db 00 3e
       -0.0051336787 0.1901331 0.15965258 0.1258386
0000b0 ad 3a 83 bd 89 c5 03 be 76 a8 15 3e 8d 15 de ba
       -0.06407676 -0.12868322 0.14615044 -0.0016943678
0000c0 0d b9 c1 bc 66 d6 7f 3d 5e c9 46 be 74 01 51 3d
       -0.02364781 0.062460326 -0.19412753 0.051026776
0000d0 02 a8 10 be 17 77 20 3e 6f 6f 02 3e 32 03 94 bd
       -0.1412659 0.15670429 0.12737821 -0.07227172
0000e0 46 fc 1e be e5 eb d3 3c 46 93 9e 3d f0 30 89 3d
       -0.15525922 0.02586932 0.07742934 0.06698787
0000f0 16 fd d8 3d 71 dc 7c 3e 92 3c fc bc 83 9a d1 3d
       0.10595147 0.24693467 -0.0307906 0.10234549
000100 e8 a6 fe bd 8d 14 fd bc 18 ca 9a be ce e3 dd bb
       -0.124341786 -0.030893588 -0.3023231 -0.006771541
000110 91 60 a4 3d 8b 5f 05 be 6b 34 bf bd 15 10 14 3d
       0.08026231 -0.13024728 -0.0933617 0.03614815
000120 3b 17 c8 bd fc 97 fd bc c3 1b d9 3d 43 b1 c1 3d
       -0.09770056 -0.03095626 0.10600998 0.09457638
000130 a2 b1 37 3c 59 ac b2 3d 95 c7 a8 be b0 47 e7 3c
       0.011211785 0.08724279 -0.3296477 0.028232425
000140 77 15 8f 3d 2b b9 2f 3e 94 9c d3 3d d9 3b ea 3d
       0.06986516 0.1716048 0.10332599 0.11437196
000150 6b 85 99 bd 3f 0d 87 3d 88 cc 3d be b6 13 c2 3d
       -0.074961506 0.06594323 -0.18535054 0.09476416
000160 a4 bc 42 3d e4 cc fa bd 52 28 22 be 64 6c d5 3d
       0.047543183 -0.12246111 -0.15835693 0.104210645
000170 40 78 61 be 51 21 e7 3d a9 09 fe bd 6b fc 0b bd
       -0.22018528 0.112856515 -0.12404186 -0.03417627
000180 43 6e 1c be e3 9a 00 3d d0 33 ee bd 5b 57 04 be
       -0.15276437 0.03139771 -0.11630976 -0.12923948
000190 16 4b 46 3d fc 72 c7 3d af e8 ea 3d 4b 87 06 3e
       0.04841145 0.097387284 0.11470162 0.13137548
0001a0 72 9b 66 3e 02 45 d8 bd 50 f7 d2 3d aa fa cb 3d
       0.22520235 -0.10560037 0.10301077 0.0995992
0001b0 62 60 22 3b 78 21 89 3e 93 9c da 3d d4 37 01 3d
       0.0024776687 0.26783347 0.106743954 0.031547382
0001c0 4a 5c e6 bc c9 b2 0c 3e 10 89 83 bd 24 d9 b4 bd
       -0.028120179 0.13740076 -0.06422627 -0.08830479
0001d0 e7 5a 77 3b 73 e3 9d 3c 33 73 ca 3d b8 63 03 be
       0.003774339 0.019273495 0.09885254 -0.12831008
0001e0 25 e9 df 3c 69 12 d8 bc 6b 34 de 3d e9 32 99 bc
       0.027332852 -0.026375966 0.10849842 -0.018701034
0001f0 a6 3d 97 bd 90 5a 30 3e ec d7 87 bc ba 44 15 3e
       -0.073848054 0.17222047 -0.016582452 0.14576998
000200 19 74 82 bc 32 ba aa bd f7 f4 19 bd fd 90 a6 3d
       -0.0159245 -0.08336295 -0.037587132 0.08133123
000210 8a 3d de bc 4e 16 fa bb 40 32 7a bd 16 3d 4b bd
       -0.027128953 -0.0076320535 -0.06108308 -0.049618803
000220 c8 35 2b 3d 6e 17 d9 bd 86 36 f5 bc e3 e0 ed 3b
       0.041799337 -0.10600172 -0.029933225 0.0072594746
000230 88 cb 83 3e c3 55 9c 3d b8 ed b1 3c 6e 5a d6 3c
       0.2574122 0.07633545 0.021719798 0.026166167
000240 5c 57 fa 3c 59 b1 9d 3d fc fb d8 bd 4f 71 27 3e
       0.030559234 0.07699842 -0.10594937 0.16351818
000250 40 50 1a 3e ac 5e da bd 95 2b d5 bd 30 44 04 3e
       0.15069675 -0.106625885 -0.10408703 0.12916636
000260 fb 45 30 3e a0 c3 d1 bd e1 49 4e be e1 cd 24 be
       0.17214195 -0.10242391 -0.2014537 -0.16094162
000270 fa ea 30 3e 56 81 71 be c2 98 f0 bd 26 61 3f bd
       0.17277136 -0.23584494 -0.11747886 -0.046723507
000280 a8 0e 1d be 48 c9 ac bd c6 66 9a bd 78 b3 39 bd
       -0.15337622 -0.08436829 -0.07539134 -0.04533717
000290 6b e8 ea bd d9 71 24 3d 4a 24 9a bd c7 d3 0f be
       -0.114701115 0.040147636 -0.07526453 -0.1404563
0002a0 e3 84 91 bd eb 2a e8 3c 60 ed 74 3d df a2 3a bd
       -0.07105424 0.028340777 0.05979669 -0.045565482
0002b0 1a e4 e0 3d 99 b0 0d 3e cc c7 37 3d c2 a7 b8 3d
       0.10981007 0.13836898 0.044868276 0.09016372
0002c0 06 5d f8 bb e6 3c 12 be ba 64 65 be fe b5 58 3d
       -0.0075794486 -0.14281043 -0.22401705 0.052907936
0002d0 15 a2 e0 bd 72 d0 20 3d bc 3b 20 be b8 29 3d be
       -0.10968415 0.03926129 -0.15647787 -0.18472946
0002e0 45 1a 1a 3e 2c 43 f1 3b e7 2c 98 3d df fb 0b bc
       0.15049084 0.007362744 0.074304394 -0.0085439375
0002f0 b5 8b a4 bc 46 9d 89 bd 0f 16 27 be 21 97 f0 bd
       -0.020086149 -0.06719451 -0.16317008 -0.117475756
000300 f7 56 16 bc b4 5e b0 3d 87 e2 1f be 17 32 07 be
       -0.0091760075 0.08611813 -0.15613757 -0.13202702
000310 0c bc 24 bc 02 75 71 3d 85 c7 44 bd 91 f1 87 be
       -0.0100545995 0.058949478 -0.04804184 -0.26551488
000320 89 61 75 bd 30 12 b1 bd a7 9f f8 bc 02 e1 ad 3d
       -0.05990747 -0.08646047 -0.030349566 0.084901825
000330 8b ab d2 bc 7c 6e 26 3d 3c 35 dd bc 25 07 6c bd
       -0.025716564 0.04063271 -0.027002923 -0.057624
000340 8b 6e 53 3e 05 9f 92 bd 79 f4 ce bd 53 bc 71 bd
       0.20647638 -0.07159237 -0.10105223 -0.05901749
000350 59 af 04 be 7b 90 0e 3e eb 45 8a 3d 9e 32 30 bd
       -0.12957515 0.13922302 0.06751617 -0.043017022
000360 37 e4 86 bd f4 ed 24 3e 77 4b 6e bd 83 03 47 bd
       -0.06586497 0.16106397 -0.058177438 -0.048587333
000370 6e 64 82 3e e6 84 c5 3d ef 27 48 bb 96 fd 85 bd
       0.25467247 0.09644489 -0.003054138 -0.06542508
000380 97 85 1e 3e 22 19 24 3e 90 31 91 3d 9c f0 20 3b
       0.15480648 0.16025212 0.070895314 0.0024557477
000390 d3 f1 22 3d f5 2f 60 be 26 5e 8b bd f5 74 29 be
       0.039781403 -0.21893294 -0.06805067 -0.16548522
0003a0 1e f6 16 be 37 2d 02 3e 0c 3f 93 3c a7 b0 1c 3d
       -0.14742324 0.1271256 0.017974399 0.038254406
0003b0 d3 c5 11 3e c7 c1 d2 3d 2b 04 38 be 8e b8 2e 3c
       0.1423562 0.10290866 -0.1797034 0.010664118
0003c0 bd 75 c1 3d bb 4b 7d 3d 2d d0 cf bc 22 fa ff bd
       0.09446285 0.0618398 -0.02536782 -0.12498881
0003d0 a8 62 6b bd 8b a1 df bd e0 fb b1 3d c3 f4 a5 ba
       -0.057467133 -0.10919484 0.086906195 -0.0012661446
0003e0 a9 13 d0 bd 80 79 b1 bd 8f 6c bc bd f3 66 e3 bd
       -0.1016 -0.086657524 -0.092003934 -0.111036204
0003f0 e7 04 90 3e 02 23 79 bd 07 bc 2d be 98 e2 b4 bd
       0.2812874 -0.0608244 -0.16966258 -0.08832282

bias f4 [8]
000000 df ce d0 3d 74 44 04 be 27 51 1e be e4 6d 43 3e
       0.101957075 -0.12916738 -0.15460645 0.19084889
000010 29 80 b3 3c fa 82 5b 3d b3 8a b4 3d 4f de f8 39
       0.021911697 0.053591706 0.08815517 0.0004746788

weight f4 [8]
000000 9a 89 81 3f de 88 79 3f f6 0b 7f 3f 03 7d 72 3f
       1.0120118 0.9747447 0.99627626 0.94722
000010 3d 9f 79 3f 97 44 8e 3f b8 c1 7f 3f 45 70 8e 3f
       0.97508603 1.1114682 0.99904966 1.1128012

bias f4 [8]
000000 80 48 28 be 6f 8e 5d 3d c7 f6 89 bd c9 3e 51 bd
       -0.16433907 0.054090913 -0.06736522 -0.051085267
000010 30 bc 1d be 1e 0b 9e 3d 87 97 19 bd 08 60 40 3c
       -0.15403819 0.07716964 -0.037498023 0.011741646

running_mean f4 [8]
000000 c7 2d 2f bd 87 f4 5e 3e 8a 9b cf be 8c 5e ed 3e
       -0.042768266 0.21772967 -0.40548354 0.46361196
000010 52 f0 4a bd 06 70 88 be a7 e2 86 bd 56 6e 1e be
       -0.049545594 -0.26647967 -0.06586199 -0.15471777

running_var f4 [8]
000000 1e 16 49 3e 30 3d 0a 3e 3b e4 11 3d 19 08 38 3e
       0.19637343 0.13499904 0.03561805 0.17971839
000010 71 1e 2c 3d 78 96 48 3e 59 27 cd 3d d7 69 40 3d
       0.04202122 0.1958865 0.100172706 0.046975937

weight f4 [4, 8, 2]
000000 3b f7 d8 3b e5 c3 39 3e c2 45 3b 3e d1 0b 8d bd
       0.006621269 0.18141134 0.18288329 -0.068870194
000010 08 51 56 3c c4 6f c8 3d 84 34 0b be 35 30 fb bd
       0.013080843 0.097869426 -0.13594252 -0.12265054
000020 ec cc a2 be c9 5f 10 bd e9 a1 9c bd 39 aa 98 3e
       -0.31796968 -0.035247598 -0.076480694 0.2981737
000030 ae b1 13 be 37 9b fd 3d ff 6e 0c 3e 3f c5 17 3e
       -0.14423248 0.123831205 0.13714217 0.14821337
000040 16 2e 2a 3e 28 13 05 be 79 97 0a 3e 01 10 3d 3d
       0.16619143 -0.12995589 0.13534345 0.04615784
000050 d5 19 3d be d4 70 42 3e 21 fd 73 3c 24 58 58 3c
       -0.18466885 0.18988353 0.014891894 0.013204608
000060 a2 8f 70 be 89 e4 2f 3e e4 cc 18 3e a9 be ec bd
       -0.23492292 0.17177023 0.1492191 -0.11559803
000070 b5 e9 03 3e 0c cf 45 be a8 68 48 be 90 2a c5 bd
       0.12882121 -0.19317263 -0.19571173 -0.09627259
000080 d7 a9 91 3e 56 d4 28 be 36 59 62 3e 77 d1 1d 3e
       0.2844989 -0.1648725 0.22104344 0.15411936
000090 36 a8 c4 3c cd 35 ff 3d f9 1a 64 3e 56 f9 63 be
       0.02400599 0.124614336 0.22275914 -0.22263083
0000a0 f6 f7 34 bd e0 f9 93 bd fa 3c 9c bd 17 85 0c 3d
       -0.044181786 -0.07225394 -0.07628818 0.034306612
0000b0 0c 45 a8 bd c9 d4 eb 3d 97 9e 78 bd 1a 99 86 3e
       -0.08216295 0.11515195 -0.060698118 0.26288682
0000c0 5d 22 24 bd 57 c9 30 be bd b0 42 3e 1b 29 1c bd
       -0.040071834 -0.17264305 0.19012733 -0.03812514
0000d0 bd fe 39 3d aa f6 2d 3d a2 e8 b0 bc 66 75 ec 3d
       0.045408953 0.042471565 -0.021595303 0.115458295
0000e0 ec 29 81 bd 53 4c 2a 3d 5f 30 71 3b 92 37 00 3f
       -0.06306824 0.041576695 0.0036802513 0.50084794
0000f0 7e 36 b8 bd 46 c5 4b be f7 48 8b bc 48 03 23 be
       -0.089947686 -0.19899473 -0.017002566 -0.1591922

bias f4 [4]
000000 bd 53 16 be a1 e5 94 3e b3 7b 28 bc 83 88 dc 3c
       -0.14680381 0.29081443 -0.010283398 0.026920563

weight f4 [4]
000000 8c 99 6a 3f 44 86 81 3f f5 61 84 3f 3b 23 8e 3f
       0.91640544 1.01191 1.0342394 1.1104501

bias f4 [4]
000000 e6 b5 32 be f8 e6 f4 bd 60 aa 2b bd f7 59 40 bd
       -0.17452201 -0.11958116 -0.04191053 -0.046960797

running_mean f4 [4]
000000 ae 65 0e bb 0a e1 66 3e 81 60 81 3e 13 f5 5c 3d
       -0.0021728086 0.22546783 0.2526894 0.05394466

running_var f4 [4]
000000 e2 1d 71 3d 66 eb 09 3e 5b 9e 8c 3e 95 1d a4 3d
       0.05886639 0.13468704 0.27464566 0.08013455

weight f4 [1, 4, 2]
000000 33 8b 6f 3e b7 e0 2b be 1c 56 1e bd 02 06 87 3e
       0.23392944 -0.1678494 -0.03865634 0.2637177
000010 15 4e 87 bd 51 f5 69 be 1c 78 f5 3d 21 d9 14 be
       -0.0660669 -0.22847487 0.119858 -0.14535953

weight f4 [16, 80]
000000 92 06 27 3d f3 98 94 3d 46 33 45 bb ef 7b 7b 3d
       0.04077775 0.07255735 -0.0030090376 0.06139749
000010 16 89 a3 3d 0a 5b 51 be ba 69 97 3c 2f b0 89 be
       0.079851314 -0.20444885 0.018483032 -0.2689223
000020 18 19 c6 bc 25 ce d5 bd da 12 a1 bd b8 28 cc 3d
       -0.024181888 -0.104397096 -0.07864924 0.09968704
000030 3b e0 6b bd 7c 25 f9 bc c3 6b 2d 3e 87 09 52 3d
       -0.05758689 -0.030413382 0.16935639 0.051278617
000040 cc ab 4c 3d e9 cd 50 bd 86 92 67 3d 58 7b 84 3e
       0.049968526 -0.05097762 0.05653622 0.25875354
000050 a3 79 4a bc 58 9e f7 3d 5c c7 0a 3e f3 e7 ee bd
       -0.012358102 0.120907485 0.13552612 -0.116653346
000060 f1 52 36 3d 90 ac a0 3d e0 0b 6e be eb 57 0c 3e
       0.044512693 0.07845414 -0.23246717 0.13705413
000070 9d 8a c7 bd 08 c0 48 3e ee 51 7e 3d 7f 0c 04 be
       -0.09743235 0.19604504 0.062089853 -0.12895392
000080 7c 92 c0 3d 94 8c fc 3c bb 7f fc 3d 0a 51 83 3e
       0.0940294 0.030828752 0.1232905 0.25647765
000090 b6 42 3b 3d b9 29 94 3c 93 0d 48 be 2b e1 d6 3d
       0.045717917 0.018086301 -0.19536428 0.10492166
0000a0 ee b3 ef 3c 76 90 a7 3d 54 a4 98 3d ca bf 37 3e
       0.029260602 0.081818506 0.07453218 0.17944255
0000b0 92 cc 4f 3c 89 52 51 bd 14 17 01 3e 9e be 35 3c
       0.012683051 -0.051104102 0.1260646 0.01109281
0000c0 b9 bb 78 bc 94 67 a5 bc 09 a8 ec 3d 95 a9 5f bd
       -0.015181475 -0.020190991 0.11555488 -0.054605085
0000d0 0a 44 19 3c d2 99 3e be 47 52 2e bd e7 35 22 3e
       0.009354601 -0.18613365 -0.042558935 0.15840875
0000e0 98 95 19 3e 29 f7 31 bd 04 cb 7f bd 2c 9f ea 3d
       0.14998472 -0.0434486 -0.06244947 0.11456141
0000f0 43 99 ae bd d1 91 8a 3d dc 9a 12 bd bd 0c 24 bd
       -0.08525326 0.067660935 -0.035792217 -0.04005121
000100 c6 bf 17 bd 93 9b 12 bc 05 fc 66 bd cb d7 6e bd
       -0.037048124 -0.008948225 -0.05639269 -0.058311265
000110 d2 b8 1c 3b 8d ec 4f be 8a 65 2b bd b8 dc da bd
       0.0023913872 -0.2030508 -0.041844882 -0.1068663
000120 e3 3e 6f 3d d7 ec 74 3c 0b b6 8b bd 25 ac 14 be
       0.058409583 0.014949045 -0.06821831 -0.14518793
000130 d5 a0 bb 3d 30 8f a4 bc 41 35 a0 bd b3 cd be bd
       0.09161536 -0.020087808 -0.078226574 -0.09316578
000140 30 9a 06 bd ec 3d 62 bc 8a 47 ba 3d 7c 4d 0c be
       -0.03286189 -0.013808709 0.09095676 -0.13701433
000150 cd f7 de bd 1c c0 7c 3e 68 df 2b bb a2 47 ea 3d
       -0.10887108 0.24682659 -0.002622569 0.11439444
000160 93 ca 2a 3e 2b de 0e 3e 07 d9 36 3d 7b e9 3a bd
       0.16678838 0.13951938 0.044640567 -0.04563282
000170 6e bc cd 3d f1 2f d7 ba d1 4f 2b bd 08 8b 35 be
       0.10045706 -0.0016417486 -0.041824166 -0.17728817
000180 9d eb c8 bd 1a af 0f bd a6 ef 9e bd 92 aa 9b bd
       -0.09810565 -0.0350791 -0.07760553 -0.07600893
000190 82 29 d7 bc f4 1a 14 3d 74 92 97 bd 5b 63 09 3e
       -0.02626491 0.036158517 -0.074009806 0.13416807
0001a0 80 c6 01 be a4 f4 b2 bc e3 a6 83 3e 36 c2 d1 bd
       -0.12673378 -0.02184517 0.25713262 -0.10242121
0001b0 f0 9a 96 3d 22 60 5a bd 2c d0 ae bd 4c ab 82 3d
       0.07353771 -0.053314336 -0.085357994 0.063803285
0001c0 3d ae 35 be bb ad 03 be 55 50 2d 3d 13 31 84 be
       -0.17742248 -0.12859242 0.04231294 -0.2581869
0001d0 15 86 b9 bb 77 92 5d 3d 60 b1 ef 3d 2e de 03 bc
       -0.005661736 0.054094758 0.117037535 -0.008048577
0001e0 8d bd 69 be fa 26 fa 3c 9a ba 0a 3d 9a 9a 1c be
       -0.22826214 0.030536164 0.033869363 -0.15293351
0001f0 e5 12 1e be 4e 1b 5c 3d 56 77 d5 bc ba 4b e9 3d
       -0.15436895 0.053736977 -0.02605788 0.11391397
000200 23 cb 9e 3d 9c 8b d8 3c a4 c3 13 3d f1 1d dd 3c
       0.07753589 0.026433758 0.03607525 0.026991816
000210 78 55 f5 bd af 84 9c 3d df f2 e2 bb 57 43 8e bd
       -0.119791925 0.07642495 -0.006925925 -0.06946438
000220 b2 1e 84 bd 1f 86 e4 3c c1 84 f5 bc 18 cc 71 3d
       -0.06451167 0.027895985 -0.029970529 0.05903253
000230 a7 a6 e7 bc 86 ab a1 bc 04 db d5 bc 34 18 46 bc
       -0.028277708 -0.019735109 -0.026105411 -0.012090731
000240 36 51 66 bd 35 1d b1 bd c3 59 21 3c e9 8e 58 3d
       -0.056229793 -0.08648149 0.009848061 0.052870665
000250 d4 0f 74 3d a9 26 2c 3e 23 8b 3e 3d 21 69 85 3d
       0.059585407 0.16811623 0.04651941 0.065141924
000260 e2 92 b0 3d ea 3d 60 3a 2d 0a 3a bc 31 94 df 3d
       0.08621766 0.0008554148 -0.011354965 0.10916937
000270 ac 6b f3 3d 30 77 68 bd bd 16 a5 3d a8 31 7e 3c
       0.11885771 -0.05675429 0.080609776 0.015514769
000280 b1 1d be bb c1 22 01 bb c4 66 a1 3d 00 91 9b bd
       -0.0058018793 -0.0019704553 0.07880929 -0.07596016
000290 cb 89 30 3b 6e ce 84 3e 27 68 21 3e b3 59 5f 3e
       0.00269376 0.25938743 0.15762387 0.21811561
0002a0 14 a7 81 3d d3 bf f3 bc e1 13 99 3c 4e fe 8c bb
       0.06330696 -0.029754555 0.018686237 -0.0043027764
0002b0 bf 82 44 3c 1d 11 88 3b 7e 8b 88 3c d8 11 95 bd
       0.011994063 0.0041524307 0.016668078 -0.07278794
0002c0 ea a2 aa 3c eb 47 13 be c1 1d 00 be 05 ab 4b be
       0.020829637 -0.14382903 -0.1251135 -0.19889458
0002d0 91 c5 2a bd 64 d8 81 3d 5a 75 53 be ca 87 28 3e
       -0.04169232 0.06340101 -0.20650235 0.1645805
0002e0 aa 59 1b be e5 e1 e0 bd 9b 37 6a 3e 9a 4c 19 bd
       -0.15170923 -0.10980586 0.22872774 -0.03742657
0002f0 3f 01 aa bd 3b b5 8a be 5d cd 56 be e9 01 27 3d
       -0.08301019 -0.27091393 -0.20976777 0.040773306
000300 25 80 48 be 5d 08 a4 bd 3c 0d 24 bd 00 75 e9 bd
       -0.19580133 -0.08009408 -0.040051684 -0.11399269
000310 6a e8 65 bd 88 fe f4 3d d9 e7 81 bb 32 af 19 3d
       -0.05612985 0.119626105 -0.003964406 0.037520595
000320 7b b1 78 bc d4 5c 04 3d 8a 40 97 3d 07 4a 06 be
       -0.015179033 0.03231509 0.07385357 -0.13114177
000330 18 7e f4 bd df 5d 7d bd 41 56 07 3d 00 0e b3 3b
       -0.11938113 -0.0618571 0.033041243 0.0054643154
000340 ce 2b a4 bc 64 d8 3c bc 62 50 17 be e0 2e 85 3d
       -0.020040419 -0.011526201 -0.14776757 0.06503081
000350 ef ff 83 3c 2a 50 23 3e 9f 8e af bc fe 6e 50 3b
       0.01611325 0.15948549 -0.021430312 0.0031804438
000360 21 b2 d4 bd cd 75 63 3d 11 71 17 3d 4e 61 5c 3d
       -0.10385538 0.055532265 0.036973063 0.053803734
000370 b4 f8 97 3c 32 7f 2d 3b 5a 02 27 3d f2 f6 e5 bd
       0.018551208 0.002647352 0.040773727 -0.11228742
000380 68 f6 cc 3d 3f c5 29 bb e0 c3 e5 bc 48 bf 04 be
       0.10007936 -0.0025904921 -0.028047502 -0.12963593
000390 cb 53 31 3e b8 ec 07 3d f8 3b bf bd 0c a4 68 3c
       0.1731712 0.033184737 -0.0933761 0.014199268
0003a0 c1 38 ce 3c a4 c1 a1 bd 01 97 88 3d ae 7d 31 3e
       0.025173547 -0.07898262 0.06669427 0.17333099
0003b0 a3 e2 2f bd c7 05 0e 3e aa b7 12 3e b3 72 a3 3d
       -0.042940747 0.13869391 0.14327875 0.079808615
0003c0 91 d4 8f 3c ac ed 0d 3e 6a d3 19 bd f3 c7 c3 bc
       0.017557414 0.13860196 -0.037555136 -0.023899054
0003d0 b9 a9 eb bc de 77 be bd 4d bd 05 be 4a c0 49 be
       -0.028767454 -0.093002066 -0.13060494 -0.19702259
0003e0 59 c4 54 bd 5a 11 fa 3c 4d 1a cc 3c 43 72 9f 3d
       -0.051945064 0.030525852 0.024914885 0.077854656
0003f0 54 8a fb 39 bf e0 e6 3d a8 60 f8 bc b9 8e 16 3e
       0.00047977513 0.11273336 -0.030319527 0.14702882

bias f4 [16]
000000 95 9d 52 bd 05 82 61 bd a6 82 24 bd ac 95 75 bd
       -0.051419813 -0.055055637 -0.04016366 -0.05995719
000010 6a 2d 27 b9 47 79 b8 bb 82 a9 77 bd a4 70 ba bd
       -0.00015943279 -0.0056296918 -0.06046439 -0.09103516
000020 77 40 0c bd ac 4a 04 be 8f d5 4a bd 1c 40 4f 3d
       -0.034241166 -0.1291911 -0.04952007 0.05059825
000030 97 6b e2 bc b0 3e 85 3b 65 eb f9 bd d4 5d d9 bd
       -0.027639193 0.004066311 -0.12203101 -0.106135994

weight f4 [2, 16]
000000 d5 a5 0e 3e a8 54 7a be a3 78 12 3d 84 50 8b bd
       0.13930447 -0.24446356 0.03575958 -0.068024665
000010 c6 62 a2 bd 9a 6f 34 3d c6 9d a3 be 22 76 bb 3e
       -0.07928996 0.044051744 -0.3195631 0.36613566
000020 a4 fe bc 3e 2c 29 b1 3e ca fe f1 3d 78 0c b4 3e
       0.36913025 0.34601724 0.11816175 0.35165763
000030 12 aa 96 be b5 69 63 3e 9f 7b e3 bd 47 08 93 3e
       -0.29426628 0.22208293 -0.11107563 0.28717253
000040 a0 29 38 be fb 6d 83 3e 9b 26 84 3e ac 93 5d be
       -0.17984629 0.25669846 0.25810704 -0.21638364
000050 a7 84 95 3e b4 c6 94 be 26 c4 d7 bd 81 91 d9 bc
       0.29202768 -0.29057848 -0.10535459 -0.02655864
000060 8e ec 6a be 67 cc a4 bd 8a fb 93 3e 31 2a d6 3c
       -0.22941801 -0.08046799 0.28902847 0.026143165
000070 89 7b 77 3e 2b 72 33 be 8c 4e ea bd be 71 69 bd
       0.24168219 -0.1752402 -0.11440763 -0.05699324

bias f4 [2]
000000 28 38 1c 3e 6c 0c 06 3d
       0.15255797 0.03272669
