mlpcnnsemi/model/cnn/82oneinput_batch1_Epoch=21_lr=0.0001.pth (torch, 25249 bytes, 29 tensors)

weight f4 [4, 1, 1]
0.47255033 0.45239362 0.044000197 -0.05577772
00000000: 1ef2 f13e 23a0 e73e 8d39 343d 2e77 64bd

bias f4 [4]
-0.11222602 -0.060797356 -0.97427595 -0.68844235
00000000: c1d6 e5bd a606 79bd 266a 79bf c23d 30bf

weight f4 [4]
1.0004305 0.9970478 0.98597217 1.0253681
00000000: 1b0e 803f 863e 7f3f ac68 7c3f 433f 833f

bias f4 [4]
0.047617167 -0.048120864 -0.018819708 0.030814795
00000000: 380a 433d 621a 45bd ca2b 9abc 4f6f fc3c

running_mean f4 [4]
0.041140694 0.08574422 -0.9599019 -0.70645094
00000000: 2583 283d aa9a af3d 22bc 75bf f8d9 34bf

running_var f4 [4]
0.13901277 0.12740901 0.0012140308 0.0019204424
00000000: 5d59 0e3e 8277 023e 1d20 9f3a 5bb7 fb3a

weight f4 [16, 4, 1]
0.021882499 0.33271685 -0.31267038 0.08257957 -0.2209439 -0.0093249995 0.13564898 0.06969393
0.49275145 -0.14487618 -0.49751583 -0.46409017 -0.25324216 0.17563257 -0.03478191 -0.43732372
-0.20678844 -0.25705215 0.26694435 0.21024837 -0.1711519 0.3111303 0.48729405 0.21151626
0.38569427 -0.13547157 -0.45103514 -0.31299433 -0.33221918 -0.23145992 -0.48388758 0.3693492
-0.52163094 0.31318572 0.41492844 0.2519095 -0.34951395 -0.18821315 0.20613869 0.13996708
0.42847878 0.23585954 0.355151 0.16935316 -0.13267702 0.11075853 -0.27195174 0.33273968
-0.22257653 0.41398922 0.5268926 0.08444622 -0.35874814 0.11301035 -0.078459084 0.18190984
-0.40723607 0.09630027 -0.30554172 -0.36909175 0.096077085 -0.08420263 0.28764346 0.32224187
00000000: ed42 b33c dd59 aa3e 5516 a0be 7a1f a93d
00000010: 1e3f 62be e2c7 18bc 91e7 0a3e b1bb 8e3d
00000020: eb49 fc3e 6c5a 14be 65ba febe 3a9d edbe
00000030: f5a8 81be 06d9 333e 7a77 0ebd e5e8 dfbe
00000040: 59c0 53be 579c 83be eeac 883e 594b 573e
00000050: 7242 2fbe 784c 9f3e 9b7e f93e b897 583e
00000060: b879 c53e 0fb9 0abe 14ee e6be cb40 a0be
00000070: a218 aabe d403 6dbe 1dc0 f7be 571b bd3e
00000080: 9b89 05bf e159 a03e 8071 d43e 48fa 803e
00000090: 7ef3 b2be f3ba 40be 0516 533e 8853 0f3e
000000a0: 9261 db3e 2a85 713e 5ad6 b53e ea6a 2d3e
000000b0: 7cdc 07be 5ed5 e23d 423d 8bbe db5c aa3e
000000c0: 1aeb 63be 65f6 d33e 6fe2 063f 24f2 ac3d
000000d0: d6ad b7be f871 e73d 28af a0bd 9346 3a3e
000000e0: 3f81 d0be 1339 c53d f76f 9cbe 98f9 bcbe
000000f0: 10c4 c43d 6e72 acbd 0146 933e e3fc a43e

bias f4 [16]
0.041631036 0.16793162 0.43901905 0.046297815 -0.035889708 0.37353176 0.45179686 -0.12188006
-0.17119053 0.08159785 0.49449638 -0.47531706 0.2179087 0.35178417 -0.02199658 -0.3096919
00000000: 4e85 2a3d 44f6 2b3e 1bc7 e03e c7a2 3d3d
00000010: 1601 13bd 8e3f bf3e eb51 e73e 419c f9bd
00000020: 924c 2fbe c61c a73d a12e fd3e c25c f3be
00000030: 7523 5f3e 0e1d b43e 2c32 b4bc f08f 9ebe

weight f4 [16]
0.98334223 1.0447587 0.99216264 0.98861146 1.0003877 0.97958064 0.9950545 0.9813955
1.0094334 0.95241004 1.0081817 1.0187682 1.0173867 1.022448 1.0251558 1.0008287
00000000: 51bc 7b3f a7ba 853f 5ffe 7d3f a415 7d3f
00000010: b40c 803f ccc5 7a3f e4bb 7e3f bc3c 7b3f
00000020: 1d35 813f 25d1 733f 190c 813f ff66 823f
00000030: ba39 823f 93df 823f 4e38 833f 281b 803f

bias f4 [16]
-0.053155024 0.054928612 0.022553593 -0.012356269 -0.0044380827 0.007947294 0.024838336 0.034263268
-0.002724874 -0.04813846 0.024747998 0.05827371 0.07446627 0.020934895 0.04354391 -0.020841364
00000000: 15b9 59bd d3fc 603d 50c2 b83c f371 4abc
00000010: 566d 91bb 5e35 023c c479 cb3c a457 0c3d
00000020: cd93 32bb d52c 45bd 50bc ca3c 6ab0 6e3d
00000030: c681 983d a87f ab3c 195b 323d 82bb aabc

running_mean f4 [16]
0.077489324 0.15932055 0.2688742 -0.1225248 -0.027646994 0.5997002 0.31154144 -0.29348826
-0.051309645 0.029500619 0.8248775 -0.45518646 0.42835099 0.3133193 -0.30659735 -0.1298953
00000000: b9b2 9e3d ed24 233e e1a9 893e 48ee fabd
00000010: f37b e2bc f485 193f 5c82 9f3e 1844 96be
00000020: 102a 52bd 48ab f13c 2c2b 533f 330e e9be
00000030: d250 db3e 636b a03e 54fa 9cbe 4603 05be

running_var f4 [16]
0.0013173436 0.009720908 0.013951361 0.009159818 0.0420063 0.28389442 0.022904247 0.9468639
0.02431916 0.101981126 0.8112998 0.089944705 0.38752204 0.10018775 0.27688155 0.05891312
00000000: b7aa ac3a 7144 1f3c 4094 643c 1013 163c
00000010: cc0e 2c3d 9c5a 913e b0a1 bb3c ac65 723f
00000020: fa38 c73c 7bdb d03d 58b1 4f3f ee34 b83d
00000030: 4a69 c63e 3c2f cd3d 6bc3 8d3e e24e 713d

weight f4 [8, 16, 2]
-0.065900765 -0.05634839 -0.23052639 -0.08025982 0.057800494 -0.02932404 0.13304973 0.05264971
-0.19454709 0.053170387 0.10405212 0.13603722 -0.06887375 -0.12739246 0.052197866 0.06237513
-0.11007657 0.024268983 -0.037135035 -0.12731552 0.006420746 -0.03528262 0.08457723 -0.048621487
-0.010207483 0.16860095 -0.17247242 -0.08363604 -0.15638962 -0.074456856 0.022521485 0.060609795
0.063902564 0.12570174 -0.12963969 -0.054138783 0.041594457 -0.04148621 0.16137612 0.12560472
-0.0009684833 0.18200074 0.14189506 0.11673987 -0.056991328 0.0037077372 0.13515705 -0.0026314938
-0.012871823 0.106583215 -0.15100263 -0.002691285 -0.16565196 0.14612547 0.102824606 -0.09449288
-0.17392784 0.022527667 0.030183073 0.06187822 0.113548435 0.22446696 -0.024817389 0.10749078
-0.09524755 -0.04998903 -0.21532181 0.00772342 0.09893261 -0.12907034 -0.041163832 0.07765368
-0.089641295 -0.030911142 0.10543859 0.09438759 0.055453245 0.04742348 -0.1610259 0.05699734
0.084951065 0.16995262 0.09632089 0.10446398 -0.074508786 0.065774664 -0.15148376 0.09219211
0.052828897 -0.119583465 -0.035053093 0.12670022 -0.16950563 0.15087238 -0.12085434 -0.028659564
-0.14764485 -0.0069576297 -0.13922389 -0.11084312 0.027725177 0.111520626 0.12122737 0.19130455
0.19012228 -0.08678184 0.109336965 0.07671433 0.0362683 0.17697062 0.04420149 0.0074723028
-0.025586374 0.10909091 -0.11188252 -0.066133365 0.011948632 0.00302537 0.06896795 -0.10295319
0.035794813 -0.02951763 0.07772053 -0.0065725856 -0.13986701 0.023724718 -0.011462146 0.116901755
-0.044362094 -0.07017899 -0.0016240706 0.13732539 -0.042918626 -0.049862288 -0.05445314 -0.07695632
0.08339927 -0.07936667 -0.029359182 0.0063289907 0.16830221 0.06054768 0.048076097 0.068801984
0.013105236 0.09596428 -0.020345498 0.17740147 0.15364936 -0.10599825 -0.06550297 0.17043297
0.17849042 -0.09362984 -0.15661868 -0.10324574 0.13266854 -0.18105932 -0.115439855 -0.035500303
-0.15621684 -0.11311053 -0.09306842 0.0055277 -0.083251 0.07066529 -0.060954854 -0.07934279
-0.0368579 0.04436379 0.055570956 -0.050524965 0.056968417 0.1629782 -0.019506283 0.14850326
0.0048738606 -0.115629956 -0.18483019 0.07509697 -0.11739405 0.014079233 -0.13198204 -0.16013059
0.14669816 -0.067136504 0.038525134 0.03991147 -0.12696311 0.04278347 -0.16579476 -0.1059042
-0.010393408 0.117711864 -0.08667239 -0.08838536 0.01734568 0.029011104 -0.03946864 -0.16407989
0.017981444 -0.018992351 -0.026631605 0.1398791 -0.068979405 -0.13389312 0.06559072 -0.027516728
0.19393338 -0.02493994 -0.013466544 0.04790986 -0.123562135 0.1822533 0.13558857 0.019659892
-0.06143282 0.18527825 0.013261506 -0.012222123 0.27311957 0.039540548 -0.0029189696 -0.014555778
0.06408684 0.1599744 0.042146154 0.018194152 0.028686963 -0.1874051 -0.080637924 -0.1408362
-0.15107593 0.13372594 -0.0035987154 0.037359297 0.10340757 0.122594826 -0.17874071 0.02987736
-0.005385265 0.06292346 -0.05165794 -0.14897028 -0.05990031 -0.11085943 0.07448819 -0.0006363003
-0.10464239 -0.08783655 -0.11898346 -0.10053257 0.15691979 -0.010029016 -0.2343205 -0.078879565
00000000: fbf6 86bd 92cd 66bd 1c0f 6cbe 435f a4bd
00000010: 36c0 6c3d f838 f0bc 303e 083e 39a7 573d
00000020: 5a37 47be 31c9 593d 4719 d53d 574d 0b3e
00000030: ae0d 8dbd 2b73 02be 6ecd 553d 107d 7f3d
00000040: d36f e1bd bfcf c63c e81a 18bd 005f 02be
00000050: 1f65 d23b 8284 10bd d436 ad3d 5327 47bd
00000060: 493d 27bc baa5 2c3e 9c9c 30be 5f49 abbd
00000070: 9a24 20be d67c 98bd fa7e b83c fa41 783d
00000080: 59df 823d f5b7 003e 44c0 04be a1c0 5dbd
00000090: f35e 2a3d 72ed 29bd c83f 253e 869e 003e
000000a0: d0e1 7dba 675e 3a3e f04c 113e 5015 ef3d
000000b0: bd6f 69bd 82fd 723b 9c66 0a3e 2475 2cbb
000000c0: 57e4 52bc 4d48 da3d 6fa0 1abe 4560 30bb
000000d0: aba0 29be eaa1 153e b595 d23d 7c85 c1bd
000000e0: 241a 32be f18b b83c 7e42 f73c 0474 7d3d
000000f0: 158c e83d abda 653e d64d cbbc 2024 dc3d
00000100: 2611 c3bd 4cc1 4cbd 527d 5cbe be14 fd3b
00000110: 2e9d ca3d 042b 04be 689b 28bd e508 9f3d
00000120: db95 b7bd 5d39 fdbc 30f0 d73d 484e c13d
00000130: f122 633d 1f3f 423d f9e3 24be 0b76 693d
00000140: d3fa ad3d 0f08 2e3e e343 c53d 36f1 d53d
00000150: 1098 98bd deb4 863d 8f1e 1bbe 38cf bc3d
00000160: 1d63 583d 2de8 f4bd d593 0fbd b4bd 013e
00000170: e292 2dbe 4a7e 1a3e 7b82 f7bd 76c7 eabc
00000180: 3630 17be d4fc e3bb b590 0ebe b801 e3bd
00000190: e91f e33c ed64 e43d 0e46 f83d 57e5 433e
000001a0: 6aaf 423e adba b1bd 0fec df3d 671c 9d3d
000001b0: 128e 143d c937 353e 9f0c 353d 38da f43b
000001c0: 849a d1bc 0e6b df3d aa22 e5bd ee70 87bd
000001d0: 32c4 433c 4945 463b 123f 8d3d 1fd9 d2bd
000001e0: 959d 123d f5ce f1bc f12b 9f3d d85e d7bb
000001f0: 4c39 0fbe 575a c23c bacb 3bbc 306a ef3d
00000200: 07b5 35bd 01ba 8fbd c4de d4ba 079f 0c3e
00000210: 71cb 2fbd 663c 4cbd 410a 5fbd 469b 9dbd
00000220: 3dcd aa3d fe8a a2bd ab82 f0bc 6c63 cf3b
00000230: 6a57 2c3e d800 783d 71eb 443d 0ee8 8c3d
00000240: 58b7 563c ec88 c43d 9aab a6bc bba8 353e
00000250: 4256 1d3e 9c15 d9bd 6c26 86bd fb85 2e3e
00000260: 31c6 363e 00c1 bfbd a660 20be 8172 d3bd
00000270: 43da 073e 9d67 39be bb6b ecbd c468 11bd
00000280: 4ff7 1fbe 7ea6 e7bd a89a bebd b521 b53b
00000290: 807f aabd f7b8 903d ccab 79bd 797e a2bd
000002a0: 4ff8 16bd ceb6 353d 5f9e 633d 44f3 4ebd
000002b0: b757 693d c2e3 263e a4cb 9fbc 3d11 183e
000002c0: e8b4 9f3b 66cf ecbd 2044 3dbe 71cc 993d
000002d0: 4b6c f0bd 95ac 663c 4d26 07be 46f9 23be
000002e0: 0b38 163e dd7e 89bd 88cc 1d3d 367a 233d
000002f0: 9e02 02be b83d 2f3d 1ac6 29be 4de4 d8bd
00000300: 1d49 2abc eb12 f13d 4b81 b1bd 6203 b5bd
00000310: 8718 8e3c b2a8 ed3c dea9 21bd 8f04 28be
00000320: d24d 933c d995 9bbc 862a dabc 773c 0f3e
00000330: 1345 8dbd 471b 09be 6d54 863d c36a e1bc
00000340: 7996 463e d84e ccbc c8a2 5cbc 213d 443d
00000350: 250e fdbd 9ca0 3a3e bbd7 0a3e c80d a13c
00000360: fba0 7bbd 95b9 3d3e ca46 593c 4d3f 48bc
00000370: 54d6 8b3e 45f5 213d 2f4c 3fbb 5c7b 6ebc
00000380: f63f 833d 54d0 233e 72a1 2c3d e70b 953c
00000390: ec00 eb3c 1fe7 3fbe 7f25 a5bd 5d37 10be
000003a0: a6b3 1abe 74ef 083e 6dd8 6bbb 1006 193d
000003b0: 59c7 d33d ff12 fb3d ce07 37be 5ec1 f43c
000003c0: e176 b0bb 04de 803d 4797 53bd aa8b 18be
000003d0: 075a 75bd 450a e3bd 448d 983d 64cd 26ba
000003e0: c04e d6bd a6e3 b3bd 9aad f3bd 05e4 cdbd
000003f0: 95af 203e be50 24bc b7f1 6fbe 9c8b a1bd

bias f4 [8]
0.11164615 -0.15111727 -0.04604239 0.10265625 -0.050315157 -0.02977009 0.08458169 0.017185485
00000000: bda6 e43d 7cbe 1abe f296 3cbd 713d d23d
00000010: 4417 4ebd 67e0 f3bc 2a39 ad3d 93c8 8c3c

weight f4 [8]
0.9850629 0.9836401 1.0497398 0.9964458 0.9677942 1.0390564 0.98591304 1.0801944
00000000: 152d 7c3f d6cf 7b3f e05d 863f 1217 7f3f
00000010: 5cc1 773f cdff 843f cc64 7c3f cf43 8a3f

bias f4 [8]
-0.032451756 0.00080574414 0.021152616 0.030542023 -0.073281355 0.029884765 -0.0051422105 0.055479236
00000000: 22ec 04bd 9338 533a 4048 ad3c 4433 fa3c
00000010: 8914 96bd e5d0 f43c fd7f a8bb 323e 633d

running_mean f4 [8]
-0.07508454 0.11159895 -0.09749538 0.23129968 -0.012837075 -0.2639757 0.21780014 -0.2006611
00000000: ecc5 99bd fe8d e43d a8ab c7bd d3d9 6c3e
00000010: 9852 52bc d327 87be 0007 5f3e 1a7a 4dbe

running_var f4 [8]
0.12550141 0.22303684 0.034007426 0.121309415 0.031110879 0.32896644 0.30775052 0.12921894
00000000: 7183 003e c563 643e 5f4b 0b3d 1271 f83d
00000010: 3edc fe3c 4a6e a83e 7a91 9d3e f851 043e

weight f4 [4, 8, 2]
-0.0040244353 0.17841172 0.16941415 -0.060047094 0.009489888 0.09982153 -0.15850553 -0.1384422
-0.2873287 0.028393073 -0.11654375 0.3082278 -0.118259296 0.11732993 0.054727178 0.12032874
0.12290991 -0.054493245 0.09680747 -0.042128135 -0.20242266 0.17297 -0.06630341 0.06361798
-0.19919913 0.17288603 0.023422098 -0.19263183 0.10123703 -0.16765834 -0.2437997 -0.16499692
0.16296895 -0.23607165 0.29453018 0.15332901 0.00637105 0.15956472 0.26198542 -0.16697092
-0.06349894 -0.07032123 -0.038420394 0.08900481 -0.025593072 0.068759166 0.020021193 0.1884693
-0.029080829 -0.11666901 0.15673621 -0.09711623 0.030061748 0.07946197 0.07236721 0.1291
-0.013854946 -0.08878596 0.05657509 0.24682453 -0.17121325 -0.22743087 0.043311294 -0.06948261
00000000: 69df 83bb 90b1 363e e77a 2d3e f1f3 75bd
00000010: 7a7b 1b3c 3b6f cc3d 464f 22be cbc3 0dbe
00000020: bf1c 93be 9798 e83c 7dae eebd 09d0 9d3e
00000030: ee31 f2bd ad4a f03d 9b29 603d ea6e f63d
00000040: 31b8 fb3d 4f34 5fbd ff42 c63d 8d8e 2cbd
00000050: e347 4fbe 0c1f 313e 15ca 87bd 254a 823d
00000060: dbfa 4bbe 0909 313e b3df bf3c 4741 45be
00000070: 5c55 cf3d a1ae 2bbe a1a6 79be f4f4 28be
00000080: 55e1 263e c4bc 71be a9cc 963e 4802 1d3e
00000090: 3ec4 d03b ef64 233e f422 863e 6dfa 2abe
000000a0: bb0b 82bd 9404 90bd b45e 1dbd 2748 b63d
000000b0: 90a8 d1bc 9bd1 8c3d 7c03 a43c 19fe 403e
000000c0: eb3a eebc 29f0 eebd 757f 203e e0e4 c6bd
000000d0: 0e44 f63c f5bc a23d 4335 943d ca32 043e
000000e0: dbff 62bc 6ad5 b5bd 48bb 673d 92bf 7c3e
000000f0: 8752 2fbe a3e3 68be 2f67 313d e64c 8ebd

bias f4 [4]
-0.16228136 0.26721433 0.016669052 -0.031375412
00000000: 162d 26be 51d0 883e 898d 883c 8183 00bd

weight f4 [4]
0.943475 1.0191882 1.0259434 1.0353953
00000000: 9487 713f c274 823f 1d52 833f d587 843f

bias f4 [4]
-0.102840826 -0.08545674 -0.037787985 0.105165906
00000000: 369e d2bd f103 afbd 93c7 1abd 3961 d73d

running_mean f4 [4]
-0.13271105 0.098058924 0.24584581 0.0024620476
00000000: 68e5 07be 1ed3 c83d 01bf 7b3e 4e5a 213b

running_var f4 [4]
0.041432694 0.071007535 0.2997038 0.08839446
00000000: 54b5 293d 666c 913d c772 993e 2808 b53d

weight f4 [1, 4, 2]
0.26459965 -0.12922981 -0.013959429 0.2678473 -0.11437579 -0.17418215 0.06510367 -0.11163129
00000000: 9b79 873e d254 04be 17b6 64bc 4823 893e
00000010: db3d eabd ce5c 32be 1355 853d f29e e4bd

weight f4 [16, 80]
0.011503536 0.039458986 0.052215427 0.05350993 0.05846011 -0.11247288 0.080647334 -0.23421095
0.042525902 -0.07434316 -0.07782707 0.064229906 -0.06539655 -0.032988243 0.16569662 0.005955493
0.04363572 -0.048580736 -0.0010510454 0.23758456 -0.020453172 0.09723555 0.080802545 -0.07329585
-0.028133623 0.05837844 -0.18155417 0.111453176 -0.14340271 0.13817984 0.013741396 -0.14904459
0.05299964 0.033579856 0.11968935 0.25717726 0.065912984 0.032049872 -0.15396704 0.107416786
-0.010307073 0.05889829 0.1125571 0.14576378 -0.02925059 -0.04964071 0.11433281 0.041470945
0.02767841 -0.0628853 0.06771165 -0.043800406 -0.03147592 -0.16003658 -0.015250675 0.14068739
0.13765122 -0.06608202 -0.042899787 0.10945319 -0.070606165 0.052986957 -0.004941688 -0.0453179
-0.0048830854 -0.024337372 -0.02755078 -0.05561377 0.060407247 -0.10324985 -0.033205215 -0.08679227
0.07365742 0.03393166 -0.048421755 -0.052258477 0.10445298 -0.028769203 -0.03384753 -0.0900872
-0.0029369502 0.019573487 0.03675932 -0.12905191 -0.08739724 0.15479994 -0.06408224 0.07927506
0.10033674 0.10982553 0.044863842 -0.010044189 0.10834619 0.0013371428 -0.037550874 -0.13162768
-0.09120522 -0.03679817 -0.019810895 -0.054146495 -0.017951975 0.06141785 -0.01869034 0.09080887
-0.053840484 -0.0011229141 0.20713508 -0.076129004 0.11989146 0.005109976 -0.03574921 0.08485699
-0.13585353 -0.1306125 0.04630637 -0.25884432 -0.025646316 0.040599857 0.076531135 -0.010587412
-0.18888518 0.05403688 -0.0031617454 -0.118507266 -0.11298928 0.052689865 -0.013338212 0.08413271
0.034298435 0.06928678 0.08431303 0.01638593 -0.07844071 0.050731264 -0.0335514 -0.051107377
-0.05175363 0.051692188 -0.049867935 0.06554922 -0.04317766 -0.0039883005 -0.05665572 -0.0070482595
-0.0882488 -0.07144798 -0.01829906 0.050254464 0.0022071807 0.068160154 0.038032714 0.045533683
0.07278032 -0.017575046 -0.03092041 0.016651858 0.10783223 -0.04785806 0.036561705 0.012338637
0.024470309 0.03189701 0.024336703 -0.068111226 0.024353871 0.16710217 0.096588574 0.18358867
-0.0029429442 -0.059441213 0.018016435 0.032224048 0.019716995 0.0069192657 0.020912705 -0.0271357
0.02730693 -0.14617355 -0.066738926 -0.17712575 -0.032967515 0.087468795 -0.15160859 0.121175
-0.078811616 -0.08924521 0.17837308 -0.012149623 -0.03697537 -0.21369979 -0.16153185 0.06199402
-0.15426749 -0.08229018 -0.036189973 -0.11496106 -0.07549196 0.106068656 -0.044728458 0.035754576
0.025099963 0.055747565 0.035177287 -0.09644841 -0.0794062 -0.06482769 0.04530442 -0.02372362
-0.06329756 0.031208403 -0.09967402 0.055392314 0.057878807 0.13418068 -0.048928432 0.021912962
-0.09154669 0.079742715 0.01704116 0.059872877 0.0044551436 0.018072996 0.010463767 -0.10813834
0.06933362 0.012660496 -0.055994406 -0.13352159 0.11576677 -0.068226434 -0.10330943 -0.006024646
0.010110303 -0.09848371 0.047110807 0.081126556 -0.054307517 0.148413 0.10039773 0.07735449
-0.01135214 0.107479535 0.019007888 -0.029731832 -0.048822023 -0.0008573697 -0.06918667 -0.16220301
0.017509388 0.062275123 0.027654856 0.042155333 -0.005145483 0.11045975 -0.033677913 0.101603396
00000000: 5479 3c3c bf9f 213d d8df 553d 3a2d 5b3d
00000010: de73 6f3d 2e58 e6bd 6e2a a53d ffd4 6fbe
00000020: a42f 2e3d 3a41 98bd cd63 9fbd f88a 833d
00000030: a0ee 85bd ae1e 07bd 60ac 293e 4c26 c33b
00000040: 5ebb 323d 98fc 46bd 3bc3 89ba 5e49 733e
00000050: 698d a7bc 6f23 c73d ce7b a53d 221c 96bd
00000060: 7c78 e6bc 3b1e 6f3d 56e9 39be 9041 e43d
00000070: 29d8 12be 047f 0d3e 9823 613c 259f 18be
00000080: 2716 593d 088b 093d b11f f53d bdac 833e
00000090: 63fd 863d ba46 033d 89a9 1dbe 55fd db3d
000000a0: ffde 28bc 553f 713d 5684 e63d 1a43 153e
000000b0: ef9e efbc 0f54 4bbd 5227 ea3d 70dd 293d
000000c0: d5bd e23c 02ca 80bd 68ac 8a3d 0e68 33bd
000000d0: e5ec 00bd a1e0 23be f8dd 79bc 5b10 103e
000000e0: 71f4 0c3e 0356 87bd b0b7 2fbd fe28 e03d
000000f0: f799 90bd da08 593d e2ed a1bb 439f 39bd
00000100: 4a02 a0bb 2b5f c7bc 2cb2 e1bc 44cb 63bd
00000110: 976d 773d a874 d3bd 3102 08bd 25c0 b1bd
00000120: b4d9 963d edfb 0a3d e455 46bd fc0c 56bd
00000130: 72eb d53d 64ad ebbc b5a3 0abd a37f b8bd
00000140: d979 40bb 9458 a03c f190 163d 2f26 04be
00000150: 53fd b2bd e083 1e3e 8d3d 83bd f65a a23d
00000160: 597d cd3d 35ec e03d 26c3 373d 6290 24bc
00000170: 9be4 dd3d 1143 af3a f2ce 19bd 68c9 06be
00000180: cdc9 babd aeb9 16bd 754a a2bc b7c8 5dbd
00000190: 0510 93bc 4991 7b3d 7c1c 99bc 00fa b93d
000001a0: d787 5cbd bf2e 93ba 381b 543e 86e9 9bbd
000001b0: a789 f53d 9671 a73b c36d 12bd 80c9 ad3d
000001c0: 301d 0bbe 48bf 05be c0ab 3d3d 3e87 84be
000001d0: 3918 d2bc 094c 263d 5bbc 9c3d d376 2dbc
000001e0: 1e6b 41be c755 5d3d 4935 4fbb f0b3 f2bd
000001f0: ec66 e7bd 54d1 573d 8488 5abc c54d ac3d
00000200: 847c 0c3d 3ae6 8d3d 4fac ac3d c93b 863c
00000210: 86a5 a0bd 96cb 4f3d 316d 09bd f855 51bd
00000220: 9dfb 53bd 30bb 533d 5242 4cbd ab3e 863d
00000230: 0fdb 30bd 4ab0 82bb d40f 68bd 16f5 e6bb
00000240: c9bb b4bd 5253 92bd e9e7 95bc a0d7 4d3d
00000250: 59a6 103b 8d97 8b3d 31c8 1b3d 8781 3a3d
00000260: d90d 953d 8bf9 8fbc cd4c fdbc 7a69 883c
00000270: 25d7 dc3d d006 44bd bac1 153d ff27 4a3c
00000280: f575 c83c 70a6 023d c45d c73c e67d 8bbd
00000290: c581 c73c d51c 2b3e 3bd0 c53d abfe 3b3e
000002a0: 69de 40bb a178 73bd 3497 933c 5dfd 033d
000002b0: 8985 a13c 02bb e23b 1f51 ab3c b04b debc
000002c0: c8b2 df3c 85ae 15be 6bae 88bd 7460 35be
000002d0: f208 07bd d722 b33d 483f 1bbe 992a f83d
000002e0: fc67 a1bd 31c6 b6bd 6fa7 363e 360f 47bc
000002f0: 7c73 17bd 1ed4 5abe 9b68 25be 71ed 7d3d
00000300: 4cf8 1dbe c187 a8bd f03b 14bd b470 ebbd
00000310: 879b 9abd 863a d93d 3035 37bd 6473 123d
00000320: 709e cd3c 8f57 643d 0f16 103d be86 c5bd
00000330: b89f a2bd 61c4 84bd 2191 393d 0a58 c2bc
00000340: 27a2 81bd c4a8 ff3c e521 ccbd 0de3 623d
00000350: 5412 6d3d a966 093e 2e69 48bd d082 b33c
00000360: d57c bbbd 2650 a33d e799 8b3c 433d 753d
00000370: 74fc 913b d20d 943c 3870 2b3c a277 ddbd
00000380: c9fe 8d3d f86d 4f3c 645a 65bd e2b9 08be
00000390: 2117 ed3d 4dba 8bbd e593 d3bd 656a c5bb
000003a0: afa5 253c d4b1 c9bd 43f7 403d ae25 a63d
000003b0: 8f71 5ebd 94f9 173e 539d cd3d 086c 9e3d
000003c0: 54fe 39bc 3b1e dc3d 6eb6 9b3c 2c90 f3bc
000003d0: 9af9 47bd 1bc1 60ba beb1 8dbd 8c18 26be
000003e0: d96f 8f3c 3314 7f3d 708c e23c 12ab 2c3d
000003f0: 719b a8bb b938 e23d daf1 09bd 7115 d03d

bias f4 [16]
-0.024158841 -0.08149393 -0.067018464 -0.02993755 -0.02722985 0.023081062 -0.08963184 -0.06393377
-0.008680455 -0.10277116 -0.08061951 0.0794247 -0.05509198 0.029667476 -0.09004315 -0.07855213
00000000: c3e8 c5bc 4ae6 a6bd fa40 89bd 983f f5bc
00000010: 2211 dfbc 7f14 bd3c e690 b7bd b5ef 82bd
00000020: 7838 0ebc b079 d2bd d71b a5bd 6ba9 a23d
00000030: 21a8 61bd 3509 f33c 8b68 b8bd f0df a0bd

weight f4 [2, 16]
0.14468111 -0.20394336 0.058879714 -0.08507716 -0.06496255 0.019481929 -0.32470137 0.33023885
0.31129846 0.3237549 0.104345836 0.3108586 -0.26127172 0.1547962 -0.100293525 0.29232433
-0.18522318 0.21618216 0.2349849 -0.19932993 0.27769458 -0.26601014 -0.10022113 0.009340839
-0.17158565 -0.05820044 0.30283916 0.06694093 0.20869082 -0.10795266 -0.12519024 -0.062146287
00000000: 4927 143e 87d6 50be db2b 713d ef3c aebd
00000010: 160b 85bd 9198 9f3c 423f a6be 1115 a93e
00000020: 8362 9f3e 34c3 a53e 45b3 d53d dc28 9f3e
00000030: 68c5 85be e582 1e3e b166 cdbd 89ab 953e
00000040: 25ab 3dbe db5e 5d3e e29f 703e 251d 4cbe
00000050: fc2d 8e3e 7b32 88be bc40 cdbd 520a 193c
00000060: 26b4 2fbe 9663 6ebd bc0d 9b3e 5418 893d
00000070: 0cb3 553e 4916 ddbd df31 00be 1b8d 7ebd

bias f4 [2]
0.17837948 0.0069068046
00000000: 1ca9 363e 7a52 e23b
