mlpcnnsemi/model/cnn/82oneinput_batch1_Epoch=27_lr=0.0001.pth (torch, 25249 bytes, 29 tensors)

weight f4 [4, 1, 1]
0.46176106 0.45291746 0.050423097 -0.06806055
00000000: f26b ec3e cce4 e73e 7388 4e3d 5463 8bbd

bias f4 [4]
-0.113317996 -0.061627924 -0.9776407 -0.68828535
00000000: 4413 e8bd 906d 7cbd a946 7abf 7833 30bf

weight f4 [4]
0.99285316 1.0002896 0.98723316 1.0276141
00000000: a02b 7e3f 7d09 803f 50bb 7c3f dc88 833f

bias f4 [4]
0.042610314 -0.053075302 -0.018944163 0.039977457
00000000: 2788 2e3d 7d65 59bd ca30 9bbc 67bf 233d

running_mean f4 [4]
0.033598054 0.0825178 -0.96144617 -0.7097649
00000000: 1d9e 093d 18ff a83d 5621 76bf 27b3 35bf

running_var f4 [4]
0.13779785 0.13266371 0.0016150336 0.002964059
00000000: e11a 0d3e ffd8 073e 89af d33a a840 423b

weight f4 [16, 4, 1]
0.023506392 0.33495665 -0.3104359 0.085874364 -0.22135322 -0.0063324277 0.1386342 0.06675312
0.49079567 -0.14754242 -0.49993673 -0.4604662 -0.2503913 0.1784192 -0.03192346 -0.44166148
-0.20595047 -0.25713018 0.26725844 0.21132158 -0.16631739 0.31646988 0.49207163 0.20708346
0.3846985 -0.13701093 -0.4522371 -0.31219724 -0.32857442 -0.2371453 -0.48572323 0.36815897
-0.5192372 0.3150921 0.41697782 0.252775 -0.3020245 -0.1472608 0.24926643 0.18599536
0.41941872 0.24554245 0.35107204 0.17637932 -0.13431117 0.11007041 -0.27333984 0.3316646
-0.20072177 0.43249768 0.5470356 0.06729633 -0.3582794 0.11679535 -0.07574275 0.18236534
-0.39760852 0.10144553 -0.29767126 -0.37879157 0.10453334 -0.07518184 0.29672778 0.31383836
00000000: 7a90 c03c 707f ab3e 74f1 9ebe e6de af3d
00000010: 6baa 62be 4180 cfbb 20f6 0d3e dcb5 883d
00000020: 9249 fb3e 5c15 17be b5f7 ffbe 3ac2 ebbe
00000030: 4a33 80be 86b3 363e 2dc2 02bd 7421 e2be
00000040: aee4 52be 91a6 83be 19d6 883e af64 583e
00000050: 1b4f 2abe 5708 a23e d0f0 fb3e b00d 543e
00000060: 34f7 c43e 984c 0cbe 9f8b e7be 51d8 9fbe
00000070: e83a a8be 38d6 72be b7b0 f8be 557f bc3e
00000080: bbec 04bf c053 a13e 1e7e d53e ba6b 813e
00000090: f5a2 9abe 89cb 16be b33f 7f3e 9175 3e3e
000000a0: 0dbe d63e 7b6f 7b3e b7bf b33e c89c 343e
000000b0: de88 09be 986c e13d 33f3 8bbe f1cf a93e
000000c0: 028a 4dbe 5670 dd3e 860a 0c3f a9d2 893d
000000d0: 6670 b7be 6732 ef3d 041f 9bbd fbbd 3a3e
000000e0: 5893 cbbe adc2 cf3d 5e68 98be f8f0 c1be
000000f0: 9315 d63d f0f8 99bd b4ec 973e 6caf a03e

bias f4 [16]
0.039046586 0.18113053 0.44974357 0.050196942 -0.035100624 0.375236 0.4516716 -0.12851498
-0.1660389 0.08107741 0.5024488 -0.48460004 0.21934386 0.3447186 -0.020260138 -0.3232688
00000000: 50ef 1f3d 487a 393e ca44 e63e 4f9b 4d3d
00000010: acc5 0fbd ef1e c03e 8041 e73e 6e99 03be
00000020: 1a06 2abe ea0b a63d 7ca0 003f 7f1d f8be
00000030: ad9b 603e f57e b03e 97f8 a5bc 7d83 a5be

weight f4 [16]
0.97804916 1.0482198 0.98861593 0.98617274 0.99749625 0.97769517 0.9990552 0.9755717
1.0068884 0.9463896 1.0117391 1.0208151 1.024849 1.0319061 1.0267719 0.99819404
00000000: 6e61 7a3f 112c 863f ef15 7d3f d175 7c3f
00000010: ea5b 7f3f 3b4a 7a3f 15c2 7f3f 11bf 793f
00000020: b8e1 803f 9746 723f ab80 813f 12aa 823f
00000030: 412e 833f 8015 843f 436d 833f a589 7f3f

bias f4 [16]
-0.047621176 0.051866613 0.0331705 -0.015313832 -0.012518432 0.002250699 0.024768313 0.038016368
0.004747448 -0.07469373 0.017371805 0.06979552 0.09914688 0.03110798 0.06875368 -0.021885995
00000000: 6c0e 43bd 1672 543d cadd 073d dee6 7abc
00000010: 1c1a 4dbc 7780 133b ebe6 ca3c 0db7 1b3d
00000020: 7b90 9b3b 07f9 98bd 514f 8e3c f4f0 8e3d
00000030: 850d cb3d 2ad6 fe3c bbce 8c3d 424a b3bc

running_mean f4 [16]
0.07834479 0.17411128 0.2734147 -0.12122965 -0.023744255 0.6076247 0.30694792 -0.29862136
-0.040474243 0.08091844 0.8355396 -0.46337688 0.44324768 0.31037202 -0.30480582 -0.13631657
00000000: 3c73 a03d 3a4a 323e 03fd 8b3e 4047 f8bd
00000010: 5083 c2bc 4b8d 1b3f 4728 9d3e e6e4 98be
00000020: 52c8 25bd 91b8 a53d ece5 553f bc3f edbe
00000030: 5cf1 e23e 15e9 9e3e 820f 9cbe 9296 0bbe

running_var f4 [16]
0.0017879509 0.008397529 0.015423827 0.0075867325 0.04128622 0.30174816 0.024599617 0.95412576
0.027364954 0.04221639 0.7986362 0.09226565 0.46519724 0.09465815 0.25158805 0.0700412
00000000: ad59 ea3a ca95 093c 38b4 7c3c 209a f83b
00000010: bd1b 293d bc7e 9a3e 2385 c93c 9641 743f
00000020: 782c e03c 18eb 2c3d 6c73 4c3f c6f5 bc3d
00000030: 552e ee3e 22dc c13d 26d0 803e c371 8f3d

weight f4 [8, 16, 2]
-0.06929963 -0.052452732 -0.23300669 -0.079938516 0.05505104 -0.018162176 0.13005646 0.06888595
-0.19387864 0.050753858 0.10025145 0.13979551 -0.06300041 -0.13355677 0.048950534 0.06210444
-0.11357955 0.026227007 -0.040070083 -0.12809996 0.0021942991 -0.03070309 0.08454005 -0.050602946
-0.014453521 0.1731333 -0.17552634 -0.08252256 -0.15771472 -0.08197118 0.019318266 0.06250407
0.062347714 0.11761674 -0.1217203 -0.05331549 0.03896689 -0.044213403 0.16191188 0.12765361
1.0366547e-05 0.17753671 0.13799006 0.117889196 -0.06212463 -0.0029168818 0.1396197 0.00076257944
-0.016681548 0.102770455 -0.14751425 -0.0067011444 -0.16863288 0.14688924 0.107131645 -0.09612082
-0.17662011 0.0232687 0.04029179 0.062141247 0.114252545 0.24460544 -0.03056193 0.1072143
-0.098438166 -0.04358422 -0.22866178 0.0077623534 0.0978856 -0.12734483 -0.047945563 0.07677042
-0.092361405 -0.025136076 0.105414316 0.09299238 0.052027933 0.0597575 -0.17509109 0.053123772
0.08269624 0.17308608 0.08700652 0.10433563 -0.07431614 0.06386601 -0.15895715 0.09675197
0.053235836 -0.12154787 -0.04845987 0.12576683 -0.17452422 0.14768378 -0.120148435 -0.027891673
-0.14534435 -0.00129289 -0.1408159 -0.106354974 0.02498849 0.10881532 0.113044545 0.1893201
0.19389808 -0.084133856 0.112549104 0.07837326 0.020632714 0.1960315 0.044578563 0.016445216
-0.02355379 0.11461586 -0.10929118 -0.06168687 0.015220433 0.003468381 0.07071601 -0.09967726
0.039088644 -0.029423852 0.07657737 -0.0014310138 -0.14535229 0.04463339 -0.008809321 0.11973837
-0.04226706 -0.07608458 -0.009833521 0.13049376 -0.044899497 -0.046791393 -0.056579873 -0.07279009
0.07973825 -0.08709501 -0.026178215 0.0037942203 0.16536644 0.05892158 0.03967755 0.06390144
0.014364254 0.08957694 -0.026431551 0.1709777 0.15803632 -0.108097665 -0.070914425 0.16238752
0.183197 -0.09577506 -0.16673009 -0.10912087 0.10959978 -0.19218919 -0.113968514 -0.040601764
-0.1522348 -0.11574834 -0.09331382 -0.0024914653 -0.091663755 0.06697971 -0.062811434 -0.08657615
-0.047506247 0.040720467 0.059005767 -0.047325503 0.06387429 0.15849711 -0.013197782 0.14001663
0.006906611 -0.12219502 -0.1885696 0.070643984 -0.113854274 0.024093233 -0.13957189 -0.16539338
0.15018047 -0.055817176 0.041332185 0.03149493 -0.11222697 0.019914303 -0.16297077 -0.113755725
-0.016708748 0.12078512 -0.10577328 -0.08863637 0.019939698 0.006099498 -0.0374643 -0.18115753
0.0019933388 -0.019405382 -0.02904659 0.14511251 -0.054413497 -0.13345292 0.047727965 -0.025774252
0.19010372 -0.018480122 -0.033158395 0.04708745 -0.12650907 0.18573426 0.11915821 0.019449096
-0.06447592 0.18856972 -0.0064049596 -0.011974644 0.27871794 0.054659557 -0.0058794874 -0.010554511
0.080725715 0.15162429 0.042709503 0.0065754773 0.032557234 -0.19186644 -0.07317632 -0.14929019
-0.15602744 0.12321366 -0.0011133992 0.037567787 0.119358994 0.11101093 -0.17751163 0.017419849
0.011878125 0.056691315 -0.055136696 -0.16190074 -0.06294024 -0.10948269 0.07178501 -0.010788627
-0.10778373 -0.08614673 -0.116510764 -0.1126232 0.18548754 -0.027394276 -0.22186005 -0.0827246
00000000: f7ec 8dbd add8 56bd 4e99 6ebe ceb6 a3bd
00000010: 337d 613d d8c8 94bc 852d 053e 1414 8d3d
00000020: 1f88 46be 47e3 4f3d a250 cd3d 8e26 0f3e
00000030: 5c06 81bd 1bc3 08be 5b80 483d 3a61 7e3d
00000040: 659c e8bd 05da d63c 8720 24bd a32c 03be
00000050: 3bce 0f3b 0c85 fbbc 5523 ad3d 0945 4fbd
00000060: 76ce 6cbc db49 313e 2dbd 33be 9701 a9bd
00000070: f87f 21be 82e0 a7bd 5741 9e3c 2202 803d
00000080: 5160 7f3d 0ce1 f03d 7e48 f9bd 5861 5abd
00000090: bf9b 1f3d 1d19 35bd 3acc 253e a1b7 023e
000000a0: fbeb 2d37 2fcc 353e 444d 0d3e e46f f13d
000000b0: 6576 7ebd 2829 3fbb 77f8 0e3e d7e7 473a
000000c0: bea7 88bc 5179 d23d fa0d 17be 4695 dbbb
000000d0: 19ae 2cbe 226a 163e d667 db3d feda c4bd
000000e0: e7db 34be 009e be3c 0109 253d d287 7e3d
000000f0: 3dfd e93d d979 7a3e 035d fabc 2c93 db3d
00000100: f399 c9bd 5e85 32bd 5026 6abe 575b fe3b
00000110: 3f78 c83d af66 02be 9162 44bd cf39 9d3d
00000120: fa27 bdbd 2cea cdbc 76e3 d73d ca72 be3d
00000130: 3e1b 553d 48c4 743d 144b 33be 5098 593d
00000140: a55c a93d 7a3d 313e 7930 b23d ebad d53d
00000150: 0f33 98bd 2fcc 823d aac5 22be e625 c63d
00000160: d20d 5a3d 17ee f8bd db7d 46bd 05c9 003e
00000170: 7ab6 32be 6b3a 173e 6210 f6bd 147d e4bc
00000180: 26d5 14be 3176 a9ba 0b32 10be a3d0 d9bd
00000190: a9b4 cc3c 91da de3d e683 e73d 21dd 413e
000001a0: 388d 463e 5f4e acbd 2580 e63d 2982 a03d
000001b0: f005 a93c 7bbc 483e 0398 363d 1eb8 863c
000001c0: e1f3 c0bc b8bb ea3d 0ed4 dfbd 5fab 7cbd
000001d0: 1f5f 793c c74d 633b 8ed3 903d 9723 ccbd
000001e0: 6a1b 203d 4a0a f1bc 99d4 9c3d db90 bbba
000001f0: 3bd7 14be 80d1 363d f854 10bc 6439 f53d
00000200: 3a20 2dbd 3bd2 9bbd c71c 21bc 28a0 053e
00000210: 89e8 37bd 55a8 3fbd 4cc0 67bd f912 95bd
00000220: cf4d a33d de5e b2bd b273 d6bc 74a8 783b
00000230: d255 293e c157 713d ed84 223d c2de 823d
00000240: 0c58 6b3c 1d74 b73d fb86 d8bc c714 2f3e
00000250: 46d4 213e 4f62 ddbd 953b 91bd ea48 263e
00000260: ff97 3b3e b725 c4bd 4bbb 2abe c37a dfbd
00000270: d975 e03d 3ecd 44be 5368 e9bd 094e 26bd
00000280: 70e3 1bbe 770d edbd 511b bfbd da47 23bb
00000290: 35ba bbbd a82c 893d 48a3 80bd d64e b1bd
000002a0: e995 42bd 81ca 263d 08b0 713d 63d8 41bd
000002b0: 86d0 823d 114d 223e 833b 58bc 8560 0f3e
000002c0: da50 e23b 6241 fabd 6418 41be cbad 903d
000002d0: 6e2c e9bd 2c5f c53c efeb 0ebe e25c 29be
000002e0: e9c8 193e 8da0 64bd f04b 293d d400 013d
000002f0: 41d7 e5bd 5223 a33c cfe1 26be c3f8 e8bd
00000300: c9e0 88bc 305e f73d a99f d8bd fc86 b5bd
00000310: 9458 a33c 4cde c73b 2a74 19bd 5c81 39be
00000320: ada2 023b 09f8 9ebc 1df3 edbc 6098 143e
00000330: b0e0 5ebd e2a7 08be 667e 433d 8624 d3bc
00000340: 8daa 423e a063 97bc 19d1 07bd c5de 403d
00000350: 988b 01be 1f31 3e3e 3809 f43d b653 9f3c
00000360: f30b 84bd 6c18 413e b2e0 d1bb 4c31 44bc
00000370: 1eb4 8e3e b3e2 5f3d b7a8 c0bb d4ec 2cbc
00000380: 8653 a53d 6643 1b3e 29f0 2e3d 1a77 d73b
00000390: bc5a 053d a378 44be 77dd 95bd 87df 18be
000003a0: a8c5 1fbe 7257 fc3d 7aef 91ba aee0 193d
000003b0: 7d72 f43d b359 e33d 9cc5 35be 12b4 8e3c
000003c0: 789c 423c 2735 683d 04d7 61bd 4fc9 25be
000003d0: d0e6 80bd 7638 e0bd 0504 933d c8c2 30bc
000003e0: b7bd dcbd b26d b0bd 329d eebd fea6 e6bd
000003f0: 72f0 3d3e f669 e0bc 482f 63be 846b a9bd

bias f4 [8]
0.12112663 -0.14637563 -0.05283898 0.12295013 -0.04760916 -0.016503591 0.09879331 -0.0019249517
00000000: 3d11 f83d 7ee3 15be b06d 58bd 47cd fb3d
00000010: d301 43bd 8a32 87bc 2654 ca3d a94e fcba

weight f4 [8]
0.9913828 0.97716373 1.0439837 0.9909517 0.9668726 1.0481374 0.9842539 1.0984181
00000000: 43cb 7d3f 6727 7a3f 42a1 853f 03af 7d3f
00000010: f684 773f 5e29 863f 10f8 7b3f f798 8c3f

bias f4 [8]
-0.050879866 0.0031849407 0.010628945 0.040982448 -0.0810384 0.04470262 -0.012746124 0.055681553
00000000: 6867 50bd 70ba 503b 0725 2e3c 36dd 273d
00000010: 76f7 a5bd 181a 373d 1ed5 50bc 5712 643d

running_mean f4 [8]
-0.06476334 0.13191302 -0.118682206 0.26163915 -0.04575994 -0.27354425 0.20870729 -0.23939016
00000000: a4a2 84bd 3514 073e a80f f3bd 91f5 853e
00000010: c66e 3bbd fe0d 8cbe 5db7 553e b222 75be

running_var f4 [8]
0.13131976 0.19982009 0.03181012 0.13803415 0.037647057 0.28710622 0.3115684 0.11420263
00000000: b078 063e a39d 4c3e 544b 023d d358 0d3e
00000010: cd33 1a3d 96ff 923e e585 9f3e 12e3 e93d

weight f4 [4, 8, 2]
-0.003851547 0.18243249 0.17043038 -0.05815506 0.008485118 0.10087384 -0.15587927 -0.1321752
-0.29045445 0.04798333 -0.11605848 0.30191466 -0.12043791 0.117572844 0.067951165 0.12988968
0.12641816 -0.06119762 0.110030636 -0.029323267 -0.19569185 0.16923381 -0.05105921 0.06806308
-0.2060806 0.16569874 0.026876196 -0.20517443 0.104302146 -0.17233042 -0.24917907 -0.16547519
0.16554478 -0.23540458 0.26756904 0.14735031 0.014844659 0.17271732 0.24519983 -0.18654534
-0.06811573 -0.06801481 -0.011212163 0.08544424 -0.043972775 0.06519604 0.01235522 0.2127506
-0.032091923 -0.13754527 0.16119885 -0.08843446 0.027820807 0.070717975 0.0637622 0.13727213
-0.014384289 -0.06760101 0.058222957 0.30303437 -0.15479064 -0.22193673 0.024815328 -0.086912826
00000000: 3c6a 7cbb 95cf 3a3e 4d85 2e3e 0034 6ebd
00000010: 2a05 0b3c f296 ce3d d19e 1fbe f058 07be
00000020: 72b6 94be 2b8a 443d 12b0 edbd 8f94 9a3e
00000030: 27a8 f6bd 08ca f03d fb29 8b3d cd01 053e
00000040: c373 013e 5baa 7abd be57 e13d 5937 f0bc
00000050: 7263 48be a14b 2d3e 7623 51bd a864 8b3d
00000060: cb06 53be eeac 293e 782b dc3c 3f19 52be
00000070: 5d9c d53d 6377 30be cc28 7fbe 5472 29be
00000080: 9284 293e e60d 71be cffe 883e 00e3 163e
00000090: 0337 733c cfdc 303e aa15 7b3e be05 3fbe
000000a0: 4380 8bbd 594b 8bbd 38b3 37bc 64fd ae3d
000000b0: cc1c 34bd 8085 853d 8c6d 4a3c 4bdb 593e
000000c0: d272 03bd abd8 0cbe 5011 253e 201d b5bd
000000d0: 76e8 e33c 96d4 903d c295 823d 1191 0c3e
000000e0: 15ac 6bbc 6672 8abd 327b 6e3d 5227 9b3e
000000f0: 7081 1ebe 6243 63be 8449 cb3c 5aff b1bd

bias f4 [4]
-0.17953347 0.27270278 0.020839952 -0.047481157
00000000: 9fd7 37be b39f 8b3e 8cb8 aa3c 9a7b 42bd

weight f4 [4]
0.9405132 1.0173357 1.0291017 1.0366547
00000000: 79c5 703f 0e38 823f 9bb9 833f 1ab1 843f

bias f4 [4]
-0.12070958 -0.110876195 -0.05412605 0.07353783
00000000: 9636 f7bd 0f13 e3bd 47b3 5dbd 009b 963d

running_mean f4 [4]
-0.109228276 0.10899093 0.2532043 -0.007852577
00000000: 13b3 dfbd a336 df3d fea3 813e 18a8 00bc

running_var f4 [4]
0.047863837 0.08753264 0.25340635 0.08695865
00000000: df0c 443d 5044 b33d 7abe 813e 6017 b23d

weight f4 [1, 4, 2]
0.26339343 -0.12820785 -0.0097968485 0.26847374 -0.10547973 -0.19056733 0.07223627 -0.106824845
00000000: 81db 863e eb48 03be f682 20bc 6475 893e
00000010: c205 d8bd 1524 43be 9cf0 933d fcc6 dabd

weight f4 [16, 80]
0.0105862655 0.0457988 0.04540353 0.053964358 0.058419496 -0.13369186 0.07161184 -0.24238317
0.025173977 -0.08179721 -0.08102295 0.069291726 -0.058312215 -0.019809963 0.16309252 0.0094663305
0.041862402 -0.047396343 0.0038054679 0.24330808 -0.020687997 0.104909986 0.08057487 -0.08424118
-0.011872487 0.06373289 -0.19621386 0.10931257 -0.13556734 0.14693473 0.02205479 -0.14926237
0.06013087 0.038852263 0.11566743 0.2589289 0.04987658 0.0348063 -0.16363949 0.11293632
0.0028744417 0.05936984 0.10886353 0.1518334 -0.026607914 -0.048181623 0.11440492 0.040112887
0.03408461 -0.056710724 0.06974105 -0.043945592 -0.026527312 -0.16369772 -0.020156065 0.1394738
0.14022984 -0.068486616 -0.043221813 0.10817277 -0.0772107 0.058659025 -0.010959437 -0.048979156
-0.009058016 -0.018229555 -0.03262265 -0.05870946 0.048155338 -0.11341891 -0.034375776 -0.08329783
0.07497136 0.0375467 -0.0483826 -0.06567021 0.101237245 -0.026493963 -0.0341437 -0.09192995
-0.002174449 0.013272146 0.043386456 -0.1295927 -0.087555274 0.17582577 -0.055021293 0.08765465
0.11746512 0.117230885 0.047856644 -0.015156741 0.101207085 -0.0119583355 -0.035052896 -0.13510916
-0.0896018 -0.038078826 -0.024714354 -0.0600379 -0.017744698 0.053786047 -0.018478388 0.10179961
-0.07021151 -0.0065544085 0.22154368 -0.07399591 0.11189974 -0.0037153938 -0.04419993 0.08504887
-0.14315873 -0.13597618 0.05035058 -0.26062152 -0.00954884 0.03774464 0.08622597 -0.016167874
-0.20228918 0.05331307 0.00044779756 -0.124423474 -0.115677275 0.0511009 -0.0136806965 0.08532064
0.027685931 0.06294208 0.08227693 0.016474789 -0.0835006 0.054177724 -0.028612893 -0.04993785
-0.05445319 0.054104596 -0.04956006 0.06662448 -0.036466446 -0.009787439 -0.050540477 -0.0034541502
-0.08414811 -0.07758005 -0.013257835 0.05326234 0.014555149 0.07829582 0.0392951 0.041983362
0.07129599 -0.021447398 -0.03112327 0.030097028 0.110871784 -0.050241005 0.036857754 0.0141658075
0.025324997 0.02553909 0.031184973 -0.06895044 0.02393043 0.18833399 0.10558377 0.19185896
0.014232253 -0.05204293 0.020906327 0.026713278 0.012332966 -0.006532695 0.023518208 -0.030350965
0.02924996 -0.14736032 -0.071832046 -0.18290494 -0.032745793 0.08014949 -0.15145732 0.1321635
-0.09511918 -0.09492951 0.19306889 -0.010266951 -0.045073792 -0.22218986 -0.17007607 0.062014554
-0.16147816 -0.087829605 -0.032417007 -0.11664145 -0.05968736 0.10300452 -0.034940753 0.03001151
0.011387826 0.054994408 0.039308015 -0.10263555 -0.0817568 -0.066259205 0.045110185 -0.022649566
-0.07001502 0.025031766 -0.10185883 0.05520755 0.052733164 0.13769156 -0.044073734 0.023014491
-0.09415401 0.08183033 0.01716644 0.060901076 0.011037162 0.012367234 0.016564772 -0.104194835
0.0732753 0.006623166 -0.050874423 -0.13010164 0.12807961 -0.05790788 -0.10200948 -0.009185209
0.008747241 -0.1025879 0.04702041 0.09431603 -0.05145948 0.14610519 0.10045333 0.079084516
-0.012445703 0.11352805 0.011805825 -0.029561462 -0.04877047 -0.022066187 -0.078074045 -0.17099267
-0.0003546103 0.053980835 0.024060894 0.047071777 0.0018236528 0.12390066 -0.036415216 0.10491294
00000000: 0472 2d3c 8697 3b3d 0df9 393d bb09 5d3d
00000010: 4849 6f3d 85e6 08be 3aa9 923d 4b33 78be
00000020: a839 ce3c 4c85 a7bd 5cef a5bd d2e8 8d3d
00000030: cad8 6ebd 8148 a2bc ba01 273e ab18 1b3c
00000040: e977 2b3d ab22 42bd 2865 793b c125 793e
00000050: e079 a9bc 0cdb d63d 7004 a53d a486 acbd
00000060: d284 42bc 6486 823d 49ec 48be 45df df3d
00000070: 2ad2 0abe 0f76 163e 3fac b43c 3cd8 18be
00000080: ca4b 763d 8d23 1f3d 0ce3 ec3d 5492 843e
00000090: 624b 4c3d 0d91 0e3d 1c91 27be 284b e73d
000000a0: 2161 3c3b ca2d 733d d8f3 de3d 377a 1b3e
000000b0: d7f8 d9bc 185a 45bd 204d ea3d 694d 243d
000000c0: 4e9c 0b3d 8149 68bd 65d4 8e3d 4b00 34bd
000000d0: ce4f d9bc 60a0 27be 551e a5bc 38d2 0e3e
000000e0: 6998 0f3e b642 8cbd 5b09 31bd af89 dd3d
000000f0: a520 9ebd 7244 703d 368f 33bc 5e9e 48bd
00000100: 1368 14bc 2656 95bc 549f 05bd 5579 70bd
00000110: 883e 453d 2c48 e8bd 9dcd 0cbd 0d98 aabd
00000120: 968a 993d 92ca 193d d52c 46bd 1a7e 86bd
00000130: 7955 cf3d de09 d9bc 44da 0bbd c545 bcbd
00000140: 3381 0ebb 6a73 593c ffb5 313d f3b3 04be
00000150: 2e50 b3bd ac0b 343e 025e 61bd 4884 b33d
00000160: 8e91 f03d bf16 f03d 5405 443d fb53 78bc
00000170: a945 cf3d e5ec 43bc a093 0fbd 0e5a 0abe
00000180: 2681 b7bd 8bf8 1bbd c275 cabc 4dea 75bd
00000190: 545d 91bc c24e 5c3d fd5f 97bc 507c d03d
000001a0: 0dcb 8fbd 5dc6 d6bb 59dc 623e 2b8b 97bd
000001b0: b12b e53d f77d 73bb fc0a 35bd 1a2e ae3d
000001c0: 3498 12be 573d 0bbe 693c 4e3d 2f70 85be
000001d0: bd72 1cbc 209a 1a3d 3e97 b03d 7d72 84bc
000001e0: e524 4fbe ce5e 5a3d 5fc6 ea39 bcd1 febd
000001f0: 35e8 ecbd 2d4f 513d 0025 60bc 96bc ae3d
00000200: 9bcd e23c c7e7 803d cf80 a83d 23f6 863c
00000210: 5d02 abbd 76e9 5d3d 9665 eabc a28b 4cbd
00000220: 4f0a 5fbd c89c 5d3d 7dff 4abd 6a72 883d
00000230: d75d 15bd 7f5b 20bc 8803 4fbd 065f 62bb
00000240: d855 acbd 4ae2 9ebd 6437 59bc 9d29 5a3d
00000250: b878 6e3c 8f59 a03d e6f3 203d bff6 2b3d
00000260: a203 923d 74b2 afbc 3af6 febc 0b8e f63c
00000270: bf10 e33d 83c9 4dbd 28f8 163d b417 683c
00000280: 5e76 cf3c 5b37 d13c a177 ff3c e335 8dbd
00000290: c009 c43c a0da 403e 4e3c d83d ad76 443e
000002a0: 652e 693c f82a 55bd bf43 ab3c ced5 da3c
000002b0: 3510 4a3c 3810 d6bb 42a9 c03c 96a2 f8bc
000002c0: 9d9d ef3c a0e5 16be ae1c 93bd 6f4b 3bbe
000002d0: 7420 06bd 6a25 a43d a117 1bbe de55 073e
000002e0: d8cd c2bd 676a c2bd dab3 453e b736 28bc
000002f0: 4c9f 38bd bd85 63be 6c28 2ebe f902 7e3d
00000300: 885a 25be 02e0 b3bd b2c7 04bd b6e1 eebd
00000310: bc7a 74bd 09f4 d23d 091e 0fbd b3da f53c
00000320: 0194 3a3c d141 613d 7101 213d 9632 d2bd
00000330: 1c70 a7bd e8b2 87bd 75c5 383d 958b b9bc
00000340: 0964 8fbd 6b0f cd3c 5d9b d0bd 5021 623d
00000350: bbfe 573d 04ff 0c3e a986 34bd e388 bc3c
00000360: d1d3 c0bd a996 a73d a2a0 8c3c 6873 793d
00000370: 36d5 343c f09f 4a3c d8b2 873c 1a64 d5bd
00000380: 5c11 963d 2507 d93b b361 50bd 5d39 05be
00000390: 4d27 033e d030 6dbd 59ea d0bd 8f7d 16bc
000003a0: 9750 0f3c 9b19 d2bd 7998 403d c328 c13d
000003b0: 2dc7 52bd 999c 153e 7aba cd3d 10f7 a13d
000003c0: 10e9 4bbc 6581 e83d 386d 413c e12a f2bc
000003d0: 8bc3 47bd 26c4 b4bc 49e5 9fbd b418 2fbe
000003e0: fdea b9b9 021b 5d3d 5a1b c53c 56ce 403d
000003f0: a207 ef3a a1bf fd3d 1f28 15bd 98dc d63d

bias f4 [16]
-0.031368766 -0.07444138 -0.05996536 -0.03766696 -0.020092258 0.015748741 -0.082354896 -0.071129866
-0.01569109 -0.10981564 -0.073232785 0.07197809 -0.04793874 0.02274985 -0.0980179 -0.08577321
00000000: 897c 00bd b974 98bd 3d9e 75bd ac48 1abd
00000010: 8598 a4bc 8103 813c afa9 a8bd 89ac 91bd
00000020: 9a8a 80bc 06e7 e0bd 12fb 95bd 4069 933d
00000030: 6a5b 44bd e55d ba3c 9cbd c8bd dda9 afbd

weight f4 [2, 16]
0.14806825 -0.21662113 0.052929755 -0.07834168 -0.07368515 0.023425387 -0.3276078 0.34095097
0.32593873 0.33250043 0.105703294 0.31653115 -0.26985237 0.16335143 -0.0972571 0.2889072
-0.18861029 0.22885995 0.2409345 -0.20606597 0.2864192 -0.26995358 -0.09731456 -0.0013729184
-0.18622579 -0.06694453 0.3014823 0.06126893 0.21727137 -0.11650864 -0.12822613 -0.05872776
00000000: 349f 173e eed1 5dbe dfcc 583d 9a71 a0bd
00000010: 3de8 96bd 99e6 bf3c 36bc a7be 2091 ae3e
00000020: 71e1 a63e 7f3d aa3e f87a d83d 5f10 a23e
00000030: 172a 8abe 9945 273e bb2e c7bd a5eb 933e
00000040: 0e23 41be 435a 6a3e 89b7 763e f502 53be
00000050: 8aa5 923e 5b37 8abe db4c c7bd 7ff3 b3ba
00000060: f9b1 3ebe 371a 89bd e35b 9a3e 21f5 7a3d
00000070: 637c 5e3e 159c eebd b64d 03be 858c 70bd

bias f4 [2]
0.17135893 0.0139275
00000000: b778 2f3e 2b30 643c
