mlpcnnsemi/model/cnn/82oneinput_batch1_Epoch=75_lr=0.0001.pth (torch, 25249 bytes, 29 tensors)

weight f4 [4, 1, 1]
00000000: 4678 cd3e 0956 e33e 8bcd ef3d 2bf1 f3bd
0.40130824 0.44401577 0.11709126 -0.119112335

bias f4 [4]
00000000: 72b5 0abe 83d6 dbbd b5a8 72bf 36db 36bf
-0.13545778 -0.10734274 -0.94788677 -0.7142824

weight f4 [4]
00000000: 1513 7c3f 3b0e 813f 0208 7c3f e0d9 853f
0.98466617 1.0082468 0.9844972 1.0457115

bias f4 [4]
00000000: 21ea 1d3d 4700 dcbd 4257 d4bc 11e2 513d
0.03855336 -0.107422404 -0.025920514 0.051240984

running_mean f4 [4]
00000000: 55b4 c1bb 9374 123d 810a 69bf 7cb6 40bf
-0.00591139 0.035755705 -0.9103165 -0.7527845

running_var f4 [4]
00000000: 46f2 cf3d a4f7 fd3d 08af 0c3c 275f 123c
0.10153632 0.12400749 0.008586653 0.008933819

weight f4 [16, 4, 1]
00000000: 97ab d93c 5488 ae3e f000 9cbe 3159 eb3d
00000010: a38e 77be 1343 b5bc eb7f f93d 8cea 723d
00000020: 5331 fb3e 82d5 1abe cf3f 00bf 8f34 eebe
00000030: 3519 79be 846b 3f3e bc09 bebc b8c3 ecbe
00000040: 7a45 5fbe 8369 8cbe 084d 813e 032f 4f3e
00000050: 25ec 16be a73b af3e fe00 033f ccdf 413e
00000060: 6003 c43e eafb 0ebe b338 e8be 5daf a4be
00000070: dd54 afbe c030 92be 212c 07bf 4052 aa3e
00000080: 9fc9 04bf ec6b a23e bb25 d63e 38b5 823e
00000090: a6f8 7dbe b386 d0bd 8c43 993e 8011 823e
000000a0: 4800 bd3e 234b 8c3e c1cd a13e ff24 613e
000000b0: 457c 1abe f671 d83d 13f0 90be 36b4 a43e
000000c0: d1d7 28be 45eb 0a3f 72d5 153f eb04 ef3c
000000d0: 3df4 ccbe 4784 ab3d 6a9f 02be ca73 0d3e
000000e0: c7c9 c5be 0bec 1c3e a3e2 88be 9367 c9be
000000f0: 52b2 063e 2f3c 74bd 7e9f a33e 72f2 953e
0.026571078 0.34088385 -0.30469465 0.11491621 -0.24175505 -0.02212671 0.121826015 0.059305713
0.4906107 -0.1512051 -0.50097364 -0.46524474 -0.24326022 0.18693358 -0.023198001 -0.46243072
-0.21803847 -0.2742425 0.25254083 0.20232777 -0.1473852 0.342252 0.5117339 0.18933028
0.38283825 -0.13963285 -0.45355758 -0.32165042 -0.34244433 -0.28552818 -0.5280171 0.33265877
-0.5187015 0.31722963 0.4182566 0.25528884 -0.24801883 -0.10181942 0.29934347 0.25403976
0.36914277 0.27401075 0.3160229 0.21986769 -0.15086468 0.10568611 -0.28308162 0.3216874
-0.16488577 0.5426524 0.58528817 0.02917715 -0.4003009 0.08374839 -0.12756124 0.13813701
-0.38630506 0.15324418 -0.2673541 -0.39336833 0.13153961 -0.059627708 0.3195762 0.29286534

bias f4 [16]
00000000: bccd 623d 5d0d 523e e947 ee3e 0724 533d
00000010: 4376 33bd e3ff e03e 6dcc f13e 121e 10be
00000020: d923 4ebe 2511 2d3e b40c 003f 3aa7 03bf
00000030: aace 843e 18e2 ac3e b69b 9dbc 2e91 abbe
0.055371985 0.2051291 0.46539238 0.05154803 -0.043813955 0.43945226 0.47226277 -0.14073971
-0.20130862 0.16901071 0.50019383 -0.5142704 0.25938922 0.33766246 -0.019239288 -0.335092

weight f4 [16]
00000000: 60be 753f 94dc 873f c391 783f ac9a 813f
00000010: 20e1 803f 7bd6 773f bd12 893f b866 803f
00000020: 46c1 7d3f 9ed4 713f 1ada 783f 7792 823f
00000030: 318e 7d3f 1812 893f 3e2d 8c3f 7675 7d3f
0.95993614 1.061419 0.97097415 1.0125327 1.0068703 0.96811646 1.0708843 1.0031347
0.99123037 0.94465053 0.97207797 1.0200948 0.9904509 1.0708647 1.0951307 0.99007356

bias f4 [16]
00000000: 8bbc 34bd 6902 783d 8ac3 d43c 9847 64bd
00000010: 963d 56bb 40d0 d1bc 2f03 bb3d d489 7f3d
00000020: 5808 583d a623 dbbd c936 15bd 072a d13d
00000030: cc1f fe3d 6ce2 843d 9d3d e63d ddf1 db3a
-0.04412512 0.060549174 0.025972147 -0.05573234 -0.0032690517 -0.025611997 0.091314666 0.062387303
0.052742332 -0.10700159 -0.0364292 0.10213094 0.124084085 0.06488499 0.112422206 0.0016780455

running_mean f4 [16]
00000000: 9693 db3d 9734 3b3e 1a74 8d3e e2a7 05be
00000010: caee 2bbd 0efc 2f3f 93e2 a13e d5ad b0be
00000020: 881c 8fbd 47a3 723e 7003 563f 25d7 ffbe
00000030: c657 053f d714 833e 4ba8 96be a2ca 03be
0.10721509 0.1828178 0.2762764 -0.13052323 -0.041975774 0.6874398 0.31618175 -0.34507623
-0.06987864 0.23695098 0.83598995 -0.4996883 0.52087057 0.25601837 -0.29425272 -0.12870267

running_var f4 [16]
00000000: 0082 393b 703a 973c da8d 893c 50f3 c53b
00000010: d5b9 6a3d 686b b93e 6275 d33c 1559 8f3f
00000020: 3e11 e83c f23e 033c bf40 2f3f 4fdf de3d
00000030: 0395 353f d2b2 2d3e 5c56 2b3e ed16 d03d
0.0028306246 0.018460482 0.016791273 0.006040968 0.05730613 0.36214757 0.025812808 1.1199061
0.028328534 0.008010613 0.6845817 0.108824365 0.709305 0.16962746 0.16732162 0.10160623

weight f4 [8, 16, 2]
00000000: acb5 86bd ddf2 16bd d66b 89be e595 92bb
00000010: 5435 a03d 926d 253c b574 1e3e f965 853d
00000020: bf01 5cbe d9c0 e43d 0611 c83d 1cd6 1b3e
00000030: c1ea dfbc 4988 39be aef7 f1bc 53cd fb3d
00000040: e3ce dbbd 06ed f03c a231 8cbd 56fb afbd
00000050: 4663 bcba 4de1 84bc c237 663d 41f4 893c
00000060: 6409 57bc a3f7 403e c533 5bbe bed1 0ebc
00000070: ddef 38be 0236 eebd 2f61 9c3c 741a 903d
00000080: 2b5f 8b3d 21e7 203d 2c9f b0bd d87a 11bd
00000090: 7ebb 483d 1b35 45bd 84cc 3f3e 1c30 493e
000000a0: 4522 02bc 9a6b 403e 47c9 233e a817 fb3d
000000b0: 66a1 91bd ef65 f4bd 53cc 183e 5cd7 373b
000000c0: 89c5 96bc b987 8c3d 21dc 38be e014 023d
000000d0: 0ec5 10be fe0c 1d3e 3dcd f83d 071f 9ebd
000000e0: a8a0 1cbe 48c8 cc3c 379b a03d ce47 933d
000000f0: 54b4 d03d bf33 7f3e 7bb5 c8bc e179 d73d
00000100: 1f27 f9bd 64dd efbc 0b83 92be c507 ee3a
00000110: 3d67 a03d 832d 09be 443c afbd c590 113d
00000120: c5f2 bdbd d246 dcbc 805b de3d 1df2 c53d
00000130: f033 d93b 41c5 a33d 4376 99be 0b4c 203d
00000140: a958 943d bb4b 333e 24f1 d13d 1b49 e73d
00000150: bb9e 93bd ce8e 8a3d 3722 34be e090 cb3d
00000160: 9812 573d 3506 f7bd bf13 05be f230 ed3d
00000170: e062 5dbe 3668 043e 43b7 f6bd be09 f6bc
00000180: 07f7 18be 5d43 093d 4914 febd bb18 fdbd
00000190: 0b77 3c3d 77fe d73d bbe9 e23d e35f 0d3e
000001a0: 3f36 5f3e ec1a c1bd 500c dc3d 3e3c c73d
000001b0: 35f5 1a3c f9fd 863e 8c1d c63d ec62 e53c
000001c0: 0f0e ccbc 3553 0e3e 1e4a 97bd d2c4 96bd
000001d0: c201 0a3c a573 8d3c 8204 b93d 5bb2 efbd
000001e0: 71c3 ff3c d764 d0bc 8ea0 c93d 340e 90bc
000001f0: ad76 9fbd 8c61 153e 1b5a 48bc 51c5 123e
00000200: baac a8bc a0f2 a9bd daa6 0ebd 6d34 ad3d
00000210: eac1 f0bc d85e 95bb 0d5d 7abd d98d 39bd
00000220: a0cb 463d 1b6a e1bd 84db f2bc ff6e b53b
00000230: eefd 7a3e 6bc2 a93d dfb1 c43c 1c74 f63c
00000240: 42be e13c 7d1b 9f3d 0bc3 c6bd bd7c 1f3e
00000250: bf2f 1b3e b48d dcbd 69eb c8bd 05bb 043e
00000260: 8286 313e 7715 d0bd c9a4 4bbe 0abf 1ebe
00000270: eafa 253e 6229 6dbe 0141 f1bd bcdb 46bd
00000280: 6938 19be f2ed bcbd 3d7d a1bd 7f53 2dbd
00000290: 6de8 e6bd 705b 283d 5520 95bd bddc 0abe
000002a0: c9b7 94bd c77a dd3c 9719 813d 98b0 1dbd
000002b0: 944d d63d 871d 0c3e bf87 073d 599a be3d
000002c0: 1f69 f63a 003c 17be 1c69 66be cf2f 563d
000002d0: eb32 dcbd cfab 423d b590 21be af89 3dbe
000002e0: 9217 1c3e 81dd cd3b 37e3 833d 009d c2bb
000002f0: 7359 dfbc e180 84bd 120a 22be 417c e9bd
00000300: d472 28bc 18c9 b43d 8afb 17be 60dc 01be
00000310: 846c 15bc 43f4 333d 7752 61bd 8424 86be
00000320: 1b9e 41bd 3bb0 a1bd 30ad e7bc 3986 c03d
00000330: 57b6 0dbd 44e4 b53c d689 abbc e1b8 58bd
00000340: 9985 513e eb1c 8ebd 1841 b6bd 11b6 1abd
00000350: 7480 02be e263 163e 7dfa 9e3d b421 10bd
00000360: 952a 83bd bfcb 253e 471a 56bd f694 36bd
00000370: 99bd 823e 021d d03d 5390 01bb 78bc 72bd
00000380: b4d6 1b3e e780 233e fc64 8e3d a787 c03b
00000390: fa5c 273d 3451 5abe b23b 86bd ec76 27be
000003a0: 38da 17be 30ca 083e d8cb 983c 338d 233d
000003b0: 4dce 133e f8cf c33d d8c9 31be 9ce6 623c
000003c0: 7710 b33d d527 7c3d 8331 f4bc 7cd4 febd
000003d0: bf9f 64bd 3ea8 dbbd 0460 b13d d467 373b
000003e0: 471a cfbd 2c08 adbd cb3b b8bd 4d3d e0bd
000003f0: 72dd 8c3e dc23 8abd 8620 30be 0a64 afbd
-0.0657762 -0.036852706 -0.26840085 -0.004473435 0.078226715 0.010096924 0.15474208 0.0651359
-0.21485041 0.11169595 0.09768872 0.15218395 -0.02733362 -0.18118395 -0.029537048 0.12295022
-0.1073282 0.029409897 -0.06845404 -0.085928604 -0.0014372848 -0.016220713 0.05620552 0.016840102
-0.0131247975 0.18844466 -0.21406467 -0.008716999 -0.1806025 -0.11631395 0.01908931 0.070362955
0.06805261 0.03928292 -0.086241096 -0.035517544 0.04900693 -0.04814635 0.1873036 0.19647259
-0.007942741 0.18791047 0.1599475 0.122603714 -0.071108624 -0.11933505 0.14921694 0.0028051948
-0.018404739 0.068618245 -0.18052723 0.03175819 -0.1413767 0.15336987 0.12148521 -0.07720762
-0.1529566 0.024997845 0.07842105 0.0719143 0.10190645 0.24922083 -0.0245006 0.105212934
-0.12165665 -0.029280372 -0.28615603 0.0018160274 0.07832191 -0.13396268 -0.08556417 0.035538454
-0.0927482 -0.026889239 0.10857296 0.0966532 0.006628506 0.079966076 -0.2997304 0.03913502
0.07243473 0.17509358 0.10251072 0.11293241 -0.0720801 0.06765519 -0.17591177 0.09939742
0.052507967 -0.12061731 -0.12995814 0.11581601 -0.21619749 0.12930378 -0.12046673 -0.030033942
-0.14937983 0.03351151 -0.12406213 -0.123582326 0.046011966 0.10546582 0.11079737 0.13806109
0.21798037 -0.09428963 0.10744536 0.09728287 0.009457876 0.2636564 0.09673604 0.028001271
-0.024909047 0.13898928 -0.073871836 -0.07361759 0.008423271 0.017267058 0.09034063 -0.117039405
0.031221123 -0.02543871 0.098450765 -0.017584898 -0.077863075 0.14587992 -0.012228514 0.14333083
-0.020590175 -0.0829823 -0.03482709 0.08457265 -0.02938934 -0.0045584254 -0.061123896 -0.045301292
0.048534036 -0.11006566 -0.029645689 0.0055369134 0.24510929 0.082890354 0.024010597 0.030084662
0.027556542 0.07768915 -0.0970517 0.15574928 0.15154932 -0.10769215 -0.09810526 0.12961967
0.17336467 -0.10160344 -0.1988708 -0.15502563 0.16208997 -0.23160318 -0.11779977 -0.0485494
-0.14962925 -0.09225072 -0.078852154 -0.042315956 -0.112748004 0.041102827 -0.072815575 -0.13560767
-0.07261617 0.027036084 0.06303709 -0.03849849 0.104640156 0.13683139 0.033088442 0.09306783
0.0018799639 -0.14768982 -0.22501034 0.052291688 -0.10751899 0.04752713 -0.15777858 -0.18509553
0.15243366 0.006282509 0.06439822 -0.005939126 -0.027264332 -0.06469894 -0.15824154 -0.11400653
-0.010281283 0.08827418 -0.14842048 -0.12681723 -0.00912011 0.043934118 -0.055010285 -0.26199734
-0.04726992 -0.078949414 -0.028280824 0.09400601 -0.03459772 0.022203572 -0.020939749 -0.05291069
0.2046112 -0.069391094 -0.088991344 -0.03777129 -0.12744313 0.1468654 0.077626206 -0.03518839
-0.06404606 0.16191004 -0.052271154 -0.044575654 0.25535277 0.10161783 -0.0019769862 -0.05926177
0.15218621 0.15967141 0.06952855 0.005875546 0.040860154 -0.21320039 -0.06554355 -0.16353959
-0.14829338 0.13358378 0.018651888 0.03992958 0.14434166 0.09561151 -0.17362154 0.013848927
0.08743375 0.061561424 -0.029808765 -0.12442872 -0.05581641 -0.10725449 0.08660892 0.002798547
-0.10112434 -0.08448824 -0.089957796 -0.10949192 0.275127 -0.06745121 -0.17199907 -0.08564003

bias f4 [8]
00000000: 44c8 ec3d 3646 07be dce8 fdbd 2a71 353e
00000010: e3cf b33a 7653 f73c e50d b53d d341 a83a
0.11561635 -0.13210377 -0.1239793 0.1771895 0.0013718571 0.030191164 0.08840541 0.0012837

weight f4 [8]
00000000: c622 813f 1425 783f 80fa 803f 0e11 753f
00000010: 56dc 793f 3379 8c3f f803 7f3f 5283 8e3f
1.0088737 0.96931577 1.0076447 0.9572915 0.9760183 1.0974487 0.9961543 1.1133826

bias f4 [8]
00000000: efc4 25be 0f35 3a3d 0641 36bd 9a8d 23bd
00000010: 2657 1bbe 781b 7b3d dcf4 07bd 5c9a fa3b
-0.16188405 0.045460757 -0.044495605 -0.039929964 -0.15169963 0.061305493 -0.0331925 0.0076477956

running_mean f4 [8]
00000000: f462 19bd 4dd4 673e 1b3f a6be 9ca4 e63e
00000010: 0b4d 87bd ef8e 97be b85d e3bc 3950 14be
-0.037447885 0.2263958 -0.3247002 0.45047462 -0.06606492 -0.29601237 -0.02775465 -0.14483728

running_var f4 [8]
00000000: e538 603e 69d5 2d3e f844 2d3d c46c 553e
00000010: 6942 1c3d 0eea 313e 03b4 033e 7811 593d
0.21896704 0.16975941 0.0423021 0.20842272 0.03814927 0.17374441 0.12861638 0.052995175

weight f4 [4, 8, 2]
00000000: e975 a53b 34ef 3b3e 532a 353e 6450 82bd
00000010: 3784 833c ce25 ce3d ad36 11be 0604 febd
00000020: a8bd a3be f19d debc 0158 94bd 8f5c 993e
00000030: db24 12be 283a fa3d b465 003e 1174 123e
00000040: 000f 1e3e 2762 04be 33c8 0c3e 4a7f 1c3d
00000050: 0040 37be 4a80 453e d71d fb3b 0a31 c23c
00000060: 44e6 74be 5804 2a3e 9b0f 0a3e 0768 f0bd
00000070: b67b f93d bde1 4dbe f801 49be f18d cdbd
00000080: bc96 8a3e 1334 29be 0dbd 5c3e 3171 1f3e
00000090: 7984 0e3d bebb 073e 7227 643e 5274 5cbe
000000a0: cb92 3dbd 4b7b a6bd cffc 96bd e0e2 be3c
000000b0: 313e aabd 2187 d53d c6b0 39bd f65b 8d3e
000000c0: ba36 2dbd 345a 2fbe 0265 423e e27a 06bd
000000d0: 6683 253d e83d 363d 4346 38bc 96a2 033e
000000e0: 91bf 64bd 31bc 243d c1df 973c 3c39 f53e
000000f0: 8138 c3bd 4d85 44be f229 9abc 0a49 1ebe
0.0050494564 0.18352968 0.17691927 -0.063629895 0.016054256 0.100658044 -0.14181013 -0.12403111
-0.31980634 -0.027174922 -0.07243348 0.2995343 -0.14271872 0.12218124 0.12538797 0.14302088
0.1543541 -0.12928067 0.13748245 0.03820733 -0.17895508 0.1928722 0.0076634693 0.023705024
-0.23915964 0.1660322 0.13482516 -0.11738592 0.12181799 -0.20105644 -0.19629657 -0.10036839
0.27068126 -0.16523771 0.21556492 0.15570523 0.034794305 0.13255212 0.22280672 -0.21528748
-0.04628257 -0.08128985 -0.07372438 0.023301542 -0.08312643 0.104261644 -0.0453346 0.27609223
-0.04228852 -0.17124254 0.18983844 -0.032832034 0.040408514 0.044492632 -0.01124722 0.1285499
-0.055846754 0.040218536 0.018539311 0.4789523 -0.09532262 -0.19191475 -0.01881883 -0.1545755

bias f4 [4]
00000000: 17f7 24be b2a3 933e b2d7 87bc 81ee 8fbc
-0.16109882 0.28835827 -0.016582344 -0.017569782

weight f4 [4]
00000000: 075d 6a3f f975 813f fe9f 843f 2768 8d3f
0.915482 1.0114127 1.0361326 1.104741

bias f4 [4]
00000000: 9eaa 30be b3f8 09be 49b9 50bd 0ea2 aebc
-0.17252585 -0.13473777 -0.05095795 -0.021317508

running_mean f4 [4]
00000000: daaa f5bc 8c47 573e e9f2 803e cd79 013c
-0.029988695 0.21023387 0.25185326 0.007902575

running_var f4 [4]
00000000: 5b98 773d d13d 0d3e e9f8 973e 6e65 7e3d
0.060448032 0.13793112 0.2968209 0.06210845

weight f4 [1, 4, 2]
00000000: aa66 723e 5aa6 1fbe b7d5 07bd 95a4 873e
00000010: 24b4 84bd 3201 6dbe 7151 ea3d 2016 13be
0.23671976 -0.15590802 -0.0331628 0.26492754 -0.064796716 -0.23144987 0.11441315 -0.14363909

weight f4 [16, 80]
00000000: 8ff1 1e3d 75e7 8c3d a86e 003c 48c5 823d
00000010: 5dd3 963d 1ce0 43be 936f d33c aa82 88be
00000020: 6133 98bc 2b7d d9bd 42a8 a6bd 09a2 b73d
00000030: 58b3 70bd da12 ddbc 77a7 2e3e 69b2 2d3d
00000040: ef3f 5d3d f5a3 5abd 9502 463d f9c2 823e
00000050: 8941 8bbc b213 f43d c4e4 043e 740f febd
00000060: d8c0 193d fb27 9d3d ebca 69be 477e 023e
00000070: a33b e6bd c83c 423e e9be 613d 99cc 08be
00000080: 0411 b23d cf82 183d c18f f33d 8945 813e
00000090: 26e1 443d 8dea 713c b575 41be b95f d93d
000000a0: 815b a23c c17f a73d 4c87 9a3d 755f 323e
000000b0: 3698 ea3b 1273 3dbd 2479 fa3d 36fd 163c
000000c0: 8dce 1ebc 08e1 dbbc da16 ec3d c650 61bd
000000d0: 599b f93b d5b9 3cbe 2512 38bd 1837 193e
000000e0: e77f 193e 814b 3abd 9896 7bbd c7f1 df3d
000000f0: aa59 b0bd f791 883d 94b7 20bd 86ec 29bd
00000100: 7c58 21bd c7e9 16bc 02f6 6ebd 489a 75bd
00000110: c421 0a3c e4c5 48be 731c 32bd ad6b ccbd
00000120: f60d 733d f025 643c 093a 87bd 8c2b 0ebe
00000130: b99b c73d db8c 9fbc 0116 95bd 7b72 b8bd
00000140: 3412 febc bcdf 1fbc 77ec a33d bed7 0ebe
00000150: 1759 d2bd 162b 6f3e 829b 1dbc 5abb e53d
00000160: 3143 253e b502 113e c02d 423d 68b3 11bd
00000170: f6fb cf3d d08b abbb 9993 2fbd e25f 2cbe
00000180: 985f d0bd b0df 05bd 28ed 8dbd a1ab 94bd
00000190: 31e6 afbc d345 1c3d 5e0d 8cbd 223e 113e
000001a0: 311d f5bd 1a29 a3bc 3f9b 813e e6a2 bdbd
000001b0: 3077 b53d 88dc 3fbd 12ef 9fbd a1af 8c3d
000001c0: 3247 2ebe e22b 0abe 883e 3f3d 8719 82be
000001d0: 8461 00bc 854f 6c3d 30d5 e23d 59ca 12bc
000001e0: 2742 60be 2298 f93c 3beb 073d 55d2 16be
000001f0: fa79 18be f178 483d fa36 b6bc 6201 ed3d
00000200: d7a9 933d 1226 073d 1fd6 153d a227 e03c
00000210: 486f f1bd e805 993d c1dc 94bb 0868 78bd
00000220: b3ab 83bd 1229 f73c 9cf3 ffbc 9710 843d
00000230: 115e e0bc a55b 96bc 0c11 b9bc be0e 33bc
00000240: 6411 5cbd c6a3 b0bd 4990 3e3c e362 5f3d
00000250: f2d0 5c3d 4822 253e dec0 443d 10f6 6e3d
00000260: a739 af3d f24a f03a 3fe9 5dbc e318 d33d
00000270: 7632 e83d c9b8 6abd 057a 9a3d 2940 4e3c
00000280: e3f2 78bb fde5 f23a 76e7 8a3d 4e6c a0bd
00000290: ed40 0e3c 743d 7c3e 3244 1a3e a25d 5d3e
000002a0: d925 6d3d 1111 e3bc fd6c ac3c a002 be3b
000002b0: ba89 5b3c 5a3a 1f3a 780d 7f3c da03 82bd
000002c0: c021 8e3c 7ab4 10be 2f14 efbd f424 48be
000002d0: d70d 17bd b7fd 853d 04c4 4dbe ce07 303e
000002e0: 63d5 13be 810c ddbd 9417 663e cf6b e4bc
000002f0: 99f5 8bbd 0e6b 87be 15f2 4fbe 5d54 3b3d
00000300: 60e1 40be 01ae b0bd 8e64 12bd 264a e1bd
00000310: df19 6fbd d151 fc3d 2d4f 26bc 647f 163d
00000320: a848 babb 5966 043d 2485 953d 0807 01be
00000330: a587 e9bd 5502 8abd 5d3e 173d 4801 f13b
00000340: 5002 d2bc e429 a3bb d6f9 16be d558 863d
00000350: 25dd 913c 7fa3 213e cac6 9abc 3194 453c
00000360: 5b21 d5bd 84bd 6d3d a1ea 113d 3955 713d
00000370: e8cb 9f3c f621 7b3b da55 373d 6a65 e4bd
00000380: e08e d13d d51c 1ebb 72d7 d3bc ab6d 03be
00000390: 390e 2b3e 11e3 d63c 4e5a bcbd 3b9e ee3b
000003a0: 66fb c53c 3ec9 a0bd e219 843d ac1f 2b3e
000003b0: 82c2 46bd f0ae 0d3e 2335 0d3e 700e 9d3d
000003c0: 1ffd 803c 2c96 0a3e 3305 d5bc 3ad6 aebc
000003d0: fcdd 0dbd 9b10 a3bd 3841 fdbd f5fa 47be
000003e0: 893b 3cbd 97ed ec3c 3f6d bc3c 883f 8b3d
000003f0: c3f1 27ba d893 ed3d 9969 ebbc eb28 0d3e
0.038804587 0.068800844 0.0078388825 0.06385285 0.07364533 -0.1912846 0.025810039 -0.2666219
-0.018579187 -0.10619577 -0.081375614 0.08966453 -0.058764786 -0.026986528 0.1705607 0.042406473
0.05401605 -0.053379018 0.048342306 0.25539377 -0.016999023 0.11917819 0.12977892 -0.12405291
0.037537426 0.07673641 -0.22831313 0.12743483 -0.112418436 0.18968499 0.055113707 -0.13359298
0.08694652 0.037234124 0.11892653 0.25248364 0.04806628 0.014765394 -0.18892558 0.10613961
0.019819023 0.08178664 0.07545337 0.17419226 0.0071592582 -0.046252318 0.12230137 0.009215644
-0.0096928 -0.026840702 0.11527796 -0.055008672 0.007617396 -0.18430264 -0.04493918 0.14962423
0.14990197 -0.045482162 -0.061422914 0.10934787 -0.08610852 0.066684656 -0.039237574 -0.041485332
-0.039391026 -0.00921101 -0.05834008 -0.059961587 0.008430902 -0.1960674 -0.043484163 -0.09981475
0.059339486 0.013925061 -0.06602866 -0.138838 0.097464986 -0.019476345 -0.072795875 -0.090062104
-0.03101454 -0.009757932 0.080040865 -0.13949487 -0.10270899 0.2335628 -0.0096195955 0.11217375
0.16138913 0.14161189 0.04740691 -0.035571486 0.101554796 -0.005235173 -0.04286537 -0.16833451
-0.10174483 -0.03268403 -0.069299996 -0.07259298 -0.021472069 0.038152527 -0.06838487 0.14183858
-0.119684584 -0.01991706 0.25313756 -0.09259586 0.08860624 -0.046841174 -0.07809271 0.06869436
-0.17019346 -0.13493302 0.046690494 -0.254101 -0.00783575 0.057693023 0.110758185 -0.008959376
-0.21900235 0.03046805 0.033183318 -0.14728673 -0.1489028 0.048943464 -0.022243012 0.115725294
0.07210129 0.03299529 0.036581155 0.027362648 -0.11788803 0.0747183 -0.0045429175 -0.060646087
-0.064292334 0.030170951 -0.031244092 0.06448477 -0.027388604 -0.018354246 -0.022591136 -0.010928808
-0.053727522 -0.08624987 0.01163108 0.054537665 0.053910203 0.16126359 0.048035495 0.058340132
0.08555918 0.0018332882 -0.01354438 0.10307481 0.1133775 -0.05730513 0.07542805 0.012588539
-0.0037986569 0.0018531677 0.06782429 -0.078331575 0.008682472 0.24632818 0.15065077 0.2161775
0.057897422 -0.027718099 0.021048063 0.005798653 0.013399536 0.0006074064 0.015567176 -0.06348391
0.017350078 -0.14131346 -0.116737716 -0.19545346 -0.036878433 0.06542533 -0.20094305 0.17190477
-0.1443687 -0.107934006 0.22469932 -0.027883438 -0.068339534 -0.26448864 -0.2030719 0.045734752
-0.18835974 -0.086269386 -0.035740428 -0.11000471 -0.058374282 0.12320293 -0.010150713 0.036742583
-0.005684931 0.03232417 0.07300785 -0.12600338 -0.11402825 -0.06738726 0.03692471 0.007354889
-0.025635868 -0.004979359 -0.14743742 0.06559912 0.017805645 0.15785025 -0.018893618 0.012059257
-0.10406753 0.058042064 0.03562415 0.058919165 0.01950641 0.0038319803 0.04475961 -0.11152156
0.10232329 -0.0024126072 -0.025859568 -0.12834804 0.16704644 0.02623132 -0.09196912 0.007282046
0.024167728 -0.07850884 0.06450249 0.167113 -0.04852534 0.13836265 0.13789801 0.07668769
0.015745698 0.13533849 -0.026003456 -0.021342386 -0.03463553 -0.079621516 -0.12365955 -0.19529326
-0.045955215 0.028921885 0.023001311 0.06799227 -0.000640657 0.116004646 -0.028736876 0.1378514

bias f4 [16]
00000000: f293 4cbd c8f7 66bd 26a1 2abd efb8 6dbd
00000010: a162 d6ba 6dbd 77bb 0e52 7fbd ea7a b7bd
00000020: 317c 07bd 5eea 02be c0ef 54bd a13e 563d
00000030: 4c05 eebc 50ca a93b 346a f5bd bd6d d6bd
-0.04994578 -0.056388646 -0.04165759 -0.058037695 -0.0016356298 -0.0037802116 -0.062334113 -0.08958991
-0.033077423 -0.12784716 -0.051986456 0.05230582 -0.02905526 0.005181588 -0.11983147 -0.1047015

weight f4 [2, 16]
00000000: 6cd1 123e bce1 79be 7352 113d eebf 8cbd
00000010: 8634 a4bd 1364 3c3d d339 a4be d168 bd3e
00000020: abf2 b93e 02fd b13e deec e33d 2d92 b43e
00000030: f835 96be 1364 5f3e c2f2 d8bd 8fbc 953e
00000040: 3d55 3cbe 8734 833e 5b4b 843e ecdb 5cbe
00000050: ddf8 953e 31c5 95be 7053 d5bd bebd f8bc
00000060: ded4 64be a01c a8bd 0680 973e 02ce cd3c
00000070: 0094 763e 836c 2fbe 6ad7 f4bd 7014 7fbd
0.143377 -0.24402517 0.03547902 -0.06872545 -0.080178306 0.045993876 -0.32075366 0.3699403
0.36317953 0.34763342 0.11129163 0.35267773 -0.2933805 0.21815519 -0.105931774 0.2924542
-0.18391891 0.25626013 0.25838742 -0.21568269 0.2929143 -0.29252008 -0.10416305 -0.030363914
-0.22346827 -0.08208585 0.29589862 0.025122646 0.24079895 -0.17131238 -0.119551495 -0.06227535

bias f4 [2]
00000000: 6a6e 1d3e b033 013d
0.15374151 0.031543434
