mlpcnnsemi/model/cnn/82oneinput_batch1_Epoch=99_lr=0.0001.pth (torch, 25249 bytes, 29 tensors)

weight f4 [4, 1, 1]
0.3832035 0.4439503 0.140835 -0.1490543
00000000: 4033 c43e 744d e33e 0d37 103e b1a1 18be

bias f4 [4]
-0.1397723 -0.094404854 -0.96083194 -0.7468088
00000000: 7820 0fbe 5557 c1bd 15f9 75bf dd2e 3fbf

weight f4 [4]
0.9832258 1.0121565 0.9801888 1.062729
00000000: b0b4 7b3f 588e 813f a7ed 7a3f 8107 883f

bias f4 [4]
0.046609595 -0.09833927 -0.024331968 0.05036226
00000000: b4e9 3e3d 1966 c9bd d653 c7bc a848 4e3d

running_mean f4 [4]
-0.015810532 0.04890203 -0.9151644 -0.7946304
00000000: 1785 81bc 7f4d 483d 3748 6abf e66c 4bbf

running_var f4 [4]
0.09388825 0.12596989 0.012734099 0.0142056355
00000000: 7c48 c03d 40fe 003e afa2 503c c1be 683c

weight f4 [16, 4, 1]
0.030289272 0.34649074 -0.29965532 0.12119466 -0.24735972 -0.02675457 0.11360355 0.065006316
0.48958167 -0.15091561 -0.5009491 -0.475404 -0.24244428 0.18637584 -0.022589263 -0.47484174
-0.2175512 -0.27729166 0.2493292 0.2056463 -0.13247584 0.37308753 0.5292625 0.16811912
0.3803294 -0.141022 -0.45562735 -0.32614475 -0.3392586 -0.28577206 -0.5357945 0.33067933
-0.5244969 0.31161696 0.4128954 0.26408672 -0.24496217 -0.097349584 0.3032355 0.2670958
0.35163504 0.26339012 0.29950452 0.2383223 -0.16137883 0.10447518 -0.28743985 0.31595436
-0.17199555 0.59307665 0.5811457 0.022815581 -0.41736963 0.04602225 -0.16970702 0.11820851
-0.39500457 0.16614792 -0.26784173 -0.3848869 0.12906414 -0.06578742 0.3156085 0.2978418
00000000: 3521 f83c 3c67 b13e 6c6c 99be e834 f83d
00000010: de4b 7dbe 662c dbbc faa8 e83d 0822 853d
00000020: 73aa fa3e 9f89 1abe 333e 00bf 2768 f3be
00000030: 5043 78be 4fd9 3e3e 1e0d b9bc 751e f3be
00000040: bec5 5ebe 2cf9 8dbe 2750 7f3e f294 523e
00000050: bfa7 07be 5405 bf3e bf7d 073f 6b27 2c3e
00000060: 89ba c23e 1268 10be fd47 e9be 72fc a6be
00000070: 4eb3 adbe b750 92be d429 09bf cd4e a93e
00000080: 6e45 06bf 428c 9f3e 0767 d33e 6036 873e
00000090: 5dd7 7abe 385f c7bd af41 9b3e c8c0 883e
000000a0: 8209 b43e 12db 863e a858 993e c30a 743e
000000b0: 7e40 25be 15f7 d53d 512b 93be c5c4 a13e
000000c0: 9a1f 30be dfd3 173f f7c5 143f bee7 ba3c
000000d0: 79b1 d5be d481 3c3d adc7 2dbe 4e17 f23d
000000e0: 0a3e cabe ae22 2a3e 8d22 89be e50f c5be
000000f0: 6429 043e 8ebb 86bd 7097 a13e b87e 983e

bias f4 [16]
0.044610176 0.16463414 0.47853675 0.014484829 -0.053075973 0.43809158 0.49120468 -0.13637698
-0.19943205 0.1711054 0.51209414 -0.5319167 0.2400306 0.3738297 -0.05360788 -0.34455064
00000000: 29b9 363d da95 283e c502 f53e c751 6d3c
00000010: 3166 59bd 8a4d e03e 2e7f fb3e 68a6 0bbe
00000020: ea37 4cbe 4136 2f3e 9a18 033f b12b 08bf
00000030: 95ca 753e 9b66 bf3e f093 5bbd f168 b0be

weight f4 [16]
0.9492108 1.067612 0.9591212 1.0184252 1.0062181 0.95743597 1.0922525 1.0356355
0.9742544 0.96772224 0.9659396 1.0182923 0.9862837 1.0773413 1.1113946 0.9964395
00000000: 7bff 723f 83a7 883f f888 753f c25b 823f
00000010: c1cb 803f 861a 753f eece 8b3f b48f 843f
00000020: bd68 793f a5bc 773f d147 773f 6757 823f
00000030: 177d 7c3f 52e6 893f 2e42 8e3f a916 7f3f

bias f4 [16]
-0.031000417 0.045082893 0.06606709 -0.04955148 0.010997351 -0.046890702 0.10240737 0.060505796
0.023022944 -0.076864205 -0.05088902 0.108208165 0.11338117 0.084164396 0.10771133 0.0001124037
00000000: 96f4 fdbc d7a8 383d 2f4e 873d 7ef6 4abd
00000010: 3c2e 343c 7710 40bd f5ba d13d edd4 773d
00000020: 9d9a bc3c fb6a 9dbd 0171 50bd 3e9c dd3d
00000030: 6334 e83d 625e ac3d c297 dc3d 47ba eb38

running_mean f4 [16]
0.10321103 0.13945735 0.2873007 -0.17083043 -0.05134304 0.6935572 0.3328064 -0.33942556
-0.07053347 0.24567394 0.83951074 -0.52227855 0.506533 0.26098353 -0.32290548 -0.14140397
00000000: 4e60 d33d e8cd 0e3e 1419 933e 2cee 2ebe
00000010: 144d 52bd f78c 313f 9a65 aa3e 30c9 adbe
00000020: da73 90bd f391 7b3e 2dea 563f 0cb4 05bf
00000030: 26ac 013f a29f 853e de53 a5be 34cc 10be

running_var f4 [16]
0.0043493556 0.023456015 0.017644942 0.0062733996 0.06073501 0.438421 0.02810589 1.1354023
0.024801824 0.007240466 0.6247784 0.11736792 0.779122 0.24621263 0.16562794 0.095067024
00000000: 0a85 8e3b d426 c03c 208c 903c 1791 cd3b
00000010: 46c5 783d b878 e03e 533e e63c dd54 913f
00000020: 322d cb3c 6e41 ed3b 7af1 1f3f 985e f03d
00000030: 8a74 473f 2a1f 7c3e 5f9a 293e 80b2 c23d

weight f4 [8, 16, 2]
-0.06899755 -0.03942245 -0.2645612 0.019325795 0.0651391 0.016283402 0.14772975 0.07737917
-0.23012365 0.13106923 0.09640609 0.16091546 -0.029785445 -0.22576448 -0.03922113 0.14628695
-0.10803168 0.027814532 -0.09475056 -0.0625155 -0.002818703 -0.00716533 0.042255837 0.037660837
-0.012097292 0.19759506 -0.2123624 0.017430425 -0.17429839 -0.10459833 0.017790576 0.078861706
0.06662653 0.025975084 -0.08076782 -0.04210865 0.05574081 -0.037894264 0.18200669 0.21458125
-0.00655169 0.18790592 0.16649082 0.13319501 -0.056644708 -0.1309291 0.13768563 -0.012958319
-0.024460599 0.05714572 -0.21131305 0.07285488 -0.13402955 0.16370945 0.13001962 -0.070142224
-0.1508015 0.028252214 0.07078783 0.05520835 0.1091623 0.25305742 -0.03529154 0.09782546
-0.12405192 -0.030970382 -0.30578306 -0.00949528 0.08136493 -0.13387454 -0.104710534 0.027346008
-0.092275284 -0.02647332 0.10466603 0.09373277 0.016380042 0.09202005 -0.35316557 0.020892655
0.0680259 0.17026125 0.11379262 0.12732609 -0.07641594 0.065452956 -0.18511511 0.09668347
0.042947747 -0.12382662 -0.18236904 0.09529142 -0.22777788 0.094685026 -0.12758262 -0.03714435
-0.15033609 0.028094267 -0.12014313 -0.1438944 0.055943463 0.08956563 0.11744111 0.12822372
0.22348441 -0.12759651 0.10291448 0.10268983 0.005999179 0.26981598 0.10806319 0.032175202
-0.026040511 0.13435726 -0.07213697 -0.11548157 0.0034202482 0.02220614 0.09795671 -0.14880212
0.028236995 -0.026278848 0.10878729 -0.01958279 -0.06154239 0.20438004 -0.015887754 0.14859211
-0.012352056 -0.089348726 -0.037405133 0.07674895 -0.026799174 -0.010258649 -0.06140333 -0.054160923
0.036555827 -0.10412201 -0.032368653 0.0007797917 0.266487 0.07787951 0.021503747 0.021287533
0.0321431 0.069992386 -0.110455826 0.1659041 0.14785084 -0.113673545 -0.10683987 0.12660117
0.16930026 -0.11147305 -0.20037156 -0.16856788 0.18106045 -0.23344937 -0.11904524 -0.05249042
-0.15178071 -0.08899906 -0.078671254 -0.047911167 -0.11633799 0.037960768 -0.07636881 -0.14415608
-0.0744889 0.029876266 0.060883302 -0.05489425 0.11388555 0.13742127 0.049275413 0.0879732
-0.013714507 -0.14714773 -0.22737809 0.053790886 -0.10773084 0.028756468 -0.15982969 -0.18459392
0.15331465 0.0068365545 0.07777527 -0.0113266725 -0.018837733 -0.06891971 -0.16369542 -0.12364873
-0.0065648723 0.08471673 -0.15753296 -0.13091362 -0.025584452 0.07107772 -0.05784629 -0.26655215
-0.06870193 -0.092655815 -0.03147858 0.07929566 -0.028689723 0.046645157 -0.029133115 -0.054668136
0.20884472 -0.07406249 -0.11308536 -0.08692653 -0.13078988 0.13397723 0.06191909 -0.047577016
-0.06622502 0.16107187 -0.058353942 -0.043916482 0.252935 0.10262058 -0.0025315797 -0.065773696
0.15895043 0.16027662 0.07230218 0.002086537 0.037319824 -0.220278 -0.07388335 -0.16690363
-0.14906487 0.122696824 0.019538017 0.036524225 0.14100969 0.111754395 -0.18836421 0.011562243
0.103969686 0.062895946 -0.025416024 -0.12329081 -0.057497747 -0.111294776 0.08488783 -0.0029640098
-0.099995986 -0.089334816 -0.09806385 -0.108597994 0.29158348 -0.046957202 -0.16391544 -0.091348924
00000000: 964e 8dbd 6f79 21bd 9174 87be 2151 9e3c
00000010: a667 853d c564 853c 7846 173e f878 9e3d
00000020: 89a5 6bbe 0337 063e 8e70 c53d 06c7 243e
00000030: 9b00 f4bc ce2e 67be 56a6 20bd 3fcc 153e
00000040: b73f ddbd 4ddb e33c 950c c2bd 2008 80bd
00000050: fdb9 38bb 25cb eabb 7514 2d3d 4042 1a3d
00000060: b833 46bc 5c56 4a3e 8775 59be 40ca 8e3c
00000070: 477b 32be a637 d6bd 8bbd 913c 3f82 a13d
00000080: 7d73 883d b3c9 d43c 9969 a5bd 1f7a 2cbd
00000090: 7a50 643d 0437 1bbd f65f 3a3e 30bb 5b3e
000000a0: 8faf d6bb 696a 403e 927c 2a3e 4664 083e
000000b0: 4804 68bd 4712 06be 76fd 0c3e 214f 54bc
000000c0: 9861 c8bc a111 6a3d 7362 58be f034 953d
000000d0: 0b3f 09be 73a3 273e dd23 053e baa6 8fbd
000000e0: b56b 1abe 3071 e73c 36f9 903d 2722 623d
000000f0: 7c90 df3d be90 813e dd8d 10bd b758 c83d
00000100: ef0e febd 99b5 fdbc 998f 9cbe 1792 1bbc
00000110: a8a2 a63d 6816 09be 7a72 d6bd bc04 e03c
00000120: d3fa bcbd 93de d8bc 255b d63d f7f6 bf3d
00000130: 702f 863c 0275 bc3d 1ed2 b4be 1327 ab3c
00000140: 2a51 8b3d f758 2e3e 1b0c e93d c561 023e
00000150: f67f 9cbd 330c 863d d18e 3dbe fc01 c63d
00000160: fae9 2f3d d098 fdbd f3be 3abe 2628 c33d
00000170: 9b3e 69be 39ea c13d 05a5 02be ad24 18bd
00000180: b4f1 19be f325 e63c 9a0d f6bd 0e59 13be
00000190: f924 653d 2f6e b73d f784 f03d 144d 033e
000001a0: 19d9 643e a9a8 02be d4c4 d23d 0c4f d23d
000001b0: c394 c43b 5225 8a3e 3c50 dd3d 25ca 033d
000001c0: e952 d5bc f394 093e 8cbc 93bd 9a81 ecbd
000001d0: 3e26 603b a7e9 b53c 879d c83d 955f 18be
000001e0: 4551 e73c bd46 d7bc dfcb de3d 166c a0bc
000001f0: e013 7cbd 0049 513e 0927 82bc 8828 183e
00000200: 4760 4abc 77fc b6bd 2036 19bd 8e2e 9d3d
00000210: f189 dbbc e413 28bc 0f82 7bbd d8d7 5dbd
00000220: 90bb 153d ec3d d5bd fe94 04bd ef6a 4c3a
00000230: fc70 883e 4b7f 9f3d a028 b03c 3163 ae3c
00000240: 7ca8 033d 2b58 8f3d aa36 e2bd c4e2 293e
00000250: 3666 173e adcd e8bd ddce dabd bda3 013e
00000260: 0c5d 2d3e fc4b e4bd 342e 4dbe 0f9d 2cbe
00000270: e967 393e 5a0d 6fbe fecd f3bd 3200 57bd
00000280: 676c 1bbe 2445 b6bd 651e a1bd 803e 44bd
00000290: 9d42 eebd c07c 1b3d 4067 9cbd a79d 13be
000002a0: a38d 98bd 12bf f43c c560 793d cbd8 60bd
000002b0: d43c e93d 29b8 0c3e 04d5 493d 4b2b b43d
000002c0: d0b2 60bc e5ad 16be cdd5 68be d553 5c3d
000002d0: fda1 dcbd af92 eb3c 65aa 23be 3006 3dbe
000002e0: 84fe 1c3e 2d05 e03b a448 9f3d 8293 39bc
000002f0: 9751 9abc c725 8dbd c69f 27be 8c3b fdbd
00000300: 241e d7bb f77f ad3d 5250 21be 380e 06be
00000310: 7c96 d1bc 3291 913d 3bf0 6cbd 8679 88be
00000320: 99b3 8cbd 55c2 bdbd afef 00bd c365 a23d
00000330: b606 ebbc fe0e 3f3d 92a8 eebc b2eb 5fbd
00000340: 64db 553e 13ae 97bd 4c99 e7bd 8906 b2bd
00000350: c8ed 05be 5431 093e df9e 7d3d 1ee0 42bd
00000360: fca0 87bd 06f0 243e 8b04 6fbd c5e1 33bd
00000370: b280 813e bd2a d23d dce8 25bb 5cb4 86bd
00000380: e7c3 223e 8e1f 243e 2a13 943d 48be 083b
00000390: acdc 183d 8e90 61be 2750 97bd c9e8 2abe
000003a0: 76a4 18be 7948 fb3d 310e a03c 6d9a 153d
000003b0: d864 103e 7ddf e43d 8ce2 40be 906f 3d3c
000003c0: 0fee d43d 97cf 803d 4435 d0bc e47f fcbd
000003d0: c282 6bbd 84ee e3bd acd9 ad3d d53f 42bb
000003e0: b2ca ccbd 2cf5 b6bd b3d5 c8bd a068 debd
000003f0: 6e4a 953e 3256 40bd 73d9 27be 2515 bbbd

bias f4 [8]
0.12025119 -0.1551359 -0.12707633 0.16012701 0.027428629 0.062091 0.12138139 -0.03591042
00000000: 4246 f63d f2db 1ebe 4c20 02be 56f8 233e
00000010: 01b2 e03c 2253 7e3d ce96 f83d ce16 13bd

weight f4 [8]
1.0138499 0.9732127 0.993725 0.94251925 0.97323376 1.1012936 1.0018528 1.1235975
00000000: d5c5 813f 7824 793f c364 7e3f f148 713f
00000010: d925 793f 30f7 8c3f b63c 803f 0bd2 8f3f

bias f4 [8]
-0.16015513 0.05883933 -0.08752442 -0.055031892 -0.1688614 0.08070503 -0.043829344 0.01669837
00000000: b5ff 23be 8201 713d 0140 b3bd 1f69 61bd
00000010: 01ea 2cbe ae48 a53d 6686 33bd 05cb 883c

running_mean f4 [8]
-0.01721807 0.2037859 -0.40291846 0.42838016 -0.060281094 -0.27688336 -0.059525292 -0.19093546
00000000: e90c 8dbc 40ad 503e 544b cebe a554 db3e
00000010: 4fe9 76bd a8c3 8dbe cbd0 73bd 9684 43be

running_var f4 [8]
0.21468247 0.15575908 0.034056265 0.19912681 0.049059875 0.21909633 0.09500012 0.049375847
00000000: b9d5 5b3e 4f7f 1f3e 957e 0b3d e6e7 4b3e
00000010: 02f3 483d ca5a 603e 6c8f c23d 543e 4a3d

weight f4 [4, 8, 2]
0.005404972 0.17953205 0.18624058 -0.07410881 0.009228037 0.098695725 -0.12832473 -0.12339774
-0.3147542 -0.04359703 -0.08461542 0.2886516 -0.14780983 0.12690638 0.14082718 0.15731205
0.18164638 -0.12483684 0.12621933 0.047332585 -0.195247 0.18748645 0.0045729713 -0.00069433363
-0.2457463 0.1705802 0.16287303 -0.10634589 0.13345028 -0.17781994 -0.19624247 -0.10907478
0.2956924 -0.16544914 0.21990407 0.14899835 0.011856667 0.12234015 0.22735848 -0.23087431
-0.044992205 -0.068753876 -0.08509795 0.029097758 -0.08063932 0.12251142 -0.07000567 0.25052777
-0.038298633 -0.1689625 0.19194794 -0.04273124 0.049753927 0.043357044 -0.030507965 0.10923795
-0.061678547 0.051769953 -0.019609217 0.49305728 -0.089133166 -0.20820422 -0.013101621 -0.17882922
00000000: 311c b13b 40d7 373e dab5 3e3e 5cc6 97bd
00000010: 3131 173c fc20 ca3d 8f67 03be f4b7 fcbd
00000020: 7627 a1be cd92 32bd d94a adbd 24ca 933e
00000030: 765b 17be bff3 013e 0035 103e 6916 213e
00000040: 8201 3a3e 75aa ffbd a43f 013e d0df 413d
00000050: d4ee 47be 73fc 3f3e ddd8 953b f103 36ba
00000060: eba4 7bbe 93ac 2e3e 30c8 263e e0cb d9bd
00000070: 31a7 083e 6e16 36be c9f3 48be 9962 dfbd
00000080: ff64 973e 806b 29be 882e 613e 0693 183e
00000090: 7742 423c 798d fa3d a9d0 683e 516a 6cbe
000000a0: bf49 38bd d5ce 8cbd d647 aebd 6c5e ee3c
000000b0: 3a26 a5bd 44e7 fa3d 225f 8fbd 2d45 803e
000000c0: 07df 1cbd 8104 2dbe 008e 443e f406 2fbd
000000d0: c6ca 4b3d 2897 313d d7eb f9bc 25b8 df3d
000000e0: a5a2 7cbd bb0c 543d 82a3 a0bc 0172 fc3e
000000f0: 738b b6bd 7d33 55be 2ea8 56bc 021f 37be

bias f4 [4]
-0.1464608 0.28501946 -0.0096022645 0.023440702
00000000: d2f9 15be 12ee 913e d152 1dbc b706 c03c

weight f4 [4]
0.9135804 1.0147102 1.032194 1.1148366
00000000: 68e0 693f 06e2 813f ef1e 843f f7b2 8e3f

bias f4 [4]
-0.18645129 -0.09800801 -0.028330082 -0.089831956
00000000: 16ed 3ebe 6cb8 c8bd 7d14 e8bc d1f9 b7bd

running_mean f4 [4]
0.015545549 0.20317976 0.23207645 0.026101224
00000000: c2b2 7e3c 5b0e 503e 73a5 6d3e 3cd2 d53c

running_var f4 [4]
0.0560742 0.12696029 0.2385763 0.098653704
00000000: 0fae 653d e101 023e 584d 743e f40a ca3d

weight f4 [1, 4, 2]
0.2313489 -0.17348945 -0.04263402 0.26456898 -0.06590405 -0.22535594 0.12726001 -0.14769158
00000000: bae6 6c3e 38a7 31be 03a1 2ebd 9675 873e
00000010: b4f8 86bd b5c3 66be 7350 023e 763c 17be

weight f4 [16, 80]
0.049986213 0.07340789 -0.01266879 0.066235475 0.08335381 -0.21613652 0.013981093 -0.27273306
-0.024545597 -0.09888044 -0.081459306 0.11125235 -0.060183868 -0.03419359 0.17319043 0.054302726
0.0510173 -0.043326765 0.06664988 0.262627 -0.010499388 0.11058918 0.1427808 -0.116634876
0.04692188 0.07429602 -0.24215358 0.14851284 -0.08832541 0.20016803 0.06132613 -0.12875259
0.10285186 0.02599426 0.12480566 0.25606892 0.038574804 0.018802749 -0.20039666 0.10479292
0.034030814 0.080336235 0.06958412 0.18770017 0.020395169 -0.051019005 0.12468819 0.006511573
-0.016283104 -0.01602841 0.11016762 -0.057507902 0.012292357 -0.19151813 -0.049367122 0.1583373
0.15083377 -0.043574527 -0.060795296 0.11309827 -0.08468947 0.06874555 -0.023995256 -0.036348894
-0.03682685 -0.0026433745 -0.055422567 -0.057232697 -0.0073525193 -0.21636474 -0.039344106 -0.1076688
0.05687501 0.019052727 -0.073147826 -0.15296361 0.094649896 -0.026192904 -0.084772356 -0.09546911
-0.042218193 -0.01489625 0.10031365 -0.14215745 -0.11250408 0.25841945 0.001577353 0.11818634
0.16703868 0.13385688 0.047331054 -0.057681307 0.10289156 0.00224973 -0.045880087 -0.18039387
-0.09946068 -0.04293778 -0.0877916 -0.08014626 -0.028265815 0.046263468 -0.08152923 0.13397022
-0.12904404 -0.017912416 0.26662007 -0.11409307 0.06448274 -0.057599757 -0.08451122 0.06361859
-0.18649884 -0.12375374 0.04066474 -0.25792322 0.001326153 0.053286545 0.12229367 -0.008090696
-0.23308963 0.031755745 0.038575843 -0.16132128 -0.16224702 0.053453777 -0.024629906 0.118295155
0.078491695 0.022220349 0.041447368 0.02981016 -0.1228052 0.08182258 -0.00017435198 -0.069517605
-0.06539752 0.027592763 -0.031800475 0.060039595 -0.028871667 -0.021056434 -0.038244218 -0.015807642
-0.056414854 -0.09297259 0.0087497495 0.051530495 0.06926139 0.18122724 0.043808095 0.065921366
0.08738345 -0.0033234356 -0.00648831 0.116990626 0.115567595 -0.050672065 0.08699133 0.01761301
-0.01514411 -0.003118008 0.08802491 -0.080665626 -0.0010174952 0.27113393 0.16176233 0.22197422
0.063741386 -0.035125855 0.021641633 -0.01617293 0.014665711 0.0083126435 0.01261051 -0.07556979
0.019983338 -0.15142722 -0.13524328 -0.20260786 -0.04374792 0.073762156 -0.21383706 0.16440442
-0.15384112 -0.10563175 0.23833846 -0.04896276 -0.09243548 -0.2751077 -0.20900042 0.04065345
-0.20467132 -0.075087145 -0.04166303 -0.1136389 -0.048918415 0.11887916 0.00093038863 0.037555072
-0.019953119 0.033635154 0.07896039 -0.13952018 -0.12672843 -0.06182948 0.034366827 0.009988043
-0.018846618 -0.015812436 -0.14217645 0.0681924 0.01317944 0.16467628 -0.014462873 0.0030689451
-0.10470948 0.055486873 0.035257198 0.054929305 0.017922439 0.0013851179 0.028867438 -0.115814045
0.09965214 -0.00882341 -0.028880352 -0.13044274 0.18263762 0.046763573 -0.09599377 0.015279281
0.026547192 -0.082783185 0.071465455 0.1812036 -0.046219137 0.14463153 0.14934444 0.08189237
0.026372164 0.13903297 -0.047229063 -0.019493002 -0.025710179 -0.10484348 -0.1355065 -0.20117804
-0.05298072 0.035549004 0.021730488 0.088948585 -0.0026718983 0.108878486 -0.026607895 0.14982839
00000000: 58be 4c3d e056 963d c290 4fbc 77a6 873d
00000010: 67b5 aa3d e452 5dbe f410 653c aba3 8bbe
00000020: d913 c9bc d481 cabd 23d4 a6bd 46d8 e33d
00000030: 5c83 76bd 940e 0cbd d558 313e 896c 5e3d
00000040: 84f7 503d 6877 31bd bb7f 883d 0c77 863e
00000050: a005 2cbc 947c e23d 2135 123e 44de eebd
00000060: 2831 403d 8328 983d 1cf7 77be c013 183e
00000070: f4e3 b4bd d9f8 4c3e 1c31 7b3d b8d7 03be
00000080: ffa3 d23d eaf1 d43c 1c9a ff3d 771b 833e
00000090: 9d00 1e3d 3908 9a3c c834 4dbe ac9d d63d
000000a0: e563 0b3d 5387 a43d 1e82 8e3d 7934 403e
000000b0: c513 a73c 4ef9 50bd 865c ff3d 095f d53b
000000c0: 2564 85bc 034e 83bc 909f e13d 688d 6bbd
000000d0: e265 493c 541d 44be 2e35 4abd 2c23 223e
000000e0: 2b74 1a3e 347b 32bd 7d04 79bd 11a0 e73d
000000f0: ac71 adbd 78ca 8c3d b391 c4bc 94e2 14bd
00000100: c0d7 16bd 773c 2dbb c602 63bd d56c 6abd
00000110: 67ed f0bb b88e 5dbe 4927 21bd 7681 dcbd
00000120: c5f5 683d 7714 9c3c 87ce 95bd 7ea2 1cbe
00000130: ced7 c13d 8092 d6bc 219d adbd 4f85 c3bd
00000140: fcec 2cbd 670f 74bc 3e71 cd3d b991 11be
00000150: 8a68 e6bd 8e4f 843e 2fbf ce3a ae0b f23d
00000160: 300c 2b3e c711 093e 35de 413d 3c43 6cbd
00000170: cfb8 d23d 3570 133b c2ec 3bbd 2cb9 38be
00000180: 0ab2 cbbd 87df 2fbd 15cc b3bd b923 a4bd
00000190: b68d e7bc c37e 3d3d ccf8 a6bd 7d2f 093e
000001a0: 1f24 04be 0fbd 92bc 6d82 883e a1a9 e9bd
000001b0: 870f 843d b9ed 6bbd 3814 adbd 774a 823d
000001c0: 8df9 3ebe 9a72 fdbd 1290 263d 830e 84be
000001d0: 50d2 ad3a fe42 5a3d 1b75 fa3d d78e 04bc
000001e0: 0caf 6ebe 5012 023d b401 1e3d 6831 25be
000001f0: 1524 26be 59f2 5a3d a8c4 c9bc bb44 f23d
00000200: 41c0 a03d 7307 b63c b7c4 293d 7034 f43c
00000210: 4b81 fbbd 9992 a73d 41d2 36b9 3f5f 8ebd
00000220: 23ef 85bd 380a e23c 3741 02bd 14ec 753d
00000230: 4684 ecbc 8b7e acbc f8a5 1cbd 077f 81bc
00000240: 4313 67bd 6a68 bebd 1c5b 0f3c a411 533d
00000250: ead8 8d3d a293 393e 1e70 333d c801 873d
00000260: 18f6 b23d ffcd 59bb e49b d4bb c898 ef3d
00000270: b4ae ec3d 838d 4fbd 8328 b23d 2949 903c
00000280: 001f 78bc 7e57 4cbb 6746 b43d 0534 a5bd
00000290: 795d 85ba 11d2 8a3e 06a5 253e 364d 633e
000002a0: d88a 823d 21e0 0fbd cb49 b13c 187d 84bc
000002b0: 7348 703c c131 083c 509c 4e3c 56c4 9abd
000002c0: 19b4 a33c bd0f 1bbe 377d 0abe 6f78 4fbe
000002d0: 0531 33bd 9d10 973d 1af8 5abe a259 283e
000002e0: 8788 1dbe 7555 d8bd ff0e 743e 2d8d 48bd
000002f0: d04e bdbd ebda 8cbe 3504 56be 3b84 263d
00000300: 5c95 51be 4ac7 99bd daa6 2abd 83bb e8bd
00000310: ad5e 48bd eb76 f33d 53e5 733a 59d3 193d
00000320: b974 a3bc 04c5 093d fcb5 a13d 61de 0ebe
00000330: 19c5 01be e940 7dbd 3bc4 0c3d e4a4 233c
00000340: 3964 9abc 1589 81bc b496 11be 75a8 8b3d
00000350: 94ee 573c e6a0 283e b0f5 6cbc 5b20 493b
00000360: ed71 d6bd 3446 633d da69 103d 8dfd 603d
00000370: 14d2 923c d88c b53a 687b ec3c ea2f edbd
00000380: 6c16 cc3d 1090 10bc 7d96 ecbc c892 05be
00000390: 5b05 3b3e 298b 3f3d 6298 c4bd f355 7a3c
000003a0: 7f79 d93c 3b8a a9bd 7b5c 923d 708d 393e
000003b0: 4750 3dbd 4a1a 143e c0ed 183e 30b7 a73d
000003c0: 700a d83c a95e 0e3e 4373 41bd caaf 9fbc
000003d0: 279e d2bc 2eb8 d6bd 37c2 0abe 9e01 4ebe
000003e0: 5002 59bd d59b 113d 2304 b23c ad2a b63d
000003f0: 041b 2fbb affb de3d cdf8 d9bc 9d6c 193e

bias f4 [16]
-0.055499844 -0.051276475 -0.036114242 -0.06462118 0.0038284084 -0.009783048 -0.055934407 -0.095095985
-0.037858773 -0.13286193 -0.044696394 0.046446204 -0.023679275 0.0003942912 -0.12527971 -0.10998529
00000000: ce53 63bd 4807 52bd 87ec 13bd 1c58 84bd
00000010: 09e6 7a3b 1449 20bc 7a1b 65bd afc1 c2bd
00000020: cd11 1bbd f50c 08be 9113 37bd 603e 3e3d
00000030: 0afb c1bc deb8 ce39 5349 00be f83f e1bd

weight f4 [2, 16]
0.1307363 -0.24547637 0.03329507 -0.07298331 -0.07736786 0.0439887 -0.31384477 0.3659201
0.37154868 0.34523597 0.11983417 0.35780823 -0.29292315 0.22357857 -0.1117326 0.28612295
-0.17127813 0.2577121 0.2605682 -0.21142492 0.29010713 -0.2905186 -0.11107157 -0.026341736
-0.23183353 -0.07968744 0.28735554 0.019995207 0.24033774 -0.1767358 -0.11375065 -0.05594323
00000000: bddf 053e 285e 7bbe 6960 083d 4678 95bd
00000010: 0a73 9ebd 7f2d 343d 43b0 a0be e159 bb3e
00000020: a13b be3e c5c2 b03e 9e6b f53d a432 b73e
00000030: 06fa 95be c8f1 643e 10d4 e4bd b57e 923e
00000040: 8963 2fbe d7f2 833e 3269 853e c67f 58be
00000050: ec88 943e dbbe 94be 7e79 e3bd a0ca d7bc
00000060: c565 6dbe 2b33 a3bd 4420 933e fdcc a33c
00000070: 191b 763e 3bfa 34be 1af6 e8bd ba24 65bd

bias f4 [2]
0.14897454 0.03630946
00000000: c88c 183e 3ab9 143d
