mlpcnnsemi/model/cnn/82oneinput_batch1_Epoch=1_lr=0.0001.pth (torch, 25249 bytes, 29 tensors)

weight f4 [4, 1, 1]
000000 ce 6c 01 3f a5 af ea 3e ec 97 86 3c a8 31 8f bc
       0.5055665 0.4583713 0.016429864 -0.017479733

bias f4 [4]
000000 c9 f6 08 be 7d f8 62 bd 2d a1 75 bf 08 7a 2b bf
       -0.13375391 -0.05541276 -0.9594906 -0.6698308

weight f4 [4]
000000 ec 74 80 3f d4 8f 7c 3f 38 56 7f 3f ed 37 81 3f
       1.0035682 0.98656964 0.99740934 1.0095192

bias f4 [4]
000000 b5 d3 10 3b aa ec 8b bb 4a 21 95 b9 92 3a 7e 3b
       0.0022098843 -0.004270156 -0.00028444297 0.0038792235

running_mean f4 [4]
000000 1a df 83 3c 2d e0 a3 3d 40 5f 74 bf 4b dc 2c bf
       0.016097594 0.080017425 -0.9545784 -0.6752364

running_var f4 [4]
000000 ac 3a 21 3e 10 8c 04 3e ea 7d 2c 39 85 12 47 39
       0.15745038 0.12944055 0.00016450105 0.00018985018

weight f4 [16, 4, 1]
000000 a9 9d e3 3c b3 bd ac 3e da 4a 9e be d9 d2 74 3d
       0.02778514 0.3373848 -0.30916482 0.059771392
000010 a4 46 46 be b4 89 5a 3c e3 f7 22 3e 16 f4 c0 3d
       -0.19362885 0.013338495 0.15914874 0.09421556
000020 2d 4b fc 3e eb 0d 14 be cf ab fe be 2b fe eb be
       0.49276105 -0.14458434 -0.49740455 -0.46092352
000030 60 63 89 be c0 c1 23 3e b9 22 4e bd e8 60 d6 be
       -0.2683363 0.15991879 -0.050326083 -0.4187081
000040 a0 4b 31 be 13 5d 63 be 41 7b 9a 3e f5 a4 77 3e
       -0.17314005 -0.22203474 0.3017216 0.2418402
000050 44 dd 26 be 26 3c a4 3e c4 59 fe 3e 56 93 4d 3e
       -0.16295344 0.3207714 0.4967786 0.20075735
000060 3f 2a c4 3e 70 dd 0a be 45 77 e7 be 5b f1 9f be
       0.3831348 -0.13561034 -0.45208183 -0.31238827
000070 36 8e a4 be 3a 4d 46 be ae 9b e6 be 2f fb ca 3e
       -0.32139748 -0.19365397 -0.4504065 0.39644763
000080 83 ca ff be 70 66 ab 3e 21 ef df 3e b9 c7 67 3e
       -0.49959192 0.3347659 0.43737128 0.22634782
000090 a8 e3 d9 be 7d 41 6b be 0f 49 22 3e f6 a1 8b 3d
       -0.425565 -0.229742 0.15848182 0.06818001
0000a0 b9 38 db 3e c2 91 6a 3e 2f fc b3 3e bc 42 2e 3e
       0.42816713 0.22907165 0.35153338 0.17017645
0000b0 23 9d 0e be 08 0f c9 3d 53 fa 90 be 96 eb a4 3e
       -0.1392713 0.0981732 -0.28315982 0.32210988
0000c0 6d 15 8f be 1e 5c b9 3e 77 5d f2 3e 36 8f 07 3e
       -0.27946034 0.36203092 0.47336933 0.13238224
0000d0 bc 76 bf be 2a fa ba 3d 5e 16 cc bd 19 66 29 3e
       -0.37395275 0.09129746 -0.09965204 0.16542853
0000e0 72 a6 df be 93 07 96 3d bc 43 aa be 08 8a ad be
       -0.43681675 0.073256634 -0.33254802 -0.33894372
0000f0 05 5f e2 3d 2b ff 8e bd 0b 4b 9a 3e aa 0f 9d 3e
       0.1105328 -0.06982263 0.30135378 0.30676013

bias f4 [16]
000000 79 6d 88 3d be e2 1e 3e f3 82 d9 3e 55 eb f1 3c
       0.06661505 0.15516183 0.4248272 0.02953116
000010 0e 89 2d bc 62 f7 c6 3e 82 09 f0 3e 54 13 04 be
       -0.010591758 0.38860613 0.46882254 -0.12897998
000020 8e e1 54 be f8 08 4f 3d 2d c2 fd 3e 50 f5 f7 be
       -0.20789167 0.050545663 0.49562207 -0.48429346
000030 95 42 6c 3e 13 e8 ae 3e 88 ea da bc dc c0 9b be
       0.23072274 0.34161434 -0.026723161 -0.30420578

weight f4 [16]
000000 1d 30 7e 3f 07 21 80 3f 51 97 81 3f 88 7c 7d 3f
       0.99292165 1.0010079 1.0124303 0.99018145
000010 ec 08 80 3f 1d ab 7f 3f 8c 21 80 3f 93 04 80 3f
       1.0002723 0.99870473 1.0010238 1.0001396
000020 6c 4f 81 3f 61 c6 7e 3f fe 73 80 3f a6 06 80 3f
       1.0102363 0.9952145 1.0035398 1.0002029
000030 fb 87 80 3f 6c e3 7f 3f 94 b4 80 3f 94 3e 7e 3f
       1.0041498 0.99956393 1.0055108 0.99314237

bias f4 [16]
000000 6c 8c 2d bc e3 eb 15 3a a2 3d 39 3c 34 b4 a6 bb
       -0.010592561 0.0005719049 0.011306198 -0.0050874
000010 7e 6d 94 bb 1a 7d 3c 3c b2 a8 76 ba 00 bc a8 3b
       -0.004529654 0.011504436 -0.0009409293 0.0051493645
000020 ad 17 96 3b a1 a2 e4 bb 42 c2 4d 3c a3 35 b2 3b
       0.004580459 -0.0069773947 0.012558522 0.005438523
000030 7a a7 6f 3c 7c 03 4a bc 4e 3e 87 ba bf 43 c0 bb
       0.014627332 -0.012329932 -0.0010318251 -0.005867451

running_mean f4 [16]
000000 41 81 c9 3d d1 5c 30 3e 88 4f 8a 3e 90 f6 fa bd
       0.09839106 0.17222907 0.27013803 -0.12254059
000010 b1 d3 d4 3c c0 90 1b 3f 6c 51 ad 3e 86 e7 8c be
       0.025979849 0.60767746 0.33851182 -0.27520388
000020 68 cc a9 bd bb b7 81 bd 12 72 4d 3f ef 94 f7 be
       -0.082909405 -0.06333872 0.8025218 -0.48355815
000030 d9 aa cf 3e 5c 57 91 3e da 33 98 be a8 cd 0a be
       0.40560034 0.28386962 -0.2972706 -0.13555014

running_var f4 [16]
000000 f0 12 35 3b f0 27 a7 3a fa b0 3b 3c e1 a5 88 3c
       0.0027629696 0.0012752991 0.011455769 0.01668066
000010 37 35 5d 3c 4c 62 a2 3e 3e c8 c0 3c 27 14 4f 3f
       0.013501457 0.3171562 0.023532983 0.80890125
000020 65 83 3c 3d af 53 5a 3e c5 80 4d 3f 93 58 cf 3d
       0.046023745 0.21320985 0.8027461 0.10124316
000030 54 9a 69 3e 1c c0 06 3e 86 0e bb 3e 62 2a a7 3d
       0.22812778 0.13159221 0.36534518 0.08162381

weight f4 [8, 16, 2]
000000 37 a4 54 bd b6 8f b0 bd be c2 37 be b2 89 bd bd
       -0.05191442 -0.08621161 -0.17945382 -0.09254779
000010 80 f1 ac 3d 7a c7 de bc 62 53 23 3e 02 ee 07 3d
       0.084445 -0.027194727 0.15949777 0.033185966
000020 17 1c 1f be 72 f3 47 3d e6 21 df 3d 46 ea e8 3d
       -0.15538059 0.048816152 0.108951375 0.11372809
000030 9b c0 51 bd f8 a7 21 be ba 6f f0 3d ac b2 f0 3c
       -0.051209074 -0.15786731 0.1174006 0.029382072
000040 26 b0 c6 bd 38 eb b6 ba f2 5b ee 3c d6 c2 27 be
       -0.097015664 -0.0013955599 0.029096577 -0.16382918
000050 52 c3 24 3c 7a 5c 69 bd e3 eb 12 3e b6 59 7e bd
       0.010056334 -0.05697296 0.14347796 -0.062097274
000060 19 5a ca bb be e6 16 3e 17 41 de bd f5 c4 de bd
       -0.0061752913 0.14736459 -0.10852259 -0.1087741
000070 81 5c b3 bd 06 e2 11 be 9f bf 08 3d ac 65 14 3d
       -0.08757878 -0.14246377 0.03338587 0.036229774
000080 0b fd 78 3d ce c2 0d 3e e8 86 f5 bd cc ce ac bd
       0.060788196 0.13843843 -0.11988622 -0.08437881
000090 f6 ff 94 bc 07 36 00 bd 42 1a b3 3d 1f 5f 0e 3e
       -0.018188458 -0.031301524 0.08745243 0.13903473
0000a0 36 9d e6 3c 19 67 25 3e 7e ef 11 3e 8a a7 e7 3d
       0.028151136 0.1615261 0.14251515 0.113112524
0000b0 18 e2 d7 bd 9b af 09 3d c9 97 07 3e b9 1a 54 bd
       -0.10541171 0.033614736 0.13241495 -0.051783297
0000c0 25 9a 56 bc 59 d0 df 3d 63 b4 2b be 3a 16 7e bd
       -0.013098274 0.10928411 -0.16768031 -0.062032916
0000d0 62 25 29 be 52 bf 11 3e 8a 26 f5 3d ad 24 fc bd
       -0.16518167 0.14233139 0.11970241 -0.12311683
0000e0 1e e9 31 be 29 01 9d 3c e1 ca b9 3c 1f 3d 91 3c
       -0.17374083 0.019165592 0.022679748 0.01772934
0000f0 48 a4 e8 3d 0e cf 4b 3e e4 b9 b0 bc 07 39 d7 3d
       0.11359459 0.19903204 -0.021573015 0.10508924
000100 dd d7 a3 bd 4e 4a 78 bd fc 6c 16 be 79 b4 0b 3b
       -0.08000157 -0.060617737 -0.14690012 0.0021317287
000110 4a 5e f3 3d 35 88 e5 bd 5b 80 09 bc 59 3e b1 3d
       0.118832186 -0.1120762 -0.008392419 0.0865447
000120 fa be 26 bd 2c 4e 2f bd 89 7b e5 3d 56 27 cd 3d
       -0.040709473 -0.04279916 0.11205203 0.10017268
000130 fd 21 ac 3d 91 6c c3 3c 05 53 c1 bd ce c3 8e 3d
       0.0840492 0.02385548 -0.09439663 0.069709405
000140 89 ac ca 3d 10 77 2a 3e 83 c9 2b 3e 58 1d fc 3d
       0.0989619 0.16646981 0.1677609 0.123102844
000150 54 2e 8d bd 5d a4 94 3d cd da a8 bd d6 61 a9 3d
       -0.06893602 0.07257912 -0.08244858 0.08270614
000160 8b bf 70 3d 9f 4c e7 bd 69 ff 1e 3d 8a 22 07 3e
       0.05877642 -0.11293911 0.038817797 0.1319677
000170 30 50 04 be 56 a2 13 3e 72 14 e5 bd 73 f8 ef bc
       -0.12921214 0.14417395 -0.1118554 -0.029293275
000180 d2 ce 0c be 29 76 dc bc 56 cb 24 be e0 63 fd bd
       -0.1375077 -0.026911812 -0.16093192 -0.12372565
000190 b8 27 00 ba 85 46 e4 3d 24 da e8 3d c9 02 2c 3e
       -0.0004888731 0.11146263 0.11369732 0.16797937
0001a0 3f f3 23 3e 17 c8 b3 bd 15 2d fe 3d 77 e5 87 3d
       0.1601076 -0.087783985 0.124109425 0.06635564
0001b0 9f f9 b6 3c ff 6d 11 3e 9c 7a cb 3c 8a 0e f3 bc
       0.022335825 0.14202116 0.024838738 -0.029670019
0001c0 94 46 56 bc 25 47 bb 3d be e2 03 be 21 7d d8 bd
       -0.013078351 0.09144429 -0.12879464 -0.105707414
0001d0 2a 54 e4 3c 7f 86 b4 bb 6f b5 40 3d a4 4e f8 bd
       0.027872164 -0.0055091972 0.04704803 -0.121243745
0001e0 cb 4a 52 3d 9d c1 1d bd 54 2c 7d 3d 38 8a 25 bd
       0.05134086 -0.038514722 0.061809853 -0.04041502
0001f0 12 f3 3a be bd 78 bd bc 57 c1 a2 3a 7a bc d1 3d
       -0.18256786 -0.023128862 0.0012417239 0.10241027
000200 ed ff 52 bd 88 29 70 bd 56 4c 02 3d 3c 98 ee 3d
       -0.0515136 -0.058633357 0.03181108 0.1165013
000210 07 e3 06 bd 40 d6 8d bd 72 ce 2b bd 62 aa cd bd
       -0.032931354 -0.069256306 -0.04194493 -0.100422636
000220 62 e5 df 3d a6 9e d1 bd f2 50 33 bd 02 ac a9 3c
       0.10932423 -0.10235338 -0.043778367 0.020711903
000230 93 a9 37 3e 97 1b 6f 3d 4d 4d 9f 3d ff 01 56 3d
       0.17935781 0.05837592 0.07778416 0.052247997
000240 ce 81 05 3c 26 ff e7 3d 49 35 31 3c 0d 34 2a 3e
       0.008148624 0.113279626 0.010815927 0.16621418
000250 14 02 0d 3e ae 2d b9 bd 65 a2 26 bd ae 50 1a 3e
       0.13770324 -0.09041916 -0.040682215 0.1506984
000260 56 27 26 3e fa 47 9f bd 43 4b fe bd 6b 74 f8 bd
       0.16225943 -0.077774 -0.12416699 -0.1213158
000270 5a a0 2b 3e 43 35 2a be 59 e3 fe bd 11 ed 93 bc
       0.16760388 -0.1662188 -0.12445707 -0.018057378
000280 1a 7e 0d be 6a 25 0e be 38 ce 74 bd 94 eb ca 3c
       -0.13817635 -0.1388146 -0.059766978 0.024770536
000290 ac 76 cc bd 17 c2 8e 3d 06 b8 b1 bd a3 d4 8b bd
       -0.09983572 0.069706134 -0.08677678 -0.068276666
0002a0 99 39 66 3b 13 b6 49 3d 45 c4 62 3d 45 5c 96 bd
       0.0035129546 0.049245905 0.05536296 -0.07341818
0002b0 3d 44 bb 3c 17 15 19 3e 01 25 aa 3c 7e 2b 41 3e
       0.022859687 0.14949451 0.020769598 0.18864247
0002c0 d4 99 fd 3c ae 05 0b be 08 e1 12 be e7 2d 02 3e
       0.03095714 -0.13576385 -0.14343655 0.12712823
0002d0 89 6d f4 bd 78 99 53 bc 2e d9 aa bd 68 45 0a be
       -0.11934955 -0.012915008 -0.08342205 -0.13503039
0002e0 02 ae 15 3e 9e 76 c2 bd d5 7b a9 3d 19 e1 b0 3d
       0.1461716 -0.09495281 0.08275572 0.08636684
0002f0 f5 53 af bd eb be db 3d 3c 96 0d be e7 1f ea bd
       -0.085609354 0.10729774 -0.13826841 -0.11431866
000300 66 f9 e3 bc 4a e6 ec 3d 72 0b 98 bd 8f 41 c5 bd
       -0.027828883 0.11567362 -0.07424058 -0.09631645
000310 1f 73 0e 3d a3 65 97 3d 58 0f 3c bd 29 e2 ff bd
       0.034777757 0.073924325 -0.04591307 -0.124943085
000320 d9 c9 f5 3c 45 2f ea bc 39 0e 31 bd 2b de 04 3e
       0.030003475 -0.028586993 -0.043226454 0.12975375
000330 5f e5 00 be 55 55 d7 bd 1e 2d 4f 3d 10 64 9a bc
       -0.12587498 -0.10514323 0.050580136 -0.018846542
000340 9a 19 31 3e ba b0 0d bd 78 3d f2 bc e9 3c 80 3d
       0.17294922 -0.034592368 -0.029570326 0.06261618
000350 9d 39 0e be 3c 1e 32 3e a3 1d 11 3e 6e cb 8c 3c
       -0.13889165 0.17394346 0.14171462 0.017186847
000360 b9 6f 9d bd 40 db 35 3e 7c c6 50 3c d6 84 ab bb
       -0.07687325 0.17759418 0.012742635 -0.005234341
000370 40 30 12 3e 6f eb 55 3d d0 86 c8 bc 1f 82 58 bc
       0.14276218 0.05222648 -0.024478346 -0.013214617
000380 a2 6e 98 3d 8a 40 10 3e 53 2c 91 3d 1d 1b 83 3d
       0.074429765 0.1408712 0.07088532 0.06401656
000390 a6 e2 1d 3a 72 70 12 be 97 db fb bd ee 13 ad bd
       0.0006022848 -0.14300707 -0.12297743 -0.08451067
0003a0 3f 71 f0 bd ae ca 34 3e dc 56 9b 3c 33 3c 90 bc
       -0.1174035 0.17655441 0.018962316 -0.01760683
0003b0 f1 4b 2a 3d d9 dc 23 3e 81 9a 19 be ed 51 bf 3d
       0.04157633 0.16002215 -0.15000345 0.09341798
0003c0 1f fc 89 3c 3b 91 3b 3d c0 1c d1 bc 68 e5 ac bd
       0.016843854 0.0457928 -0.025526404 -0.08442193
0003d0 08 e7 11 bd 0f 96 2d be a0 ca f1 3d 5d b2 46 3d
       -0.03562072 -0.16951774 0.11806226 0.048509944
0003e0 e4 b4 a0 bd 8b 11 16 be 58 45 b2 bd 1e 32 2b bd
       -0.07847002 -0.1465513 -0.087046325 -0.041795842
0003f0 3a ee f9 3d 7c 86 1e 3d f8 69 4d be f5 c2 d0 bd
       0.12203641 0.038702473 -0.20059955 -0.10193435

bias f4 [8]
000000 61 dc 06 3e 7c 6b 15 be a4 26 64 bb 15 8e d9 3d
       0.13170005 -0.14591783 -0.003481307 0.10622803
000010 a9 56 c6 bc 5f 70 1f bd a5 7b 28 3d 74 26 4c 3d
       -0.024211245 -0.038925525 0.04113354 0.04984136

weight f4 [8]
000000 29 a6 7f 3f ee 7b 7d 3f 74 67 82 3f 69 ac 80 3f
       0.99862915 0.99017227 1.0187821 1.0052615
000010 f6 55 7e 3f 3a fb 7b 3f 80 13 80 3f 9d 23 80 3f
       0.99349916 0.98430216 1.0005951 1.0010868

bias f4 [8]
000000 f9 76 30 3c 1d 1e e4 bc f7 df a6 3c 7a 23 b2 3b
       0.010770553 -0.02784639 0.020370467 0.005436358
000010 74 d5 5c bc ed 83 81 bc 9a a8 fd 3c 56 f4 d5 3a
       -0.013478626 -0.015809977 0.030964185 0.0016323428

running_mean f4 [8]
000000 72 3f 72 bc 7b 83 ab 3b eb 5a bd 3d 97 67 9f 3d
       -0.014785634 0.0052341796 0.09245857 0.0778343
000010 7a 13 81 3d 99 90 23 be ce a0 0c 3e f3 19 47 bc
       0.06302543 -0.15973128 0.13733217 -0.012152183

running_var f4 [8]
000000 35 30 6e 3d 3d 89 84 3e e6 33 f9 3c 69 ea cc 3d
       0.058151443 0.25885954 0.030420255 0.10005648
000010 90 fa 6b 3c d2 2e f1 3e 79 55 5b 3e 30 46 38 3e
       0.0144030005 0.47106034 0.21419324 0.17995524

weight f4 [4, 8, 2]
000000 19 6c b6 bc 72 04 3c 3e 9e 63 2d 3e 62 8a 62 bd
       -0.022268342 0.18361071 0.16932532 -0.055307753
000010 66 5c be bb 16 80 84 3d 79 55 31 be 59 e3 25 be
       -0.0058093546 0.06469743 -0.17317761 -0.16200007
000020 f7 ed 72 be 75 a0 f0 3b 06 94 fc bd e1 97 6b 3e
       -0.23723589 0.0073433467 -0.12332921 0.23007156
000030 eb d3 e4 bd b5 ed 02 3e 28 1c 32 3d c3 cb d5 3d
       -0.11173233 0.1278599 0.043483883 0.10439255
000040 cf 27 fb 3d 4a 50 41 bd b9 ba c5 3d 1f 50 83 bd
       0.12263452 -0.04719571 0.09654755 -0.06411766
000050 1b 55 3d be 73 f9 3e 3e 5b 80 69 bd 99 76 72 3d
       -0.18489496 0.18649845 -0.057007175 0.059195135
000060 7e c9 6e be e3 6b 54 3e 6f f3 87 3d 91 84 21 be
       -0.2331905 0.2074428 0.06638228 -0.15773226
000070 10 8e 4d 3d dd 1a 40 be 60 1c 53 be 8c 94 98 bd
       0.05018431 -0.18760248 -0.20616293 -0.07450208
000080 4b e8 36 3e e4 8e 82 be 0e f5 85 3e ef 1d 4e 3e
       0.1786205 -0.25499642 0.26163524 0.20128606
000090 79 58 99 bc 45 85 ca 3d de 01 3c 3e 13 51 cf bd
       -0.018718945 0.098887004 0.18360087 -0.101228856
0000a0 a8 e9 a8 bd 39 83 57 be 08 65 00 be 12 93 75 3e
       -0.082476914 -0.21046151 -0.1253854 0.23981884
0000b0 69 5d 1a bb 34 53 cb 3d 51 3b 14 3c be e9 2e 3d
       -0.0023554212 0.09927979 0.009047345 0.042703383
0000c0 0f 13 88 3c ea fd 12 be c8 42 cb 3d bd 66 d1 bd
       0.01661065 -0.14354673 0.09924847 -0.10224674
0000d0 a6 e3 49 3d c2 07 26 3d 6e b4 91 3d 5a 90 b8 3d
       0.049289368 0.040534742 0.07114492 0.09011908
0000e0 c9 be 82 3d 2e b3 18 be 5f 64 33 3d e0 dc 5d 3e
       0.06384046 -0.14912102 0.043796893 0.21666288
0000f0 73 6c 54 be a7 30 5c be eb d3 4a 3d 8d 54 69 bd
       -0.20744495 -0.21502934 0.049518507 -0.0569654

bias f4 [4]
000000 30 02 07 be 55 81 7a 3e 2c a3 87 3a 76 8b 83 3c
       -0.13184428 0.24463399 0.0010348312 0.016057711

weight f4 [4]
000000 44 33 7c 3f 98 17 7f 3f eb 4e 82 3f 4e 3f 7d 3f
       0.98515725 0.99645376 1.0180334 0.9892472

bias f4 [4]
000000 0a b6 0b 3c 42 fa 79 3b 92 4f c8 3a 63 41 e0 3b
       0.008527288 0.003814355 0.0015282503 0.006843732

running_mean f4 [4]
000000 1a 3c 35 be 02 5a 22 3e ee 38 7c 3d 77 08 b1 bc
       -0.17698708 0.15854648 0.06157773 -0.021610482

running_var f4 [4]
000000 bb ae b8 3c 43 ea 48 3d 66 d3 a2 3e 74 fc cb 3d
       0.022544255 0.049051534 0.3180191 0.09960261

weight f4 [1, 4, 2]
000000 2d 2e 92 3e 7f c6 2f be 35 5a 01 3d 68 51 74 3e
       0.28550854 -0.17165564 0.03158017 0.23859179
000010 fc 03 06 be 33 c7 04 be 4c 15 2a 3d 55 95 8b bd
       -0.13087457 -0.12966613 0.041524217 -0.06815592

weight f4 [16, 80]
000000 27 51 18 bc 5b 65 b3 3c 89 c9 b2 3d 62 20 88 3b
       -0.009296692 0.021898916 0.08729846 0.004154251
000010 33 05 26 3d 78 92 11 bd 60 12 c6 3d 78 a8 06 be
       0.040532302 -0.035540074 0.096714735 -0.13150203
000020 19 f7 d0 3d ec a5 50 bd f0 5b 14 bd 98 ae 72 3c
       0.1020338 -0.050939485 -0.03622049 0.014812134
000030 7a 5c 96 bd 04 ba b8 bd cb 90 02 3e c6 b9 d3 bb
       -0.07341857 -0.09019855 0.12750547 -0.006461355
000040 0a b6 0f 3c bf 9e 84 bd d9 a8 dc bd c1 ea 0f 3e
       0.008771429 -0.06475591 -0.10774393 0.14054395
000050 c3 72 72 bd bb 21 8e 3d 31 7c 22 3d 5b 9d f4 3c
       -0.059191477 0.06940027 0.03966922 0.02986019
000060 20 51 a7 bd cc 63 41 3d 63 d0 75 bd a9 df e6 3d
       -0.0816977 0.047214314 -0.060013186 0.112731285
000070 07 e5 da bd ef f0 58 3d 03 04 2c bd 9f 29 59 bd
       -0.10688215 0.052964147 -0.041996013 -0.05301821
000080 fa 70 0d 3d 02 16 5a bc 1d c1 f7 3d 13 b3 18 3e
       0.03453157 -0.013310911 0.1209738 0.14912061
000090 50 be e0 3d 9b 7c 9a 3d d6 48 c5 bd 61 07 51 3d
       0.10973799 0.07543298 -0.09633033 0.051032428
0000a0 e9 6c ad bd ff 8a 38 3d be 7d f9 3d a7 7e 01 3e
       -0.084680386 0.045054432 0.121821865 0.1264597
0000b0 cd 77 44 bc 14 12 86 bc 68 18 cd 3d 39 11 a6 3d
       -0.011991453 -0.016366042 0.10014421 0.08108754
0000c0 7f 15 25 3d c0 a2 41 bd a5 ec 90 3d 30 8b a5 bd
       0.040303703 -0.04727435 0.07076386 -0.080831885
0000d0 3a 54 06 bd 95 ec ab bd e6 58 b2 3b d7 0f 02 3e
       -0.03279517 -0.08394734 0.0054427264 0.12701355
0000e0 da fa 06 3e 52 c7 da bc a5 54 46 bc 25 96 c9 3d
       0.1318163 -0.026706371 -0.012105142 0.09843091
0000f0 c5 6f 81 bd 6c 43 80 3d a1 e6 75 3c b4 00 2f bd
       -0.063201465 0.0626286 0.0150085995 -0.04272528
000100 ea 46 95 3a 95 3e d7 bc c8 bf ed ba 1e 9b aa bd
       0.0011388932 -0.026274959 -0.001813882 -0.083303675
000110 0f 5d e6 3d 65 c9 b7 bd 55 70 56 bd 47 ab 38 bd
       0.11248218 -0.0897396 -0.052353222 -0.045085218
000120 59 2d d5 3d 1f 54 08 3d f8 7b 10 bd c3 20 00 3b
       0.1040904 0.03328335 -0.035274476 0.0019550778
000130 e3 31 f8 3d bd 87 7f 3c 47 19 ec bc 76 ef b7 bd
       0.1211889 0.015596327 -0.028820647 -0.089812204
000140 2c 48 90 3c 8d 3e 1a 3d 9b f5 33 3b 50 91 a4 bd
       0.01761254 0.03765731 0.0027459625 -0.08035529
000150 29 95 8d bd cb 65 a1 3d ee ee a3 bd 4c 75 b8 bc
       -0.06913216 0.078807436 -0.080045566 -0.022516869
000160 d9 23 27 3d 4e 04 b2 3d 45 32 6c 3b c1 e5 1f 3d
       0.04080567 0.08692227 0.0036040705 0.03903747
000170 8b 3d ef 3d 62 74 70 3d 8e 5d ee 39 9b 73 f5 bd
       0.1168166 0.05870474 0.000454646 -0.119849406
000180 4b b3 69 bd f8 3d aa bc 4b 90 af 3d b4 d5 2a 3d
       -0.057055753 -0.020781502 0.085724436 0.04170771
000190 00 5d aa 3c f8 30 b7 3d f6 d6 ac 3c 9b 24 38 bc
       0.020796299 0.08944887 0.021098595 -0.011239196
0001a0 22 33 b9 b8 dc ae 24 3c c1 6a b1 3d 82 ee 9d bd
       -8.831012e-05 0.010051455 0.0866294 -0.077115074
0001b0 85 77 ad 3d a4 1f b7 3d 70 fb a0 3c e2 a9 20 bc
       0.08470062 0.08941582 0.019651145 -0.009806128
0001c0 09 23 f2 bd 51 79 ab bd cd 66 36 3d f2 4d 1c be
       -0.11823089 -0.08372749 0.044531632 -0.15264109
0001d0 8e 44 8e bd fd be 0d bb 98 3e a1 3c 52 e5 3a 3d
       -0.069466695 -0.002162873 0.019683167 0.045628853
0001e0 d2 c1 eb bd d2 6e 8c 3d da c0 4b bc b2 80 cc bd
       -0.11511578 0.06857075 -0.012436116 -0.09985484
0001f0 1e 62 05 be 3e f7 a5 3c ef e0 b1 3a a1 79 37 3d
       -0.1302571 0.020259496 0.0013571064 0.04479373
000200 86 64 b5 3c 89 f5 5a 3d ce 44 a6 3d 89 b7 59 3d
       0.02214266 0.053456817 0.08118592 0.05315355
000210 cd 02 9e bd aa c0 c9 bc 60 6b 5d bd 4e 3a 1d bd
       -0.07715378 -0.024628002 -0.05405748 -0.03838568
000220 40 5f 3e bd 70 7a 4a 3c 8b eb a4 bd d5 f6 9d 3d
       -0.046477556 0.012358293 -0.08052739 0.07713095
000230 ca 47 51 bd d0 af 5b bc 31 3a 9d bd 3a 85 24 bc
       -0.051093854 -0.013408616 -0.07677115 -0.010041529
000240 1e e0 c1 bd 5d 04 8f bd 22 28 33 bd f8 1d 9f 3d
       -0.09466575 -0.06983254 -0.043739446 0.07769388
000250 67 2b 4c bd cb 6d 5f 3d 29 f4 6b 3d 77 cf a0 3b
       -0.04984608 0.054548066 0.057605896 0.0049075442
000260 73 61 31 3d b4 55 8b bc 8f 1c 35 bd df fd 19 bd
       0.043305825 -0.01700864 -0.04421669 -0.037595626
000270 50 15 bb 3d 14 af ba bd 69 73 02 3d 96 d7 47 3c
       0.091349244 -0.09115425 0.031848345 0.012197396
000280 12 fe 39 3d 10 37 49 3d ff 74 36 bc 3d 35 8f bc
       0.045408316 0.049124777 -0.0111362925 -0.01748144
000290 b0 6c 2e 3d 3f 84 b8 3d 15 0d a5 3d ce 42 a4 3d
       0.04258412 0.09009599 0.08059136 0.080205545
0002a0 2c 11 7d bd 1c b6 aa bd 3b d4 ce bc ab 62 a9 3d
       -0.061783955 -0.08335516 -0.025247684 0.082707725
0002b0 3f 12 da 3c 4d bf 84 3d 94 47 77 3d 06 1e 61 bc
       0.026620029 0.064818 0.060370997 -0.013740068
0002c0 6c 46 7e 3d 8c ca 04 be 78 f1 20 3d ae f1 a0 bd
       0.06207888 -0.1296789 0.039292783 -0.07858597
0002d0 cf bf a9 3b 25 25 ed 3d 1e 8c e3 bd c2 b2 8a 3c
       0.005180336 0.115793504 -0.111107096 0.016930941
0002e0 9b 14 cf bc aa d4 a0 bd 99 9e 63 3d 4f d7 57 bc
       -0.02527838 -0.078530625 0.055571172 -0.013173892
0002f0 f2 83 96 bd b8 af 03 be aa c7 d9 bd 5e b6 0f bd
       -0.07349385 -0.1286 -0.10633786 -0.03508603
000300 1b 1b 0a be 26 1f 0f bd 0d 79 17 bd 0c 76 8a bb
       -0.13486902 -0.034941815 -0.036980677 -0.004225498
000310 35 28 f4 bd a8 92 7d 3d 30 f7 d0 bd 65 5d bc 3d
       -0.119217314 0.06190744 -0.10203397 0.09197501
000320 c8 bb cb 3d de 5e 8e 3d 41 77 cf 3c 75 32 9d bd
       0.09947926 0.06951688 0.02532542 -0.076756395
000330 2b 20 c9 bd a7 7d ca bd 4e eb 74 3d 60 e3 82 bd
       -0.09820589 -0.098872475 0.059794717 -0.063910246
000340 75 50 9c bd f5 e1 79 3c f2 f2 d2 bd c7 55 be 3d
       -0.076325335 0.015251626 -0.103002444 0.092937045
000350 fe 70 72 3d d8 04 6a 3d ca 71 90 bd f4 6b 12 3d
       0.05918979 0.057133526 -0.070529535 0.035747483
000360 64 84 b1 bd ac 67 23 3d 09 3e 6d bc 2b ca 91 3d
       -0.0866783 0.03989379 -0.014480122 0.071186386
000370 b7 8b 21 bb aa 54 02 3c 13 3a 25 bc b4 ba e4 bd
       -0.0024649927 0.007954756 -0.010084647 -0.11168423
000380 06 eb 81 3d 3b 2a 73 3c 77 7e a9 bd 92 f0 d8 bd
       0.06343655 0.0148416115 -0.082760744 -0.1059276
000390 90 3b 83 3d 2a 84 a9 bd 76 46 ad bd 58 88 48 bd
       0.06407845 -0.082771614 -0.08460705 -0.048958153
0003a0 aa 08 a7 bc b0 ae c9 bd 07 5b 09 3d fc 0d d7 3c
       -0.020389874 -0.09847772 0.033534076 0.026251785
0003b0 b2 ee 91 bd e0 88 d5 3d 85 c0 c3 3d 63 b0 9c 3d
       -0.07125606 0.104264975 0.095582046 0.076508306
0003c0 fd c5 ea bc 55 a9 b8 3d ba 61 68 3d 8c 01 9d bd
       -0.028658861 0.090166725 0.056733824 -0.07666311
0003d0 0c 1e 88 bd fb 9e 9d 3d 88 d4 57 bd 83 ca 75 bd
       -0.06646356 0.07696339 -0.05269292 -0.060007583
0003e0 f1 4b a5 3d 8a a1 b7 3d f8 1b 95 3d dd 8c 98 bb
       0.08071125 0.08966358 0.07280725 -0.004655464
0003f0 61 30 56 bc ef 29 5e 3d 88 84 8b bd 10 d4 b4 3d
       -0.013073058 0.05423921 -0.06812388 0.0882951

bias f4 [16]
000000 50 98 e4 3b a2 7b e5 bd 9c 7c ca bd 23 54 a9 3b
       0.006976165 -0.11205222 -0.098870486 0.0051675006
000010 56 ef 6f bd 89 b1 5e 3d 79 0e f8 bd 0d 96 07 bd
       -0.058577858 0.05436853 -0.121121354 -0.033102084
000020 81 b9 b2 3c 66 ba 93 bd 04 46 e7 bd 9c c0 e3 3d
       0.02181697 -0.07213287 -0.11292651 0.11120722
000030 1e 7e af bd c1 69 75 3d 38 41 b2 bd f4 d7 42 bd
       -0.08568977 0.059915308 -0.08703846 -0.04756923

weight f4 [2, 16]
000000 4a 69 64 3d 7c f5 05 be e7 25 ed 3d 61 90 ff bd
       0.055764474 -0.13081926 0.11579495 -0.1247871
000010 60 7c 2c 3d 9e 16 05 bc d9 81 8b be 6d 6e 78 3e
       0.0421108 -0.008123068 -0.27247503 0.24260874
000020 0d 36 38 3e 24 14 5d 3e ad 7f 1f 3e a2 34 86 3e
       0.17989369 0.21589714 0.15576048 0.2621203
000030 c3 86 52 be 21 2d ae 3d d4 0b e3 bd 25 dd 59 3e
       -0.2055922 0.085047014 -0.110862404 0.21275766
000040 ec 3b c5 bd d3 7d 12 3e 07 58 36 3e b1 73 23 be
       -0.0963057 0.1430581 0.17807017 -0.15962102
000050 03 b7 2e 3e 24 21 74 be f4 1a 1c be 17 99 c6 3d
       0.17062001 -0.23840767 -0.15244657 0.09697168
000060 3f 92 24 bd 24 67 4b 3d 9f ba 80 3e c3 e8 ec 3d
       -0.040178534 0.04965891 0.2514238 0.11567833
000070 ab ae 1c 3e 18 7b 1c bd b4 be ea bd 3b bb 8e 3c
       0.15301006 -0.03820333 -0.11462155 0.017423263

bias f4 [2]
000000 c5 47 55 3e 70 61 bc bc
       0.20828159 -0.02299568
