mlpcnnsemi/model/cnn/82oneinput_batch1_Epoch=0_lr=0.0001.pth (torch, 25249 bytes, 29 tensors)

weight f4 [4, 1, 1]
0	0x3f01e7c7	0.5074429
1	0x3eed681c	0.46368492
2	0x3c4f2276	0.0126424935
3	0xbc6f3646	-0.014600342

bias f4 [4]
0	0xbdfbf1f8	-0.12302011
1	0xbd5e1f7d	-0.05422925
2	0xbf732fc3	-0.94994754
3	0xbf2d715c	-0.677511

weight f4 [4]
0	0x3f80bff0	1.0058575
1	0x3f7df368	0.99199533
2	0x3f7ecc0b	0.99530095
3	0x3f808f92	1.0043814

bias f4 [4]
0	0x3b0cdd7d	0.0021494322
1	0x3b1c4d22	0.0023849686
2	0xbae760f7	-0.0017652799
3	0x39bd12d1	0.00036062908

running_mean f4 [4]
0	0x3d087143	0.03331114
1	0x3db53a65	0.088490285
2	0xbf723550	-0.946126
3	0xbf2e924f	-0.68192

running_var f4 [4]
0	0x3e28f79c	0.16500705
1	0x3e0d2726	0.13784465
2	0x38d90828	0.000103488856
3	0x390ea979	0.00013605309

weight f4 [16, 4, 1]
0	0x3d30b083	0.043137085
1	0x3eb48bf3	0.35263023
2	0xbe964f3c	-0.29357326
3	0x3d424f4c	0.047438905
4	0xbe4a614c	-0.19763678
5	0x3c194ec5	0.009357159
6	0x3e1ed47f	0.15510748
7	0x3db75401	0.08951569
8	0x3efe7a5e	0.49702734
9	0xbe0fbbeb	-0.14036529
10	0xbefc79ed	-0.49311772
11	0xbeee2618	-0.46513438
12	0xbe895ffd	-0.26831046
13	0x3e23d49e	0.15999076
14	0xbd4ce019	-0.050018404
15	0xbed662fb	-0.4187239
16	0xbe360459	-0.17775096
17	0xbe6809db	-0.2266001
18	0x3e983959	0.29731253
19	0x3e7288ee	0.23685047
20	0xbe3301f5	-0.17481215
21	0x3e9e55be	0.3092479
22	0x3ef865e2	0.4851523
23	0x3e59a3c2	0.21253875
24	0x3ec0ce6d	0.3765749
25	0xbe11928b	-0.14216058
26	0xbeeadc4d	-0.458712
27	0xbe9c7ae9	-0.30562523
28	0xbea48097	-0.32129356
29	0xbe462b26	-0.19352397
30	0xbee66aaa	-0.45003253
31	0x3ecb105e	0.39660925
32	0xbeff8d8c	-0.4991268
33	0x3eab9c5c	0.3351773
34	0x3ee02738	0.43779922
35	0x3e67411e	0.22583434
36	0xbeda9908	-0.4269488
37	0xbe6d0ad7	-0.23148666
38	0x3e211f30	0.15734553
39	0x3d883a15	0.06651703
40	0x3ed8425a	0.42238122
41	0x3e65103e	0.22369477
42	0x3eb11d10	0.34592485
43	0x3e340022	0.17578176
44	0xbe0d8b4e	-0.13822672
45	0x3dcb1c3a	0.09917493
46	0xbe9090cf	-0.2823548
47	0x3ea5613b	0.32300743
48	0xbe941575	-0.2892262
49	0x3eb4852d	0.35257855
50	0x3eed9009	0.46398953
51	0x3e113a8a	0.14182487
52	0xbec3e51f	-0.38260743
53	0x3da98bc4	0.08278611
54	0xbddd45a4	-0.108042985
55	0x3e20c92d	0.15701742
56	0xbee150dc	-0.44007003
57	0x3d8f7ae6	0.07005863
58	0xbeabf1d4	-0.33582938
59	0xbeabd49f	-0.33560655
60	0x3de473a5	0.1115487
61	0xbd8d0d45	-0.068872966
62	0x3e9b3647	0.30314848
63	0x3e9c334b	0.30507883

bias f4 [16]
0	0x3d838942	0.06422664
1	0x3e212d8b	0.1574003
2	0x3ed678fb	0.41889176
3	0x3cfb4b39	0.030675517
4	0xbc17228a	-0.009224543
5	0x3ec4657c	0.38358676
6	0x3eeba313	0.46022853
7	0xbe061043	-0.13092141
8	0xbe594332	-0.21217039
9	0x3d4ff3a6	0.05076947
10	0x3efd8473	0.49515113
11	0xbef7baad	-0.4838461
12	0x3e767e45	0.24071606
13	0x3eab4ca1	0.334569
14	0xbce86e2d	-0.028372848
15	0xbe9d83ad	-0.30764523

weight f4 [16]
0	0x3f7f013f	0.99611276
1	0x3f7fd93c	0.9994085
2	0x3f811457	1.0084332
3	0x3f7f0120	0.9961109
4	0x3f7f9575	0.9983743
5	0x3f8039b2	1.0017607
6	0x3f803f10	1.0019245
7	0x3f8088dc	1.0041766
8	0x3f80264d	1.0011688
9	0x3f8023c5	1.0010916
10	0x3f80064d	1.0001923
11	0x3f805853	1.0026954
12	0x3f802e95	1.0014216
13	0x3f7fc202	0.9990541
14	0x3f807b83	1.0037693
15	0x3f7f62fd	0.9976042

bias f4 [16]
0	0xbae1ea4f	-0.0017235967
1	0xbaab1d37	-0.0013054971
2	0x3c135b1f	0.008993893
3	0xbb21a341	-0.0024663957
4	0xbb40f5a4	-0.0029443288
5	0x3b048aa4	0.0020224238
6	0xb7e33862	-2.7086764e-05
7	0x3be01dc5	0.0068394863
8	0xbb0d6e1c	-0.0021580523
9	0xba80e392	-0.0009833446
10	0x3bb694dd	0.005571945
11	0x3bd62e4c	0.0065362807
12	0x3c0c95c9	0.008580633
13	0xbc043e49	-0.008071491
14	0x3a94c773	0.0011350944
15	0xba283a4e	-0.00064173795

running_mean f4 [16]
0	0x3dde0ab3	0.108418845
1	0x3e2d8a74	0.16947347
2	0x3e88b936	0.26703805
3	0xbdfc780f	-0.12327587
4	0x3ca2feb6	0.019896846
5	0x3f19d7b7	0.6009478
6	0x3ea6d60f	0.3258519
7	0xbe9125c6	-0.2834913
8	0xbdaf6957	-0.08565014
9	0xbd9016a9	-0.07035572
10	0x3f4eae16	0.80734384
11	0xbef70e39	-0.4825304
12	0x3ed40a42	0.41414076
13	0x3e87f3ce	0.26553196
14	0xbe9c585b	-0.3053616
15	0xbe0bed60	-0.1366477

running_var f4 [16]
0	0x3c25eb42	0.010126891
1	0x3b1258a9	0.0022330678
2	0x3c0791e6	0.008274531
3	0x3c824163	0.01590032
4	0x3c929cfc	0.017897122
5	0x3e8af058	0.27136493
6	0x3cd45c11	0.025922807
7	0x3f4a98f0	0.79139614
8	0x3d3133d2	0.04326231
9	0x3e603c34	0.21897966
10	0x3f423ebc	0.75876975
11	0x3dc41a50	0.09575331
12	0x3e48c0cf	0.196048
13	0x3e143378	0.14472759
14	0x3eba0bbd	0.3633708
15	0x3da0ef2c	0.078581184

weight f4 [8, 16, 2]
0	0xbd55f221	-0.052232865
1	0xbdad26e8	-0.084546864
2	0xbe32535b	-0.1741461
3	0xbdb7ec3f	-0.08980607
4	0x3da9e222	0.082950845
5	0xbc95a141	-0.018265368
6	0x3e20b90d	0.15695591
7	0x3d30dbb7	0.043178286
8	0xbe19339a	-0.1496109
9	0x3d50ba2e	0.050958805
10	0x3ddea0db	0.108705245
11	0x3dec8e64	0.11550596
12	0xbd5bbc21	-0.05364621
13	0xbe1c1a12	-0.1524432
14	0x3df734fb	0.12070652
15	0x3d01f9ff	0.031732555
16	0xbdc83644	-0.09775975
17	0x3a1fda09	0.00060978584
18	0x3d02cfcc	0.03193645
19	0xbe255d88	-0.1614896
20	0x3c1e5fa2	0.009666355
21	0xbd62cf2e	-0.055373363
22	0x3e17ac90	0.14811921
23	0xbd744bb4	-0.05964251
24	0xbbd315c3	-0.006441803
25	0x3e18b647	0.14913283
26	0xbdd87500	-0.10569191
27	0xbdd99130	-0.106233954
28	0xbdb26273	-0.08710184
29	0xbe11a97b	-0.14224808
30	0x3d069ed0	0.0328663
31	0x3d1c6033	0.03817768
32	0x3d8924ba	0.06696458
33	0x3e15dd10	0.1463511
34	0xbdf7c25f	-0.1209762
35	0xbdbe0881	-0.09278966
36	0xbc92781e	-0.017879542
37	0xbd1f01ed	-0.038820196
38	0x3db5e107	0.08880811
39	0x3e07f616	0.13277468
40	0x3cda7c4a	0.026670594
41	0x3e1d034f	0.15333293
42	0x3e180ab1	0.14847828
43	0x3df837cc	0.121200174
44	0xbdd4b559	-0.10386152
45	0x3cf67978	0.030087218
46	0x3e0aaaae	0.13541672
47	0xbd706e64	-0.058699027
48	0xbbefb47d	-0.007315217
49	0x3de90e30	0.11379659
50	0xbe28f734	-0.1650055
51	0xbd918f88	-0.071074545
52	0xbe23016e	-0.15918514
53	0x3e1a529a	0.15070572
54	0x3df637b5	0.12022344
55	0xbe04ba06	-0.12961587
56	0xbe2bcd92	-0.16777638
57	0x3cdfa096	0.027298253
58	0x3cd21be6	0.025648069
59	0x3c3548f4	0.011064757
60	0x3de501fb	0.11182018
61	0x3e40b63c	0.18819517
62	0xbc813ac0	-0.015775084
63	0x3de19dab	0.11016401
64	0xbda94773	-0.08265581
65	0xbd823158	-0.06357068
66	0xbe0f32e3	-0.13984255
67	0x3bf53138	0.007482674
68	0x3de5850e	0.11207019
69	0xbdddc6db	-0.10828944
70	0xbc77e405	-0.015130048
71	0x3dbef36a	0.09323771
72	0xbd085110	-0.033280432
73	0xbd18ebd4	-0.03733428
74	0x3ddf83f8	0.10913843
75	0x3dc77b24	0.09740284
76	0x3da78dd8	0.081813514
77	0x3d092dfd	0.033491123
78	0xbdb319fb	-0.0874519
79	0x3da679d2	0.08128704
80	0x3dc41313	0.095739506
81	0x3e27dc5d	0.16392656
82	0x3e3314f7	0.17488466
83	0x3e0c0924	0.13675362
84	0xbd9374ff	-0.072000496
85	0x3d8e5338	0.069494665
86	0xbd9a124a	-0.075230196
87	0x3db89ac6	0.09013896
88	0x3d649e21	0.055814866
89	0xbded2bcc	-0.11580619
90	0x3d39dfed	0.045379568
91	0x3e129ffc	0.14318842
92	0xbdfd09c6	-0.1235538
93	0x3e2399ec	0.15976685
94	0xbdeb67ae	-0.11494385
95	0xbd02a998	-0.03190002
96	0xbe0bce62	-0.13652948
97	0xbce7e60a	-0.028307933
98	0xbe29ee3e	-0.16594788
99	0xbdff9491	-0.12479509
100	0xbaf241d3	-0.0018482752
101	0x3de05a35	0.109547056
102	0x3defa676	0.11701672
103	0x3e2bf7b8	0.16793716
104	0x3e1f468f	0.1555426
105	0xbdb5fb8a	-0.08885868
106	0x3dffb214	0.124851376
107	0x3d84d825	0.06486539
108	0x3cf046ce	0.029330637
109	0x3e13b5ab	0.1442477
110	0x3cc13838	0.023586378
111	0xbcf8f879	-0.030391918
112	0xbc345bd2	-0.01100822
113	0x3db9c413	0.09070601
114	0xbe02ac22	-0.12760976
115	0xbdd754c2	-0.10514213
116	0x3ceafc37	0.028684719
117	0xbbe03fce	-0.0068435436
118	0x3d335773	0.04378457
119	0xbdfac2fe	-0.12244223
120	0x3d553343	0.05205084
121	0xbd23dea9	-0.040007267
122	0x3d763930	0.060113132
123	0xbd29a2fe	-0.041415207
124	0xbe305ab1	-0.17222096
125	0xbc8ca537	-0.017168624
126	0x3b410f98	0.0029458757
127	0x3dcfb9ec	0.10142884
128	0xbd641cd9	-0.055691574
129	0xbd62e51f	-0.05539429
130	0x3d16cd7c	0.03681706
131	0x3de514fc	0.11185643
132	0xbd096ad9	-0.033549163
133	0xbd8c5ad9	-0.06853265
134	0xbd32132d	-0.04347532
135	0xbdcc466f	-0.09974372
136	0x3dea090d	0.114275075
137	0xbddae087	-0.106873564
138	0xbd461a46	-0.0483649
139	0x3cc09a6c	0.023511134
140	0x3e382644	0.17983347
141	0x3d74ce02	0.059766777
142	0x3da9aa76	0.08284466
143	0x3d4cbbc9	0.049983773
144	0x3b787f7d	0.0037917786
145	0x3dee59ff	0.11638259
146	0x3c7f974f	0.01560004
147	0x3e28f783	0.16500668
148	0x3e083d79	0.133047
149	0xbdb39a59	-0.08769674
150	0xbd12edee	-0.03587144
151	0x3e17b2a5	0.14814241
152	0x3e21709f	0.15765618
153	0xbd99aaa3	-0.075032495
154	0xbdf414b5	-0.11918012
155	0xbdfd1597	-0.123576336
156	0x3e3029e7	0.17203484
157	0xbe281c90	-0.16417146
158	0xbe03ee92	-0.12883976
159	0xbc752d73	-0.014964449
160	0xbe08f84b	-0.13375966
161	0xbe09746c	-0.13423318
162	0xbd5f2da1	-0.054486874
163	0x3c96898d	0.018376136
164	0xbdd7cc8c	-0.10537061
165	0x3d9e5287	0.077305846
166	0xbdbcbfc7	-0.09216266
167	0xbd7b5684	-0.061361805
168	0x3c175de1	0.009238691
169	0x3d2bdc22	0.041957982
170	0x3d723171	0.059129182
171	0xbd8c456d	-0.068491794
172	0x3ca6fa30	0.02038297
173	0x3e1eefcc	0.15521163
174	0x3ce544f9	0.02798699
175	0x3e39d568	0.18147814
176	0x3d15c252	0.03656227
177	0xbe089450	-0.13337827
178	0xbe0b03fe	-0.13575742
179	0x3df8bf64	0.1214588
180	0xbdee46a5	-0.11634568
181	0xbbef1dee	-0.007297269
182	0xbd9e4a68	-0.077290356
183	0xbe11d865	-0.14242704
184	0x3e194e6f	0.14971326
185	0xbdb7ab5a	-0.089682296
186	0x3db75b03	0.08952906
187	0x3da282d6	0.07935111
188	0xbda1a608	-0.07892996
189	0x3dd9dba3	0.106375955
190	0xbe07f230	-0.13275981
191	0xbde43dc5	-0.11144594
192	0xbd2bc19f	-0.0419327
193	0x3dde8b74	0.10866442
194	0xbda051ee	-0.07828127
195	0xbdbfedef	-0.09371554
196	0x3d0c14da	0.034199573
197	0x3da05d37	0.07830279
198	0xbd417ca0	-0.047237992
199	0xbdec42f4	-0.11536208
200	0x3cd6a560	0.026201904
201	0xbcd505fc	-0.02600383
202	0xbd692d17	-0.056927767
203	0x3dfa84eb	0.12232383
204	0xbe02c6d3	-0.12771158
205	0xbdbe2b33	-0.09285583
206	0x3d2a0d4f	0.0415166
207	0xbc82605b	-0.015915086
208	0x3e210e29	0.15728058
209	0xbd2e9ca5	-0.042629857
210	0xbd23b569	-0.039967928
211	0x3d88e3fd	0.0668411
212	0xbe1c037c	-0.15235704
213	0x3e29da56	0.16587195
214	0x3e0a3aa5	0.13498934
215	0x3c9f5cb1	0.019453378
216	0xbdb93e77	-0.09045117
217	0x3e2e124b	0.16999166
218	0x3b73b3be	0.0037185992
219	0xbb2b4a99	-0.0026136993
220	0x3e0cc3a7	0.1374651
221	0x3d8434b3	0.06455364
222	0xbd236058	-0.039886802
223	0xbcad8d5f	-0.021185575
224	0x3db22183	0.08697798
225	0x3e0caeec	0.13738602
226	0x3da07006	0.07833867
227	0x3d8856fc	0.06657216
228	0xbc116299	-0.008873605
229	0xbe0e146d	-0.1387498
230	0xbe07ad6e	-0.13249752
231	0xbda50dd8	-0.08059281
232	0xbde10cc6	-0.109887645
233	0x3e36b3f0	0.17842078
234	0x3cf6064d	0.030032301
235	0xbcb1c6d1	-0.021701248
236	0x3d0c84d2	0.034306355
237	0x3e24b25e	0.16083667
238	0xbe117da5	-0.14208086
239	0x3dc4e946	0.09614806
240	0x3d02b82b	0.031913918
241	0x3d3381d7	0.043824997
242	0xbc9540d0	-0.018219382
243	0xbdaa6888	-0.08320719
244	0xbccebf82	-0.025237802
245	0xbe312cbb	-0.1730222
246	0x3e01ac83	0.12663464
247	0x3d5063b9	0.050876353
248	0xbd8a8d82	-0.06765272
249	0xbe1a139f	-0.15046547
250	0xbda2f7df	-0.07957434
251	0xbd1fad3c	-0.03898357
252	0x3df7f2f1	0.12106884
253	0x3cfbc12f	0.030731766
254	0xbe3e7ccf	-0.18602298
255	0xbdd58bf8	-0.104270875

bias f4 [8]
0	0x3dffffae	0.12499939
1	0xbe17339b	-0.1476578
2	0xbbdb4074	-0.006691033
3	0x3dd43fe9	0.103637524
4	0xbce03c64	-0.027372546
5	0xbd1767d8	-0.036964267
6	0x3d1c307c	0.038132176
7	0x3d5939b1	0.053033534

weight f4 [8]
0	0x3f7fbab2	0.9989425
1	0x3f7c6777	0.98595375
2	0x3f818b12	1.0120566
3	0x3f80bcd6	1.0057628
4	0x3f7f04a1	0.9961644
5	0x3f7d81e1	0.99026304
6	0x3f8093ee	1.0045145
7	0x3f800024	1.0000043

bias f4 [8]
0	0x3b459a2b	0.0030151706
1	0xbc852583	-0.016253239
2	0x3c184017	0.009292624
3	0x3be396c4	0.006945463
4	0xbbb618c6	-0.0055571524
5	0xbc43159a	-0.011907006
6	0x3ca177c0	0.019710422
7	0x3b3a8ca6	0.002846518

running_mean f4 [8]
0	0xbbe034de	-0.0068422398
1	0xbb40ddb8	-0.002942903
2	0x3e019fef	0.12658666
3	0x3da3738d	0.07981024
4	0x3d7bb64a	0.06145314
5	0xbe136123	-0.14392523
6	0x3dcc282d	0.099686004
7	0x3c105b18	0.008810781

running_var f4 [8]
0	0x3d593c4d	0.053036023
1	0x3e7aaf5c	0.24480957
2	0x3c94820b	0.018128416
3	0x3dc88e47	0.09792762
4	0x3c669444	0.014073435
5	0x3eb43cce	0.3520264
6	0x3df30cb4	0.11867657
7	0x3e0fa7d0	0.14028859

weight f4 [4, 8, 2]
0	0xbcb80d8e	-0.0224674
1	0x3e3a44de	0.18190333
2	0x3e2931d7	0.16522919
3	0xbd5bcd47	-0.053662565
4	0xbc69c369	-0.014267781
5	0x3d7977f5	0.060905416
6	0xbe35c675	-0.17751487
7	0xbe243a1a	-0.16037789
8	0xbe6de973	-0.23233585
9	0x3c97b516	0.018518966
10	0xbe05afc4	-0.1305533
11	0x3e718bea	0.23588529
12	0xbdeb5aef	-0.114919536
13	0x3e05e33b	0.13074963
14	0x3d1f1e48	0.038847238
15	0x3ddc4a6a	0.10756381
16	0x3e06141a	0.13093606
17	0xbd4893f0	-0.04896921
18	0x3dd2d911	0.102953084
19	0xbd75164a	-0.05983571
20	0xbe37195c	-0.17880768
21	0x3e3aeb19	0.18253745
22	0xbd444ce3	-0.047924887
23	0x3d6c8b10	0.057749808
24	0xbe6c3eab	-0.23070781
25	0x3e5dd4c3	0.21663193
26	0x3d8dbc80	0.06920719
27	0xbe19017b	-0.14941971
28	0x3d599419	0.053119753
29	0xbe3cb6b4	-0.1842907
30	0xbe53a737	-0.20669256
31	0xbd80dc98	-0.06292075
32	0x3e278673	0.16359882
33	0xbe83a0d5	-0.25708643
34	0x3e825ade	0.2545995
35	0x3e50cd04	0.20390707
36	0xbcd26803	-0.025684362
37	0x3dcb8a94	0.09938541
38	0x3e32c988	0.1745969
39	0xbdd0f8a5	-0.10203675
40	0xbdbd02b0	-0.09229028
41	0xbe69e0f7	-0.22839724
42	0xbe0612cb	-0.13093106
43	0x3e734886	0.23758134
44	0xbb85128f	-0.0040610502
45	0x3dcf448b	0.101204954
46	0xbaae4032	-0.0013294278
47	0x3cf2f8e8	0.029659703
48	0x3ccd7b91	0.025083335
49	0xbe12b1d7	-0.14325653
50	0x3dcf23d3	0.10114255
51	0xbdc5dc6b	-0.09661182
52	0x3d5d1619	0.053976152
53	0x3cebf2bf	0.028802274
54	0x3d92b31a	0.07163067
55	0x3dc8e492	0.09809221
56	0x3d90e679	0.07075209
57	0xbe16fd2b	-0.14745013
58	0x3d1314b0	0.0359084
59	0x3e5f8f87	0.21832095
60	0xbe51dbe4	-0.20494038
61	0xbe538ec9	-0.20659937
62	0x3d6212e9	0.055193815
63	0xbd7754f2	-0.060383745

bias f4 [4]
0	0xbe00c1b9	-0.125739
1	0x3e7750b5	0.24151881
2	0x3b7cad84	0.0038555572
3	0x3c93542d	0.017984474

weight f4 [4]
0	0x3f7eb3ca	0.99493086
1	0x3f7fae47	0.998753
2	0x3f80eb81	1.007187
3	0x3f7e1f88	0.9926686

bias f4 [4]
0	0x3bc4988a	0.0059996294
1	0x3bf1e286	0.00738174
2	0xbae7fcd4	-0.001769925
3	0x3a8d7748	0.0010792995

running_mean f4 [4]
0	0xbe354759	-0.17702998
1	0x3e216a47	0.15763198
2	0x3d4043d8	0.0469397
3	0xbc0046df	-0.007829397

running_var f4 [4]
0	0x3ce684b8	0.028139457
1	0x3d822bee	0.06356035
2	0x3e7a0c2d	0.24418707
3	0x3db42621	0.08796335

weight f4 [1, 4, 2]
0	0x3e94fd40	0.29099464
1	0xbe3567fa	-0.17715445
2	0x3d39d904	0.045372978
3	0x3e7491c1	0.23883726
4	0xbdf9e973	-0.1220273
5	0xbdf44cd4	-0.11928716
6	0x3d49570b	0.049155276
7	0xbd883331	-0.06650389

weight f4 [16, 80]
0	0xbc8272db	-0.015923908
1	0x3d170d1e	0.036877744
2	0x3dbbdef2	0.09173383
3	0x3a859cf8	0.0010193875
4	0x3d46a614	0.04849823
5	0xbcc66a2a	-0.024220545
6	0x3dce6e97	0.10079687
7	0xbdeb3021	-0.11483789
8	0x3dc70943	0.097185634
9	0xbd472a9b	-0.048624616
10	0xbcdfb4c1	-0.02730787
11	0x3c4dbcb9	0.012557202
12	0xbd7c58fb	-0.061608296
13	0xbdac7935	-0.08421556
14	0x3df3e314	0.11908546
15	0xbc1345cc	-0.008988809
16	0x3c1ca82c	0.00956158
17	0xbd8fba44	-0.07017949
18	0xbdd6f436	-0.10495798
19	0x3dfcc7f9	0.12342829
20	0xbd581f68	-0.052764326
21	0x3d9d30da	0.07675333
22	0x3cd2bd2b	0.025724968
23	0x3d3b8d2a	0.04578892
24	0xbda8356f	-0.08213317
25	0x3d602e7e	0.05473184
26	0xbd3a831c	-0.045535192
27	0x3df23cbd	0.11827991
28	0xbdc36f1a	-0.09542675
29	0x3d46f5a5	0.04857411
30	0xbd1c62cb	-0.038180154
31	0xbd22fee8	-0.03979388
32	0x3caa3017	0.020774884
33	0xbc2f862b	-0.0107131405
34	0x3df505d8	0.11964005
35	0x3e05bc31	0.1306007
36	0x3debade4	0.115077764
37	0x3dac7574	0.0842084
38	0xbdbecab3	-0.093160056
39	0x3d845f96	0.06463544
40	0xbda7a310	-0.081853986
41	0x3d5a2a59	0.053263042
42	0x3df47209	0.11935813
43	0x3ded8689	0.11597926
44	0xbc324fbe	-0.01088327
45	0xbbb171de	-0.0054151854
46	0x3dda30ea	0.10653861
47	0x3db63d6c	0.08898434
48	0x3d36c9ba	0.044625975
49	0xbd4c22a6	-0.04983773
50	0x3d894183	0.067019485
51	0xbda162cb	-0.078801714
52	0xbd1338a5	-0.035942692
53	0xbd90773b	-0.070539914
54	0x3c605de5	0.013694261
55	0x3df4c604	0.11951831
56	0x3e003639	0.12520684
57	0xbcdbcb6a	-0.026830394
58	0xbc0de212	-0.008659856
59	0x3dce05df	0.100597136
60	0xbd93a0c1	-0.07208396
61	0x3d88912c	0.06668314
62	0x3c9dbcbd	0.019255036
63	0xbd4f4e1b	-0.050611597
64	0xba8d3ba0	-0.0010775216
65	0xbcc1c540	-0.023653626
66	0x3b09c719	0.0021023212
67	0xbdb8bcfa	-0.090204194
68	0x3ddd16c8	0.10795361
69	0xbdb5e272	-0.08881082
70	0xbd3e4f67	-0.046462443
71	0xbd10d16f	-0.03535598
72	0x3de66612	0.11249937
73	0x3d1bab77	0.03800532
74	0xbd17cb17	-0.037058916
75	0xb992126d	-0.00027861018
76	0x3dfab87a	0.12242217
77	0x3ccccd93	0.02500037
78	0xbcb24913	-0.02176336
79	0xbdae1adf	-0.08501219
80	0x3cc44039	0.023956405
81	0x3cbce6b7	0.023059232
82	0xbabfc973	-0.001463218
83	0xbd9e4866	-0.07728653
84	0xbd9d7d46	-0.0768991
85	0x3d8abebf	0.06774663
86	0xbdac139c	-0.08402178
87	0xbd1e8a9b	-0.038706403
88	0x3d3af47b	0.04564331
89	0x3dad3c27	0.08458739
90	0xbba7da4f	-0.00512246
91	0x3d28932b	0.041155975
92	0x3dd77edb	0.10522243
93	0x3d58941b	0.05287562
94	0x3c0b4e65	0.008502577
95	0xbdf03299	-0.11728401
96	0xbd6d712c	-0.057969257
97	0xbc7e93a4	-0.01553813
98	0x3daa2ce2	0.08309342
99	0x3d6f4671	0.058416788
100	0x3c6e5312	0.014546173
101	0x3da839e2	0.08214165
102	0x3d0e16bd	0.034689654
103	0xbcdc330a	-0.026879806
104	0x3a010b4a	0.00049226417
105	0x3b363d35	0.0027807478
106	0x3d944dc4	0.07241395
107	0xbda91310	-0.08255589
108	0x3d969fe2	0.07354714
109	0x3dc01196	0.09378354
110	0x3c82a089	0.01594569
111	0xbcba895c	-0.022770576
112	0xbdd6a717	-0.104810886
113	0xbdb0b62a	-0.08628495
114	0x3d3bbf72	0.045836873
115	0xbe09c053	-0.13452272
116	0xbd98cfd6	-0.074615166
117	0xbc2f0d12	-0.010684269
118	0x3c87c8a7	0.01657517
119	0x3d04a90a	0.03238777
120	0xbdf1b5bd	-0.11802242
121	0x3d77f1f3	0.060533475
122	0xbc26301d	-0.010143307
123	0xbdb79dd3	-0.089656495
124	0xbe068f1e	-0.13140532
125	0x3c1b28d5	0.009470184
126	0xbb9d895b	-0.004807634
127	0x3d17a2a8	0.037020355
128	0x3c92ffbd	0.017944211
129	0x3d6486a5	0.05579247
130	0x3dada439	0.084785886
131	0x3d51ef76	0.05125376
132	0xbd97f364	-0.0741947
133	0xbd1aae1a	-0.037763692
134	0xbd7ed84e	-0.062218003
135	0xbcfe40cd	-0.031036759
136	0xbd24265e	-0.040075652
137	0x3c4c03a9	0.0124520445
138	0xbdabffdd	-0.083984114
139	0x3d99c84f	0.07508909
140	0xbd2d71f1	-0.04234499
141	0xbc8ed59e	-0.017435845
142	0xbda5b581	-0.0809126
143	0xbb172d36	-0.002306772
144	0xbdbdad11	-0.092615254
145	0xbd945d4d	-0.07244358
146	0xbd42c7e2	-0.047553904
147	0x3dace4cd	0.08442078
148	0xbd3a41ff	-0.045473095
149	0x3d5bbef7	0.053648915
150	0x3d5481e8	0.0518817
151	0xbb976736	-0.004620458
152	0x3d0fdce3	0.035122763
153	0xbcaff791	-0.021480354
154	0xbd2ea722	-0.04263986
155	0xbd11672d	-0.035498787
156	0x3db8b133	0.09018173
157	0xbdcd6fdd	-0.10031102
158	0x3ccc3868	0.02492924
159	0x3bf7827a	0.007553396
160	0x3d55cb3d	0.052195776
161	0x3d0a07d6	0.03369888
162	0xbc83cdab	-0.016089281
163	0xbc6c94a5	-0.0144397365
164	0x3d0b5057	0.034012165
165	0x3da0b075	0.078461565
166	0x3d9be70c	0.07612428
167	0x3d8169bc	0.06318995
168	0xbd691771	-0.05690712
169	0xbdb02f91	-0.086028226
170	0xbd1001a7	-0.035157826
171	0x3dad6f44	0.08468488
172	0x3c651afb	0.013983483
173	0x3d6fe113	0.058564257
174	0x3d8c6f0d	0.06857119
175	0xbc37e81a	-0.011224771
176	0x3d7a56fa	0.061118104
177	0xbdfeb653	-0.12437119
178	0x3d13fc8a	0.036129512
179	0xbd7ba338	-0.061434954
180	0xbb0c1f1c	-0.0021380847
181	0x3ddbbd1d	0.1072943
182	0xbdc6f6ac	-0.09715018
183	0x3866edbd	5.5057684e-05
184	0xbcc796a1	-0.024363818
185	0xbdb078da	-0.086168006
186	0x3d24c80b	0.04022984
187	0xbc9ba3fd	-0.018999094
188	0xbdaf7e18	-0.08568972
189	0xbdfeddad	-0.12444625
190	0xbde1d67d	-0.110272385
191	0xbd480b8a	-0.04883913
192	0xbdf88644	-0.12134984
193	0xbd1baaa1	-0.03800452
194	0xbd13ad1e	-0.03605377
195	0x3c792edb	0.015208925
196	0xbdffdca1	-0.124932535
197	0x3d56f949	0.05248383
198	0xbdd80a15	-0.10548798
199	0x3d9f2d0b	0.07772263
200	0x3dc4ffe2	0.09619118
201	0x3d79a65d	0.060949672
202	0x3ce1c6fd	0.027560705
203	0xbd87d165	-0.06631736
204	0xbdcbd9d9	-0.099536605
205	0xbde24e28	-0.11050063
206	0x3d5b4c3b	0.053539496
207	0xbd942a81	-0.072346695
208	0xbda6157f	-0.08109569
209	0x3c8bf625	0.017085144
210	0xbdcb6b6a	-0.09932597
211	0x3db9b2e6	0.09067325
212	0x3d7dc04a	0.06195096
213	0x3d303374	0.04301782
214	0xbda25fd8	-0.07928437
215	0x3d30cda7	0.043164875
216	0xbda36543	-0.079782985
217	0x3d247a15	0.04015549
218	0xbc955faa	-0.018234093
219	0x3d8d77a0	0.06907582
220	0x3bdbefca	0.0067119347
221	0x3b6bcdab	0.0035980742
222	0xbc7146e2	-0.014726372
223	0xbdd3e988	-0.10347277
224	0x3d869fcb	0.06573447
225	0x3c3fd1f5	0.0117077725
226	0xbdb227ce	-0.086989984
227	0xbdca522f	-0.098789565
228	0x3d8c01d5	0.06836287
229	0xbdabacf8	-0.083826005
230	0xbdb9fdbe	-0.090816006
231	0xbd73c800	-0.059516907
232	0xbced809a	-0.028991986
233	0xbdd3701a	-0.10324116
234	0x3d0ccd6d	0.034375597
235	0x3ce7dcc2	0.028303508
236	0xbd9421ca	-0.07233007
237	0x3dc0c8a9	0.09413273
238	0x3db45813	0.08805861
239	0x3d91921f	0.071079485
240	0xbd0b7b21	-0.03405297
241	0x3dd22d45	0.10262541
242	0x3d796f47	0.060897138
243	0xbda1968c	-0.07890043
244	0xbd72ccdf	-0.05927741
245	0x3db19bc8	0.08672291
246	0xbd4828b9	-0.04886696
247	0xbd3b8059	-0.0457767
248	0x3d9d5043	0.07681324
249	0x3dbbe074	0.091736704
250	0x3da5737f	0.0807867
251	0xbbc883ac	-0.006119212
252	0xbb320ac0	-0.0027167052
253	0x3d735b10	0.059413016
254	0xbd99d866	-0.07511978
255	0x3db1d166	0.08682518

bias f4 [16]
0	0x3c5265d8	0.012841664
1	0xbdf1324b	-0.11777171
2	0xbdd8033a	-0.105474904
3	0x3c2c1a23	0.010504278
4	0xbd84704e	-0.06466733
5	0x3d75bcd9	0.059994552
6	0xbe021b9e	-0.12705848
7	0xbcdd0ad9	-0.026982712
8	0x3ce270d0	0.027641684
9	0xbd87e985	-0.06636337
10	0xbdf35ca9	-0.11882908
11	0x3defa680	0.11701679
12	0xbdbae137	-0.091249876
13	0x3d87077d	0.06593225
14	0xbdab6908	-0.083696425
15	0xbd2b782f	-0.041862663

weight f4 [2, 16]
0	0x3d4859b5	0.048913676
1	0xbe00f99a	-0.12595215
2	0x3dfd2be9	0.12361891
3	0xbdec35fc	-0.11533734
4	0x3d4adeaf	0.049528774
5	0xbab6a6d1	-0.0013935213
6	0xbe88e4de	-0.26737112
7	0x3e6b0c63	0.22953944
8	0x3e30e421	0.17274524
9	0x3e545254	0.2073453
10	0x3e1ef812	0.15524319
11	0x3e857409	0.2606509
12	0xbe57cfb9	-0.21075334
13	0x3d89c898	0.06727713
14	0xbdda2d8a	-0.10653217
15	0x3e57c2d9	0.21070422
16	0xbdb7341b	-0.08945485
17	0x3e0d81f1	0.138191
18	0x3e2e54d9	0.17024554
19	0xbe2d20e5	-0.1690708
20	0x3e271e62	0.16320184
21	0xbe7b0544	-0.24513727
22	0xbe2154be	-0.15754983
23	0x3de15d5e	0.110041365
24	0xbd074a9a	-0.03303013
25	0x3d6e6e5b	0.058210712
26	0x3e80fe86	0.25194186
27	0x3defeb0b	0.11714753
28	0x3e21f7a1	0.15817119
29	0xbca763b9	-0.020433294
30	0xbdf39cfe	-0.11895178
31	0x3c9f8e04	0.019476898

bias f4 [2]
0	0x3e5afdbe	0.21385857
1	0xbcea115a	-0.028572727
