mlpcnnsemi/model/cnn/82oneinput_batch1_Epoch=37_lr=0.0001.pth (torch, 25249 bytes, 29 tensors)

weight f4 [4, 1, 1]
000000 a4 bb e4 3e 01 98 e2 3e 6f 52 88 3d 53 a1 c5 bd
       0.44674408 0.44256595 0.06656348 -0.09649911

bias f4 [4]
000000 e9 00 bb bd 5e 0d 52 bd 7d 10 7b bf 59 9d 31 bf
       -0.09131033 -0.05128228 -0.98072034 -0.6938072

weight f4 [4]
000000 c5 76 7d 3f e9 1e 80 3f 1e aa 7c 3f 60 67 84 3f
       0.9900935 1.0009433 0.9869708 1.0344048

bias f4 [4]
000000 42 f0 fd 3c 49 3f 90 bd cc 02 9c bc b6 57 33 3d
       0.030998353 -0.07043321 -0.019044302 0.04378482

running_mean f4 [4]
000000 b3 6b 51 3d 4b b4 b7 3d 76 a8 75 bf 1d 84 39 bf
       0.0511281 0.08969935 -0.95960176 -0.72467214

running_var f4 [4]
000000 25 ba 02 3e f6 59 00 3e b3 cf 38 3b 60 ad c2 3b
       0.12766321 0.12534317 0.002819997 0.005941078

weight f4 [16, 4, 1]
000000 2a c3 b4 3c 25 08 ab 3e 08 54 9f be 42 60 c5 3d
       0.022065718 0.3340465 -0.31118798 0.096375
000010 cf 56 70 be 64 f2 95 bc 4c 3e 02 3e ca 29 5d 3d
       -0.23470615 -0.018304057 0.12719077 0.05399493
000020 c6 99 fc 3e 2c d5 15 be c6 f3 fe be b1 5b ec be
       0.4933607 -0.146321 -0.4979536 -0.46163705
000030 5f ea 79 be 85 8a 3d 3e d2 46 cf bc 73 d6 e6 be
       -0.24405812 0.18509872 -0.025302324 -0.45085487
000040 0a af 55 be 39 13 86 be 61 d9 86 3e 6f 38 56 3e
       -0.20867553 -0.2618654 0.26337722 0.20919965
000050 bf cb 26 be 60 44 a3 3e aa 5e fd 3e 48 b6 52 3e
       -0.1628866 0.31888103 0.49486285 0.20577347
000060 da 26 c5 3e 20 1b 0c be 50 44 e7 be 97 51 a1 be
       0.38506204 -0.13682222 -0.45169306 -0.3150756
000070 ad 2d af be cc 6c 88 be ab 24 02 bf ae 42 b1 3e
       -0.34214535 -0.26645505 -0.508372 0.34621185
000080 09 f0 04 bf 81 2a a1 3e 5b 5a d5 3e 6e 0c 83 3e
       -0.51928765 0.3147774 0.41670498 0.2559542
000090 70 5c 8b be d3 59 f7 bd 23 0d 8e 3e bd 3d 5e 3e
       -0.27218962 -0.120776795 0.27744398 0.21703239
0000a0 3f 67 cf 3e 1c 51 82 3e 3a cc ae 3e d9 14 41 3e
       0.40508458 0.25452507 0.34140188 0.18855609
0000b0 52 9a 0f be 03 45 da 3d 4d 57 8e be b7 79 a7 3e
       -0.14023712 0.10657694 -0.2780098 0.3271005
0000c0 01 64 38 be a4 30 e4 3e 6f ff 10 3f 2b 69 5c 3d
       -0.18006898 0.4456836 0.5663976 0.053811233
0000d0 cd b4 bb be 2b 0b e7 3d 5d 2f a8 bd c5 02 32 3e
       -0.36661378 0.11281427 -0.08212159 0.17383869
0000e0 46 8f c5 be af 3b f7 3d d5 74 90 be 35 8e c8 be
       -0.3858587 0.120719306 -0.28214136 -0.39170995
0000f0 38 81 fa 3d b9 ec 6d bd e7 f9 a0 3e dd 0a 98 3e
       0.12231678 -0.058087084 0.3144066 0.29695788

bias f4 [16]
000000 9f 17 e8 3c ae 82 31 3e e8 19 e1 3e 9b 35 90 3d
       0.028331576 0.17335007 0.43965077 0.070414744
000010 10 f6 19 bd 2e ce bb 3e 24 ba ee 3e 5c d0 09 be
       -0.03758818 0.3668074 0.4662639 -0.13458389
000020 ee b5 29 be 5a f4 d2 3d fe 22 03 3f 3c 45 fc be
       -0.16573307 0.103005126 0.5122527 -0.49271572
000030 e4 bc 69 3e e2 f1 ad 3e db d3 80 bc e7 c3 af be
       0.22825962 0.33973604 -0.01572602 -0.3432915

weight f4 [16]
000000 26 55 78 3f 80 d1 85 3f 31 ff 79 3f eb 28 7f 3f
       0.97004926 1.0454559 0.97655016 0.9967181
000010 48 7c 7e 3f 18 b7 7a 3f 5e 80 82 3f a9 f6 76 3f
       0.9940839 0.9793563 1.0195425 0.96470124
000020 70 c7 80 3f be 30 72 3f 1e b9 80 3f 7f 3d 82 3f
       1.0060863 0.94605625 1.0056493 1.0175017
000030 5e cb 82 3f 82 9d 85 3f 7c 24 84 3f 7c e0 7e 3f
       1.0218313 1.0438693 1.0323634 0.99561286

bias f4 [16]
000000 b9 ac 2a bd b3 a6 60 3d 7f 69 0a 3d c1 c6 01 bd
       -0.041668627 0.054846477 0.033792015 -0.031683687
000010 47 d4 9e bc 11 e5 2f 3b 03 1e 20 3d 0e d6 4d 3d
       -0.019388331 0.0026839415 0.03909112 0.050252967
000020 f6 54 96 3c 9a 9d b4 bd 70 92 57 3b 3f d4 a3 3d
       0.01835106 -0.088191226 0.003289368 0.07999467
000030 81 50 f3 3d bb 28 2d 3d 3e 0b bc 3d 4e c7 1b bc
       0.11880589 0.04227517 0.09181832 -0.009507967

running_mean f4 [16]
000000 eb b5 8c 3d 74 16 1d 3e 5e 4c 85 3e 69 50 ce bd
       0.068706356 0.15340596 0.26034826 -0.10073931
000010 96 6e e3 bc 2b 3c 1a 3f b8 e8 a2 3e 6d fb a6 be
       -0.027762692 0.6024806 0.31818175 -0.32613698
000020 b9 cf 18 bd 5e 0b 0d 3e 52 08 58 3f 02 15 f3 be
       -0.037307475 0.13773867 0.84387696 -0.47476965
000030 ac 9e ec 3e eb 08 99 3e d4 69 96 be 70 62 14 be
       0.46214807 0.29889616 -0.29377615 -0.14490676

running_var f4 [16]
000000 f6 d8 c6 3a 18 0f 70 3c 77 8f 79 3c 1c 6f d3 3b
       0.001517086 0.014652036 0.015231959 0.0064524543
000010 6b f6 35 3d 19 fb 9e 3e 87 8a cb 3c be f1 87 3f
       0.044424456 0.31050947 0.024846328 1.0620649
000020 85 32 e3 3c f0 e1 93 3c 2e de 43 3f 64 db cb 3d
       0.02773405 0.018052071 0.76510894 0.09953955
000030 a8 98 08 3f aa 8f d4 3d d7 65 55 3e 1e 3f c7 3d
       0.53357935 0.10378964 0.2083963 0.097288355

weight f4 [8, 16, 2]
000000 4f 29 88 bd 27 fc 3d bd c5 42 70 be 5b 53 83 bd
       -0.06648504 -0.04638305 -0.2346297 -0.06412383
000010 cf 08 83 3d f0 b7 60 bc d4 9b 0e 3e c0 6d 92 3d
       0.063981645 -0.013715729 0.13926631 0.071498394
000020 4d f6 44 be af 0c 80 3d 6b f5 cb 3d d2 ca 14 3e
       -0.19234581 0.06252419 0.09958919 0.14530495
000030 cd cf 3b bd 7a c2 1f be fd 45 26 3d 5b b3 95 3d
       -0.04585247 -0.1560153 0.04059409 0.073096
000040 4f 6f e4 bd 6d 19 f0 3c c7 8c 1f bd 78 59 f0 bd
       -0.11154043 0.029308999 -0.038952615 -0.11735815
000050 ef 47 21 3a 89 cb c4 bc 0d 0e af 3d b9 de 16 bd
       0.00061523815 -0.024022834 0.08547602 -0.0368335
000060 f9 08 81 bc 50 b5 38 3e 4b 27 36 be 63 eb 86 bd
       -0.015751349 0.18037915 -0.17788427 -0.06587865
000070 f3 ee 1e be da 39 d5 bd 94 67 a4 3c 37 8d 86 3d
       -0.1552084 -0.10411425 0.020068921 0.06569903
000080 a1 66 7c 3d d2 e9 cd 3d 9f 95 e5 bd 39 eb 4f bd
       0.061621312 0.10054363 -0.112101786 -0.050761435
000090 1a 62 29 3d 39 0c 73 bd 3f 40 30 3e 60 bc 05 3e
       0.041353323 -0.05933783 0.17212008 0.1306014
0000a0 59 a3 2e bb fe b8 38 3e 49 cc 0b 3e 44 75 01 3e
       -0.0026647656 0.18039319 0.13652147 0.1264239
0000b0 ed e9 95 bd 07 7b 47 bd 58 ce 0d 3e 27 db 39 ba
       -0.073200084 -0.048701312 0.13848245 -0.0007089846
0000c0 0f e0 a4 bc 2a ad cb 3d 52 dd 1a be 9d ee af ba
       -0.02012637 0.09945138 -0.1512349 -0.0013422553
0000d0 b9 4e 2b be d0 76 20 3e 4b 56 e1 3d bb 01 be bd
       -0.16729249 0.15670323 0.11002787 -0.09277674
0000e0 f7 b5 31 be 11 4d 09 3d 2a dc 56 3d 07 e6 81 3d
       -0.1735457 0.033520762 0.05245606 0.06342702
0000f0 b1 3d b7 3d 01 1e 6c 3e 3b a1 0f bd 2b 94 ea 3d
       0.089473136 0.2305832 -0.03506587 0.11454042
000100 90 a3 d1 bd 44 67 06 bd 71 40 73 be d8 d3 8b 3b
       -0.10236275 -0.032813326 -0.23755051 0.004267197
000110 37 46 a9 3d ee 86 f6 bd 1b 1c 8e bd 35 05 9b 3d
       0.082653455 -0.120374545 -0.069389544 0.075693525
000120 b3 0a ae bd 4e 7f e0 bc 2b 99 dd 3d ee 56 c2 3d
       -0.084981345 -0.027404454 0.1082023 0.09489237
000130 8d 23 0d 3d 4b d0 95 3d 33 17 53 be ec 96 37 3d
       0.034457732 0.07315119 -0.20614319 0.044821665
000140 86 9b a9 3d 38 4a 37 3e 96 6a c2 3d 3c 8a d4 3d
       0.08281617 0.17899406 0.09492986 0.103779286
000150 9d c2 92 bd 4a e8 85 3d 98 ef 22 be 0c 17 c4 3d
       -0.07166026 0.06538446 -0.1591171 0.09574708
000160 39 48 68 3d fa 59 f6 bd 41 67 80 bd a7 b9 f8 3d
       0.056709502 -0.120288804 -0.06269694 0.121447854
000170 36 66 4a be 04 17 12 3e 86 2c f0 bd c4 2c d4 bc
       -0.19765553 0.14266592 -0.11727242 -0.025900252
000180 39 c9 13 be 21 69 39 3c 46 1b 16 be 90 f1 d0 bd
       -0.14432229 0.011316569 -0.14658841 -0.102023244
000190 21 34 03 3d a4 b7 e7 3d dc fb e4 3d 62 32 37 3e
       0.032032136 0.113143235 0.11180851 0.17890313
0001a0 ff 9d 43 3e dc dc 9d bd 00 37 e9 3d 75 63 a1 3d
       0.1910324 -0.07708141 0.113874435 0.07880298
0001b0 d2 17 c8 3c 29 92 68 3e 17 10 4f 3d 6b d2 d6 3c
       0.02442542 0.22712006 0.050552454 0.026223382
0001c0 56 50 b8 bc 17 5a fa 3d 42 29 e6 bd 23 b4 67 bd
       -0.022499245 0.122242145 -0.11238338 -0.056568276
0001d0 5f ff 83 3c 24 1f 0f 3b e6 99 85 3d 9a 74 bf bd
       0.016112981 0.002183863 0.065234944 -0.09348412
0001e0 40 3a 20 3d bc 9a 05 bd 94 69 92 3d 4f e8 34 3b
       0.03911805 -0.03261827 0.07149044 0.0027604287
0001f0 f3 32 f7 bd ea 47 94 3d d0 f0 f3 bb f9 bf f9 3d
       -0.12070265 0.07240279 -0.0074444786 0.12194819
000200 d6 42 30 bd e2 2b ac bd 10 3f d5 bc 22 28 e2 3d
       -0.04303249 -0.084068075 -0.026031047 0.11042811
000210 22 90 29 bd 55 73 10 bd cb 90 6e bd 41 72 82 bd
       -0.04139722 -0.03526624 -0.058243554 -0.063694485
000220 22 c7 87 3d 7a 9b d6 bd 54 c2 ea bc cc ef 43 ba
       0.066297784 -0.104788736 -0.028657116 -0.0007474392
000230 e3 be 36 3e ff dc 94 3d 20 ad c7 3c b6 db 3e 3d
       0.17846255 0.07268714 0.024374545 0.04659625
000240 b9 5c 48 3c 7a 35 a3 3d ab 59 39 bd 85 46 1c 3e
       0.012229138 0.07969184 -0.04525153 0.15261276
000250 c7 ff 1f 3e 4e c2 e4 bd 4a f7 ad bd 5e 79 12 3e
       0.15624915 -0.11169873 -0.08494432 0.1430411
000260 b2 89 3a 3e de 00 cb bd 3f ab 3d be 68 6f 03 be
       0.18216589 -0.09912275 -0.18522356 -0.12835467
000270 e4 e2 cb 3d ce c3 59 be 0d bf f1 bd 45 f9 4a bd
       0.09955385 -0.212661 -0.11804018 -0.04955413
000280 67 c3 1a be 86 76 db bd 97 17 bd bd 04 93 6e bc
       -0.15113603 -0.10715966 -0.09233015 -0.014561418
000290 4a 5b cd bd 88 4c 6c 3d 66 87 8a bd 46 56 ce bd
       -0.10027178 0.057690173 -0.067641065 -0.10075049
0002a0 d7 aa 7b bd aa 76 16 3d 0d f0 7d 3d f7 ec 00 bd
       -0.061442222 0.03673426 0.06199651 -0.031475987
0002b0 ef 9a 9f 3d 5a 31 1a 3e a4 bc bf b9 5d 74 03 3e
       0.07793223 0.15057889 -0.00036570907 0.12837358
0002c0 fe 1d ef 3b e7 9b f5 bd e9 cb 53 be 1f d7 8b 3d
       0.0072972765 -0.11992627 -0.20683254 0.068281405
0002d0 7b 22 e4 bd 8a 6e 3b 3d cf 6f 18 be 65 9e 30 be
       -0.11139389 0.045759715 -0.14886402 -0.17247923
0002e0 2a ea 1b 3e 07 8e fe bc 06 f9 3b 3d 01 59 a1 3c
       0.15226045 -0.031073583 0.045891784 0.01969576
0002f0 d9 95 a6 bd bb 86 ba bb 32 0b 23 be a8 0c d4 bd
       -0.0813405 -0.0056923307 -0.1592224 -0.103539765
000300 1f 5b 89 bc cd b4 e3 3d 7b 1c 02 be 3a 0c d0 bd
       -0.016767083 0.111184694 -0.12706177 -0.10158582
000310 b3 25 88 3b a2 29 10 bc 22 1d 47 bd 5d b7 5e be
       0.0041548847 -0.008798989 -0.048611768 -0.21749635
000320 aa 4d 7b bc 44 a1 08 bd 21 d0 c6 bc d9 05 10 3e
       -0.015338341 -0.03335692 -0.024269165 0.1406473
000330 0b e4 6c bd 9e 39 ed bd 6a c8 b8 3c b7 0b 11 bd
       -0.057834666 -0.11583255 0.022556502 -0.035411563
000340 ea c0 46 3e ab cd d4 bc f2 a9 50 bd f6 84 05 3d
       0.19409528 -0.025976976 -0.050943322 0.032597505
000350 64 42 fa bd a4 7c 3d 3e ec d8 cf 3d 3f 50 c2 3b
       -0.12219694 0.18504578 0.101487964 0.0059299762
000360 70 18 75 bd ee 26 42 3e fd c3 e4 bc 9b fa bf bc
       -0.05983776 0.18960163 -0.027925486 -0.023434928
000370 d8 b7 85 3e cd 9c 5f 3d 76 aa 98 ba 41 99 8d bc
       0.26116824 0.054592896 -0.0011647481 -0.017284991
000380 ca cd d9 3d ac bf 15 3e f9 ec 60 3d 7c c8 f9 ba
       0.10634954 0.14623898 0.054913495 -0.0019056941
000390 60 74 06 3d 4c a0 49 be e7 57 92 bd 95 ed 14 be
       0.032825828 -0.19690055 -0.07145672 -0.14543755
0003a0 0d 90 1e be b6 b2 fb 3d b9 76 32 3b ca 0b 1c 3d
       -0.15484639 0.12289946 0.0027231409 0.03809718
0003b0 f9 cb 0a 3e 54 aa b3 3d 91 df 27 be 05 34 81 3b
       0.13554372 0.08772722 -0.16393878 0.003942969
0003c0 cf ca 18 3d 66 18 56 3d 7c 0c 6a bd 6c 82 1e be
       0.03730279 0.052269362 -0.057140812 -0.1547944
0003d0 91 05 89 bd e7 66 dc bd 5b 78 9e 3d 35 ca 56 bc
       -0.06690515 -0.107618146 0.077378 -0.013109733
0003e0 eb ba e6 bd 9e 58 aa bd 33 a7 cf bd 33 10 fa bd
       -0.112661205 -0.08317684 -0.101393126 -0.12210121
0003f0 a0 72 70 3e 48 2f 82 bd b3 14 51 be 52 8e ae bd
       0.23481226 -0.063566744 -0.20418052 -0.08523239

bias f4 [8]
000000 f5 f0 0e 3e 04 6f 19 be fa b0 84 bd a6 7d 04 3e
       0.13959105 -0.14983755 -0.06479068 0.12938556
000010 4c 6a f5 bc 55 27 91 bc 1e db fb 3d e8 1d 02 bb
       -0.029957913 -0.01771895 0.12297653 -0.0019854251

weight f4 [8]
000000 2b 56 7f 3f 25 44 79 3f 0f 5c 83 3f 8d bb 7c 3f
       0.99740857 0.97369605 1.0262469 0.9872368
000010 7a 69 75 3f 72 ff 87 3f 31 5e 7d 3f 38 71 8e 3f
       0.9586407 1.0624831 0.9897185 1.1128302

bias f4 [8]
000000 0b ff a7 bd e6 c8 9f 3a 20 bb e2 bb e4 5a 1f 3d
       -0.082029425 0.001219061 -0.0069192797 0.03890504
000010 f4 3e ee bd 32 36 62 3d a7 fc 60 bc bc 21 18 3d
       -0.11633101 0.055227466 -0.013732112 0.037141547

running_mean f4 [8]
000000 c2 49 3b bc 1f 89 0d 3e b8 26 1b be b3 ff a1 3e
       -0.011431159 0.13821839 -0.15151489 0.31640396
000010 b4 f0 d2 bd d7 86 94 be ad fc 10 3e cf 6e 73 be
       -0.10299817 -0.29009125 0.14158888 -0.23772739

running_var f4 [8]
000000 26 31 2e 3e 53 11 64 3e e0 9e 14 3d aa bd 29 3e
       0.17010936 0.22272234 0.036284328 0.16576257
000010 22 64 25 3d ae 33 45 3e 7b fc a3 3e 03 d1 c7 3d
       0.040378697 0.19257995 0.32028565 0.09756663

weight f4 [4, 8, 2]
000000 a8 3b e9 ba 5b af 3e 3e d0 e0 2a 3e ef a8 68 bd
       -0.0017794268 0.1862158 0.16687322 -0.056801733
000010 f8 4b 71 3c b7 93 bb 3d bc 6d 24 be d6 7a 05 be
       0.014727585 0.09159034 -0.16057485 -0.1303514
000020 a9 d0 96 be 24 02 54 3d cb fe cf bd b7 3d 97 3e
       -0.2945607 0.051759854 -0.1015602 0.29539272
000030 47 c1 03 be 5e da f1 3d 34 a1 96 3d f1 bc 12 3e
       -0.12866698 0.11809228 0.07354966 0.14329888
000040 c2 14 08 3e 4e 93 ac bd fc aa 03 3e 98 9d 2c bc
       0.13289168 -0.08426534 0.12858194 -0.01053562
000050 26 0b 32 be 70 ad 38 3e 0e 17 cd bc 10 65 5f 3d
       -0.17387065 0.18034911 -0.025035407 0.05453974
000060 57 3a 60 be af 12 1f 3e 8b 50 28 3d 06 74 51 be
       -0.21897255 0.15534471 0.041092437 -0.20454416
000070 96 4e db 3d 91 f8 4c be 39 de 67 be c4 8d 23 be
       0.107083485 -0.20016696 -0.22643365 -0.15972048
000080 09 39 38 3e 81 1e 60 be 72 49 7c 3e 4e 65 1c 3e
       0.17990507 -0.21886636 0.24637392 0.1527302
000090 44 bd b2 3c 55 41 2a 3e 42 1c 66 3e 33 2b 52 be
       0.021818765 0.16626485 0.22471717 -0.20524292
0000a0 e5 5a 91 bd e5 c1 83 bd 71 76 97 bb 5f c6 89 3d
       -0.07097415 -0.06433467 -0.0046222736 0.067272894
0000b0 a1 83 6f bd b5 c2 98 3d ab e6 a0 3b 8e 44 82 3e
       -0.05847514 0.074590124 0.0049103103 0.25442928
0000c0 df 09 cb bc 93 7e 24 be e7 e8 30 3e b6 27 96 bd
       -0.02478498 -0.16063909 0.17276345 -0.07331793
0000d0 2b 90 40 3d d1 1f 75 3d fe ba f3 3c 97 4b 15 3e
       0.04701249 0.059844796 0.02975225 0.14579616
0000e0 80 c1 f6 bc 29 6c 8e bc a6 e8 97 3d 2f a8 c5 3e
       -0.030121565 -0.01738556 0.07417421 0.38604876
0000f0 c0 6d 08 be 30 71 4c be 7b 06 a0 3c 0c 1c d2 bd
       -0.13323116 -0.19965053 0.01953434 -0.10259256

bias f4 [4]
000000 0c 64 3a be 21 8f 86 3e 19 98 62 3c 6f f2 4b bd
       -0.18202227 0.26281074 0.013830208 -0.04979175

weight f4 [4]
000000 c4 e7 6d 3f 68 b6 81 3f 2c b8 83 3f f3 7c 88 3f
       0.9293177 1.0133791 1.029058 1.0663131

bias f4 [4]
000000 d6 91 0d be 43 7b 21 be 5a 1e 9c bd 9e 1d 5b 3d
       -0.13825163 -0.15769677 -0.076229766 0.053495042

running_mean f4 [4]
000000 54 2c b0 bd 55 a0 f3 3d b6 b4 88 3e ec 6c a9 3c
       -0.08602205 0.11895815 0.26700372 0.02068182

running_var f4 [4]
000000 13 70 30 3d 35 e2 b9 3d 35 c2 82 3e 6d f0 89 3d
       0.043075632 0.09076349 0.25538793 0.06735311

weight f4 [1, 4, 2]
000000 92 e0 81 3e f4 63 03 be eb 22 4f bc 87 25 8a 3e
       0.25366646 -0.12831098 -0.012642602 0.26981756
000010 b7 43 ae bd c6 8d 57 be 41 d0 bd 3d 4f 34 f8 bd
       -0.08509009 -0.21050176 0.09268237 -0.12119352

weight f4 [16, 80]
000000 75 14 5e 3c 68 72 64 3d 71 b7 1c 3d 7a bb 5d 3d
       0.013554682 0.05577317 0.03826088 0.05413387
000010 31 89 6f 3d a9 e5 21 be e5 0a 7a 3d 1b 1a 81 be
       0.058480445 -0.15810265 0.061045546 -0.2521523
000020 c6 83 03 3b b2 82 c2 bd b4 4b af bd 85 4a 9f 3d
       0.0020067557 -0.094975844 -0.08559361 0.07777885
000030 5d 39 42 bd 07 1c bc bc 0d 06 28 3e 06 ad 8c 3c
       -0.047417987 -0.022962583 0.16408558 0.017172348
000040 73 cf 2e 3d 31 56 39 bd 96 40 2b 3c 55 28 81 3e
       0.042678308 -0.045248214 0.01045241 0.25226083
000050 bf 5d 94 bc e1 92 f7 3d 32 02 b5 3d e9 45 d0 bd
       -0.018111108 0.12088562 0.08838309 -0.10169584
000060 1e 46 e2 3b ac d9 98 3d a3 6d 53 be 25 ad e4 3d
       0.0069053313 0.074633926 -0.20647292 0.11165837
000070 e2 81 fe bd 52 f4 27 3e 54 ba 01 3d 15 01 0e be
       -0.12427117 0.16401795 0.031671837 -0.138676
000080 6a 05 7f 3d c7 92 40 3d a6 26 f1 3d 83 34 84 3e
       0.062261023 0.047014978 0.1177495 0.25821313
000090 4d 56 3a 3d 3b 39 2b 3d b0 ad 38 be 53 41 db 3d
       0.04549246 0.041802626 -0.18035007 0.10705819
0000a0 fd 09 95 3c dd 35 99 3d a8 71 d2 3d a4 ef 21 3e
       0.01819324 0.07480977 0.102755845 0.15814072
0000b0 9d a3 8d bc b1 93 21 bd 2a 36 eb 3d 8d ef d8 3c
       -0.017289931 -0.03944749 0.1148494 0.026481414
0000c0 d7 ef a9 3c 95 7a 41 bd 80 60 a2 3d 32 12 39 bd
       0.020744247 -0.047236044 0.07928562 -0.045183368
0000d0 fd d9 72 bc ea 16 2d be b0 44 ad bc ac c2 0f 3e
       -0.01482248 -0.16903272 -0.021150917 0.14039105
0000e0 4f b5 15 3e 48 d5 85 bd 1d 1b 33 bd cf 7b d7 3d
       0.14619945 -0.06534821 -0.04372703 0.105216615
0000f0 c8 8e a7 bd f4 8a 84 3d 92 f0 c1 bc 7a a1 5b bd
       -0.0818153 0.06471816 -0.023674283 -0.053620793
000100 47 17 94 bc 65 39 84 bc 89 a9 2d bd c4 a7 83 bd
       -0.018077506 -0.01614065 -0.04239801 -0.06428483
000110 c7 21 fe 3c 2f b4 03 be 29 0c 14 bd 80 1f b0 bd
       0.031021966 -0.12861703 -0.03614441 -0.08599758
000120 dd 5b 97 3d 75 0a 06 3d ec f9 4f bd f0 08 bf bd
       0.073905684 0.032724816 -0.050775453 -0.093278766
000130 35 df c7 3d 1e 94 c3 bc 91 41 1b bd 90 87 bc bd
       0.0975937 -0.023874339 -0.037904326 -0.09205544
000140 ea 7a a9 bb 39 a3 58 3b 7d e0 4d 3d 55 ed 04 be
       -0.005172123 0.0033056273 0.050262917 -0.1298116
000150 0e 55 b3 bd eb 35 4d 3e 71 ba 35 bd 62 8f c7 3d
       -0.08756457 0.200401 -0.044367258 0.09744145
000160 e2 71 10 3e 81 94 05 3e b0 04 55 3d ee f8 c0 bc
       0.14105943 0.13044931 0.052006423 -0.023556199
000170 bc 1d b9 3d fc eb 10 bc bf ea 12 bd 52 38 12 be
       0.090388745 -0.008845326 -0.035868403 -0.14279297
000180 cd 09 b9 bd 7a 78 25 bd d9 85 01 bd 3f 4a 8d bd
       -0.090350725 -0.0403981 -0.031621788 -0.06898927
000190 74 0c a5 bc 08 a6 19 3d 66 61 d7 bc 79 56 f4 3d
       -0.02014754 0.037511855 -0.02629156 0.11930556
0001a0 6b f0 b5 bd d0 97 8f bc bd 50 6d 3e 00 b4 9c bd
       -0.08883747 -0.017528445 0.2317533 -0.0765152
0001b0 cf a4 cd 3d 2f 18 ab bc ed 96 5c bd cf 24 98 3d
       0.100412 -0.020885555 -0.05385487 0.07428896
0001c0 8d 90 14 be 77 9e 13 be fa 01 45 3d 2b 06 85 be
       -0.14508267 -0.14415918 0.048097588 -0.25981268
0001d0 d6 28 a7 bb 53 2e fd 3c 9a 24 d3 3d f7 f2 25 bc
       -0.0051013036 0.030905878 0.103097156 -0.010128728
0001e0 33 b7 5e be b5 e0 1b 3d a6 3c d3 3b ce 29 06 be
       -0.21749572 0.038056094 0.006446439 -0.13101885
0001f0 86 ac ff bd 06 48 2d 3d c8 52 68 bc 0c 71 ca 3d
       -0.12484078 0.042305015 -0.014179893 0.09884843
000200 1c 49 28 3d 81 af 5b 3d 9d bb 94 3d 47 58 91 3c
       0.041085348 0.05363417 0.07262347 0.01774229
000210 8b 30 c3 bd 25 fd 73 3d 21 ee e2 bc 83 e3 50 bd
       -0.09530743 0.05956759 -0.02770144 -0.050998222
000220 0b f0 77 bd 31 24 50 3d b3 a8 48 bd e4 42 8e 3d
       -0.060531657 0.050815765 -0.04898901 0.06946352
000230 ed 49 01 bd 1b c2 83 bc a9 f0 1b bd 6a b1 bc 3a
       -0.03156464 -0.016083768 -0.03807131 0.0014396135
000240 54 7f 99 bd a4 a4 a2 bd d2 99 63 bb db 32 71 3d
       -0.07494989 -0.07941559 -0.0034729135 0.05888639
000250 2f 10 01 3d 72 b6 bf 3d 5f f4 27 3d 80 56 38 3d
       0.031509575 0.093609706 0.041004535 0.045004368
000260 12 8f 93 3d ba 9a 89 bc f6 dc e9 bc 42 64 6c 3d
       0.07205023 -0.016797412 -0.028547745 0.0577128
000270 3d 54 ea 3d 37 65 57 bd 64 ee 26 3d 11 62 6d 3c
       0.114418484 -0.05258676 0.04075469 0.014488713
000280 17 86 b5 3c 1a 0c 7f 3c 0f 7b 1b 3d 24 fe 8c bd
       0.022158666 0.01556685 0.037959155 -0.06884411
000290 03 d1 c0 3c 48 03 5a 3e 28 8d ed 3d c7 44 4e 3e
       0.023537165 0.21290314 0.11599189 0.20143424
0002a0 e6 b3 1a 3d 2a 84 1e bd 89 cf d1 3c 82 f7 96 3c
       0.03776922 -0.03870026 0.025611656 0.018428568
0002b0 19 8c cb 3a b0 40 55 bb 35 1a ba 3c 8e 0f 1b bd
       0.0015529423 -0.0032539777 0.022717575 -0.03785663
0002c0 37 1a ed 3c ad 3a 19 be db c1 a0 bd 16 5e 44 be
       0.028943164 -0.1496379 -0.07849475 -0.19176516
0002d0 ca 13 11 bd 77 5f 83 3d e5 e2 22 be 89 57 19 3e
       -0.035419263 0.06414693 -0.15906866 0.14974798
0002e0 05 5f e9 bd 1c 81 d8 bd b6 27 50 3e 7f 67 51 bc
       -0.11395077 -0.10571501 0.20327649 -0.012781023
0002f0 25 9a 67 bd fc af 74 be 37 0a 38 be 3f ae 51 3d
       -0.056543488 -0.23895258 -0.17972647 0.051191565
000300 b3 67 27 be bf 1b c4 bd 3c d8 0d bd 93 b0 ec bd
       -0.16348152 -0.09575605 -0.034630045 -0.11557116
000310 22 dc 62 bd a1 18 c5 3d 79 ed 91 bc 5e c1 12 3d
       -0.055385716 0.09623838 -0.017813431 0.03582894
000320 8f 0b 7c bb 8a a0 23 3d c9 e5 3a 3d c4 ea df bd
       -0.0038459038 0.039948024 0.045629296 -0.1093345
000330 ca 7d b9 bd 7d ae 98 bd 31 5a 37 3d 15 e5 15 bc
       -0.090571955 -0.07455156 0.044763748 -0.009148856
000340 fb ea 67 bd c2 b9 7d 3c 75 84 e4 bd 41 97 67 3d
       -0.05662058 0.015486183 -0.11158077 0.05654073
000350 f7 e7 27 3d 0e b0 12 3e fc 81 2f bd 34 00 b2 3c
       0.040992703 0.14324972 -0.042848572 0.021728612
000360 e7 2b cd bd 9f c9 a0 3d b0 a3 94 3c 3b ca 82 3d
       -0.10018139 0.07850956 0.018144459 0.06386229
000370 f2 66 80 3c 54 08 c8 3b f8 99 ed 3c 94 91 cb bd
       0.015674088 0.0061045084 0.029004082 -0.09939876
000380 68 1e a8 3d 1d 97 9e 3b cf df 27 bd 4b 58 fe bd
       0.082089245 0.0048397915 -0.040984925 -0.12419184
000390 e7 4f 14 3e 02 66 2c bd a1 7b cc bd a4 77 d0 bb
       0.14483605 -0.04208947 -0.09984518 -0.0063619185
0003a0 9f 9a 1f 3c aa 2b c8 bd 73 37 4a 3d 66 66 f9 3d
       0.009741454 -0.09773953 0.049369287 0.12177734
0003b0 b8 c2 43 bd 75 ef 12 3e 14 6c d5 3d 7c 64 a2 3d
       -0.04779312 0.14349158 0.10421005 0.07929322
0003c0 96 5d 1d bc 45 1e fc 3d 00 e3 89 3b e7 a2 f3 bc
       -0.009604832 0.12310461 0.0042079687 -0.029740764
0003d0 e3 2e 49 bd 82 df 3e bd c0 1c b6 bd b3 07 39 be
       -0.04911698 -0.046599872 -0.088922024 -0.18069343
0003e0 ac c5 c5 bc c7 28 28 3d 0b 68 9c 3c 15 94 63 3d
       -0.024142109 0.041054513 0.01909258 0.055561144
0003f0 a0 f5 4b 3c d2 72 f7 3d 57 90 11 bd ad 24 e6 3d
       0.012448698 0.12082447 -0.035538044 0.11237464

bias f4 [16]
000000 96 3b 24 bd 64 74 86 bd b6 3a 51 bd 3c 80 40 bd
       -0.040095888 -0.065651685 -0.05108138 -0.046997294
000010 84 01 39 bc a7 65 da 3b 26 c9 95 bd 7f c3 a3 bd
       -0.011291865 0.00666495 -0.07313757 -0.07996272
000020 d3 c1 c6 bc f3 be f2 bd c4 8f 82 bd d0 da 80 3d
       -0.024262344 -0.11852827 -0.06375077 0.06291735
000030 07 97 1f bd 4b f2 66 3c 55 a8 db bd 58 fb c1 bd
       -0.03896239 0.014095853 -0.10725466 -0.09471768

weight f4 [2, 16]
000000 2c 2b 1d 3e ed 2a 6e be 27 a5 3e 3d 05 ba 96 bd
       0.153485 -0.23258562 0.04654422 -0.07359699
000010 12 f6 a8 bd ea 08 05 3d fa 57 a7 be 9f f1 b5 3e
       -0.08250059 0.032479204 -0.32684308 0.35535905
000020 14 87 b0 3e c3 46 ad 3e e3 92 e8 3d 40 67 a5 3e
       0.34478056 0.3384305 0.113561414 0.32305336
000030 48 9b 8e be f0 f5 39 3e 1b f2 b8 bd a9 b3 93 3e
       -0.27852845 0.18160224 -0.09030553 0.28848007
000040 03 af 46 be 40 b3 7a 3e 7c 41 7d 3e 34 df 57 be
       -0.19402699 0.24482441 0.24732012 -0.21081239
000050 01 29 97 3e dd d9 8e be 25 dd c8 bd 8c 45 81 bc
       0.2952347 -0.27900591 -0.09807805 -0.015780233
000060 73 fd 51 be 20 41 95 bd 19 56 96 3e 18 3f 60 3d
       -0.2050684 -0.07287812 0.29362562 0.05474767
000070 5c 5e 67 3e 67 fe 09 be 45 6c 0a be 23 cd 6e bd
       0.22594589 -0.13475953 -0.13517864 -0.058301102

bias f4 [2]
000000 2d 9f 26 3e d4 e4 b8 3c
       0.16271658 0.022570051
