mlpcnnsemi/model/cnn/82oneinput_batch1_Epoch=80_lr=0.0001.pth (torch, 25249 bytes, 29 tensors)

weight f4 [4, 1, 1]
00000000: 735f cc3e 2000 e43e ae63 f73d 2e46 f7bd
0.39916572 0.44531345 0.12079559 -0.120739326

bias f4 [4]
00000000: 894e 0cbe 910d dfbd 0e0c 72bf 9054 3bbf
-0.13701834 -0.108912595 -0.94549644 -0.7317591

weight f4 [4]
00000000: fd48 7c3f 526b 813f 4c59 7b3f dfc2 853f
0.9854887 1.0110877 0.9818313 1.0450095

bias f4 [4]
00000000: 7bb1 2f3d 9bc1 d8bd bd98 ddbc 1b9a 3b3d
0.042893868 -0.10583802 -0.02705037 0.045801263

running_mean f4 [4]
00000000: 19bf 9dbb 24f0 1e3d 2ac0 67bf 4d8a 45bf
-0.0048140404 0.038803235 -0.90527594 -0.77164155

running_var f4 [4]
00000000: 9390 c43d 5574 f53d c685 103c 696a 0f3c
0.09597888 0.11985079 0.008820957 0.0087533975

weight f4 [16, 4, 1]
00000000: 5c35 f23c a43d b03e a252 9abe 0074 ea3d
00000010: 75a8 79be 4be0 bfbc 8c14 f53d 9a8a 733d
00000020: 4e01 fb3e ddf8 1abe 5e4d 00bf 4e00 efbe
00000030: ebb7 79be 5939 3f3e 0a67 c0bc c606 edbe
00000040: b4cd 63be cbb7 8ebe 00aa 7d3e 8e9c 4b3e
00000050: f2eb 10be 1772 b33e e494 043f 302b 3b3e
00000060: d1e4 c33e 935e 0fbe 885c e8be f9fc a4be
00000070: 2361 afbe 7099 90be da28 07bf 5ff7 aa3e
00000080: d9e7 04bf a41c a23e 53f1 d53e d45b 833e
00000090: e1a5 7fbe 2af2 d2bd e688 983e 2742 823e
000000a0: 0a61 bb3e 18ff 8c3e 3d81 a03e a940 643e
000000b0: 9fb6 1fbe f4ae d23d 59c7 92be 00ad a23e
000000c0: a000 28be dbc5 0c3f d016 163f 6e3f dd3c
000000d0: 5b79 d0be 77b7 983d dc93 0dbe 033e 063e
000000e0: c242 c7be 5c69 1d3e 80b7 89be 4b01 c8be
000000f0: 12a8 073e cc9f 70bd 941d a43e 37a5 953e
0.02956646 0.34422028 -0.3014117 0.114479065 -0.24380668 -0.02342238 0.1196681 0.059458353
0.49024433 -0.15133996 -0.5011805 -0.4667992 -0.24386565 0.1867422 -0.023486633 -0.4629423
-0.22246438 -0.27874598 0.24771881 0.1988394 -0.14152506 0.3504798 0.5178969 0.18278193
0.3826051 -0.14000921 -0.45383096 -0.32224253 -0.34253797 -0.28242064 -0.5279671 0.33391854
-0.5191627 0.31662476 0.41785678 0.25655997 -0.24965622 -0.103000954 0.29791945 0.25441095
0.36597472 0.2753837 0.313486 0.22290291 -0.15597008 0.10287276 -0.28667715 0.31772614
-0.16406488 0.54989403 0.5862856 0.027007785 -0.40717587 0.07456868 -0.13825935 0.13109593
-0.3891812 0.15372223 -0.26897812 -0.39063486 0.13247707 -0.058746144 0.32053816 0.2922761

bias f4 [16]
00000000: 1d7d 4d3d 29e3 4d3e d14b f03e 4210 293d
00000010: f38a 22bd 3b58 e53e 2d21 f43e a948 10be
00000020: 67d3 6dbe 960d 3d3e e2fd 013f eb93 08bf
00000030: 721d 833e 6790 ad3e a816 fcbc 6c23 adbe
0.050168145 0.20106186 0.46932843 0.04127527 -0.039683294 0.44793877 0.4768156 -0.14090218
-0.23225175 0.18462214 0.5077802 -0.53350705 0.25608402 0.33899233 -0.030772522 -0.33816087

weight f4 [16]
00000000: e896 753f 5f36 883f 04e1 773f 0dbf 813f
00000010: c91e 813f c7f1 763f 736d 893f fafa 813f
00000020: 7ede 7c3f 906f 723f 7e9c 783f 7c3d 823f
00000030: b522 7d3f 55d5 893f ba49 8c3f 421b 7e3f
0.9593339 1.0641593 0.9682772 1.0136429 1.008752 0.9646267 1.0736526 1.0154717
0.98776996 0.9470148 0.9711379 1.0175014 0.98881084 1.0768229 1.096 0.9926034

bias f4 [16]
00000000: 77c1 15bd fe76 773d 53cc 043d c5c1 59bd
00000010: 0f74 6d3b 82b8 e7bc 5d11 b93d 2db1 843d
00000020: a941 423d 945e d0bd 13ab 1fbd ee83 d23d
00000030: 0c0d fd3d ce90 973d 79a0 df3d 93c6 6739
-0.036561456 0.060416214 0.03242142 -0.05316331 0.0036232506 -0.028286222 0.09036515 0.06479106
0.0474259 -0.10174289 -0.03898151 0.1027907 0.12356004 0.07400666 0.109192796 0.00022103851

running_mean f4 [16]
00000000: 9d0e d83d 8a59 343e 29fd 8e3e ad76 11be
00000010: 33f7 34bd 9a0f 343f 4660 a33e 3f52 b3be
00000020: fba8 ccbd e16e 803e f668 593f 7159 06bf
00000030: 843f 063f 2911 7b3e a147 9ebe d1c9 03be
0.10549662 0.17612281 0.2792752 -0.14205427 -0.04418106 0.70336306 0.31909388 -0.35023686
-0.09993168 0.25084594 0.8492578 -0.52480227 0.5244067 0.24518265 -0.30914024 -0.12869956

running_var f4 [16]
00000000: dc00 7a3b bafb a13c d9a7 8a3c 3913 ca3b
00000010: e0de 803d d24b c23e 0c3b d33c 8c51 8d3f
00000020: f2c6 e33c b7e9 123c 0a8b 2b3f 32fb ea3d
00000030: aaff 363f 1004 403e 0141 2b3e bac2 cf3d
0.0038147485 0.019773353 0.01692574 0.0061668423 0.0629251 0.3794847 0.025784992 1.1040511
0.027804825 0.008966855 0.6700903 0.11473693 0.7148386 0.1875155 0.16724016 0.10144563

weight f4 [8, 16, 2]
00000000: 40ef 84bd bb10 0bbd 35f1 88be d378 ba39
00000010: 60e1 983d cd24 8c3c 4a84 1c3e 949a 943d
00000020: 7192 5fbe b152 eb3d 8746 ca3d 21d0 1f3e
00000030: c9fa debc 8c3d 3ebe 6d2b 00bd 017c 013e
00000040: 7c8d d8bd a254 033d be05 9abd 5eca a9bd
00000050: 62de d7b9 c8f4 48bc e690 593d e799 a93c
00000060: 00d8 3fbc a80c 453e 0fb2 59be c4fb 90bb
00000070: 324c 37be 6467 ebbd 17dd a53c 00fc 973d
00000080: 5718 893d 6a8b 0b3d 25b5 acbd 5b56 0cbd
00000090: 3d1f 533d 4142 4cbd 753e 403e fc5a 4a3e
000000a0: dcd7 03bc f5ee 413e f3a2 233e 04f5 fb3d
000000b0: 4edc 89bd 4ae7 00be 20b3 173e 8aee 2a3b
000000c0: 9453 abbc f85f 833d b180 42be 57ff 1e3d
000000d0: 92b5 10be b29e 1d3e 7662 fc3d 63c5 97bd
000000e0: c3b0 1dbe 0c96 c83c c020 a13d 8aed 923d
000000f0: b408 d83d 9513 7f3e f428 e0bc 641e d23d
00000100: 7ef6 f9bd a0cc f4bc fd9b 97be 08cf 11bb
00000110: 3c67 a73d a9f6 06be 3f49 b1bd 36b4 103d
00000120: 174a c6bd 319a edbc 6923 dd3d a439 c33d
00000130: 015c 263c 3c43 ab3d 9060 a1be 5a43 0c3d
00000140: 28b0 933d 697a 313e 0c96 cd3d 9f84 e63d
00000150: f320 95bd 472f 883d cd8f 3abe 07e8 c63d
00000160: a7e1 503d 4671 f9bd a206 14be 83b1 e23d
00000170: 56e4 5ebe 63aa fa3d 3d8e f8bd 88be 03bd
00000180: c10f 1cbe f01f 013d 1b27 f9bd b290 02be
00000190: 70f1 3e3d 4d82 d13d 5292 e83d 6f0c 0a3e
000001a0: a14e 623e e8c1 cdbd 31b5 d63d 3b3b c93d
000001b0: 2e0c 793b 46fc 873e c672 cc3d 064f e83c
000001c0: 950d e2bc a0fe 0c3e 35cb 89bd e8e2 a3bd
000001d0: d79d bd3b a60d 943c e7de bf3d f115 fcbd
000001e0: caea ed3c c576 d4bc 0f18 d03d 89c5 a2bc
000001f0: 393a a2bd b44f 203e fb19 75bc 4da1 133e
00000200: c8b7 a5bc 898d afbd 7f93 15bd 0656 a73d
00000210: 9495 00bd ae63 b2bb f023 83bd ff37 42bd
00000220: 5f30 3c3d 4f90 debd 62b5 fabc 8d8c 8d3b
00000230: 9c65 7d3e 92b9 a13d c48b ad3c 4fbc db3c
00000240: 846b e13c 11a8 993d c71f cdbd 244f 223e
00000250: 67eb 193e ccad dfbd 4cc2 cdbd 11db 033e
00000260: eb42 303e 245f d4bd 4156 4ebe 32e4 22be
00000270: b2a2 273e 5a0c 72be 46db f2bd 65f2 4bbd
00000280: d2ba 1abe 0f63 b6bd 0689 9fbd 5895 26bd
00000290: a7f7 e4bd 2003 193d 836e 97bd 00dc 10be
000002a0: 4212 93bd 2029 fd3c 9d9d 733d 0331 2dbd
000002b0: 9cff df3d c67d 093e 3e2a 1b3d 4717 c23d
000002c0: 817f 54bb 9c9c 14be 2d4c 64be f3d1 663d
000002d0: 4133 e2bd 01d6 2f3d b32a 21be 8c16 3abe
000002e0: 5f65 193e 1bb8 953b b00b 8b3d abf9 83bb
000002f0: 3125 c4bc 07b9 85bd 9c62 26be 99a8 ecbd
00000300: 6c4b 03bc 8846 b03d c7ab 19be 875d 09be
00000310: 2fcd 23bc 3b3a 703d 11d9 5bbd ce13 84be
00000320: d965 4fbd b38d b2bd 1086 e6bc cb2c ba3d
00000330: 1b6a f9bc db0c 003d 27b5 afbc 378d 76bd
00000340: 0ff2 533e 107a 96bd e007 b9bd 207e 51bd
00000350: 8475 02be a15e 143e 4528 9a3d 7bb6 32bd
00000360: 8f21 83bd f0fb 273e e24c 5abd cd16 53bd
00000370: 08f0 823e e64b c13d f36e a4ba 532d 7dbd
00000380: 1043 203e c51c 243e 76cf 8a3d fbad 063b
00000390: 7800 2f3d b8ef 5bbe ee08 85bd 2a66 25be
000003a0: b77b 18be 7e5a 043e af74 9b3c ab15 243d
000003b0: d3c5 143e a5f1 c83d 7a74 37be 3c0b 253c
000003c0: b094 c03d 6da6 7f3d bd95 ddbc 62f9 ffbd
000003d0: 0eb4 65bd b899 dbbd 8554 af3d 95d3 20ba
000003e0: 8453 cdbd b7f8 acbd 195d bfbd a8ea e6bd
000003f0: 488a 8d3e ffa4 87bd 8182 2ebe 267e b0bd
-0.06490946 -0.033951502 -0.26746526 0.00035566706 0.07464862 0.017107392 0.1528484 0.07256046
-0.21833207 0.114903815 0.09876733 0.15606739 -0.027219193 -0.18578166 -0.031291414 0.1264496
-0.10573861 0.032063134 -0.075206265 -0.082905516 -0.00041173684 -0.012265392 0.0531167 0.02070327
-0.011709213 0.19243109 -0.2125933 -0.004424544 -0.1790016 -0.114943296 0.020247025 0.07421112
0.066940956 0.034068502 -0.08432988 -0.034262042 0.051543463 -0.049867872 0.18773825 0.1976127
-0.00804707 0.18938811 0.15980129 0.123025924 -0.06731473 -0.1258823 0.14814425 0.0026082122
-0.020913877 0.06414789 -0.18994404 0.03881773 -0.14131764 0.15392569 0.123234674 -0.074106954
-0.1539946 0.02448561 0.07867575 0.07174213 0.10548535 0.24909814 -0.027363278 0.10259703
-0.12205218 -0.029882729 -0.29611197 -0.0022248644 0.08173987 -0.13180031 -0.08656549 0.035328113
-0.096821 -0.029004188 0.107977696 0.095324785 0.010153771 0.08362433 -0.31518984 0.03424392
0.072113335 0.17331852 0.10038385 0.11255764 -0.07281675 0.066496424 -0.18218918 0.097122245
0.05099645 -0.12179808 -0.14455655 0.11069014 -0.21766791 0.1223953 -0.12136505 -0.032164127
-0.15240385 0.0315246 -0.12165662 -0.1275051 0.04661697 0.10229931 0.113560334 0.13481306
0.22100307 -0.1004675 0.10483778 0.098257504 0.0038001644 0.26559657 0.09982829 0.028357994
-0.027594367 0.13769007 -0.06728212 -0.08002263 0.0057866382 0.018072914 0.09368687 -0.123088725
0.02904262 -0.02593554 0.10160839 -0.019869583 -0.07921261 0.15655404 -0.0149598075 0.14417
-0.020229235 -0.085719176 -0.036517616 0.081707045 -0.03139265 -0.0054440117 -0.06403339 -0.047416683
0.045944568 -0.108673684 -0.030604068 0.0043197335 0.24745792 0.07896723 0.02118481 0.026823191
0.027517088 0.07502759 -0.10015827 0.15850502 0.15031205 -0.10921821 -0.10046825 0.12876536
0.17213027 -0.10369709 -0.20150091 -0.15907362 0.16370657 -0.23637524 -0.11858229 -0.049791712
-0.15110329 -0.08905613 -0.07789807 -0.04066977 -0.111800484 0.037356496 -0.07394125 -0.14146423
-0.07181217 0.030903399 0.059476484 -0.04228307 0.109374255 0.13426885 0.037882082 0.09477096
-0.003242463 -0.14512867 -0.22294684 0.056352567 -0.11044932 0.0429287 -0.15738945 -0.18172663
0.14980076 0.004569066 0.067893386 -0.0040275655 -0.023943515 -0.06529432 -0.16248554 -0.11555595
-0.008013587 0.08607203 -0.15006934 -0.13414584 -0.00999765 0.058649283 -0.053673808 -0.2579636
-0.05063424 -0.08718433 -0.028140098 0.09090575 -0.030446103 0.03126226 -0.021448685 -0.060193267
0.20697807 -0.073475 -0.09034705 -0.051145673 -0.12740141 0.14489223 0.07527212 -0.04363106
-0.06402885 0.164047 -0.053295977 -0.051535416 0.25573754 0.094383046 -0.0012545272 -0.061810803
0.15650582 0.160266 0.06777851 0.0020550478 0.042725056 -0.21478164 -0.06495844 -0.16152254
-0.14890943 0.12925145 0.018976538 0.040059727 0.14528589 0.09811715 -0.17915526 0.010073479
0.0940336 0.062414575 -0.02704894 -0.12498738 -0.056079917 -0.10722679 0.08561043 -0.0006135044
-0.10025695 -0.08445876 -0.09343929 -0.11275226 0.27644563 -0.066232674 -0.17041971 -0.08617811

bias f4 [8]
00000000: ee3c eb3d db46 07be e576 08be a8d0 3d3e
00000010: 83ab b23b 6a6e 243d 169c a03d cc64 03bc
0.11486231 -0.13210623 -0.13326605 0.18536627 0.0054525747 0.04014436 0.07842271 -0.008019637

weight f4 [8]
00000000: f52b 813f 88e5 783f 49b4 803f d08c 733f
00000010: 36ed 793f 2516 8d3f 8224 7f3f 7cc7 8e3f
1.009154 0.97225237 1.0055019 0.9513674 0.9762758 1.1022383 0.9966508 1.1154628

bias f4 [8]
00000000: 1b1a 27be a099 583d ddf6 4fbd 39f0 38bd
00000010: ff2c 1cbe 6605 833d 89ea 03bd 0386 1b3c
-0.16318552 0.052880883 -0.050772537 -0.04515097 -0.1525154 0.06397514 -0.032206092 0.0094924

running_mean f4 [8]
00000000: 9f97 f3bc 655b 753e 56bd bbbe 7c18 ef3e
00000010: 3374 a4bd a0df 94be 14c2 3fbd f395 1cbe
-0.029735385 0.23960645 -0.3666789 0.46698368 -0.08029976 -0.29076862 -0.046815947 -0.15291576

running_var f4 [8]
00000000: 6a25 7b3e 09b1 233e 39f6 2c3d 783c 4f3e
00000010: 6a04 2b3d 6259 463e 0d36 f73d 7934 443d
0.24525991 0.15985502 0.042227004 0.20237911 0.041752256 0.19370034 0.12070856 0.047901604

weight f4 [4, 8, 2]
00000000: f5a4 d43b 581a 3a3e 48c4 393e d8a4 85bd
00000010: 52d0 543c e6df cb3d 85f1 0cbe 307c fabd
00000020: 3029 a4be 03e0 f0bc ffb6 92bd 70c6 973e
00000030: 307c 11be 2760 fc3d 03c0 073e 4e37 173e
00000040: 447a 223e c125 01be 6f55 093e cd43 323d
00000050: 453d 3bbe 9699 463e dfbd 0d3c c19d c63c
00000060: 4bb1 72be 97b0 2b3e 4d86 123e 8b4a e6bd
00000070: d4be fa3d fdfe 49be 6543 49be eda5 d2bd
00000080: 53ce 8c3e 1640 2bbe 314f 5f3e df64 1b3e
00000090: 1375 ef3c edfd 023e 3c73 633e 06c4 63be
000000a0: 7f7c 40bd eb64 a3bd 2675 99bd b66f f73c
000000b0: 996d a8bd 05f9 de3d e6d5 68bd bfad 893e
000000c0: b4ba 24bd b3b8 31be 7927 433e d1eb 1ebd
000000d0: c00c 3d3d 83f4 323d 7cf7 9abc f092 f43d
000000e0: 8dd7 63bd 40e4 2c3d 063a 3b3c 703f fa3e
000000f0: 4003 bebd 42a5 49be 01c4 83bc 09e1 1dbe
0.006489391 0.18174112 0.18141282 -0.06525582 0.012989121 0.099548146 -0.13764007 -0.12230718
-0.32062674 -0.029403692 -0.0716381 0.29643583 -0.1420753 0.12323027 0.1325684 0.14767191
0.15866953 -0.12612058 0.13411497 0.04352169 -0.18285091 0.19394526 0.008651226 0.024245145
-0.23700444 0.16766582 0.14309044 -0.11244687 0.12243429 -0.19726177 -0.19654615 -0.10285554
0.27501163 -0.16723666 0.21807553 0.15175198 0.02923063 0.12792177 0.22211927 -0.22242746
-0.04699373 -0.07978233 -0.074930474 0.030204635 -0.08224029 0.108873405 -0.056844614 0.2689037
-0.040217116 -0.17355613 0.19058026 -0.03879911 0.046154737 0.043690216 -0.018916838 0.119420886
-0.055625487 0.042209864 0.011427408 0.48876524 -0.09277964 -0.19691947 -0.016084673 -0.15417875

bias f4 [4]
00000000: d57f 22be e9f9 993e 4315 81bc d3f4 253c
-0.15869077 0.3007348 -0.015757209 0.010129171

weight f4 [4]
00000000: b681 6a3f 03a0 813f 3066 843f 929f 8d3f
0.91604173 1.0126957 1.0343685 1.1064322

bias f4 [4]
00000000: d6ab 34be 1430 febd 38c4 3fbd c397 07bd
-0.17643675 -0.12411514 -0.04681799 -0.033103716

running_mean f4 [4]
00000000: 3486 cdbb eafa 673e e202 6f3e 1c27 343d
-0.006272102 0.2265431 0.23340943 0.04398261

running_var f4 [4]
00000000: 6ccf 773d a58e e43d 3133 8a3e 622f 973d
0.060500547 0.1116002 0.2699218 0.073820844

weight f4 [1, 4, 2]
00000000: 5bbc 713e c8fa 24be 4941 12bd 5bbb 873e
00000010: 740e 80bd 0dcc 6bbe 7417 f43d 059a 10be
0.23607008 -0.1611129 -0.035706792 0.26510128 -0.06252757 -0.23027058 0.11918536 -0.14121254

weight f4 [16, 80]
00000000: 9ad3 323d 78ac 8e3d 9e15 3d3b 7b23 843d
00000010: 637f 983d ddf9 49be 7213 b43c 109e 87be
00000020: 5068 b2bc 53b6 dabd 43cc a4bd 067a be3d
00000030: fb89 73bd 2f27 f2bc 8825 2e3e 5515 3e3d
00000040: 90d1 583d 0375 56bd e2ee 4c3d 38c5 843e
00000050: 75d1 75bc 3083 f73d d8b3 053e 506b fdbd
00000060: d6ab 2d3d 75ca 963d 70d9 6ebe 5ec4 073e
00000070: c835 d7bd de43 453e 2a4e 6c3d bb18 06be
00000080: b295 b83d 6033 033d 78a1 f73d 0fe8 813e
00000090: 43e4 3f3d 473c 7c3c d1e1 44be a04b db3d
000000a0: 8f40 c63c 58ac a53d 17d4 963d 6c0e 333e
000000b0: bdc2 023c 6fc5 47bd 3bfe fa3d 198a 2a3c
000000c0: 783b 21bc c0b8 aebc 0f0f f03d 91fa 6bbd
000000d0: 32b3 fa3b 6ae8 3dbe 0700 34bd 2a38 1e3e
000000e0: 3c0e 1a3e a7df 3cbd e923 81bd 6c7b e43d
000000f0: 4413 acbd 5d97 8a3d 2761 1bbd d609 1abd
00000100: 237f 20bd 4cb0 00bc f981 75bd 0167 70bd
00000110: a7a9 2f3b bb3f 4abe ba1c 2bbd 09a7 d2bd
00000120: ae06 7a3d b9fd 7b3c 3dcd 84bd b1ab 0fbe
00000130: 1371 c33d 664d a5bc 4963 9bbd 271e b6bd
00000140: 12f0 12bd e108 31bc 3734 ae3d 498d 0fbe
00000150: d2c6 d3bd 2c40 753e ee06 c5bb 9e19 e23d
00000160: 5979 283e 6a4e 113e e236 3e3d 2e8e 1fbd
00000170: c645 d13d bde0 26bb 10ea 2dbd e48f 30be
00000180: 93ba cebd b083 0abd 28ae 91bd c7a1 9cbd
00000190: a130 c0bc 2c77 143d d2aa 8dbd 1ad1 103e
000001a0: 1745 ffbd 2e87 8abc 3f0f 843e 6b85 c8bd
000001b0: ee54 a63d 3a2b 4cbd 37ba a5bd b6e5 863d
000001c0: faad 31be 2af8 04be c85e 373d 94c1 82be
000001d0: 6dd4 ddbb 0e53 693d 1b6f e93d 2f11 24bc
000001e0: 45a6 64be 1738 003d aeec 0e3d 87b7 17be
000001f0: 715e 19be 98f1 523d 5162 b8bc 12a8 ea3d
00000200: e3d0 933d b554 e13c 4947 0d3d c87a f43c
00000210: 99a2 f1bd 253f 9b3d 0112 b7bb 1a3e 86bd
00000220: f996 84bd 6157 fc3c ac98 f1bc d378 7e3d
00000230: cddd f0bc 4b95 9fbc fd67 c4bc 4b27 71bc
00000240: 53a0 5cbd 1277 b3bd 093a 583c f543 5a3d
00000250: 579a 733d 4f7a 263e 81b6 3d3d 7d24 7b3d
00000260: 9c64 ab3d 42f5 f039 9215 71bc 19be d53d
00000270: f1f1 eb3d 2437 68bd 9a99 a03d 8ffa 3a3c
00000280: 10ff 0cbc f554 913a 1229 953d 64c8 a1bd
00000290: cace 023c c02d 813e 2a02 1e3e 2e72 5b3e
000002a0: 7c03 7a3d c41b e0bc 6983 a73c 455b 1d3b
000002b0: b17f 663c cbe4 503b 7c09 823c df80 8abd
000002c0: 959d 943c 6fce 11be 0cb6 f2bd 0817 4cbe
000002d0: a3f2 1ebd f217 823d 2e90 4ebe 0a90 2f3e
000002e0: 0dd3 18be a62f d7bd 5705 6b3e 2c3b 07bd
000002f0: decf 9abd 25e3 88be a98f 52be 1504 2f3d
00000300: d25f 44be b327 a6bd 1418 1abd 7502 e4bd
00000310: 36c5 6abd 2f08 fb3d 6052 e6bb 2682 113d
00000320: 7298 24bc 2af1 073d f30a 993d f1ba 01be
00000330: 44da eabd 803f 84bd 1a6b 163d f7d3 c83b
00000340: d4b0 cfbc 9a65 2bbc e7e3 18be ecae 8b3d
00000350: b4a9 903c 56a9 223e cee6 a1bc e449 e93b
00000360: 2fd8 d5bd 41cf 6f3d 08ab 193d c402 683d
00000370: 5061 8d3c 2272 3b3b 89c9 303d 6d87 ebbd
00000380: c941 d13d adf4 76bb d64b c7bc ef97 04be
00000390: 39cf 303e 2d4d e33c c406 c0bd d47c 293c
000003a0: c1b3 b73c 778a a3bd 9eb4 813d 77b8 2c3e
000003b0: d0ad 3ebd 2326 0e3e 0a67 103e 80cf 9a3d
000003c0: 1a17 a83c 1345 0b3e 7913 00bd d6d1 a9bc
000003d0: 34e0 0abd 198c afbd 0f52 02be e00e 46be
000003e0: 353b 4abd 668f e73c 0955 c13c f5ab 913d
000003f0: c94e aaba e7a5 e83d 39b1 efbc a02a 113e
0.04365883 0.069664896 0.0028851996 0.0645208 0.07446172 -0.19724222 0.021981928 -0.2648778
-0.021778256 -0.10679307 -0.08046772 0.09300618 -0.05945776 -0.0295597 0.17006505 0.046407063
0.05293423 -0.052357685 0.050032504 0.25931716 -0.015003552 0.12085569 0.13056886 -0.12373984
0.042400204 0.07362834 -0.23325133 0.13258502 -0.10508305 0.1926417 0.05769173 -0.13095371
0.09012927 0.032031417 0.120913446 0.2537236 0.046848547 0.015395231 -0.19226767 0.10707784
0.024200706 0.080895126 0.07364672 0.1748597 0.007981 -0.04877227 0.12255522 0.010408902
-0.009840839 -0.02132833 0.11721622 -0.057612006 0.0076507563 -0.1854569 -0.04394534 0.15451112
0.15044492 -0.04611173 -0.063056774 0.11156353 -0.08402112 0.067671515 -0.03793445 -0.037607037
-0.039183747 -0.007854532 -0.059938405 -0.058691982 0.0026804002 -0.19750874 -0.041775443 -0.10285766
0.061041526 0.015380316 -0.064844586 -0.14030339 0.095430516 -0.020178508 -0.075872965 -0.0889247
-0.03587348 -0.01080534 0.08506053 -0.1401874 -0.10340656 0.23950261 -0.006012789 0.11040042
0.1645254 0.14190069 0.04643906 -0.038953952 0.10218386 -0.0025463544 -0.042459548 -0.1724239
-0.1009418 -0.033816993 -0.07113296 -0.07648044 -0.023460688 0.036246464 -0.06917347 0.14142266
-0.1246435 -0.016910162 0.25792882 -0.097910725 0.08121668 -0.04984591 -0.08092158 0.06586783
-0.17351523 -0.12985292 0.044768125 -0.25538313 -0.006769708 0.056963973 0.11398145 -0.0100138625
-0.22329052 0.03130349 0.034893684 -0.14816104 -0.14977433 0.051499933 -0.022507818 0.11457838
0.07217576 0.027506212 0.03449181 0.029843703 -0.11798591 0.07580403 -0.005586863 -0.06554814
-0.06474108 0.030803384 -0.029491745 0.062126946 -0.029402638 -0.019480368 -0.023975367 -0.014718841
-0.053863835 -0.08762945 0.01319743 0.053287465 0.05947336 0.16257595 0.046316627 0.061314095
0.08368799 0.00045959098 -0.014714615 0.10436649 0.11520756 -0.05669321 0.07841797 0.011412277
-0.0086057335 0.0011087941 0.07283224 -0.078995496 0.007983873 0.25230217 0.15430513 0.21430275
0.06103848 -0.02735699 0.020448403 0.00240107 0.01406853 0.0031874652 0.015873663 -0.067628615
0.018141547 -0.14238904 -0.11851129 -0.1993066 -0.038805615 0.063522235 -0.20172188 0.1714479
-0.1492426 -0.10507135 0.22951256 -0.033015415 -0.07559179 -0.26735798 -0.20562615 0.042728502
-0.19177178 -0.08113041 -0.03762062 -0.11133281 -0.05731698 0.1225742 -0.007028863 0.03552451
-0.010046111 0.033188976 0.074727915 -0.12668969 -0.11467412 -0.06457424 0.036723234 0.006128784
-0.025352873 -0.010461235 -0.14930688 0.06820473 0.017659046 0.15884909 -0.019763377 0.007119404
-0.104416244 0.058547262 0.037516624 0.056643263 0.017258316 0.0028601964 0.04316095 -0.1150044
0.10217626 -0.003768246 -0.024328154 -0.12948583 0.17266549 0.027746761 -0.093762904 0.010344703
0.02242458 -0.079853944 0.06333278 0.16867243 -0.04655248 0.13881736 0.14101806 0.07559109
0.020518828 0.13600568 -0.03126857 -0.02072994 -0.033905223 -0.085716434 -0.12726615 -0.19341612
-0.04937287 0.02826662 0.023600118 0.07112876 -0.001299345 0.11359768 -0.029259311 0.14176416

bias f4 [16]
00000000: 6869 4cbd f77b 67bd a1b8 2abd ca23 6ebd
00000010: 643a ddba c9bf 79bb eb98 7ebd 4753 b7bd
00000020: c4b6 06bd 23d6 02be 1b49 53bd 5448 563d
00000030: 9d96 eebc c9b2 ae3b bbad f2bd 8a57 d6bd
-0.04990521 -0.056514706 -0.041679982 -0.0581396 -0.0016878364 -0.0038108698 -0.062157553 -0.08951431
-0.032889143 -0.12776999 -0.05158339 0.05231507 -0.029124552 0.0053313714 -0.11849543 -0.104659155

weight f4 [2, 16]
00000000: 5eaf 0f3e 71ba 79be 9619 0e3d ffe9 8bbd
00000010: 2154 a6bd 1887 3e3d 9a66 a4be 6f1e bd3e
00000020: 7377 bc3e 9f31 b23e c434 e43d e7be b43e
00000030: 43df 96be f0b1 633e 947d d9bd 9997 943e
00000040: 2d33 39be df20 833e 8bb2 843e d646 5dbe
00000050: c680 963e 7309 96be 46a0 d4bd d415 f4bc
00000060: 71de 69be 56ee a8bd fb6d 973e 9b03 cb3c
00000070: 42e6 773e 64ba 33be 964c f4bd d5ec 75bd
0.14031741 -0.24387528 0.03469237 -0.068317406 -0.08121515 0.046515554 -0.3210953 0.3693728
0.36809883 0.34803483 0.11142877 0.35301897 -0.2946721 0.22235847 -0.10619655 0.2902191
-0.18085928 0.25611016 0.25917467 -0.21609053 0.2939512 -0.29304084 -0.10382132 -0.029795565
-0.22838761 -0.08248584 0.29576096 0.024781993 0.2420893 -0.17551571 -0.1192867 -0.060040314

bias f4 [2]
00000000: ce9e 1d3e 2c72 003d
0.1539261 0.031358883
