mlpcnnsemi/model/cnn/82oneinput_batch1_Epoch=43_lr=0.0001.pth (torch, 25249 bytes, 29 tensors)

weight f4 [4, 1, 1]
0.43855208 0.44217765 0.070839085 -0.110628545
00000000: e689 e03e 1c65 e23e 1514 913d 3891 e2bd

bias f4 [4]
-0.07863577 -0.052414432 -0.958774 -0.68186086
00000000: ca0b a1bd 84b0 56bd 3672 75bf 6f8e 2ebf

weight f4 [4]
0.9882315 1.0040056 0.98438156 1.0391766
00000000: bdfc 7c3f 4183 803f 6e00 7c3f bd03 853f

bias f4 [4]
0.028944258 -0.07726748 -0.02316192 0.04523617
00000000: 821c ed3c 6a3e 9ebd 11be bdbc 9049 393d

running_mean f4 [4]
0.06148867 0.08837984 -0.93571633 -0.7171129
00000000: 8bdb 7b3d 7d00 b53d 1b8b 6fbf b694 37bf

running_var f4 [4]
0.12339033 0.12571764 0.003237709 0.007846071
00000000: 12b4 fc3d 20bc 003e be2f 543b cf8c 003c

weight f4 [16, 4, 1]
0.024256695 0.33650252 -0.30864143 0.09938538 -0.23286442 -0.014495104 0.1308519 0.055899758
0.49175048 -0.14856479 -0.4998121 -0.45985982 -0.24202707 0.18698399 -0.023324627 -0.45524088
-0.20920141 -0.2628142 0.2627069 0.20887676 -0.15963775 0.32099292 0.49765056 0.20405361
0.38723376 -0.13474056 -0.4494408 -0.31872016 -0.34147424 -0.2748011 -0.5132819 0.34188414
-0.5173482 0.31654826 0.41860792 0.25522545 -0.26731676 -0.117267154 0.28172445 0.22363739
0.394161 0.25448734 0.33278793 0.1983041 -0.1399026 0.10788947 -0.2771305 0.32820117
-0.17502196 0.4504749 0.57151663 0.04987502 -0.37253436 0.11026185 -0.086970635 0.16769138
-0.38140118 0.13360468 -0.27394262 -0.39655462 0.1254029 -0.05634743 0.31692642 0.29468116
00000000: fab5 c63c 0f4a ac3e 4006 9ebe 908a cb3d
00000010: 0374 6ebe df7c 6dbc 0afe 053e 25f7 643d
00000020: b8c6 fb3e 5e21 18be 5fe7 ffbe bf72 ebbe
00000030: f2d5 77be bb78 3f3e 4a13 bfbc 5515 e9be
00000040: e538 56be 958f 86be 8581 863e cae3 553e
00000050: 1478 23be 2f59 a43e 0ecc fe3e 6ef3 503e
00000060: 8143 c63e 6ef9 09be 1b1d e6be 4a2f a3be
00000070: b6d5 aebe bbb2 8cbe 7166 03bf 700b af3e
00000080: ee70 04bf 9d12 a23e c753 d63e e9ac 823e
00000090: bedd 88be c329 f0bd 303e 903e 3301 653e
000000a0: 78cf c93e 2a4c 823e 2e63 aa3e 3b10 4b3e
000000b0: a142 0fbe 28f5 dc3d 0de4 8dbe fc09 a83e
000000c0: f538 33be a5a4 e63e ea4e 123f c049 4c3d
000000d0: d3bc bebe f7d0 e13d a91d b2bd 4ab7 2b3e
000000e0: 0447 c3be aacf 083e 3542 8cbe 3509 cbbe
000000f0: 9e69 003e 90cc 66bd 2e44 a23e 73e0 963e

bias f4 [16]
0.04006919 0.19720109 0.4582597 0.07241465 -0.043663144 0.4027636 0.453927 -0.1490355
-0.17830184 0.101453274 0.51771206 -0.4988176 0.2626633 0.3362173 -0.009795061 -0.35429174
00000000: 971f 243d 15ef 493e 04a1 ea3e 224e 943d
00000010: 20d8 32bd 0837 ce3e 1f69 e83e c39c 18be
00000020: c294 36be bcc6 cf3d c788 043f 0565 ffbe
00000030: ce7b 863e ad24 ac3e 777b 20bc ba65 b5be

weight f4 [16]
0.968945 1.0502093 0.97536 0.9968095 0.99921596 0.9752439 1.0300435 0.9648756
1.0038642 0.9436035 1.00409 1.01588 1.0158606 1.0524746 1.0486537 0.9956974
00000000: c80c 783f 426d 863f 31b1 793f e82e 7f3f
00000010: 9ecc 7f3f 96a9 793f 77d8 833f 1602 773f
00000020: 9f7e 803f 0090 713f 0586 803f 5b08 823f
00000030: b807 823f 7db7 863f 493a 863f 06e6 7e3f

bias f4 [16]
-0.03885564 0.05757061 0.03264355 -0.0357326 -0.01478176 0.0010322162 0.044541042 0.055492725
0.031808205 -0.09506885 -0.0064753736 0.08114761 0.121461496 0.04991449 0.1020739 -0.00596843
00000000: 1727 1fbd 29cf 6b3d 3eb5 053d 595c 12bd
00000010: 322f 72bc 6e4b 873a ab70 363d 574c 633d
00000020: 5249 023d 75b3 c2bd 5f2f d4bb b830 a63d
00000030: cec0 f83d 2373 4c3d 1f0c d13d d292 c3bb

running_mean f4 [16]
0.0832837 0.18056162 0.27783373 -0.09877263 -0.033272374 0.63819104 0.30613264 -0.34242678
-0.048682105 0.1427011 0.8452921 -0.4788901 0.49713406 0.2902835 -0.28174442 -0.15529731
00000000: a590 aa3d 25e5 383e 3940 8e3e 4e49 cabd
00000010: 9d48 08bd 7d60 233f 6bbd 9c3e 9052 afbe
00000020: e366 47bd 3d20 123e 1065 583f 1531 f5be
00000030: 5b88 fe3e 0aa0 943e ce40 90be 4206 1fbe

running_var f4 [16]
0.0020730258 0.013041221 0.016113441 0.0059938305 0.04562143 0.31840312 0.023709396 1.0842202
0.030151062 0.015673133 0.7345652 0.09825343 0.55381703 0.11116907 0.18626189 0.10100128
00000000: 9adb 073b d8aa 553c 5600 843c e567 c43b
00000010: 89dd 3a3d bc05 a33e 353a c23c bac7 8a3f
00000020: 5cff f63c f164 803c 770c 3c3f 1839 c93d
00000030: f4c6 0d3f 9cac e33d 70bb 3e3e c2d9 ce3d

weight f4 [8, 16, 2]
-0.067111515 -0.045038834 -0.24445513 -0.052734524 0.07043989 -0.0046357233 0.1454266 0.07264018
-0.19487911 0.0724628 0.09739929 0.14430265 -0.03947879 -0.1591776 0.024632791 0.08222212
-0.1124774 0.02833147 -0.038973648 -0.109762006 -0.0016053229 -0.02464285 0.08044873 -0.025812073
-0.017230384 0.17999001 -0.1875925 -0.054009713 -0.16339685 -0.111014664 0.01798573 0.06422061
0.06654907 0.08547295 -0.10496963 -0.048119932 0.045237705 -0.058485486 0.18051097 0.14498876
-0.0038048145 0.18054289 0.14021404 0.12207885 -0.07156663 -0.0619146 0.14261155 0.00050903356
-0.016828781 0.09298242 -0.15240927 0.0015456978 -0.16312833 0.15234384 0.11214832 -0.0916446
-0.16981193 0.029171545 0.060005616 0.06528413 0.09147235 0.23387194 -0.03188656 0.11205586
-0.10677295 -0.032626357 -0.24901357 0.0012019037 0.09038631 -0.11943045 -0.06431618 0.06997416
-0.09016241 -0.030259864 0.106053405 0.094433665 0.036015753 0.0742364 -0.22477257 0.0417012
0.07966005 0.17812467 0.092343956 0.10308018 -0.07398606 0.06480877 -0.16629186 0.09352221
0.05443701 -0.12124383 -0.075035155 0.11825262 -0.19972545 0.14222184 -0.11973139 -0.027034992
-0.14435098 0.023647757 -0.1490041 -0.106099844 0.034030233 0.113251366 0.108036965 0.16328411
0.1882174 -0.07450743 0.115524575 0.085423484 0.025034389 0.23724346 0.05673632 0.02480913
-0.021479351 0.13114351 -0.11558242 -0.05257784 0.017452536 0.008243447 0.06129526 -0.09352021
0.039844383 -0.027363373 0.0689593 -0.0011689554 -0.10384097 0.07839105 -0.0054542897 0.12924364
-0.037077002 -0.081664145 -0.029906612 0.09570111 -0.038067095 -0.026757708 -0.060554214 -0.060034845
0.062250234 -0.11565184 -0.027238863 0.003496672 0.1925969 0.07943828 0.023126755 0.03364643
0.016666815 0.081298254 -0.056999333 0.14127056 0.15730302 -0.107213266 -0.088763975 0.13024387
0.18317696 -0.09451798 -0.1898752 -0.14245208 0.10794713 -0.2302806 -0.11651979 -0.047269348
-0.15671958 -0.10887466 -0.087964505 -0.021631226 -0.10167729 0.050667327 -0.06616064 -0.11016758
-0.065946996 0.034284264 0.059579767 -0.024803072 0.08237127 0.14154768 0.0054999297 0.11935804
0.0013462934 -0.12800117 -0.21448267 0.065924995 -0.1133669 0.056230366 -0.151552 -0.17632721
0.15025845 -0.015615475 0.049252227 0.013220585 -0.06907631 -0.02478837 -0.162042 -0.099018656
-0.02053131 0.10947081 -0.14021713 -0.10696685 0.0058557917 -0.0024657294 -0.044688407 -0.22904085
-0.028210267 -0.041451078 -0.027686471 0.13654913 -0.051506 -0.097403266 0.0053968835 -0.03983737
0.19210237 -0.03190071 -0.06323632 0.023121543 -0.12549369 0.18408261 0.08959428 -0.0014196673
-0.06220328 0.19003747 -0.040912386 -0.028770844 0.2525961 0.05737829 -0.0042283586 -0.021078149
0.11306636 0.14492686 0.060540043 -0.00498883 0.03655747 -0.19796795 -0.06559202 -0.1455266
-0.15754245 0.12612179 0.0035708032 0.039242398 0.14237489 0.080014825 -0.16182978 -0.0010531237
0.0443563 0.052453693 -0.059291907 -0.14311223 -0.06709526 -0.106318064 0.07724413 -0.010642376
-0.11242734 -0.08132561 -0.096202485 -0.12422302 0.25358054 -0.0798662 -0.19950053 -0.08535711
00000000: c371 89bd a47a 38bd 7252 7abe 2800 58bd
00000010: ca42 903d 44e7 97bb b6ea 143e 60c4 943d
00000020: 648e 47be 6067 943d 4779 c73d 13c4 133e
00000030: 83b4 21bd 74ff 22be b5ca c93c 1264 a83d
00000040: 8d5a e6bd 6617 e83c d5a2 1fbd e7ca e0bd
00000050: b369 d2ba cddf c9bc 4ec2 a43d d773 d3bc
00000060: bc26 8dbc 4d4f 383e 4018 40be 4a39 5dbd
00000070: 8151 27be a85b e3bd cf56 933c 1886 833d
00000080: e14a 883d 710c af3d 51fa d6bd 6819 45bd
00000090: 2c4b 393d 7a8e 6fbd ded7 383e ef77 143e
000000a0: 325a 79bb 3ce0 383e 4594 0f3e 7a04 fa3d
000000b0: 8691 92bd 2a9a 7dbd c308 123e aa70 053a
000000c0: 83dc 89bc 916d be3d 2d11 1cbe 0399 ca3a
000000d0: 1d0b 27be 0600 1c3e 05ae e53d 2ab0 bbbd
000000e0: 2ee3 2dbe 2af9 ee3c 73c8 753d b0b3 853d
000000f0: db55 bb3d 207c 6f3e 7b9b 02bd 8b7d e53d
00000100: c7ab dabd 37a3 05bd 6afd 7ebe 3289 9d3a
00000110: 751c b93d f497 f4bd 34b8 83bd 9d4e 8f3d
00000120: 12a7 b8bd 89e3 f7bc 8732 d93d 7066 c13d
00000130: 4185 133d 4109 983d c82a 66be e1ce 2a3d
00000140: cf24 a33d 5066 363e d41e bd3d b41b d33d
00000150: 0186 97bd 76ba 843d 6a48 2abe 9388 bf3d
00000160: 58f9 5e3d af4e f8bd 08ac 99bd 6e2e f23d
00000170: d484 4cbe 9aa2 113e bb35 f5bd 7d78 ddbc
00000180: bed0 13be f1b8 c13c 8894 18be e04a d9bd
00000190: 4963 0b3d 55f0 e73d 7c42 dd3d f333 273e
000001a0: 10bc 403e 5a97 98bd 2698 ec3d 82f2 ae3d
000001b0: eb14 cd3c f3ef 723e 5864 683d 843c cb3c
000001c0: 77f5 afbc 7c4a 063e 7ab6 ecbd dc5b 57bd
000001d0: 9ff8 8e3c 860f 073c bd10 7b3d 8687 bfbd
000001e0: dd33 233d 2729 e0bc 893a 8d3d a237 99ba
000001f0: 93aa d4bd 7d8b a03d e6b9 b2bb 7258 043e
00000200: 0ede 17bd 883f a7bd b6fe f4bc f2fe c33d
00000210: 3eec 1bbd fb32 dbbc b207 78bd 19e7 75bd
00000220: 1afa 7e3d dfda ecbd 0924 dfbc 6c28 653b
00000230: 1f38 453e 89b0 a23d 5274 bd3c d7d0 093d
00000240: d888 883c b37f a63d 2278 69bd 3ba9 103e
00000250: 0b14 213e a192 dbbd e3c9 b5bd a65e 053e
00000260: be92 3b3e a592 c1bd a56e 42be f5de 11be
00000270: 6313 dd3d adce 6bbe eda1 eebd 819d 41bd
00000280: 197b 20be aef9 debd bc26 b4bd f833 b1bc
00000290: 2f3c d0bd 8b88 4f3d 3b7f 87bd 8a9f e1bd
000002a0: 380f 87bd a86d 0c3d ea09 743d d02f cbbc
000002b0: 45b2 a83d e0f1 103e c138 b43b fd71 f43d
000002c0: 1c76 b03a bd12 03be 58a1 5bbe af03 873d
000002d0: e82c e8bd d051 663d 7330 1bbe 1f8f 34be
000002e0: 5add 193e 0dd8 7fbc b4bc 493d 279b 583c
000002f0: e177 8dbd fb10 cbbc 57ee 25be 4bca cabd
00000300: 4731 a8bc 3b32 e03d 1495 0fbe 7011 dbbd
00000310: f1e1 bf3b 1398 21bb 310b 37bd af89 6abe
00000320: 3819 e7bc 9bc8 29bd bdce e2bc 89d3 0b3e
00000330: f5f7 52bd 5d7b c7bd 57d8 b03b 832c 23bd
00000340: 7cb6 443e 52aa 02bd 0b82 81bd 6469 bd3c
00000350: 6b81 00be 2780 3c3e 357d b73d 2114 baba
00000360: dec8 7ebd 2f99 423e bf93 27bd d5b0 ebbc
00000370: 4754 813e 7f05 6b3d 0b8e 8abb 15ac acbc
00000380: 568f e73d b567 143e d6f8 773d 5779 a3bb
00000390: 49bd 153d 1cb8 4abe 1c55 86bd ed04 15be
000003a0: cf52 21be 1226 013e 2304 6a3b a3bc 203d
000003b0: b9ca 113e d0de a33d b5b6 25be f808 8aba
000003c0: f4ae 353d afd9 563d 12dc 72bd 038c 12be
000003d0: 3d69 89bd 49bd d9bd 2c32 9e3d 5c5d 2ebc
000003e0: 4e40 e6bd 0b8e a6bd cf05 c5bd a468 febd
000003f0: 4fd5 813e e490 a3bd de49 4cbe b5cf aebd

bias f4 [8]
0.15135834 -0.13850339 -0.07170178 0.118109174 -0.0011920357 -0.011655948 0.116173945 -0.001391079
00000000: aefd 1a3e d5d3 0dbe 62d8 92bd 39e3 f13d
00000010: 153e 9cba 97f8 3ebc 9bec ed3d de54 b6ba

weight f4 [8]
0.99830407 0.971139 1.0259943 0.98271483 0.9601063 1.0622966 0.99169546 1.1163415
00000000: db90 7f3f 919c 783f c853 833f 3393 7b3f
00000010: 87c9 753f 56f9 873f c1df 7d3f 47e4 8e3f

bias f4 [8]
-0.10604883 0.002956577 -0.0064167124 0.02198397 -0.13619497 0.053091597 -0.017755847 0.032421883
00000000: 2130 d9bd 22c3 413b 4943 d2bb ba17 b43c
00000010: b276 0bbe 9376 593d b674 91bc cfcc 043d

running_mean f4 [8]
-0.0044382745 0.15018776 -0.18266895 0.30752409 -0.08516053 -0.29308107 0.07551831 -0.22931431
00000000: f26e 91bb d2ca 193e 920d 3bbe cc73 9d3e
00000010: a568 aebd b90e 96be 58a9 9a3d 5fd1 6abe

running_var f4 [8]
0.14497213 0.15627936 0.03327359 0.17204018 0.029753635 0.18218009 0.24243955 0.09782502
00000000: 9373 143e b207 203e e349 083d 4d2b 303e
00000010: e5bd f33c 6b8d 3a3e 1342 783e 7c58 c83d

weight f4 [4, 8, 2]
4.3811317e-05 0.18658611 0.16673566 -0.05839894 0.01707594 0.088656105 -0.157241 -0.13338171
-0.3011919 0.043423403 -0.09351727 0.29740983 -0.13294871 0.11439354 0.07437543 0.14910562
0.133543 -0.09397985 0.13425493 0.002026131 -0.16773894 0.18927142 -0.007106452 0.046883903
-0.22695838 0.15592828 0.056193136 -0.18751195 0.10741515 -0.20595035 -0.22147043 -0.1423598
0.19890308 -0.20313086 0.23492393 0.15497214 0.03656545 0.164972 0.22503933 -0.20203348
-0.06622866 -0.0688164 0.00434537 0.066099025 -0.06636387 0.08049741 0.0067874943 0.26995385
-0.02878485 -0.1672471 0.17474101 -0.067621484 0.048536 0.056837343 0.014958332 0.14307664
-0.036503647 -0.0011694736 0.07941762 0.39581534 -0.13488376 -0.19434825 0.014458005 -0.11180211
00000000: 0bc2 3738 6e10 3f3e c1bc 2a3e ba33 6fbd
00000010: d7e2 8b3c 5591 b53d c903 21be 3795 08be
00000020: d335 9abe bddc 313d fc85 bfbd 1a46 983e
00000030: b523 08be 2947 ea3d 2552 983d 25af 183e
00000040: 7fbf 083e 8278 c0bd 207a 093e d6c8 043b
00000050: c2c3 2bbe 5ed0 413e 3ddd e8bb 5609 403d
00000060: c767 68be aaab 1f3e c62a 663d 2203 40be
00000070: 79fc db3d a6e4 52be 25c9 62be c4c6 11be
00000080: 40ad 4b3e 8901 50be e68f 703e 04b1 1e3e
00000090: a7c5 153d 6cee 283e b670 663e dde1 4ebe
000000a0: e4a2 87bd 9def 8cbd 9b63 8e3b ed5e 873d
000000b0: c8e9 87bd d3db a43d a169 de3b 6437 8a3e
000000c0: 35ce ebbc d342 2bbe 4fef 323e 227d 8abd
000000d0: afcd 463d 46ce 683d cb13 753c af82 123e
000000e0: d984 15bd 0649 99ba b5a5 a23d 4fa8 ca3e
000000f0: f81e 0abe 3a03 47be 45e1 6c3c 81f8 e4bd

bias f4 [4]
-0.16516724 0.26028582 -0.0017401114 -0.04077198
00000000: 9a21 29be 2f44 853e 7314 e4ba 8500 27bd

weight f4 [4]
0.9227245 1.0150361 1.0274557 1.0776275
00000000: ac37 6c3f b4ec 813f ab83 833f b3ef 893f

bias f4 [4]
-0.14333741 -0.16755009 -0.08226434 0.04309207
00000000: 0bc7 12be 4092 2bbe 357a a8bd 4f81 303d

running_mean f4 [4]
-0.07178239 0.1353339 0.27319402 0.016094109
00000000: a502 93bd f894 0a3e 16e0 8b3e cbd7 833c

running_var f4 [4]
0.06305836 0.12956773 0.22771336 0.07055487
00000000: be24 813d 67ad 043e b12d 693e 127f 903d

weight f4 [1, 4, 2]
0.24791172 -0.12672786 -0.018195076 0.272915 -0.07826679 -0.21431471 0.09641533 -0.12993525
00000000: 92dc 7d3e f3c4 01be d70d 95bc 84bb 8b3e
00000010: 574a a0bd 5175 5bbe 6775 c53d bf0d 05be

weight f4 [16, 80]
0.018882321 0.0583611 0.032703012 0.05650021 0.062278856 -0.16465741 0.054416794 -0.25288728
-0.0017916964 -0.10001399 -0.08668069 0.080179594 -0.045441937 -0.023026748 0.16566618 0.022911679
0.048372637 -0.043705635 0.018329442 0.25739565 -0.019447878 0.1224822 0.098071456 -0.1096317
0.018398082 0.080710314 -0.20664035 0.112239026 -0.12004175 0.17185043 0.037180286 -0.13604552
0.06505638 0.050882846 0.113661565 0.26110774 0.0500122 0.042557895 -0.18159334 0.10824747
0.02138538 0.08330693 0.09894206 0.16449086 -0.009871239 -0.03798852 0.11871542 0.022459082
0.014595011 -0.042120714 0.08866403 -0.044788897 -0.007403541 -0.17211759 -0.024821818 0.1374257
0.14614172 -0.056748074 -0.04834006 0.10196754 -0.085398726 0.06641099 -0.02708374 -0.05003613
-0.023198256 -0.014464593 -0.045459248 -0.061893407 0.02561685 -0.13593055 -0.035866782 -0.08883039
0.07164771 0.033634968 -0.054414216 -0.10332915 0.09812176 -0.021889305 -0.041937694 -0.0916584
-0.0106416615 0.00068294554 0.055779964 -0.13218893 -0.09150198 0.20687447 -0.037897214 0.098245226
0.14487816 0.13561201 0.05297668 -0.025983078 0.08825076 -0.008833358 -0.03763828 -0.148411
-0.096103765 -0.042073954 -0.039361537 -0.07435456 -0.01907661 0.035826042 -0.03601425 0.12721679
-0.10043936 -0.02360554 0.23203915 -0.07712031 0.0961889 -0.028711492 -0.059599463 0.07154405
-0.14794017 -0.14795023 0.05224191 -0.26276115 -0.009720799 0.029897388 0.10421171 -0.01126711
-0.22060996 0.02942429 0.010017236 -0.13725862 -0.13216682 0.040736113 -0.018258693 0.10280596
0.047439504 0.048653994 0.06320142 0.017215705 -0.10280222 0.06263187 -0.024103502 -0.048200794
-0.060382582 0.042064615 -0.044524137 0.07241181 -0.027911384 -0.017840242 -0.034853585 -0.0021638267
-0.06999972 -0.081283145 -0.00052799046 0.056224268 0.037037164 0.10098129 0.04058854 0.047663197
0.07407019 -0.017816149 -0.024803719 0.067738906 0.11373237 -0.054729853 0.04469455 0.013777647
0.016598012 0.012789465 0.04350913 -0.0712124 0.019716406 0.21935385 0.12241526 0.20212787
0.041486774 -0.033578396 0.02646973 0.015461854 -0.0003845231 -0.0033230009 0.021014297 -0.043601822
0.023418631 -0.15096731 -0.08660025 -0.19721304 -0.03439284 0.062482882 -0.16893134 0.15769087
-0.12551858 -0.112285726 0.20329331 -0.0130739035 -0.060764294 -0.24679485 -0.1854599 0.048373755
-0.16642866 -0.099440955 -0.03062611 -0.11879593 -0.060101658 0.0950689 -0.016742937 0.03453424
-0.0071520284 0.031214163 0.04943389 -0.11586078 -0.09789292 -0.07575595 0.040741052 -0.0052041933
-0.05056533 0.010142483 -0.121064484 0.05608099 0.033357006 0.14607345 -0.03935846 0.024434943
-0.10006884 0.06947604 0.022629263 0.06692932 0.019182097 0.0043791533 0.03239234 -0.10301675
0.08710764 0.0029747132 -0.037933115 -0.12664677 0.15026195 -0.034610335 -0.10012235 -0.0036314758
0.012081643 -0.09866553 0.052846044 0.13164777 -0.04849671 0.14117126 0.108008124 0.07866015
-0.004615898 0.12573855 -0.001504807 -0.027563836 -0.04553012 -0.053294025 -0.09564608 -0.18162288
-0.028059823 0.03567512 0.017656403 0.05855829 0.014067066 0.12068713 -0.03390363 0.11807955
00000000: 19af 9a3c 0c0c 6f3d 98f3 053d c46c 673d
00000010: 1d18 7f3d f49b 28be 25e4 5e3d 717a 81be
00000020: 5bd7 eaba 23d4 ccbd a585 b1bd 3335 a43d
00000030: 5321 3abd 97a2 bcbc 65a4 293e 46b1 bb3c
00000040: 6322 463d ae04 33bd a027 963c 5dc9 833e
00000050: 2851 9fbc f3d7 fa3d b0d9 c83d 9686 e0bd
00000060: 93b7 963c 734b a53d 8799 53be 93dd e53d
00000070: 73d8 f5bd 8ff9 2f3e 5b4a 183d 844f 0bbe
00000080: 483c 853d 886a 503d 65c7 e83d eaaf 853e
00000090: 98d9 4c3d 3051 2e3d 9bf3 39be d9b0 dd3d
000000a0: 6430 af3c d39c aa3d 22a2 ca3d 4b70 283e
000000b0: faba 21bc da99 1bbd 1221 f33d 1cfc b73c
000000c0: ea1f 6f3c c586 2cbd 7d95 b53d 9074 37bd
000000d0: 6799 f2bb 983f 30be 2057 cbbc 53b9 0c3e
000000e0: 2da6 153e ab70 68bd 3a00 46bd 5cd4 d03d
000000f0: 87e5 aebd 7c02 883d b8de ddbc aff2 4cbd
00000100: 450a bebc e6fc 6cbc 7a33 3abd f183 7dbd
00000110: 6eda d13c 6131 0bbe 0ce9 12bd b5ec b5bd
00000120: 09bc 923d d2c4 093d 71e1 5ebd 3c9e d3bd
00000130: 10f4 c83d 3351 b3bc dcc6 2bbd 66b7 bbbd
00000140: 5d5a 2ebc b307 333a 8879 643d 895c 07be
00000150: 6465 bbbd e7d6 533e 1c3a 1bbd cb34 c93d
00000160: f15a 143e e0dd 0a3e 13fe 583d 77da d4bc
00000170: d1bc b43d cab9 10bc 992a 1abd 0ef9 17be
00000180: 0dd2 c4bd bd55 2cbd 9039 21bd 3447 98bd
00000190: 8d46 9cbc 54be 123d ae83 13bd 1e45 023e
000001a0: 27b3 cdbd 6860 c1bc ac9b 6d3e 41f1 9dbd
000001b0: b0fe c43d 5d34 ebbc 911e 74bd b085 923d
000001c0: a17d 17be 4480 17be 9dfb 553d a188 86be
000001d0: fc43 1fbc 5eeb f43c f36c d53d af99 38bc
000001e0: 94e7 61be 350b f13c 551f 243c 868d 0cbe
000001f0: bd56 07be e9da 263d 4193 95bc ee8b d23d
00000200: ed4f 423d 6949 473d bf6f 813d f307 8d3c
00000210: f889 d2bd 2345 803d b574 c5bc 326e 45bd
00000220: ba53 77bd f24b 2c3d f15e 36bd a54c 943d
00000230: 6aa6 e4bc b325 92bc a2c2 0ebd fdce 0dbb
00000240: 035c 8fbd c777 a6bd d768 0aba 6b4b 663d
00000250: 48b4 173d 47cf ce3d 2b40 263d 7c3a 433d
00000260: 1db2 973d 2cf3 91bc 2b31 cbbc b2ba 8a3d
00000270: 84ec e83d 692c 60bd a211 373d a4bb 613c
00000280: 8ef8 873c e78a 513c a136 323d cfd7 91bd
00000290: 4d84 a13c 4c9e 603e dab4 fa3d 9cfa 4e3e
000002a0: 09ee 293d 8089 09bd 0cd7 d83c b753 7d3c
000002b0: d199 c9b9 b4c6 59bb 2d26 ac3c d397 32bd
000002c0: 6ed8 bf3c 2d97 1abe 795b b1bd 37f2 49be
000002d0: 82df 0cbd 0dee 7f3d 56fc 2cbe b779 213e
000002e0: f187 00be 0ff6 e5bd 1f2c 503e ed33 56bc
000002f0: fbe3 78bd cab7 7cbe 33e9 3dbe 8f23 463d
00000300: 466c 2abe b3a7 cbbd 9ce3 fabc 484b f3bd
00000310: 282d 76bd 7cb3 c23d 7c28 89bc c673 0d3d
00000320: 905b eabb d8b4 ff3c 317b 4a3d 6b48 edbd
00000330: 157c c8bd ef25 9bbd 17e0 263d f087 aabb
00000340: 971d 4fbd a82c 263c a8f0 f7bd 2eb5 653d
00000350: 5ba1 083d 4794 153e 5636 21bd ca2b c83c
00000360: e4f0 ccbd 7449 8e3d 0161 b93c 3d12 893d
00000370: c623 9d3c 007f 8f3b d5ad 043d 72fa d2bd
00000380: 7e65 b23d 68f3 423b c15f 1bbd b1af 01be
00000390: 45de 193e 91c3 0dbd f20c cdbd 0efe 6dbb
000003a0: 15f2 453c 2711 cabd 1875 583d acce 063e
000003b0: 7ca4 46bd 338f 103e 5d33 dd3d 9318 a13d
000003c0: f540 97bb 9bc1 003e f23c c5ba 8ecd e1bc
000003d0: cb7d 3abd d64a 5abd 18e2 c3bd 59fb 39be
000003e0: b7dd e5bc 1320 123d 29a4 903c d1da 6f3d
000003f0: 8d79 663c d02a f73d 88de 0abd b1d3 f13d

bias f4 [16]
-0.041097563 -0.06482899 -0.050256167 -0.048242845 -0.010279771 0.0055974023 -0.07195099 -0.0808644
-0.025057212 -0.11941203 -0.062487572 0.061756607 -0.037905503 0.013374754 -0.10906211 -0.09565209
00000000: eb55 28bd 10c5 84bd 69d9 4dbd 4a9a 45bd
00000010: 7c6c 28bc 6a6a b73b 0a5b 93bd 3c9c a5bd
00000020: c844 cdbc 4b8e f4bd f8f2 7fbd 7ff4 7c3d
00000030: cd42 1bbd c921 5b3c f55b dfbd 3ee5 c3bd

weight f4 [2, 16]
0.1542117 -0.2387714 0.040227976 -0.06904879 -0.087376185 0.0377239 -0.32928556 0.3616658
0.34943736 0.34380963 0.10908504 0.3305133 -0.28523007 0.19072793 -0.0920123 0.29276547
-0.1947537 0.25100908 0.2536363 -0.21536048 0.30011037 -0.28425112 -0.095634185 -0.022086848
-0.2097239 -0.078257635 0.29810184 0.0472863 0.23264724 -0.14388521 -0.13347222 -0.06258689
00000000: ace9 1d3e 7d80 74be 17c6 243d 7469 8dbd
00000010: 49f2 b2bd 6084 1a3d 1e98 a8be 422c b93e
00000020: 74e9 b23e d107 b03e fa67 df3d 0a39 a93e
00000030: ad09 92be 2f4e 433e f270 bcbd 5be5 953e
00000040: 846d 47be 4384 803e 9edc 813e 7587 5cbe
00000050: 11a8 993e 5d89 91be dbdb c3bd 7aef b4bc
00000060: ddc1 56be 8a45 a0bd cea0 983e 48af 413d
00000070: 143b 6e3e a556 13be f1ac 08be 8e2d 80bd

bias f4 [2]
0.16186497 0.023421438
00000000: eebf 253e 51de bf3c
